checkpoint_dqn.pth (torch_old, 54660 bytes, 6 tensors)

hidden_layers.0.weight f4 [128, 37]
000000 bf 89 20 3d 4f 63 02 bd dc f2 05 bd a6 d9 42 3c
       0.039193865 -0.03183299 -0.032702312 0.011892712
000010 af 3d d8 bc 68 65 50 3d 9d 7b dd 3d e1 97 bd 3d
       -0.0263966 0.05087796 0.10814593 0.09257484
000020 aa 65 7c 3e cf 6e 80 3e f1 a4 47 3e fc de 1f bf
       0.24648157 0.2508454 0.19496514 -0.6244962
000030 40 ee b0 be e0 e3 fd be 49 00 dd bf 02 52 9c 3d
       -0.3455677 -0.49587917 -1.7265712 0.07632829
000040 8d d6 04 3b 6a ba 9e 3d a8 b7 bd 3d 54 96 14 bd
       0.0020269484 0.077503994 0.09263545 -0.036276177
000050 71 ea b9 3d 8d e2 57 3d c5 80 a5 3d 2f 63 91 3d
       0.09077919 0.05270629 0.080812015 0.07098996
000060 3c 1d 83 3d 5e 17 1b bd d0 ea 49 3c 01 f0 20 bd
       0.064020604 -0.03786408 0.01232405 -0.039291386
000070 d0 88 c1 3d 9b 04 cd 3c 4d 9c c6 ba 23 f0 94 bc
       0.09449923 0.02502661 -0.0015152782 -0.018180912
000080 e3 08 86 bd 44 86 ce bc 7b 23 b3 bd fb 98 ae 3c
       -0.06544664 -0.025210507 -0.08747002 0.021313181
000090 00 d6 66 3c 68 87 cf 3d 5e 13 e4 3d 25 b7 03 3e
       0.0140891075 0.101332486 0.111365065 0.12862833
0000a0 cd b5 02 3e 89 e4 26 3b 8a 5c dc 3d 3e 24 25 bf
       0.12764664 0.0025465807 0.10759838 -0.64508426
0000b0 c4 19 21 bf 58 23 48 bf 62 41 f9 bf 7d b7 5d 3d
       -0.6292994 -0.7817893 -1.9473078 0.054130066
0000c0 fa dc 95 3d 9b 3c 43 3d 6c 03 99 3d d4 56 2f 3c
       0.073175386 0.04766522 0.07471356 0.010701854
0000d0 82 ad a0 3d 57 21 64 3d d7 7b b9 3d 12 3b e4 3d
       0.07845594 0.055695858 0.09056824 0.11144079
0000e0 ef 95 e9 3b 65 00 81 bd df fb 53 bb d4 fd f6 bc
       0.007128469 -0.062989034 -0.0032346172 -0.030150332
0000f0 3f 8e 2e 3d 40 58 a2 3c 44 51 8d 3c c8 0f 80 3d
       0.042616125 0.019817472 0.017250665 0.0625301
000100 15 71 67 3d c1 25 bd 3d a2 cd d8 3d 28 51 09 3e
       0.056504328 0.092357166 0.10586096 0.13409865
000110 b9 46 22 3e 07 db 1e 3e 6e 34 37 3e cf e9 bb 3d
       0.15847291 0.1551324 0.17891094 0.09175455
000120 c3 09 31 bc 35 38 87 b9 fd e7 8b 3d bf 68 0d 3d
       -0.01080555 -0.00025791084 0.06831358 0.03452372
000130 5e a3 88 3c 80 f6 12 3c e8 c1 93 3c 6e 45 0c bf
       0.016679462 0.008969903 0.018036798 -0.5479344
000140 86 62 c8 3d 34 68 e2 3d 87 fe 3b 3d c6 f7 c4 3b
       0.09784417 0.110550314 0.045897033 0.006010982
000150 4c 27 65 3e 81 a2 3a bf 09 c3 26 bf 96 ac 5f bf
       0.22378272 -0.7290421 -0.6514135 -0.8737272
000160 f1 d0 12 c0 01 54 55 bd ac 5e 05 3e 9f 60 43 3d
       -2.2940028 -0.052082065 0.13024396 0.047699567
000170 ae bb f3 3d 29 aa 0b bd 56 b3 33 be a8 74 52 be
       0.119010314 -0.034097824 -0.1754888 -0.20552313
000180 ef c9 4b bd 11 21 37 be f9 07 3d 3e ea 12 26 be
       -0.049753126 -0.17883708 0.18460073 -0.16218153
000190 45 df 3e 3e 49 7a 1d 3e 7b c5 fe be 75 eb 19 bd
       0.18639858 0.1537868 -0.4976004 -0.037578065
0001a0 72 7a 2f be be c9 09 be b8 aa e4 bd d7 72 3d be
       -0.17136553 -0.13455865 -0.111653745 -0.18500839
0001b0 9e 45 73 3d 3f 2d a3 3d 59 66 05 3d 7c e4 fd 3d
       0.059392564 0.079676144 0.03256831 0.123970956
0001c0 1a 4a 8e bb f4 fe b0 3d e4 06 02 3e bd 3f df bc
       -0.0043423297 0.086423784 0.12697941 -0.027252072
0001d0 3d 32 c3 3c ee 03 cb be 42 c4 12 3e f5 44 2f 3e
       0.023827666 -0.39651436 0.14332679 0.17116149
0001e0 43 54 ec bf 41 a6 b3 3d ed c2 b6 bc 23 56 d7 bc
       -1.8463215 0.08771945 -0.022309745 -0.02628619
0001f0 27 57 fa bc 61 4b 7b 3d be a6 b6 3c 4f 19 0e bd
       -0.030559136 0.061351184 0.022296306 -0.034692105
000200 0a 83 bb bd b0 ba 00 be 5d a6 01 3b cc 02 93 3d
       -0.09155853 -0.12571216 0.0019782998 0.07178268
000210 a2 9e af 3d 4e 5d f0 3d d9 61 21 3c ae fb 66 3d
       0.08575179 0.117365465 0.009849989 0.056392364
000220 89 b7 e6 3d bd f6 c6 3c 90 a1 e1 3c 06 68 90 3d
       0.11265475 0.024287576 0.02754286 0.07051091
000230 26 76 b4 3d 30 00 04 3e ed 37 cd be 76 8a 07 bf
       0.088115975 0.12890697 -0.4008173 -0.5294565
000240 85 68 3b bf 63 37 db bf 54 10 92 bd 24 9d aa 3c
       -0.7320636 -1.7126278 -0.071320206 0.020826884
000250 a8 82 c5 3c dd 41 65 bd 9c 5c 1a be e4 67 b2 be
       0.024110153 -0.055971015 -0.1507439 -0.34844887
000260 0d 77 e8 3d 3b a0 ed bd d5 1e a7 3d c9 a1 c4 3c
       0.11350832 -0.11602827 0.081601776 0.024002926
000270 73 fc a3 3e a6 c0 99 3e b8 48 08 be e7 73 cb 3d
       0.3202854 0.30029792 -0.1330899 0.09934216
000280 12 61 80 3d c8 6d c1 be 59 3c 31 3d ed 39 ab bd
       0.06268515 -0.3777907 0.043270443 -0.08360658
000290 95 9a bc bd f0 da 55 bc 9c a1 aa bd e4 60 4c 3e
       -0.09209172 -0.013052687 -0.08331606 0.19958836
0002a0 61 d1 af bd 99 97 5f bd 7a 34 a4 3d b8 93 4a bc
       -0.08584858 -0.054587934 0.080178216 -0.01236432
0002b0 f7 06 45 3e b0 56 24 b7 34 29 20 be 86 04 8a 3d
       0.19240938 -9.795345e-06 -0.15640718 0.06739144
0002c0 bc 56 57 3e 6e a7 8f 3e aa eb b2 3c c8 90 55 bc
       0.2102918 0.28057426 0.021840889 -0.013035007
0002d0 45 87 52 3d f2 37 97 3d fa 71 92 3e a2 71 85 bb
       0.051398534 0.073837176 0.28602582 -0.004072384
0002e0 b1 79 86 be 5e 28 0c bc 6c 00 bb bc 8e 5b 66 bc
       -0.26264718 -0.008554546 -0.02282735 -0.014059914
0002f0 26 51 07 bd e6 19 4b bc e7 dd 0c 3e 69 cb 92 be
       -0.033036374 -0.012396311 0.13756524 -0.28670815
000300 1c 5e d4 be f1 09 04 bf 4f e0 57 c0 a9 28 f6 bc
       -0.4147805 -0.5157767 -3.3730657 -0.030048685
000310 36 57 91 bc fb a5 9c bd de 4a ab bd 7d bb 57 3c
       -0.01774178 -0.07648846 -0.08363889 0.013167259
000320 7b e5 1e bc 82 39 28 3d 66 66 08 3d 4f 0d a3 3c
       -0.009698267 0.04107047 0.03330078 0.019903807
000330 a3 aa c4 bc ca 36 a1 3d 2f 10 c7 3d 8e 16 b3 3d
       -0.024007147 0.07871778 0.09719884 0.08744536
000340 8d 7c 32 3e 62 50 c4 3d de 7d 53 3d 91 ff 07 3c
       0.17430325 0.09585644 0.05163371 0.008300678
000350 7b f5 09 3d 69 54 9e 3d a9 71 c7 3d e7 65 20 3d
       0.033681374 0.07730944 0.09738476 0.03915968
000360 2b 3e 23 3d 41 4c 55 3d 80 96 f5 3c 19 17 08 3d
       0.03985421 0.052074675 0.02997899 0.033225153
000370 55 69 d8 bc 33 c9 a8 3c 91 a2 0d 3e 68 44 1d 3e
       -0.026417414 0.020603752 0.13831545 0.15358126
000380 34 d0 98 3d 62 9b 84 bd d8 fa ac be 62 31 1b be
       0.074615866 -0.064749494 -0.3378513 -0.15155557
000390 8f cf e0 3c e5 71 a4 3d 91 40 21 3e 6a ab 7e 3e
       0.027442722 0.08029536 0.15747286 0.24870077
0003a0 6b 11 cf 3d 90 76 0a 3e 3f a2 e6 3d 52 76 b1 3d
       0.10110744 0.1352179 0.11261415 0.08665146
0003b0 d2 f0 2e 3c 51 94 d7 3d 32 91 88 bf 6f 29 4a bf
       0.010677533 0.10526336 -1.066931 -0.7896947
0003c0 02 6d 3a bf 98 3a 16 c0 a4 c8 17 bd c9 59 94 3d
       -0.7282258 -2.3473263 -0.03705658 0.07243688
0003d0 0d 17 6d 3c 19 41 96 3d 28 ec c2 3d 6c 42 b5 bd
       0.014470828 0.07336635 0.095176995 -0.088505596
0003e0 e7 31 4e bd 7c a8 96 bd 11 44 da 3d c1 fc 24 3e
       -0.05034056 -0.073563546 0.10657514 0.16112043
0003f0 40 42 17 bd e2 ea 34 3d 56 1e e1 3b a0 d9 bf 3d
       -0.036928415 0.044169314 0.0068700714 0.093676805

hidden_layers.0.bias f4 [128]
000000 5e b6 34 be bb 22 7d bd b2 32 d3 bd 9c 8f 2f be
       -0.17647693 -0.0618007 -0.10312404 -0.17144626
000010 c8 19 04 3e fd cb 36 be fb 3b 2d 3c 6b 19 b7 bc
       0.1290046 -0.17851253 0.0105733825 -0.022350987
000020 88 08 72 be 0b e3 15 be 1a 3a 5d be 58 d7 2f be
       -0.23636067 -0.14637391 -0.21604195 -0.17171991
000030 36 c9 1b be 61 eb 0a be 19 9d 69 be f9 04 31 be
       -0.15213475 -0.13566352 -0.22813834 -0.17287053
000040 61 cb a3 bd 8b 52 82 be 3e 90 54 be 13 21 97 bd
       -0.07997776 -0.254536 -0.20758149 -0.07379355
000050 9f 48 c1 bd 3b ee b5 3d c8 5a e7 bc 3a 7c f9 bd
       -0.094376795 0.088833295 -0.02824153 -0.121818975
000060 18 69 31 be 78 c2 32 bb 25 ae 65 3c 84 71 62 be
       -0.17325246 -0.0027276557 0.01401857 -0.22113615
000070 3a d2 3f be ea ac 7e be 11 e2 de bb ab 8a ff bc
       -0.18732539 -0.24870649 -0.0068018516 -0.031194052
000080 3d 9a 4d 3b 6a e4 a0 bd 56 41 ba bd 67 d1 61 be
       0.003137245 -0.078560665 -0.09094493 -0.22052537
000090 56 27 00 be 8c 74 a4 bd 09 e7 83 bd 7a 89 64 bd
       -0.12515005 -0.08030042 -0.06440551 -0.05579517
0000a0 f9 6c c6 bd d7 5a 9c 3d 91 2c 29 3d 73 83 ca bd
       -0.09688754 0.07634514 0.041302267 -0.09888353
0000b0 33 48 cc bd 31 7e 8b be 5e 93 2d bc 70 62 38 be
       -0.099747084 -0.27244714 -0.010594217 -0.18006301
0000c0 e7 bb 4f be ef 75 57 3b 5d f4 83 bd 86 a4 a7 bd
       -0.20286523 0.003287669 -0.06443093 -0.08185677
0000d0 90 a4 20 3d 3d e0 88 bd 8a 1d 94 3d f4 e4 93 bd
       0.03921944 -0.06683395 0.07232197 -0.07221404
0000e0 87 5a 42 be c4 fe e1 bd 26 c1 b1 bd c6 08 e3 bc
       -0.18979846 -0.11034921 -0.08679418 -0.027714144
0000f0 56 d4 f3 bd 91 91 c2 bd 80 69 19 3e f0 75 1b be
       -0.11905734 -0.09500421 0.14981651 -0.15181708
000100 35 63 f3 3c de 42 02 be 61 bb c9 3c a4 c5 87 bd
       0.029710392 -0.1272082 0.024625482 -0.06629494
000110 82 68 94 be 4a f2 1f be 5a d2 d7 bd 91 c2 a2 bc
       -0.28985983 -0.1561977 -0.10538168 -0.019868167
000120 12 ae dd 3d 91 4b b6 bd da 99 6b be b0 5d 43 be
       0.10824217 -0.08901132 -0.23007908 -0.19078708
000130 45 92 a3 3d 0b 6b 22 be a8 e8 60 bc eb 69 11 bd
       0.07986883 -0.15861146 -0.013727345 -0.035501402
000140 5a b6 1b be e1 09 c8 3c 39 23 cb bd d9 72 5b be
       -0.1520628 0.024418773 -0.099188276 -0.2143053
000150 00 5d da bc a0 dd b0 3d a0 ee f9 3d a6 37 07 be
       -0.026655674 0.086360216 0.12203717 -0.13204822
000160 a1 41 9f bd 53 09 d4 bd 1b dd 2b bd 95 dd 21 be
       -0.077761896 -0.10353341 -0.04195891 -0.15807183
000170 e2 c6 8c be 60 2e a3 be 90 5e 4f bd 76 34 4a 3b
       -0.27495486 -0.3187132 -0.05062729 0.0030854023
000180 a5 14 83 bd 53 44 8d be d2 c1 39 bd 5e e1 62 bd
       -0.06400422 -0.2759119 -0.045350857 -0.05539071
000190 50 d6 71 be 0d 93 85 be cf f4 77 bc 7d 60 98 3d
       -0.2361691 -0.26088753 -0.0151340505 0.07440279
0001a0 fa 36 a4 be 2a 7c 91 be f2 ed c9 bd 7f c4 69 3e
       -0.32073194 -0.28415042 -0.098598376 0.22828864
0001b0 7a 64 42 be 4d 90 1a be 81 45 1e 3e 5f 92 b9 bd
       -0.18983641 -0.15094109 0.15456201 -0.09061121
0001c0 04 d6 64 bc 93 cd 4b be 2e 6c 3a be 82 c2 15 3e
       -0.013967041 -0.19902639 -0.1820533 0.1462498
0001d0 c3 dc e4 bc 79 d4 86 bd 7a 62 e1 bd 85 58 9a bd
       -0.027937299 -0.06583495 -0.11005111 -0.07536415
0001e0 33 7f 33 be ed fc 33 bd 0a 4a d0 bb 25 97 f8 bd
       -0.17528991 -0.04394238 -0.0063564824 -0.121382035
0001f0 42 b4 07 be 8d 90 71 3d ce 9f b7 3c fa bd 04 be
       -0.13252357 0.058975745 0.022415068 -0.12963095

hidden_layers.1.weight f4 [64, 128]
000000 d1 c9 37 3b fb 98 70 bc 30 3b 79 3e ff c2 34 3d
       0.0028043876 -0.014684911 0.24338984 0.044131275
000010 b4 ac 2b bc 25 74 1c 3d 81 80 05 3c a2 22 4f bb
       -0.010478187 0.0381967 0.0081483135 -0.0031606336
000020 37 66 c0 3c 5d 24 f8 bc f8 51 9b bc df 13 1d 3c
       0.02348624 -0.030290777 -0.018959984 0.009587257
000030 b6 53 d2 be 89 aa 5f 3d 96 3b 2e be 66 4d 2b 3e
       -0.4107949 0.054605994 -0.17014918 0.16728744
000040 a1 b5 51 be a4 32 08 3e f1 7b 2e bd 13 75 66 bf
       -0.20479442 0.13300568 -0.04259867 -0.9002239
000050 d5 c7 0c 3c ea a2 63 3d f2 11 1a bc 3a 0f a4 bc
       0.008592566 0.05557529 -0.009403693 -0.020026792
000060 52 81 8a 3d ea 84 9e bb 6d b9 75 bc 44 3c 03 be
       0.06762947 -0.004837622 -0.014997822 -0.12815958
000070 65 52 ff bb c4 15 bd bd 51 f9 ea be 3b 33 10 3e
       -0.0077918046 -0.09232667 -0.45893338 0.14082043
000080 da 93 3e be 56 95 d9 bc 3d e4 0f bc a4 08 8a bd
       -0.18611088 -0.026560467 -0.008782444 -0.06739929
000090 50 6b 51 bc 3c a5 2f 3c cc 77 5e bd 7d 2e 62 bd
       -0.012781933 0.010720547 -0.054313466 -0.055220116
0000a0 f4 37 17 3d f7 92 74 be 52 a9 28 bc cb ed 00 3d
       0.036918595 -0.23884188 -0.010294275 0.031476777
0000b0 b3 51 a0 3c 03 50 79 bb 4d 6b ef bc fb b6 da bc
       0.019570207 -0.0038042075 -0.02922597 -0.02669858
0000c0 dc 88 b3 3d 96 5c 7d bd a7 89 23 3d 42 9c a5 bd
       0.08766338 -0.061855875 0.039926197 -0.080864444
0000d0 3b a0 8b be d3 41 16 3d 0d ca 08 bd 10 f9 53 3d
       -0.27270684 0.03668387 -0.033395816 0.051751196
0000e0 d1 1b bc 3c 27 de 28 bd a2 02 e8 bb 2a 32 b7 bd
       0.022962483 -0.041227486 -0.007080392 -0.08945115
0000f0 65 58 f4 be 46 5c 30 3d 70 53 a8 bd be 25 95 3d
       -0.4772369 0.04305675 -0.082190394 0.072825894
000100 01 13 c8 3d 18 76 72 3d e6 91 21 be 40 d4 92 be
       0.0976925 0.059194654 -0.15778312 -0.2867756
000110 b8 ea 67 3d 68 af 7b 3d 8d 92 4e 3c b3 34 89 be
       0.05662033 0.061446577 0.012608183 -0.2679802
000120 f6 fb 42 bd 8f ca 1d be ce 90 9e bd 80 0a 75 bd
       -0.04760357 -0.15409301 -0.07742463 -0.059824467
000130 8a 63 4e bf 35 a8 82 bd 34 6a c7 bc 98 e9 65 bc
       -0.80620635 -0.06379739 -0.024342634 -0.014032744
000140 47 e6 07 3d 31 54 de be 70 61 4d bf 72 52 e9 3b
       0.033178594 -0.43423608 -0.802268 0.007120424
000150 bb d4 de bd 34 9a f2 be 95 da 9e bd 4b 83 8e be
       -0.10880419 -0.47383273 -0.07756535 -0.27834544
000160 88 25 ab bb b1 57 88 3d 7a 9d ad bc 60 f6 de bc
       -0.00522298 0.06657351 -0.021193255 -0.02721709
000170 90 30 80 3e ae 52 81 bd 2b 50 a6 bd ae 73 38 3d
       0.2503705 -0.06314598 -0.081207596 0.045032196
000180 fd f7 22 3d 2d cb b4 bb 5c c1 80 be 5a 6a d6 3c
       0.03978728 -0.0055173845 -0.25147521 0.02617376
000190 d8 06 9f 3c 01 68 fd bc c1 20 20 3d ee 12 de 3d
       0.019412443 -0.030933382 0.039093737 0.10843454
0001a0 45 a2 fe bb d5 3b 8b 3d 10 5a 99 bd 43 78 19 bd
       -0.007770809 0.067985214 -0.07487881 -0.037468206
0001b0 59 73 3e be c4 f1 54 3b eb b6 3f bd ff 8f 10 be
       -0.18598689 0.0032492736 -0.046805304 -0.1411743
0001c0 bd 71 ec bd a1 9f 52 3d b4 0f 40 bd 19 a4 11 ba
       -0.11545131 0.051421765 -0.046889976 -0.00055557635
0001d0 71 ac fe b9 e3 6a 2b bf 6f a8 2d bc c2 03 98 be
       -0.00048575134 -0.6695997 -0.01059924 -0.29690367
0001e0 2d f3 58 3d aa 0b 29 be c3 e7 b6 bd 1c dc 88 be
       0.052966285 -0.16508356 -0.08930924 -0.2673043
0001f0 27 30 cb be 88 30 ba bd 8b 73 4b bf c2 29 41 bd
       -0.39685175 -0.09091288 -0.7947318 -0.047158964
000200 ff 75 81 bd e9 d9 92 3d 7a 8f 60 bc 8f 23 30 3d
       -0.06321334 0.07170469 -0.0137060825 0.04300266
000210 73 e6 28 bd 8a 85 93 3b 02 20 22 3e 9c 84 c0 bc
       -0.0412354 0.004502003 0.15832523 -0.023500733
000220 a3 8e 3c bd ef a7 3e 3e 0a da bd 3c 5c f3 c0 3c
       -0.046034466 0.18618749 0.023175258 0.023553543
000230 f4 d3 a7 be 28 d4 a5 bd 03 ad aa bd 54 64 fe bc
       -0.32778895 -0.08097106 -0.083337806 -0.0310537
000240 4e 75 2c be 42 91 09 be 89 43 49 3c 56 c6 a8 be
       -0.16841623 -0.13434318 0.012284168 -0.32963818
000250 ba 64 65 be 1c 0c fc bd 2e 26 8b 3d 98 1c 17 be
       -0.22401705 -0.12306997 0.067943916 -0.14757001
000260 e0 72 2c bd d3 01 8d 3d e0 b7 9a 3d da 84 5b 3d
       -0.04210174 0.068851136 0.075546026 0.053593494
000270 01 17 e8 bb 7e 4b d7 3b 10 6a 88 be d9 b0 59 3e
       -0.0070828204 0.0065702787 -0.2664342 0.21258868
000280 63 2f d9 ba 7e 90 80 3e 2b e8 a1 bc d4 34 17 be
       -0.0016569908 0.2511024 -0.019764027 -0.14766246
000290 f9 2d 05 3e e7 7f c3 3d 69 2f 9a 3d 1a 78 12 bd
       0.13005818 0.0954588 0.07528574 -0.03575907
0002a0 00 85 fa bd 37 be 2c bd 4e d5 58 3d 58 b4 09 3e
       -0.12232399 -0.04217359 0.0529378 0.13447702
0002b0 9e 5d 2f 3d d2 60 b2 be 9c 0d 12 3c 94 7c da 3d
       0.04281389 -0.34839493 0.008914378 0.10668293
0002c0 fd d0 f6 bd b6 81 b9 3d 40 71 f7 ba 72 2a 94 bd
       -0.1205158 0.090579435 -0.0018878356 -0.07234658
0002d0 48 85 d8 3a 96 48 9f 3d ae 0e 84 bc 49 fe b5 3d
       0.0016519213 0.077775165 -0.016120281 0.08886392
0002e0 1e f2 c6 bd bf c1 46 3e 6d d6 5d 3d 08 a6 c4 bd
       -0.09714149 0.19409846 0.05415957 -0.096019804
0002f0 e0 37 f8 bc cf fc 58 bc fa 49 fe bb ac e8 6f 3d
       -0.03030008 -0.013243868 -0.0077602835 0.058571503
000300 41 29 1b 3e a1 5d 2b 3e 89 86 37 bd ba c2 3c bc
       0.15152456 0.16734935 -0.044806037 -0.011521036
000310 a2 30 10 bd bb c4 8f bd 18 3a a4 3d 16 a5 5a bd
       -0.03520263 -0.07019945 0.08018893 -0.053380094
000320 ba 54 cb bb f1 a8 30 be 99 6c 17 bd 12 57 35 3d
       -0.0062051686 -0.17251946 -0.0369688 0.04427249
000330 40 18 84 be 7d 8c 9d bd c5 0d d6 3c ff e2 28 3e
       -0.2579975 -0.07692812 0.026129613 0.16492842
000340 29 9d 8b 3d cc a2 be bc de ca 27 be d0 e2 1f 3d
       0.06817085 -0.023270987 -0.16385981 0.039034665
000350 88 2b 0e bc 40 e0 c8 bd e3 9c e8 3c 50 bd 20 bd
       -0.008677371 -0.09808397 0.028395122 -0.039243042
000360 ef cb 15 3d 15 fb c4 3c af af 14 3d 69 28 5a be
       0.03657144 0.024045506 0.036300357 -0.21304478
000370 4b f1 6d 3e 62 b5 7b bd 3a 45 c5 bd 40 00 42 bd
       0.23236577 -0.061452277 -0.096323445 -0.04736352
000380 ea 9b d3 3d 10 2f 2a 3d 36 7c 8d be 78 15 44 3e
       0.103324726 0.04154879 -0.27633828 0.19148815
000390 ab d0 6f 3e 58 90 5a 3d ec 9e 8e bd eb c2 15 be
       0.23419444 0.053360313 -0.06963906 -0.14625137
0003a0 5b 3a 61 bc 80 3c 83 3d 88 cf 0f 3e d5 47 4a bc
       -0.013746823 0.06408024 0.1404401 -0.012346228
0003b0 7d 1b b6 bd 7d 65 2d bd ff 23 2a bd b5 a2 02 be
       -0.08891962 -0.042333115 -0.041538235 -0.1275738
0003c0 07 6c 17 ba 34 a5 8c 3e cb 21 48 3e 42 98 24 be
       -0.000577629 0.2746979 0.19544141 -0.16073707
0003d0 4d 75 9a bd 78 26 11 bf 56 14 ae 3d d7 7b 9c bd
       -0.075419046 -0.56699324 0.084999725 -0.07640808
0003e0 14 d2 e6 bc 2d b5 c1 bc 25 d9 02 bc ec da 81 bd
       -0.028176345 -0.023645962 -0.007986342 -0.06340584
0003f0 66 50 32 be d9 3b 89 bc ee 76 82 be e7 8c 74 bd
       -0.17413482 -0.01675217 -0.2548136 -0.059704687

hidden_layers.1.bias f4 [64]
000000 d1 44 ab 3e e4 f2 1f 3e 45 b1 e0 3d 8f 0c a9 3e
       0.3345094 0.15619999 0.109713115 0.33017394
000010 64 c4 3b 3e a5 78 90 3e 4f 7f 59 3e b0 80 8d bd
       0.18336636 0.28217044 0.2123997 -0.06909311
000020 85 55 67 3e 3d 2c 90 3e e1 8f be 3e ac 38 c7 3d
       0.22591217 0.2815875 0.37219146 0.09727606
000030 f7 b6 56 3e 19 4c 3d 3e 27 e1 fb 3d 1b 02 ba 3e
       0.20968233 0.1848606 0.12298804 0.3632973
000040 cd 30 bb 3e 67 85 ad 3e b5 ca 32 3e 5e f1 16 be
       0.3656067 0.3389084 0.17460139 -0.14740512
000050 50 4c a5 3e 65 1a dd 3e 49 90 ab 3e 28 d8 84 3e
       0.32284784 0.431842 0.33508518 0.25946164
000060 9a e9 09 be 98 d9 b2 3e 49 8f d7 3e 61 0b 08 3e
       -0.13468018 0.34931636 0.42101505 0.1328559
000070 2d 63 b0 3e c2 0b 09 3f b5 7d 94 3e 29 df 99 3e
       0.34450665 0.53533566 0.29002157 0.3005307
000080 03 e5 98 3e cd d4 e3 3e 5e 9e c4 3e 89 ad 9a 3e
       0.29862222 0.44498292 0.38402075 0.30210522
000090 4a f6 95 3e 85 7d fc bd a2 75 a6 3e cd fb 24 3e
       0.29289466 -0.123286285 0.32511622 0.1611168
0000a0 40 8a af 3e 9c 12 c3 3e 83 ba 10 be 56 0e da 3e
       0.34285164 0.38100135 -0.14133649 0.42589062
0000b0 8a 6a 6f 3e 3d eb 72 3e da 38 ef 3d 33 6c 78 3e
       0.23380485 0.23722549 0.116807655 0.24260025
0000c0 c9 49 54 3e c7 db f0 bd df 5c 78 3e d1 e9 d2 3e
       0.20731272 -0.11760669 0.24254178 0.41194013
0000d0 c6 c8 4a be f7 12 c4 3e e8 56 06 3e 38 f2 1d 3e
       -0.19803151 0.3829572 0.1311909 0.1542443
0000e0 33 2c 1f 3e c4 2d f8 3d 6b 93 80 3e 59 13 bd 3e
       0.15544204 0.12118104 0.2511247 0.36928824
0000f0 f8 88 e5 3d c5 93 fc 3d f6 f8 8c 3e a4 7a 09 3e
       0.11207765 0.12332872 0.27533692 0.1342569

output.weight f4 [4, 64]
000000 77 12 20 3d e9 e6 c4 3c 31 62 c2 3c ec 25 23 3d
       0.03908011 0.024035888 0.023728462 0.039831087
000010 3e 5a 33 bd 5a 05 22 bd 09 b6 0d 3d 0d a4 83 3b
       -0.043787234 -0.039555885 0.03459743 0.004017359
000020 bf a7 2b bd e2 5a 5e bd 99 ff 13 3d 17 b6 84 3c
       -0.041908022 -0.05428589 0.03613243 0.016200108
000030 3d 06 ca 3c 8f 23 0a 3d 69 e3 e3 3c ac c9 f5 3c
       0.024661178 0.033725318 0.027818399 0.030003391
000040 dc 32 1b bd 9e 98 30 bd 52 ee 02 3d 02 86 a4 bc
       -0.0378903 -0.043114297 0.03196556 -0.020083431
000050 c8 aa 34 3d 97 7c 91 3d af be 3c 3d f5 a9 e1 3c
       0.044108182 0.07103842 0.046080288 0.027546862
000060 23 7e 68 bc ad 8c 13 bd 1d 88 71 3d ce 77 bf 3c
       -0.01419023 -0.03602283 0.0589677 0.023372557
000070 12 d5 37 3d 6d 0f 7c bd fa db 48 bd 39 b0 15 3d
       0.044880934 -0.06153815 -0.04903791 0.036545012
000080 81 fa 22 bd fa 76 58 3d 6c 2c ac 3d 08 ba 31 bd
       -0.03978968 0.05284784 0.0840691 -0.043390304
000090 2d b7 45 bd 61 52 89 3c ec 9d 05 3d d3 a9 09 3d
       -0.048270393 0.016762914 0.03262131 0.033609223
0000a0 f0 93 30 3d f5 8e 48 3d 43 85 b6 bc 7c 2c 7e 3d
       0.043109834 0.04896446 -0.022280341 0.062054142
0000b0 ce c9 3f bd 7d 12 60 bd 54 69 f2 3c 69 df 3f bd
       -0.046823315 -0.05470513 0.02959124 -0.04684392
0000c0 c3 da f9 3c eb 16 26 bd 14 3d 46 bd 06 b4 40 3d
       0.030499822 -0.0405492 -0.048398092 0.047046684
0000d0 48 3a a9 bd 88 c2 83 3d b4 0c 97 3c bd d5 0d 3d
       -0.082630694 0.06433588 0.018438675 0.034627665
0000e0 49 b4 f0 3c e6 6d f0 3c 1e 42 04 3d 77 3d 2a 3d
       0.029382842 0.029349279 0.032289617 0.041562524
0000f0 04 83 d2 3c 59 15 b0 3c ad b3 ef 3c 97 e1 c2 3c
       0.025697239 0.021494554 0.02926048 0.02378921
000100 f2 48 9b 3d c3 b2 47 3d 67 94 03 3d 13 fd 8d 3d
       0.075822726 0.048754465 0.03212395 0.06933036
000110 82 19 28 3d 08 dd bc bb d7 b4 36 bc e5 e0 69 3c
       0.04103995 -0.0057636537 -0.011151514 0.01427481
000120 d8 f6 02 3d df 6e f7 bc 6e 14 36 3c ad f1 4b 3d
       0.03197369 -0.030204235 0.011113269 0.049791027
000130 11 71 46 3d fa bf 1f 3d 5e 3c 4d 3d b5 eb 46 3d
       0.048447672 0.039001442 0.0501064 0.04856463
000140 27 bc 73 bc e4 c0 04 bc 33 66 0d 3d af 92 d0 3c
       -0.014876402 -0.008102629 0.034521293 0.02546057
000150 77 da b3 3d 23 21 07 3d 4a 67 fe 3c 6f 59 0e 3d
       0.08781903 0.032990586 0.031055111 0.03475326
000160 89 fa 4f bd 2d 6d 19 bd 05 43 57 3d d6 a5 ee 3c
       -0.05077604 -0.037457634 0.05255415 0.029131811
000170 f3 a4 15 3d be c3 8b bc 8b e1 85 3c 87 d0 bc 3a
       0.03653426 -0.01706111 0.016342899 0.0014405408
000180 e8 b5 62 bb 84 77 53 3d d1 1c 35 3d 95 7b 17 bc
       -0.0034593288 0.05162765 0.044216935 -0.009245773
000190 ee 72 4a bc ba b0 96 38 85 2a 98 3d 2a 56 5c 3c
       -0.012356503 7.185475e-05 0.07429985 0.0134482775
0001a0 97 24 57 3d 29 a4 24 3d 3b d3 0e 3c a1 c0 26 3b
       0.05252513 0.040195618 0.008717353 0.0025444406
0001b0 58 ad 0a bd 63 7c ed 3b 21 fa 1c 3d 7a da 23 bc
       -0.03385672 0.007247494 0.03832448 -0.010000819
0001c0 0a a3 43 3d cf a0 f2 3b 24 b0 27 38 70 dc 35 3d
       0.047762908 0.007404424 3.9979946e-05 0.04439968
0001d0 50 6d 57 bd d9 c7 59 3d 10 08 51 3b 26 71 d3 3c
       -0.052594483 0.053169105 0.0031895675 0.02581079
0001e0 3b d7 dd 3b b5 d5 4c 3d fc 6a 80 3d 01 9c b6 3d
       0.0067700422 0.050008494 0.06270406 0.08916474
0001f0 81 d4 1e 3d 59 97 03 3d cf d5 a1 3c e9 af 29 bb
       0.03877688 0.03212676 0.019755272 -0.0025892204
000200 55 a5 f1 3c c2 22 0e 3d 34 e3 ed 3c 9f 1d e2 3c
       0.029497782 0.034701116 0.029039003 0.027602015
000210 d1 9e 97 3c 30 59 26 bd 7b c7 7f 3d 7b e6 db 3d
       0.018508347 -0.0406124 0.0624461 0.1073732
000220 ef 95 c9 3c 3e dc 27 bd 02 d6 c0 bc 44 9b 31 3d
       0.024607627 -0.040981524 -0.023539547 0.043360963
000230 9c f2 14 be 65 99 37 3d a7 ba 2c 3d 23 6c 15 bb
       -0.14545673 0.044824023 0.042170193 -0.002280005
000240 87 68 c6 bc 74 19 0c bd d8 3d 4c 3d f7 96 80 bc
       -0.024219764 -0.03420396 0.049863666 -0.015696986
000250 8c 81 26 3d 53 85 f7 3b c1 44 d4 3c e2 76 2f 3d
       0.04065089 0.0075537353 0.02591169 0.042837985
000260 e4 a2 2f 3d d3 fc 87 bc 32 ba 69 3b d2 a7 14 3d
       0.042879954 -0.016600048 0.003566396 0.03629286
000270 49 f9 6c 3b 8b 30 99 bc 55 85 2e bd 50 e3 9e 3d
       0.0036159328 -0.018699905 -0.042607624 0.077582
000280 e0 3b 08 bd 5d f9 b7 3a 1d 2c 0c 3c 63 4d 49 bd
       -0.033260226 0.0014036108 0.008555439 -0.049146067
000290 5f 56 17 bd 50 72 dc 3c ed 2e f5 3c a5 7d 35 3d
       -0.036947604 0.026909977 0.029929603 0.044309277
0002a0 9d 7f dd 3c da a0 bf 3c 4d 2a 7d bc 60 df da 3c
       0.02703839 0.02339213 -0.01545198 0.026717842
0002b0 a2 3f 57 bd bb d2 25 bd 39 28 b2 3c 2e 37 ae 3c
       -0.05255092 -0.04048417 0.021747695 0.021266546
0002c0 fb 7a 5b 3d f1 13 e3 bc 13 6e 17 bd 9e 9a 40 3d
       0.05358408 -0.02771947 -0.03697021 0.047022454
0002d0 e2 19 de bc e9 a5 50 3d 20 02 f9 3c 8b 9f 14 3d
       -0.027111951 0.050939474 0.030396521 0.036284965
0002e0 79 51 28 3d c3 08 11 3d ff c3 9a 3c 1f 4f a0 bb
       0.041093323 0.035408746 0.018892286 -0.0048922445
0002f0 22 a4 41 3d fa 0b 33 3d db ac 09 3d 83 32 25 3d
       0.04727567 0.043712594 0.033612113 0.040331375
000300 aa 95 be 3c 04 2e 1a 3d b3 f4 d7 3c 2a 4f 78 3a
       0.023264725 0.03764154 0.026361799 0.00094722456
000310 ca 89 59 3c 45 ed d0 bc 98 42 0d 3d 61 87 7b bc
       0.01327748 -0.025503764 0.034487337 -0.015352101
000320 89 35 35 bd 9e 81 28 bd 65 06 a8 3c da ac d9 3c
       -0.04424051 -0.041139238 0.020510862 0.02657168
000330 b6 9c f9 3c 56 6d 3c 3d ab c8 cf 3c 10 e7 00 3d
       0.030470233 0.04600271 0.02536424 0.03147036
000340 23 e4 0b bd cc 1a d3 bc f5 1f 15 3d d8 1c 89 3d
       -0.034153115 -0.025769614 0.03640743 0.06694955
000350 90 bf df 3c 32 54 56 3d ec 6f 37 3c 1c 89 3f 3d
       0.027313024 0.05232639 0.011196118 0.046761617
000360 96 cc 97 3c 83 1b 09 bd 97 8c 47 3d 22 06 24 3d
       0.018530171 -0.033473503 0.04871806 0.04004491
000370 e8 4e ea ba 22 40 25 bd 79 b0 03 bd 4a f0 de 3c
       -0.0017876299 -0.040344365 -0.03215072 0.027214188
000380 5a e5 c9 bc 96 2b 0e 3d 8e b5 a8 3d 2f 71 3d bd
       -0.024645496 0.034709536 0.08237754 -0.04625052
000390 41 7b f5 bc 0f 54 8b bc 5d 10 57 bc 07 57 b2 3c
       -0.029965999 -0.017007856 -0.01312646 0.021770013
0003a0 35 f7 b8 3c f3 54 0a 3d 7a 30 1c bd 85 bb 02 3d
       0.022578815 0.03377242 -0.03813217 0.031917114
0003b0 fe c1 81 3c a9 e5 6a 3c ae 6f 47 3d 3f bb 1d bd
       0.015839573 0.014336982 0.04869049 -0.03850865
0003c0 44 31 c9 3c 32 de a7 3d 7b 73 a2 3c f9 08 d4 3c
       0.024559624 0.08196677 0.019830456 0.025883185
0003d0 86 29 57 3d 99 3b 1e 3d 57 e2 17 3d d2 52 45 3d
       0.052529834 0.038631056 0.03708109 0.048174687
0003e0 3b aa df 3c bb 3c 10 3d 71 3a f3 3c 09 2e 80 3b
       0.027302852 0.035214167 0.029690953 0.003911738
0003f0 b7 2f 38 3d 50 a2 16 3d 07 b9 86 3b d2 8d 26 3d
       0.04496738 0.036775887 0.0041114124 0.040662594

output.bias f4 [4]
000000 06 9a 5e 40 dc ca 4f 40 31 02 59 40 34 6a 58 40
       3.4781508 3.2467566 3.3907588 3.3814821
