experiments/navigate_1311_18Oct22082445.pth (torch_old, 54660 bytes, 6 tensors)

hidden_layers.0.weight f4 [128, 37]
000000 6a 4b c6 bd df 34 e4 bb c7 f6 2b be 34 8a a9 bd
       -0.09682353 -0.0069643105 -0.16793357 -0.08278313
000010 cf 22 3e be 88 59 0f 3c 2b 16 fc bd c0 6e 00 3e
       -0.18567966 0.008749373 -0.12308916 0.12542248
000020 e3 c7 6a bd e1 1a 0e bc 72 b2 9f bd 02 c7 3a be
       -0.057319533 -0.008673401 -0.077977076 -0.18239978
000030 d8 d8 36 be fe 93 d4 bd dc e4 33 be 76 85 05 bd
       -0.17856157 -0.1037979 -0.17567772 -0.03259798
000040 7a b8 33 bd 48 dd 9e 3d 14 c3 10 be 07 5f 11 be
       -0.043877102 0.0775705 -0.14136916 -0.14196406
000050 3a 9d 27 bc 05 63 c6 3d 77 ae 76 bd fb 3e 8e 3d
       -0.010230357 0.09686855 -0.060224976 0.06945606
000060 f4 fe db bd 72 f0 41 bd 2e d1 b6 3c 34 3d 32 be
       -0.10741988 -0.047348447 0.022316542 -0.1740616
000070 86 04 6c bd bf 6a 04 be 32 bc b6 bd 45 24 8e 3d
       -0.0576215 -0.12931345 -0.08922614 0.069405116
000080 f2 06 04 be 66 3a e8 bd 49 c1 39 be 4b 54 77 bd
       -0.12893274 -0.113392636 -0.18140139 -0.060383122
000090 02 ae 2b 3c b5 c6 8f 3d a2 b9 e1 3d 58 55 b9 3d
       0.010478498 0.07020322 0.11021735 0.09049481
0000a0 d8 8f 98 3d c1 4f 36 bd c1 86 e5 3d e1 97 d6 be
       0.07449311 -0.044509653 0.11207343 -0.4191275
0000b0 d2 11 f9 be b1 bf b3 be 96 8a ce bf 12 d5 06 3d
       -0.48646408 -0.35107186 -1.6136043 0.032918043
0000c0 d8 62 ed 3c 38 75 11 bc 69 88 a4 3c 90 a6 5e 3d
       0.028977796 -0.008878045 0.020084577 0.054358065
0000d0 80 43 38 3d eb b6 c9 3c 73 84 33 3d f9 b0 de 3c
       0.044986248 0.024623355 0.043827485 0.027183997
0000e0 f1 1d dc 3b a0 c7 ae bd 2e 44 f7 bd 75 92 a1 bd
       0.0067174365 -0.08534169 -0.12073551 -0.078892626
0000f0 1d dd 90 bd 0d 32 56 3d f9 b3 58 3b f1 56 81 3b
       -0.07073424 0.052293826 0.0033066256 0.003947132
000100 9e e5 a2 bc dc 2a 10 bd 68 0e 81 bc a0 3e 3a 3d
       -0.01988488 -0.035197124 -0.01575394 0.04546988
000110 d2 5c d8 3d 2f 67 72 3d 3e 99 85 3c 52 f6 d9 bd
       0.10564579 0.059180435 0.016308423 -0.10642685
000120 52 76 c6 bb 6c dd 84 b9 43 21 cc 3d 0f 52 14 3e
       -0.0060565853 -0.00025341974 0.09967282 0.14484428
000130 45 6e 0c bd 3a 01 50 bd 68 c9 f2 3c d1 13 ca bd
       -0.03428485 -0.05078242 0.029637054 -0.09867061
000140 f7 ca 88 be 1d e8 09 3e 45 8a f4 3d 24 0e ef bd
       -0.2671735 0.1346745 0.11940435 -0.11672619
000150 e1 a6 a6 bd 7a ea 90 3d 83 4b 0f be ef 15 6e 3d
       -0.081372984 0.07075973 -0.13993649 0.058126386
000160 88 3c 58 3e 12 00 10 be 21 18 91 bd 00 a2 09 3e
       0.21116841 -0.14062527 -0.0708468 0.13440704
000170 5b b0 8b 3e 8f 4b 9c 3d 3f bc 82 be 67 40 0b be
       0.27282986 0.07631599 -0.25534245 -0.13598786
000180 a3 81 1c bc 7d bc 03 3e cc d3 c0 bb 26 54 31 be
       -0.009552392 0.12864871 -0.005884623 -0.17317256
000190 cd 00 57 3d 49 18 59 3e 4a f8 aa bd c5 37 42 bd
       0.052490998 0.2120067 -0.08348139 -0.047416467
0001a0 ab d4 01 be 29 d4 5f be b8 8c 2f 3d 10 a7 3c be
       -0.12678783 -0.21858276 0.04285881 -0.18423104
0001b0 77 06 93 3d 97 37 be ba 9a 1e 52 bd 70 75 cf 39
       0.071789674 -0.0014512417 -0.051298715 0.00039569614
0001c0 62 76 f8 3d 91 c1 af 3d 56 5b 72 3d a3 51 d2 bd
       0.12131955 0.08581842 0.059169136 -0.10269477
0001d0 82 17 b7 bd 87 8a de bb fd 67 6b bd a9 77 b9 3d
       -0.08940031 -0.006791416 -0.057472218 0.090560265
0001e0 f8 14 aa 3e f0 60 16 be 7e e8 5d 3d 9a 3f 5a 3c
       0.33219123 -0.14685416 0.0541768 0.013320828
0001f0 dd fc e5 bd d6 23 eb bd ac d3 05 be 35 e5 f1 bd
       -0.112298705 -0.114814445 -0.13069028 -0.11811296
000200 69 86 e5 bd 4c a1 96 bc fe 52 0c 3e 80 59 8b bd
       -0.11207277 -0.01838746 0.13703534 -0.0680418
000210 24 46 3b bd 4f f9 54 bc a0 e1 af 3d 48 39 1d 3e
       -0.04572119 -0.012998893 0.085879564 0.15353882
000220 84 a7 48 bd a9 6e 2d be 88 de 81 3c 46 f1 49 3e
       -0.04898788 -0.16936745 0.015853181 0.19720945
000230 0b 0b f3 3e 2c e1 a4 bc 24 b8 4e 3c 04 b1 4c 3d
       0.47469363 -0.020126902 0.012617145 0.049973503
000240 51 b9 46 3e a4 97 80 3e a2 76 8f bb b5 75 67 bc
       0.1940663 0.25115693 -0.004378156 -0.014127185
000250 58 d8 16 be 9c 66 73 be 75 e4 c2 bd a7 d9 91 be
       -0.14730966 -0.23769611 -0.09516231 -0.28486368
000260 8e 6c 2e be 72 d0 9c be 5a 5e de 3d 6a 77 6b 3e
       -0.17033598 -0.3062778 0.1085784 0.22994772
000270 f0 ea 45 3e 0d 80 e6 be 92 ea 8d bd 28 17 a3 3c
       0.19327903 -0.4501957 -0.06929506 0.019908503
000280 d1 f7 9a bd f6 a3 15 be 8d 7a 29 bd 34 e5 84 be
       -0.075667985 -0.14613327 -0.04137664 -0.25956118
000290 00 4d 1c bd 04 f4 89 3d 66 d3 bb be 6b 71 35 bd
       -0.03815937 0.067359954 -0.36684722 -0.044297617
0002a0 48 27 80 be 47 7e 86 3d 90 0d b4 3d 9a 96 62 bc
       -0.2502997 0.06567054 0.08791649 -0.0138298515
0002b0 b2 39 ad bd 9b 46 38 be cb 66 b7 bd 96 54 91 3e
       -0.0845827 -0.17995684 -0.08955153 0.28384846
0002c0 79 f8 ba bd 7e 4e fd be 5b 52 11 3c fa 3f 0a be
       -0.09129424 -0.49473947 0.008869733 -0.13500968
0002d0 52 42 c5 3d 33 d8 11 be 9b a4 06 bd 5b f6 4a 3d
       0.0963179 -0.1424263 -0.032871824 0.04955135
0002e0 5a 63 70 bb b4 35 e7 bc 91 cc 3d 3b 50 ee b2 3c
       -0.0036680312 -0.02822385 0.0028961042 0.021842152
0002f0 13 08 fb 3c 33 c0 5d 3d c8 8b 58 3e da d6 90 be
       0.030643499 0.054138374 0.21147072 -0.2828892
000300 31 b3 a3 be e8 27 9f be e9 fe d4 bf b2 b1 3f bd
       -0.3197265 -0.31085134 -1.6640292 -0.046800323
000310 9a 73 ec bc cb 33 5e bd 07 29 53 bd 33 84 b6 bc
       -0.028863717 -0.054248612 -0.0515528 -0.022279834
000320 fd 86 97 bc 70 ff 99 3c 2f db 6f 3c b2 b4 e1 bc
       -0.018496985 0.01879856 0.01463966 -0.027551983
000330 02 5e 3a bd ff d9 b6 3d dc cc ed 3c 3c 7d c8 3d
       -0.04549981 0.08928298 0.029028349 0.097895116
000340 ef 1d 07 3e 3c c0 b1 3d 96 fc 81 3c 67 b4 b2 3c
       0.13195013 0.08679244 0.015867513 0.021814538
000350 ce 0b a1 3d cc 4c 1d 3a bb 62 b4 3d 10 6b 1a bc
       0.0786358 0.00060005183 0.08807894 -0.00942494
000360 19 06 37 3d 09 20 36 3d 83 26 94 3d c2 9b 17 bc
       0.04468355 0.044464145 0.07233908 -0.009253444
000370 25 e5 72 3b 06 23 7c 3b 11 c5 dc bb 32 67 3c bc
       0.003706285 0.0038473024 -0.0067373593 -0.011499213
000380 10 37 ff bc 26 45 01 bd 2f 15 40 bd 93 fc d3 bd
       -0.031154186 -0.031560086 -0.046895202 -0.10350909
000390 f3 00 17 bd 6a 45 df 3a ae 2b 8e 3d cf 04 51 3e
       -0.03686614 0.0017034237 0.06941925 0.2041199
0003a0 1d d6 99 3c 14 49 50 3d ec 3f 4e 3d de 0e aa 3d
       0.018778855 0.050850943 0.05035393 0.08303617
0003b0 6d b7 5d 3d 05 d9 a0 bd e9 4f 4f bd 11 0b 2a bd
       0.054130007 -0.07853893 -0.050613318 -0.04151446
0003c0 4b 7d 18 3b 79 f3 4e 3d 83 47 2b bd 16 73 da 3a
       0.002326804 0.050525162 -0.041816246 0.0016666378
0003d0 09 1b aa bb e6 a3 d3 bc 7a 0b 82 3c 35 00 ef bd
       -0.005191211 -0.025834989 0.015874613 -0.11669961
0003e0 58 5f b1 bd e4 5c 62 bd e7 5a af bd e4 0c bb 3d
       -0.086607635 -0.05526437 -0.0856226 0.09133318
0003f0 ad 5c 68 3e 61 18 02 bf f6 8f d4 be 65 4a c3 be
       0.22691603 -0.5081845 -0.41516083 -0.38142696

hidden_layers.0.bias f4 [128]
000000 c1 8b d4 bd 7c 61 50 3d 9e 4d 17 be 54 08 2e be
       -0.103782184 0.05087422 -0.14775702 -0.16995364
000010 bf e8 bc bd 87 7b 8f bd 94 db 7b 3d f9 ad d4 3c
       -0.0922408 -0.07005983 0.061488703 0.025961863
000020 fc d0 17 be 13 1b a8 bb c5 68 11 be 16 db e5 bd
       -0.14825815 -0.0051301806 -0.14200123 -0.11223428
000030 7b 1f 1b be 20 c3 a6 bd 0e 24 0a be ca 63 30 3c
       -0.15148728 -0.08142686 -0.13490316 0.010765979
000040 b1 23 78 bd 7a 4e 0f bd 8b 7b 1d be 48 50 ea bd
       -0.060580913 -0.03498695 -0.15379159 -0.11441094
000050 ea 2b 4d be 1b 7a d0 bc 70 e1 69 3c ae 77 87 bd
       -0.20036283 -0.02544885 0.01427494 -0.06614624
000060 cd eb 71 bd 2f 8e bc 3b 5c 53 8b 3d bf b5 15 be
       -0.059062768 0.0057542543 0.06803009 -0.14620112
000070 f3 ed e4 bd d9 7e 1c be 99 9b f7 3b 3b b1 22 3d
       -0.11178198 -0.15282764 0.0075563905 0.0397198
000080 19 8b d2 bd 2b 9a 0d be a4 ab a8 bd ad cb 5f be
       -0.10280437 -0.13828342 -0.08235863 -0.2185504
000090 32 43 05 be 1f 17 ff ba 23 5e ce bd e8 c2 83 bd
       -0.13013914 -0.0019461847 -0.10076549 -0.0643366
0000a0 77 1f ed bc 49 98 cb 3c cd 23 1b 3e e0 2b a8 bc
       -0.028945668 0.024852889 0.15150376 -0.020528734
0000b0 7c 1f ad bd f9 65 25 be 5b d6 8a 3d 76 8d 49 be
       -0.08453271 -0.1615218 0.06779166 -0.1968287
0000c0 de 3a 82 be 1c 50 ae 3c ce 89 12 3c d8 17 dd bd
       -0.25435537 0.021278434 0.008943988 -0.107955635
0000d0 be 5e 54 bc 81 12 9d 3c 3b a8 fa bc 06 d7 77 bd
       -0.012962041 0.019173862 -0.030597797 -0.060507797
0000e0 ea 07 34 be 94 15 82 bd 96 9f b0 3c 91 a4 c6 bd
       -0.17581144 -0.06351772 0.021560472 -0.09699357
0000f0 8b 55 4b be dc b1 ee bc 62 93 39 3c 24 35 0d be
       -0.19856851 -0.029137544 0.011326643 -0.13789803
000100 6f f6 d5 3c 40 71 8b 3d 8b a6 98 bd 05 61 01 be
       0.026118485 0.0680871 -0.074536406 -0.12634666
000110 f9 f8 6c be 18 fa b5 bd 16 fa d9 bc 15 92 01 be
       -0.2314185 -0.08885592 -0.026608508 -0.12653382
000120 89 fa 19 bd 1d 67 05 be 29 d7 dc bd 87 d3 fb bd
       -0.037592445 -0.13027616 -0.10783226 -0.12296205
000130 33 65 22 3c 2f dd 28 be 95 82 4e 3d f6 04 74 3d
       0.009911823 -0.16490625 0.0504175 0.059575044
000140 b8 0f 9c bd 67 30 0e 3b 54 42 e1 3a 3d 5e fd bd
       -0.076201856 0.002169633 0.0017185905 -0.1237149
000150 ad 01 eb bd 0c 8b e9 3c 34 a8 cd 3c 8a 66 b1 bd
       -0.11474929 0.028508686 0.02510462 -0.08662136
000160 29 3d 01 39 80 03 7a bc 4f c2 bf 3d 57 28 89 bd
       0.00012325183 -0.0152596235 0.09363233 -0.06697147
000170 1f 9f 1a be e1 98 7d be 95 21 e0 bd 51 29 36 3d
       -0.15099762 -0.2476535 -0.10943905 0.044472996
000180 3c af e5 bd 12 55 9d be db 90 11 be ee 21 05 3d
       -0.11215064 -0.30728966 -0.14215414 0.03250306
000190 42 1b ec bd 69 96 87 be c6 c5 dc bb b6 74 87 3d
       -0.115286365 -0.2648194 -0.0067374436 0.06614058
0001a0 9b 5e 69 be 12 05 31 be 75 4b 20 bd df ff 1c 3e
       -0.22789995 -0.1728709 -0.03913446 0.15331982
0001b0 2f 32 81 be ea 8d 0d be 8f 24 e0 ba 18 58 1b bd
       -0.252336 -0.13823667 -0.0017100739 -0.03792581
0001c0 06 0f fa bd 4f ce 79 bd 63 44 25 bc 7d 02 2b 3d
       -0.12209897 -0.060987767 -0.010087105 0.04175042
0001d0 30 d8 9f 3c 1b 56 4b 3c 70 e9 03 bd 92 34 b4 bd
       0.019512266 0.012410666 -0.032205045 -0.087990895
0001e0 d3 b8 b4 bd aa d7 7a 3d d8 d7 0a be a7 12 96 be
       -0.08824315 0.06124083 -0.135589 -0.29311106
0001f0 1b 51 c8 bd d8 8e e7 3c d3 67 2e 3e 66 fb 09 be
       -0.09781095 0.028266355 0.17031793 -0.13474807

hidden_layers.1.weight f4 [64, 128]
000000 92 29 97 bd 1e 41 4b bc 9d 07 89 3d 21 93 00 3e
       -0.07380976 -0.012405662 0.06690905 0.12556125
000010 2e 0f bd 3d 89 7d 05 bc 59 7c 93 bd c1 a1 30 bd
       0.09231411 -0.008147606 -0.07201452 -0.04312301
000020 d9 7b aa 3c 82 14 db 3c b5 f9 10 3d 75 9c a0 3d
       0.020811008 0.026743177 0.03539439 0.07842342
000030 2c 5f 82 be 5f a1 a1 bd a7 38 05 3d b4 ba bb bd
       -0.25463235 -0.07892107 0.03252473 -0.0916647
000040 96 7b d6 bc 65 d4 05 3b 6b a6 1b be 50 7d 72 bd
       -0.026181977 0.0020420786 -0.15200202 -0.05920154
000050 e2 c9 16 bb fc 2e b1 3d 10 7d 64 3d 4c fc cd bd
       -0.0023008515 0.0865154 0.05578333 -0.100578874
000060 73 1b ed 3d 1f 79 0e 3e d2 43 74 bd 58 59 4b bc
       0.11577501 0.13913392 -0.05963499 -0.012411438
000070 ee a3 e9 bc ca f0 ae 3d 3a 80 a7 be 8d 32 7d bc
       -0.02852055 0.085420206 -0.32715017 -0.015453947
000080 cb 33 a0 be 63 5b 87 bd e1 d7 e4 be 9f 1d dc bd
       -0.31289515 -0.066092275 -0.44695953 -0.10747837
000090 17 93 ed bc 4a bb b6 bc 7c 00 5f 3d f2 9c 6c bd
       -0.029000802 -0.022306103 0.05444382 -0.057766862
0000a0 d0 20 a7 bd 75 6f 99 be 24 25 6c 3c 1a 46 55 3d
       -0.08160555 -0.29967847 0.014413152 0.052068807
0000b0 4c fd 41 be c6 41 a7 bc 52 0a 2e bd b7 6d 9e bd
       -0.18944281 -0.020417105 -0.04249031 -0.0773577
0000c0 cf d9 19 be 43 1c 21 bd 71 a6 bc bd 98 56 05 be
       -0.15024494 -0.039333593 -0.09211434 -0.13021314
0000d0 8e 9a 6b be 03 84 3a bd 64 73 7d bc 50 0d 8f bd
       -0.23008177 -0.045536052 -0.015469406 -0.06984961
0000e0 3d 17 e5 3d 57 da 49 be 7b b4 c6 bc c6 9b 1c bd
       0.11186073 -0.19712196 -0.024255982 -0.038234495
0000f0 70 0d d7 bd 9d 63 e0 bd 1b d1 8e bd 64 49 58 be
       -0.1050061 -0.109565 -0.069734775 -0.21121746
000100 41 4f 8b bd db 6d 61 3d cf 48 70 3d ed a7 11 be
       -0.06802226 0.055036407 0.058663186 -0.14224215
000110 0e 40 2f be dc dc 74 3d 69 8b 06 3e f8 82 54 be
       -0.17114279 0.05978094 0.13139118 -0.20753086
000120 d6 46 05 be e8 4a 0d be b2 6c 96 3c 19 90 1c be
       -0.13015303 -0.13798106 0.018362377 -0.15289344
000130 29 94 96 be b7 f1 fc bd e6 20 be bb 18 bd 24 3c
       -0.29409912 -0.12350791 -0.0058022616 0.010054849
000140 6c 9b d9 3c a4 ca 6b be 4f f4 a3 be 44 ca 0b 3d
       0.026563369 -0.2302652 -0.3202233 0.034128442
000150 13 b9 c1 bd d3 a9 84 be 95 a8 93 be 5d fe 1c be
       -0.09459128 -0.25910816 -0.28839555 -0.15331407
000160 1c fd 38 bd 96 c8 91 3d ca 96 d7 3d 33 fe ab bd
       -0.04516326 0.07118337 0.105268076 -0.08398094
000170 4c 3b b9 bd 3e 41 d8 bd a5 21 af 3d c1 37 70 3d
       -0.09044513 -0.10559319 0.08551339 0.05864692
000180 fe db 79 be 53 89 34 3d 9e cb 6a bd 60 d2 f3 bd
       -0.24400327 0.044076275 -0.05732309 -0.1190536
000190 74 e8 63 3d 94 d1 1c be 80 0e 1f be 6d 25 a1 bc
       0.055641606 -0.15314323 -0.15532875 -0.019671166
0001a0 5e 28 a8 bd d7 4c ef 3b 34 36 f0 39 90 d1 31 bc
       -0.082108244 0.007302861 0.00045816752 -0.010853186
0001b0 d2 ae 6d be db f9 41 bd 5d e1 2a be 41 0a 1a 3d
       -0.2321122 -0.04735742 -0.16687532 0.037607435
0001c0 7b 9a b1 bc c7 7a eb 3c 68 ab 30 3b ce 99 39 be
       -0.021680107 0.028745068 0.0026957635 -0.18125078
0001d0 d9 5f 5d 3d f0 84 43 3c 18 55 c9 39 11 c4 87 be
       0.054046486 0.01193355 0.00038401107 -0.26516774
0001e0 ba db 76 3d 14 90 64 bd 49 09 80 3d e4 a0 e7 bc
       0.06026814 -0.055801466 0.06251771 -0.02827496
0001f0 7a ed 29 bd 9e f2 b1 3b a5 19 15 bd 9f a0 db bd
       -0.04148624 0.0054305336 -0.03640141 -0.107239954
000200 90 84 a4 3c 34 9e 11 3d 5e 9f b2 3c 0b 50 09 be
       0.020082742 0.035551265 0.021804508 -0.1340944
000210 66 ff 0a be ac cb fa 3c e9 d0 f6 3d e3 ed 7a bc
       -0.1357399 0.030614696 0.12051565 -0.015315506
000220 1f bb 4d 3d 47 9a b6 3c b7 bf 01 3d f5 3a 5a 3d
       0.05022728 0.022290362 0.031676974 0.053278882
000230 c7 ee 6d be e2 04 d0 3d d6 2f 37 bd 8c f5 23 be
       -0.23235618 0.10157181 -0.044723354 -0.16011637
000240 61 96 10 bd b2 5e 79 3b 4d 19 bc bd ff 16 04 be
       -0.035299663 0.0038050828 -0.09184513 -0.12899397
000250 09 b3 3f be e8 c4 10 bd 6c 1e fb bc ab a5 ac 3d
       -0.1872064 -0.035344034 -0.030654155 0.08430036
000260 09 24 ce 3c ed 55 a6 3d 9e c2 13 3d 66 62 ea 3d
       0.025163667 0.08121858 0.036074273 0.11444549
000270 25 21 2a bc 5a 90 26 bc 8f d8 85 be 13 3b 80 be
       -0.010383879 -0.010166252 -0.26141784 -0.2504507
000280 fd fa 54 bd 19 b7 23 bd e7 14 b5 bc 28 cb 5f bc
       -0.051997174 -0.039969537 -0.022104694 -0.013659276
000290 36 4a 4d 3d d9 e2 05 3d 55 87 85 bc b5 17 59 bb
       0.0501196 0.032687042 -0.016299883 -0.0033125703
0002a0 02 c3 07 3c bd 57 6e bd 1f bb 2d 3c 45 06 cf 3c
       0.00828624 -0.058189142 0.010603695 0.025271544
0002b0 a4 06 15 be f1 cd 6b be 8b 07 35 bc 74 c7 0b 3e
       -0.14553314 -0.23027779 -0.011049162 0.13650304
0002c0 07 4d 36 be 55 c4 ba 3d d9 04 3a 3d 36 77 e1 bd
       -0.17802821 0.091194786 0.04541478 -0.11009066
0002d0 65 17 c7 bd 83 7c dc 3c 2a f5 42 be ea 62 d6 bd
       -0.09721259 0.02691484 -0.19038835 -0.10468085
0002e0 31 b9 1f be 5c 65 ab bc ad e0 7b 3d db e0 b2 bd
       -0.15597989 -0.020922355 0.061493564 -0.08734294
0002f0 ed 46 2c be ad 3c ea bd a2 10 46 be 84 41 70 bd
       -0.16823931 -0.11437354 -0.19342282 -0.05865623
000300 48 1c 65 be 19 8c 50 3e b0 eb 84 3d 06 5a 3c bd
       -0.2237407 0.20365943 0.06490266 -0.04598429
000310 ad a5 74 bd a2 74 7f 3d 8b c4 45 3d 8c c4 95 bc
       -0.059728313 0.06236709 0.04828314 -0.018282197
000320 03 ec 1e be 24 16 64 be 0e e4 14 3d 2d fc 39 3e
       -0.15519719 -0.22274071 0.036350302 0.18162604
000330 ae 43 bd bd 10 e2 b7 bd 32 37 82 3c db b5 05 3d
       -0.092414245 -0.08978665 0.01589546 0.032644134
000340 d2 01 b0 3c 01 fb 9b bc 09 32 eb bc 44 94 04 3d
       0.021485243 -0.019040586 -0.028710382 0.03236796
000350 93 a4 23 3d 03 25 92 be cc 1d f3 bd 0e 88 ea bc
       0.039951872 -0.28543863 -0.11870918 -0.028629329
000360 3f b0 7f 3d 5f 97 07 3d 5e 5e 87 3d b8 2b 36 bd
       0.06242394 0.033103343 0.06609796 -0.044475287
000370 43 37 5e bc fd e5 0e be 5f fc ae bd 1d 64 9e 3d
       -0.01356298 -0.13954921 -0.0854423 0.07733939
000380 20 fd 88 bd db 3a da bc 6a 41 d2 bd 7c 25 39 be
       -0.06688905 -0.026639393 -0.10266383 -0.18080705
000390 9e 5a 31 3d c6 52 8e bd 20 13 94 bd 9e 42 eb 3d
       0.04329931 -0.069493815 -0.0723021 0.114873156
0003a0 c7 85 a2 3b d2 ee c8 3c a5 90 9a 3d 3b 21 27 3c
       0.004959795 0.02452794 0.0754712 0.010200794
0003b0 4c b9 71 be 69 e8 dd bd ea 91 a9 bd dc 7e 1c be
       -0.23605841 -0.10835344 -0.08279784 -0.15282768
0003c0 a5 f1 5f bd 2a 07 a6 3d 20 20 b1 bd e7 c5 04 be
       -0.05467381 0.08106835 -0.086487055 -0.12966119
0003d0 61 b8 dd 3c b5 84 e8 3d 86 11 96 3d e1 cc 6a be
       0.027065458 0.11353437 0.07327561 -0.22929718
0003e0 0e 1d f7 3d fa ef 11 3d 2f e7 57 3d f6 e1 26 bd
       0.120660886 0.03562925 0.05271071 -0.040742837
0003f0 95 bb 52 3d 6c 6a b2 3c 12 eb b4 bd 83 07 21 bd
       0.051448423 0.021779262 -0.088338986 -0.039313804

hidden_layers.1.bias f4 [64]
000000 9b f5 80 3e 87 3c 61 3e b4 f4 44 3e 5f 40 54 3e
       0.25187382 0.21995746 0.19233972 0.2072768
000010 bd c6 8d 3e 97 b4 f8 bd a0 6a 10 3e 74 f1 d0 3d
       0.27690688 -0.1214382 0.14103174 0.102023035
000020 0f 8e a3 3d 3d 73 99 3d 1e 16 73 3e 1d c5 f9 3d
       0.0798608 0.07492683 0.23738906 0.121957995
000030 7c 7b 62 3e 0d 27 f1 3d 8d 99 cf 3d 81 6f bb 3d
       0.22117418 0.117750265 0.10136709 0.09152127
000040 aa 08 88 bd b4 89 4d 3e f9 22 15 be fa e8 4f 3e
       -0.066422775 0.20072061 -0.14564122 0.20303717
000050 bd 8c e7 3d 92 ab 76 3e 0d 34 68 3e 25 65 48 3e
       0.113061406 0.24088886 0.22676106 0.19569834
000060 e8 16 05 3e 92 7d 3a 3e 86 e7 65 3e 61 c1 71 3e
       0.1299702 0.18211964 0.224516 0.23608924
000070 31 11 79 3e 68 b8 32 3e dd 20 da 3d fc 2a 6c 3e
       0.24322964 0.17453158 0.106507994 0.23063272
000080 06 61 0d be cf 5a 87 3e 10 86 7d 3e ef 79 c3 3d
       -0.13806543 0.2643647 0.24758172 0.09544741
000090 42 63 17 3e 6f ac 55 3e 63 0e d5 3d 8c 5a 31 3e
       0.14783958 0.2086656 0.10403135 0.17319697
0000a0 57 90 62 3e 1c 8a cf 3d dd 03 44 3e 82 8a 71 3e
       0.22125374 0.10133764 0.19142099 0.23587993
0000b0 fc e6 2d 3e 0f ba 1a 3e bf 22 7e 3e 46 64 05 3e
       0.16982645 0.15110038 0.24817942 0.13026533
0000c0 ab 8b 05 3e fe 59 26 be 79 3c de 3d 40 8c f2 3d
       0.1304156 -0.16245267 0.10851378 0.11843157
0000d0 4b 53 14 be a5 e2 22 3e a8 5e 76 3e 59 30 1d 3e
       -0.14484899 0.1590677 0.24059546 0.15350474
0000e0 29 60 4a 3e ef e7 72 3e 1c 7a 81 3e d2 b5 4e 3e
       0.19763245 0.23721288 0.25288475 0.20186546
0000f0 fa e6 d7 3d 80 16 cf 3d 98 f6 d5 3d d8 64 01 3e
       0.10542102 0.101117134 0.10447425 0.12636125

output.weight f4 [4, 64]
000000 c9 09 7a 3d a2 7b 69 3d bf 83 8a bd 03 c2 d8 3d
       0.061044488 0.05700267 -0.0676341 0.1058388
000010 28 52 67 3d bc 2d 2d bd 1c dd 02 3d 06 ad d3 bd
       0.056474835 -0.042279944 0.031949148 -0.10335736
000020 9f ae 0d 3d 68 48 53 bd 04 b8 9c 3d 4c c1 20 3d
       0.03459036 -0.051582724 0.07652286 0.039246842
000030 9b fd 90 3d a1 59 2c 3d b9 b3 1c 3d 17 78 7f bd
       0.070796214 0.042077664 0.038257334 -0.062370386
000040 76 7d 5a be 73 aa 95 3d d9 e4 b4 3b 53 74 82 3d
       -0.21336922 0.07307901 0.005520445 0.06369843
000050 a0 80 75 bd 46 78 d7 3d 84 85 8d 3d e0 b8 84 3d
       -0.05993712 0.10520987 0.06910232 0.064805746
000060 f5 af b3 bd 28 f4 18 3d 40 cf 5e 3d e4 c0 6b 3d
       -0.087737955 0.03734222 0.054396868 0.057557
000070 23 bd 4b 3d f4 fb 4c 3d 2b 8b bc bd ca 86 72 3d
       0.04974092 0.05004497 -0.09206232 0.059210576
000080 fe 80 77 3d 3a d7 90 3d 4f 3a 8c 3d ca c6 a7 bd
       0.06042575 0.07072301 0.06847059 -0.08192213
000090 1e 44 f1 bd 4c 04 20 3d a0 68 8e bd 56 a8 2d 3d
       -0.117805704 0.039066598 -0.069535494 0.042396866
0000a0 51 d5 8f 3d 1f fd b4 bd 0e 2e 6b 3d 4a 76 68 3d
       0.07023109 -0.088373415 0.057416968 0.056753434
0000b0 4f 64 30 3d d5 18 21 3d 63 63 99 3d fd aa 08 3d
       0.04306441 0.039330322 0.0748966 0.033366192
0000c0 7a d3 0a 3d cc c9 fb ba 95 a6 8e bd 4e 1a ef 3c
       0.033893086 -0.001920992 -0.06965367 0.029187348
0000d0 30 55 c1 bd 3f d2 52 3d 71 c8 87 3d c3 74 fd 3c
       -0.09440076 0.051470038 0.06630028 0.030939465
0000e0 e9 60 85 3d 5f 77 17 3d f2 f6 5f 3d db 2f 44 3d
       0.06512625 0.036979076 0.054678865 0.0478972
0000f0 24 03 00 3d 2a ea fb 3c f9 38 34 3d 90 a9 2d 3d
       0.031252995 0.030751307 0.043999646 0.042398036
000100 24 7a 6e 3d 2e a3 73 3d 7f fb 59 bd 24 3d db 3d
       0.05822195 0.059481792 -0.05321836 0.10705021
000110 87 26 39 3d 9f ba 1c bb 1a d3 fc 3c f7 19 c8 bb
       0.04520276 -0.0023914946 0.03086238 -0.006106611
000120 53 45 55 3c d1 f1 67 3b c1 46 8c 3d 04 97 18 3d
       0.013017016 0.0035391937 0.06849433 0.037253395
000130 dc f7 ad 3d 35 ff fe 3c e0 1d 21 3d 21 9b a9 3b
       0.08494541 0.031127552 0.03933513 0.0051759635
000140 3d 77 67 bd bd 32 8f 3d 1a 7d 5a 3d 0f ee 8a 3d
       -0.0565102 0.069920994 0.053341962 0.06783687
000150 60 4e a6 3c f0 4e 10 3e 24 94 8b 3d fb a0 a1 3d
       0.020301044 0.14092612 0.06815365 0.07892033
000160 0b 7d 31 bd 60 ea 65 3d 17 d3 77 3d c6 94 91 3d
       -0.04333214 0.05613172 0.060504045 0.071084544
000170 9b 2a 8d 3d 54 bb 13 3d 37 6c b5 bb 18 eb 20 3d
       0.06892892 0.036067322 -0.005536582 0.039286703
000180 de b4 a8 3a e2 75 90 3d b4 00 80 3d 72 bd 70 3b
       0.0012871285 0.07053734 0.06250134 0.0036734012
000190 a7 54 28 bd 82 d8 26 3d 55 b0 c6 3c 0a 08 7c 3d
       -0.041096356 0.04073382 0.024254004 0.061531104
0001a0 60 5a 57 3d f6 af a4 3b c2 ed 2a 3d 84 c5 78 3d
       0.052576423 0.005025859 0.04173065 0.06073524
0001b0 a2 97 0a 3d 04 be 58 3d 72 47 a2 3d 7a aa 18 3d
       0.033836015 0.052915588 0.07923783 0.037271954
0001c0 3b 0a ee 3c 57 9f 8b bc 69 14 c5 bc 35 80 23 3d
       0.029057613 -0.017043753 -0.024057584 0.03991719
0001d0 6c 59 6f bd bd 2b 24 3d 1a ae 65 3d 69 84 16 3d
       -0.05843489 0.040080775 0.05607424 0.03674737
0001e0 8d a7 9c 3d c9 6c 3d 3d 7a f7 87 3d 35 ee 4c 3d
       0.07649145 0.046246324 0.06638999 0.05003186
0001f0 23 33 c7 3c 53 d8 d3 3c ed 1c e3 3c d0 4b 46 3d
       0.024316376 0.025859987 0.027723754 0.048412144
000200 92 66 c7 3c 37 ce 48 3d 40 30 ba bd 26 00 d8 3d
       0.024340902 0.049024787 -0.09091234 0.10546903
000210 5b 01 0c 3c 0b fd 54 3d 38 8c ab 3d df ea 5c bd
       0.008545245 0.051999133 0.08376354 -0.053934928
000220 b3 ba 5d 3d 54 74 bc bc 9d f6 6e 3c 0d 11 85 3d
       0.05413313 -0.023004688 0.014585164 0.06497393
000230 72 98 74 3b 6d f9 03 3d 1e 57 7d 3d 09 f2 cc bc
       0.003732231 0.032220293 0.06185066 -0.025017755
000240 af 89 93 bd 23 70 5c 3c 15 92 8d 3d ec a5 36 bc
       -0.072039954 0.01345447 0.069126286 -0.011147957
000250 33 9a 62 bd e7 f8 fe 3d b6 63 00 3d 73 ba 96 3d
       -0.055322837 0.12449818 0.03134509 0.07359781
000260 47 a6 38 bd be 59 6d 3d 5d 39 5a 3c ba 5d 97 bb
       -0.04508045 0.057946913 0.013319341 -0.0046193274
000270 db 8a 91 3d 05 8e 5e bd 44 95 7c bd 3b 14 23 3c
       0.07106563 -0.05433466 -0.06166579 0.009953554
000280 61 d7 25 3c b0 d8 8d 3c 3c a7 90 bc 51 13 2c bd
       0.010122151 0.017315239 -0.017657869 -0.04201061
000290 f2 94 87 bd be 81 41 3d 07 02 bc 3c 22 c6 54 3d
       -0.06620206 0.047242872 0.022950185 0.051946767
0002a0 c7 83 b6 3d 9c 8f 4e bd 2e 19 86 3a 4c 87 32 3c
       0.08911853 -0.050429925 0.0010230893 0.010896515
0002b0 d4 b9 8e 3d bc 92 c7 3d 2d 60 73 3b de 15 62 3d
       0.06969038 0.09744784 0.0037136183 0.055196635
0002c0 ff e3 5f 3d a4 cd 8e 3d ef d4 a9 3d 48 65 74 3d
       0.054660793 0.069728166 0.08292567 0.0596669
0002d0 4e 07 9f bc 09 66 c6 3b 6f 30 72 3d 08 3f 6c 3d
       -0.019412663 0.006054644 0.05912822 0.0576773
0002e0 4f fe 95 3d 17 cb 74 3d 5c 0e 2c 3c 5b c2 84 3d
       0.07323896 0.059763994 0.01050147 0.06482383
0002f0 0e 23 b1 3d 37 b4 98 3d 81 cb 50 3d bf 8c 83 3d
       0.08649264 0.07456248 0.050975326 0.064233296
000300 d6 b6 48 3d 6f 5f 3e 3c 43 53 c7 bd ce 28 bf 3d
       0.04900249 0.011619433 -0.09732678 0.09333955
000310 df 54 16 3a bb 1d f8 3b 80 7b 94 3d b7 cb 40 bd
       0.00057346927 0.0075719035 0.07250118 -0.047069278
000320 ae 3e 84 3d d1 ad 53 bc b3 fc 93 bc 57 e4 4b 3d
       0.06457268 -0.012919859 -0.018064832 0.04977831
000330 86 d3 f1 3c 8a 1c 85 3d 41 6a 87 3d 11 7e 83 bc
       0.029519808 0.06499584 0.06612063 -0.016051324
000340 38 f1 29 be dc d7 86 3c d2 f0 c3 bb a3 4d c1 3c
       -0.16595924 0.016460352 -0.0059796358 0.02359659
000350 67 56 a1 3d cc 20 71 3d ee 0d 00 3d 72 e7 6f 3d
       0.07877808 0.05886917 0.031263284 0.058570333
000360 47 f6 0f bd b3 b9 2f 3d 5c 06 9c 3c a6 75 17 3c
       -0.035146978 0.042901706 0.019046001 0.009244358
000370 b0 bb 81 3d 8d a1 93 3d c5 ef 04 bd ba 1b 35 3d
       0.06334627 0.07208548 -0.032455225 0.044215895
000380 a2 ad d0 bc dc 2d 00 bd 2c 32 35 3a 5d 1f 3d 3a
       -0.02547342 -0.031293735 0.0006912078 0.00072144513
000390 0a 44 77 bd 48 22 88 3c fd ad 18 bd ff 86 16 3d
       -0.06036762 0.01661791 -0.037275303 0.036749836
0003a0 1e 85 53 3d fa bb 5f bd c1 22 6e 3d 9a 56 b0 3c
       0.051640622 -0.054622628 0.058138613 0.02152567
0003b0 f6 3b 9c bc cc 64 14 be 17 ef 39 3c 18 8a 68 3d
       -0.01907156 -0.14491576 0.011348507 0.05677232
0003c0 4e e1 b0 3d 37 8f 91 3d 30 eb 8c bd b7 bd 91 3d
       0.086367235 0.07107394 -0.06880796 0.07116263
0003d0 1e bc 8c 3d 4e c3 7a 3d 07 10 a0 3c 71 e1 82 3d
       0.06871818 0.061221413 0.019538892 0.06390656
0003e0 07 4f a5 3d 09 7e f4 3c 56 72 fc 3c b5 79 df bb
       0.08071714 0.029845254 0.030816238 -0.0068199285
0003f0 51 39 47 3d 76 a0 85 3d d0 1b 74 3d 02 3d 50 3d
       0.048638646 0.06524746 0.059596837 0.05083943

output.bias f4 [4]
000000 3f 4a 9f 3f b0 cf 8b 3f 2e be 95 3f 4d a4 94 3f
       1.2444533 1.0922756 1.1698663 1.1612641
