experiments/navigate_136_18Oct22082644.pth (torch_old, 54660 bytes, 6 tensors)

hidden_layers.0.weight f4 [128, 37]
0	0xbdc64b6a	-0.09682353
1	0xbbe434df	-0.0069643105
2	0xbe2bf6c7	-0.16793357
3	0xbda98a34	-0.08278313
4	0xbe3e22cf	-0.18567966
5	0x3c0f5988	0.008749373
6	0xbdfc162b	-0.12308916
7	0x3e006ec0	0.12542248
8	0xbd6ac7e3	-0.057319533
9	0xbc0e1ae1	-0.008673401
10	0xbd9fb272	-0.077977076
11	0xbe3ac702	-0.18239978
12	0xbe36d8d8	-0.17856157
13	0xbdd493fe	-0.1037979
14	0xbe33e4dc	-0.17567772
15	0xbd058576	-0.03259798
16	0xbd33b87a	-0.043877102
17	0x3d9edd48	0.0775705
18	0xbe10c314	-0.14136916
19	0xbe115f07	-0.14196406
20	0xbc279d3a	-0.010230357
21	0x3dc66305	0.09686855
22	0xbd76ae77	-0.060224976
23	0x3d8e3efb	0.06945606
24	0xbddbfef4	-0.10741988
25	0xbd41f072	-0.047348447
26	0x3cb6d12e	0.022316542
27	0xbe323d34	-0.1740616
28	0xbd6c0486	-0.0576215
29	0xbe046abf	-0.12931345
30	0xbdb6bc32	-0.08922614
31	0x3d8e2445	0.069405116
32	0xbe0406f2	-0.12893274
33	0xbde83a66	-0.113392636
34	0xbe39c149	-0.18140139
35	0xbd77544b	-0.060383122
36	0x3c2bae02	0.010478498
37	0x3d4bc6b5	0.04975005
38	0x3de10cba	0.109887555
39	0x3dc9e3eb	0.09857925
40	0x3d4907f6	0.049079858
41	0xbd4bbbe3	-0.04973973
42	0x3dc0b50d	0.09409533
43	0xbed697e1	-0.4191275
44	0xbef911d2	-0.48646408
45	0xbeb3bfb1	-0.35107186
46	0xbfdfd974	-1.7488236
47	0xbbc8c8e6	-0.0061274646
48	0x3c407e70	0.011748895
49	0x3c0fffa7	0.00878898
50	0x3d2f8d97	0.04285964
51	0x3d0c12f5	0.034197766
52	0x3d304137	0.043030944
53	0x3bcddaeb	0.0062822006
54	0x3d015568	0.03157559
55	0x3ccb871d	0.0248447
56	0xbc1e6875	-0.009668459
57	0xbd8cf54a	-0.06882723
58	0xbe042307	-0.12903987
59	0xbdf5f69f	-0.1200993
60	0xbda39925	-0.079881944
61	0x3d0db401	0.034595493
62	0xbce731db	-0.028222015
63	0x3bf4f1d2	0.0074751163
64	0x3c7df2e8	0.015499808
65	0xbd162acd	-0.03666191
66	0x3bb7c25c	0.0056078862
67	0x3d37fd5b	0.044919353
68	0x3dad839a	0.08472367
69	0x3d010a42	0.031503923
70	0x3c931dbc	0.017958514
71	0xbdc29cdf	-0.09502577
72	0xbb2f997a	-0.002679436
73	0x3bc17b51	0.005904593
74	0x3da27243	0.0793195
75	0x3e38636d	0.18006678
76	0xbd9443b8	-0.07239479
77	0xbd50d213	-0.050981592
78	0x3bcee9c4	0.006314488
79	0xbdefd974	-0.11711398
80	0xbe99c031	-0.30029443
81	0x3e0209d0	0.12699056
82	0x3e0be121	0.13660099
83	0xbe083b0b	-0.13303773
84	0xbdc8be4e	-0.09801923
85	0x3d426253	0.04745705
86	0xbddc5ec4	-0.107602626
87	0x3d96c8fd	0.07362554
88	0x3e3bc8b2	0.18338278
89	0xbdd321ba	-0.10309167
90	0xbe32208d	-0.1739523
91	0x3e333a89	0.17502798
92	0x3e5152db	0.20441763
93	0x3d94fbc8	0.07274586
94	0xbe66a10b	-0.2252237
95	0xbddfb72d	-0.1092361
96	0x3bf8f68e	0.007597751
97	0x3d38825e	0.045046203
98	0x3c87d543	0.016581183
99	0xbe776835	-0.24160846
100	0x3dcca706	0.09992795
101	0x3e67c850	0.22635007
102	0xbde50d33	-0.11184158
103	0xbd89c248	-0.06726509
104	0xbe11fe3b	-0.14257137
105	0xbe591750	-0.212003
106	0x3d0af6d5	0.033926804
107	0xbe335de9	-0.17516293
108	0x3dc033ec	0.09384903
109	0xbc14da51	-0.009085254
110	0xbcb68f4e	-0.02228513
111	0xbd03d0c0	-0.0321815
112	0x3e165da7	0.14684163
113	0x3dd7d2d4	0.10538259
114	0x3d4177b1	0.047233287
115	0xbd934f46	-0.071928546
116	0xbdb4cbb6	-0.08827917
117	0xbc10982c	-0.008825343
118	0x3c93e5bb	0.01805388
119	0x3d0a892f	0.033822235
120	0x3ebbc605	0.36674514
121	0xbdfe8a35	-0.12428705
122	0x3d9d582b	0.07682832
123	0xbca067be	-0.019580718
124	0xbdc0fe8e	-0.094235525
125	0xbdf98cc7	-0.12185054
126	0xbdfbe700	-0.12299919
127	0xbdd3347c	-0.10312745
128	0xbe0700bb	-0.13183872
129	0x3b87f0e0	0.0041485876
130	0x3e0f4221	0.1399007
131	0xbd8047ef	-0.0626372
132	0xbc4b6048	-0.012413092
133	0xbcb0ed8e	-0.02159765
134	0x3d6b23ee	0.057407312
135	0x3e3f255c	0.18666595
136	0xbd664473	-0.056217622
137	0xbe00b62c	-0.12569493
138	0x3ad84c98	0.0016502319
139	0x3e503d6f	0.20335935
140	0x3efa6b9c	0.48910224
141	0xbc7846bb	-0.015153582
142	0x3a6b3bc4	0.00089734443
143	0x3d30a15a	0.043122627
144	0x3e74542b	0.23860233
145	0x3e8cc579	0.2749441
146	0xbc94b3e1	-0.01815218
147	0xbc430076	-0.011901965
148	0xbe15690f	-0.14590858
149	0xbe7ee324	-0.24891335
150	0xbdcba4df	-0.09943556
151	0xbea7505b	-0.32678494
152	0xbe329da6	-0.1744295
153	0xbea2b272	-0.31776768
154	0x3d873d0d	0.066034414
155	0x3e738671	0.23781754
156	0x3e0e1d1f	0.13878296
157	0xbf03c3b8	-0.5147052
158	0xbdbe5b38	-0.09294742
159	0x3c5a5fc5	0.013328497
160	0xbdaeb341	-0.08530284
161	0xbe1156db	-0.14193289
162	0xbcaead66	-0.021322917
163	0xbe91f457	-0.2850673
164	0xbbd4b167	-0.0064908746
165	0x3d38998e	0.045068316
166	0xbec31d00	-0.38108063
167	0xbd50d43d	-0.050983656
168	0xbe8bf983	-0.273388
169	0x3d48bcff	0.049008366
170	0x3db909bc	0.0903506
171	0xbc090ee6	-0.0083653685
172	0xbd5f1d62	-0.05447138
173	0xbe5fdf43	-0.21862511
174	0xbdb766cb	-0.08955153
175	0x3e8b0f41	0.27160075
176	0xbd9304c6	-0.07178645
177	0xbf0d67af	-0.55236334
178	0xbcf6a472	-0.03010771
179	0xbe030383	-0.12794308
180	0x3dcd07bc	0.10011241
181	0xbdfc0e5d	-0.12307427
182	0xbdb1350e	-0.086526975
183	0x3d57dabc	0.052698836
184	0x3c308e99	0.010776185
185	0x3cdd3167	0.027001096
186	0x3c221c0d	0.009894383
187	0xbca188dd	-0.019718582
188	0x3c6e2c02	0.0145368595
189	0x3d25911b	0.040421586
190	0x3e5a3860	0.21310568
191	0xbe90d6da	-0.2828892
192	0xbea3b331	-0.3197265
193	0xbebfb91c	-0.37445915
194	0xbfdad6f3	-1.7096847
195	0xbd58fb66	-0.052974127
196	0xbcd7bd13	-0.026335275
197	0xbd85c816	-0.06532304
198	0xbc56c80f	-0.013109221
199	0xbc63592d	-0.013876242
200	0x3c9c4417	0.019075437
201	0x3ccabe4c	0.024748944
202	0xbc9edeb8	-0.01939331
203	0xbc3bbabc	-0.011458095
204	0xbd4ac4bf	-0.049504038
205	0x3dc7fcd8	0.09765023
206	0x3d12c2b8	0.03583023
207	0x3dc460bf	0.09588765
208	0x3e08970a	0.13338867
209	0x3d9789c3	0.07399323
210	0xbc0c99a3	-0.008581552
211	0x3d17b09f	0.037033673
212	0x3d98d478	0.074624
213	0x3d9d1630	0.076702476
214	0x3db0df6b	0.086363636
215	0xbc4cb673	-0.012494671
216	0x3d9775a5	0.07395486
217	0x3d190520	0.037358403
218	0x3d8a7eb7	0.0676245
219	0x3d44b851	0.04802734
220	0x3c16df4a	0.00920851
221	0x3b7e66ed	0.0038818673
222	0xbd617018	-0.05503854
223	0x3cfd7357	0.030938787
224	0xbd2f32ca	-0.042773046
225	0xbcaaef29	-0.020865994
226	0xbcdfdbf8	-0.027326569
227	0xbde31677	-0.11088269
228	0xbd218194	-0.039430216
229	0x3b9bbbf8	0.004752632
230	0x3db8e9e8	0.09028989
231	0x3e6b735b	0.22993223
232	0xba94ef1e	-0.0011362766
233	0x3d848cd0	0.0647217
234	0x3d75c313	0.06000049
235	0x3d9fa940	0.07795954
236	0x3d96762d	0.07346759
237	0xbdd5c9e3	-0.104388975
238	0xbd2f7e12	-0.04284484
239	0xbc981281	-0.01856351
240	0xbbc0211f	-0.0058633233
241	0x3d67386b	0.05645029
242	0xbd5f09e0	-0.054452777
243	0xb8ca3ebc	-9.643796e-05
244	0x3c1278de	0.00893995
245	0xbcd313b5	-0.025766233
246	0x3d72441c	0.059146985
247	0xbdce794f	-0.100817315
248	0xbdf6bd35	-0.12047807
249	0xbd83ee53	-0.06441941
250	0xbd2bb88f	-0.041924056
251	0x3d850ecc	0.06496963
252	0x3e661162	0.22467569
253	0xbf021861	-0.5081845
254	0xbed48ff6	-0.41516083
255	0xbecdfe79	-0.4023321

hidden_layers.0.bias f4 [128]
0	0xbdd48bc1	-0.103782184
1	0x3d06c0ee	0.032898836
2	0xbe251350	-0.16120648
3	0xbe22f19b	-0.15912478
4	0xbde4b10a	-0.1116658
5	0xbd90f8f0	-0.07078731
6	0x3d6fcbaa	0.05854384
7	0x3c8cc5f8	0.017184243
8	0xbe1cf0d2	-0.1532624
9	0xbbb95561	-0.00565593
10	0xbe14cf4e	-0.14532205
11	0xbde30678	-0.11085218
12	0xbe29669b	-0.16543047
13	0xbdb9b41d	-0.09067557
14	0xbe007596	-0.12544855
15	0x3c782442	0.015145363
16	0xbd7e81d5	-0.062135536
17	0xbd10b5ef	-0.035329755
18	0xbe1708a5	-0.14749391
19	0xbd94cafb	-0.07265278
20	0xbe3fdc97	-0.18736492
21	0xbcd07a1b	-0.02544885
22	0x3ce8f0ec	0.028435193
23	0xbd44efc8	-0.048080236
24	0xbd5cd1d9	-0.053911064
25	0x3c160c04	0.009158138
26	0x3d9859fc	0.07439038
27	0xbe238329	-0.15968002
28	0xbde6abe7	-0.112632565
29	0xbe2217f4	-0.1582945
30	0xbb4f160a	-0.003159883
31	0x3cb5d0f6	0.022194367
32	0xbdbd72fb	-0.092504464
33	0xbe0d9a2b	-0.13828342
34	0xbd935dde	-0.07195638
35	0xbe5cd69c	-0.21566242
36	0xbe178647	-0.14797316
37	0xbc10fd21	-0.008849413
38	0xbdce5e23	-0.10076549
39	0xbd85ab1c	-0.06526777
40	0xbd100d1b	-0.03516875
41	0x3cf3ceb8	0.029761657
42	0x3e1dc769	0.154081
43	0xbcaf1d60	-0.021376312
44	0xbda972e1	-0.082738645
45	0xbe24acfb	-0.16081612
46	0x3da21a3f	0.07915162
47	0xbe498d76	-0.1968287
48	0xbe83a147	-0.25708982
49	0x3bdff25f	0.006834313
50	0x3ab6710f	0.0013919192
51	0xbdc26db7	-0.09493583
52	0xbbc62345	-0.006046685
53	0x3bdb5090	0.0066929534
54	0xbd3bc11c	-0.04583846
55	0xbd86a229	-0.06573898
56	0xbe2d13c3	-0.1690207
57	0xbd7db44f	-0.061939534
58	0x3bc484e6	0.005997288
59	0xbdb0da00	-0.0863533
60	0xbe556c9c	-0.20842212
61	0xbd09f9f4	-0.03368564
62	0x3be3eb25	0.0069555216
63	0xbe1e1c90	-0.15440583
64	0x3c7b0c4d	0.015322757
65	0x3dbd190c	0.09233293
66	0xbdabcd67	-0.08388787
67	0xbe0172dc	-0.12641472
68	0xbe85d52c	-0.261392
69	0xbdbd3e4b	-0.09240397
70	0xbce31163	-0.027718252
71	0xbde4578b	-0.1114951
72	0xbcbdab0a	-0.023152847
73	0xbe087c05	-0.1332856
74	0xbde359d4	-0.11101118
75	0xbe0102dc	-0.12598747
76	0x3c1a8ba4	0.009432707
77	0xbe257f17	-0.16161762
78	0x3d4bf9a7	0.049798634
79	0x3d7c0c1d	0.06153499
80	0xbdb21d5c	-0.08697006
81	0x3b24d43b	0.0025150913
82	0x3be97dca	0.007125591
83	0xbdf54c54	-0.11977449
84	0xbdf90de2	-0.12160851
85	0x3cfa9acc	0.030591391
86	0x3cb72f6f	0.022361485
87	0xbdbb5b8b	-0.0914832
88	0xbc00fd75	-0.007872929
89	0xbce051d0	-0.027382761
90	0x3dbd1fe3	0.092345975
91	0xbda63432	-0.08115424
92	0xbe1f26e0	-0.15542173
93	0xbe92d3ea	-0.28677303
94	0xbde02195	-0.10943905
95	0x3d400330	0.04687804
96	0xbde64957	-0.11244457
97	0xbe9d5512	-0.30728966
98	0xbe1d8c57	-0.15385567
99	0x3ba351f0	0.004984133
100	0xbdf8f434	-0.12155953
101	0xbe8483cc	-0.25881803
102	0x3c14dbd3	0.009085613
103	0x3d7f09cf	0.062265214
104	0xbe65f2fe	-0.22455975
105	0xbe26786e	-0.16256878
106	0xbd2efef6	-0.04272362
107	0x3e2015e0	0.15633345
108	0xbe8640f4	-0.2622143
109	0xbe20e10e	-0.15710852
110	0x3a40f373	0.00073604955
111	0xbd7b2ab1	-0.06132001
112	0xbdf2b6b6	-0.118512556
113	0xbd763beb	-0.060115736
114	0xbc8866ae	-0.016650524
115	0x3d3d34b2	0.046192832
116	0x3cc5c7dd	0.024143154
117	0x3cf64080	0.030060053
118	0xbd1d2a21	-0.038370255
119	0xbdd05e37	-0.1017422
120	0xbdc9715e	-0.09836076
121	0x3d62cbb2	0.05537004
122	0xbe0ad7d8	-0.135589
123	0xbe9e1879	-0.30878046
124	0xbdca4560	-0.098765135
125	0x3d0f7beb	0.035030287
126	0x3e2535af	0.1613376
127	0xbe06466d	-0.13112803

hidden_layers.1.weight f4 [64, 128]
0	0xbd972992	-0.07380976
1	0xbd05731e	-0.032580487
2	0x3c8d34a0	0.017237008
3	0x3e088b0d	0.13334294
4	0x3dd8d474	0.10587397
5	0xbb2e745b	-0.0026619646
6	0xbd784bec	-0.06061928
7	0xbd2678ac	-0.040642425
8	0x3d2c5bfc	0.04207991
9	0x3a883ebe	0.0010394675
10	0x3d707385	0.058703918
11	0x3dcb7714	0.09934822
12	0xbe9f71b7	-0.31141445
13	0xbd93d06d	-0.072174884
14	0x3d817173	0.06320467
15	0xbd549647	-0.05190113
16	0xbdc99b2f	-0.09844052
17	0x3cc61c1f	0.024183331
18	0xbe7681e7	-0.24072991
19	0xbd61e689	-0.055151496
20	0x3c0b6561	0.008508057
21	0x3db12efc	0.0865154
22	0x3d415b26	0.047206067
23	0xbdd44f38	-0.10366672
24	0x3dc4534c	0.095862
25	0x3dc24fe2	0.09487893
26	0xbda3cd7b	-0.07998177
27	0xbcfb781a	-0.030696917
28	0xbc3cf69e	-0.0115334075
29	0x3dbce114	0.09222618
30	0xbeabcbe5	-0.33553997
31	0xbd585b0a	-0.052821197
32	0xbea38b12	-0.3194204
33	0xbd875b63	-0.066092275
34	0xbef43106	-0.47693652
35	0xbe205106	-0.15655908
36	0xbd1cee73	-0.03831334
37	0xbcad813d	-0.02117979
38	0x3d5f007c	0.05444382
39	0x3b3fa30b	0.0029241468
40	0xbdd131aa	-0.10214551
41	0xbe7da19c	-0.2476868
42	0x3d4ac8ea	0.049508013
43	0x3ca9b4f4	0.020716168
44	0xbde13bc5	-0.10997728
45	0xbd34f994	-0.04418333
46	0xbd447439	-0.0479624
47	0xbd9e6db7	-0.0773577
48	0xbd93cc29	-0.07216675
49	0xbd5ebbdf	-0.054378387
50	0xbda82631	-0.082104094
51	0xbdbeb036	-0.09310953
52	0xbe3c20e2	-0.18371919
53	0xbd067ea3	-0.032835614
54	0xbc16e4d9	-0.009209835
55	0xbe005ba7	-0.12534963
56	0x3ddbb389	0.10727603
57	0xbe7245e7	-0.23659478
58	0xbc8bfd30	-0.017088503
59	0xbd323153	-0.04350407
60	0xbe1bd53d	-0.15218063
61	0xbdc3d1d8	-0.09561509
62	0xbcc0a4a6	-0.02351601
63	0xbe86c214	-0.26319945
64	0xbdd8511a	-0.10562344
65	0x3d01e23c	0.031709895
66	0x3cbd2bec	0.023092233
67	0xbdbcb5fc	-0.09214398
68	0xbe27ee4e	-0.163995
69	0x3d5b708f	0.05357414
70	0x3e0ede5a	0.13952008
71	0xbe446fa2	-0.1918321
72	0xbdc81999	-0.09770507
73	0xbdef7220	-0.116916895
74	0x3d4a9945	0.049462575
75	0xbe269a9b	-0.16269915
76	0xbea0c1b3	-0.3139778
77	0xbdeba934	-0.11506882
78	0x3b77ba60	0.0037800297
79	0xbcbb436d	-0.0228593
80	0x3d41ecc1	0.047344927
81	0xbe8580a6	-0.26074713
82	0xbeb85810	-0.36004686
83	0x3d82db1b	0.06389447
84	0xbdc5946e	-0.09647451
85	0xbe9dafa6	-0.30798072
86	0xbe7d722e	-0.24750587
87	0xbe066021	-0.13122608
88	0xbccfa828	-0.025348738
89	0x3d987652	0.07444443
90	0x3dd3fb9a	0.103507236
91	0xbdd54b2c	-0.104147285
92	0xbddd03af	-0.10791718
93	0xbdd8413e	-0.10559319
94	0x3daf21a5	0.08551339
95	0x3d3df1a6	0.046373032
96	0xbe9308fb	-0.2871779
97	0x3d348953	0.044076275
98	0xbcf2203c	-0.029556386
99	0xbdf074e1	-0.11741043
100	0x3d384582	0.044988163
101	0xbe6d47b0	-0.23171878
102	0xbdb9d833	-0.0907444
103	0xbc2d75dc	-0.010587182
104	0xbd9f05f1	-0.07764805
105	0x3cde3879	0.027126538
106	0x3c665ad3	0.01405974
107	0xbb8ee071	-0.0043602516
108	0xbe886b05	-0.2664415
109	0xbd3f79be	-0.04674696
110	0xbe235632	-0.1595085
111	0x3cbf9412	0.023386035
112	0xbc690fb9	-0.01422494
113	0x3d408850	0.047004998
114	0xbd234d07	-0.03986838
115	0xbe4a6d7e	-0.1976833
116	0x3d5d9fdb	0.05410753
117	0x3d40c4f0	0.047062814
118	0x3aa2a896	0.0012409862
119	0xbe917eef	-0.28417155
120	0x3d7e55f6	0.062093697
121	0xbd072841	-0.032997373
122	0x3d800949	0.06251771
123	0xbce7a0e4	-0.02827496
124	0xbb84423f	-0.0040362175
125	0xbbdde0a4	-0.006771164
126	0xbcbc250c	-0.022966884
127	0xbe4a4a08	-0.19754803
128	0x3ca48490	0.020082742
129	0x3cf2351e	0.029566344
130	0x3d6a8ee2	0.05726517
131	0xbd8680be	-0.065675244
132	0xbe0a528f	-0.13508056
133	0x3d0c46ab	0.03424708
134	0x3e06ae60	0.13152456
135	0x3aa82602	0.001282871
136	0x3d47ac2e	0.048748188
137	0x3cf3de7a	0.029769171
138	0x3ca1e0e8	0.019760564
139	0x3d45c415	0.0482827
140	0xbe93b4d3	-0.28848895
141	0x3dd3aa5f	0.1033523
142	0xbcdc8050	-0.026916653
143	0xbe0ce9c6	-0.13761052
144	0xbdca2281	-0.09869862
145	0x3bdfb073	0.0068264543
146	0xbe0bb138	-0.13641822
147	0xbe13df68	-0.14440691
148	0xbe60094f	-0.21878551
149	0xbd10c4e8	-0.035344034
150	0xbc886909	-0.016651647
151	0x3da382e4	0.0798395
152	0x3c6bc684	0.0143905915
153	0x3dd59a9d	0.10429881
154	0x3c273c02	0.010207178
155	0x3dd3fb4c	0.103506655
156	0xbbbf9081	-0.0058460836
157	0x3b90101d	0.004396452
158	0xbe979f20	-0.2961359
159	0xbe776635	-0.24160083
160	0xbd2c7066	-0.04209938
161	0xbd23b719	-0.039969537
162	0xbace53ca	-0.0015741524
163	0x3d1309fa	0.035898186
164	0x3d11773a	0.035514094
165	0x3d14abd4	0.03629668
166	0xbc858755	-0.016299883
167	0x3ca085dd	0.019595081
168	0xbc515c11	-0.012778298
169	0xbdb9735f	-0.090552084
170	0x3d0bf62e	0.034170322
171	0x3ca2e4f9	0.019884573
172	0xbe106e12	-0.14104488
173	0xbe5c90b0	-0.21539569
174	0xbd1130c4	-0.035446897
175	0x3e0bc774	0.13650304
176	0xbe1e8997	-0.15482174
177	0x3db102c4	0.086431056
178	0x3d29d8de	0.041466586
179	0xbe07913a	-0.13238993
180	0xbd8a9545	-0.06766752
181	0x3c8f062c	0.017458998
182	0xbe053f7d	-0.130125
183	0xbd8cff8e	-0.06884681
184	0xbd81c61e	-0.06336616
185	0xbc93c981	-0.01804042
186	0x3d5ce32c	0.053927585
187	0xbde132e4	-0.10996035
188	0xbe37400b	-0.17895524
189	0xbddf38ad	-0.10899482
190	0xbe38e14c	-0.18054694
191	0xbce14183	-0.027497059
192	0xbe8e6473	-0.27811012
193	0x3e45f20b	0.19330613
194	0x3d1032e4	0.035204783
195	0xbdba67ce	-0.091018304
196	0xbd69abad	-0.05704849
197	0x3d1259c4	0.03573014
198	0x3ca1c2d2	0.019746218
199	0xbc5d99bb	-0.013525422
200	0xbe339999	-0.17539062
201	0xbe70399a	-0.23459473
202	0x3cc1656b	0.02360793
203	0x3e4dcf32	0.2009857
204	0xbd4b7188	-0.04966882
205	0xbd8dcfe0	-0.06924415
206	0xbc26c41e	-0.010178594
207	0x3c174227	0.009232081
208	0x3d1f72bd	0.038927782
209	0xbcfa6d7e	-0.030569788
210	0xbd086331	-0.03329772
211	0x3d34d33b	0.044146758
212	0x3cbe7120	0.023247302
213	0xbea7acf6	-0.32749146
214	0xbe3022d2	-0.17200783
215	0xbcbe7dcf	-0.02325335
216	0x3d176404	0.036960617
217	0x3cc6f113	0.024284875
218	0x3d0ae9df	0.033914443
219	0xbda8e59d	-0.0824692
220	0x3c0f3119	0.008739733
221	0xbe0ee5fd	-0.13954921
222	0xbdaefc5f	-0.0854423
223	0x3d98e6be	0.074658856
224	0xbd74f0b3	-0.05979986
225	0xbcda3adb	-0.026639393
226	0xbe029ee4	-0.12755924
227	0xbe5e1bb6	-0.21690258
228	0x3cb8988f	0.022533683
229	0xbe0bf147	-0.13666259
230	0xbd01fe6b	-0.031736773
231	0x3e022681	0.1271
232	0x3d1210a0	0.035660386
233	0x3d443205	0.047899265
234	0x3d38a1c9	0.045076165
235	0xbc91636e	-0.017747607
236	0xbe823a80	-0.25435257
237	0xbdb9eae9	-0.09078009
238	0xbe0a35d3	-0.13497095
239	0xbde2486e	-0.11048971
240	0xbcdc0b4b	-0.026860854
241	0x3d2a8b0a	0.041636504
242	0xbde8cd5d	-0.11367295
243	0xbe15e01c	-0.14636272
244	0x3ceff557	0.029291792
245	0x3e3d8674	0.18508321
246	0x3d02fc2d	0.031978775
247	0xbe650999	-0.22366942
248	0x3ddb5a85	0.107106246
249	0x3c80d40f	0.015726117
250	0x3d57e72f	0.05271071
251	0xbd402dc5	-0.04691865
252	0x3d668fe7	0.05628958
253	0x3c06d2d9	0.008228981
254	0xbd6d8633	-0.05798931
255	0xbd8cd87f	-0.06877231

hidden_layers.1.bias f4 [64]
0	0x3e84f8a4	0.25970948
1	0x3e5ad654	0.21370822
2	0x3e34dcbe	0.17662331
3	0x3e58142e	0.21101448
4	0x3e8ae949	0.27131107
5	0xbdf8b497	-0.1214382
6	0x3dfba33c	0.12286994
7	0x3db89d1c	0.09014341
8	0x3dbd554d	0.092447855
9	0x3dd92237	0.10602229
10	0x3e74fb1e	0.23923919
11	0x3df21920	0.118211985
12	0x3e69a859	0.22818126
13	0x3dc1769f	0.09446453
14	0x3def9fe9	0.11700422
15	0x3ddca925	0.10774449
16	0xbd0dedda	-0.03465066
17	0x3e4ef6a0	0.20211267
18	0xbe1522f9	-0.14564122
19	0x3e5f257e	0.21791646
20	0x3dffa16f	0.12481963
21	0x3e5d227d	0.21595187
22	0x3e745a53	0.23862581
23	0x3e600cd8	0.218799
24	0x3e2d83a9	0.16944756
25	0x3e5f5eba	0.21813479
26	0x3e68b5d9	0.2272562
27	0x3e6e2351	0.2325566
28	0x3e7fe919	0.24991263
29	0x3e340117	0.1757854
30	0x3dd36d34	0.10323563
31	0x3e734c09	0.23759474
32	0xbe0d6106	-0.13806543
33	0x3e85bed3	0.2612215
34	0x3e7d777b	0.2475261
35	0x3dd99856	0.10624759
36	0x3e2cc33e	0.16871354
37	0x3e4f8d6c	0.20268792
38	0x3de48112	0.11157431
39	0x3e259a43	0.16172127
40	0x3e68c073	0.22729664
41	0x3dc01195	0.093783535
42	0x3e533b85	0.20628174
43	0x3e7af605	0.24507912
44	0x3e4e621e	0.20154616
45	0x3e2dba32	0.16965559
46	0x3e7be5b9	0.24599351
47	0x3dfdcfbf	0.1239314
48	0x3df595f9	0.11991496
49	0xbe2659fe	-0.16245267
50	0x3dd19517	0.10233515
51	0x3dda8d9d	0.10671542
52	0xbe14534b	-0.14484899
53	0x3e301c0d	0.171982
54	0x3e802712	0.25029808
55	0x3e231146	0.15924558
56	0x3e595356	0.21223196
57	0x3e6674df	0.2250552
58	0x3e8493d2	0.25894028
59	0x3e4ebae5	0.20188482
60	0x3dd0602d	0.10174594
61	0x3dcd5c5b	0.10027381
62	0x3de5fa65	0.112293996
63	0x3dee542a	0.11637147

output.weight f4 [4, 64]
0	0x3d7f0d84	0.06226875
1	0x3d2899a7	0.04116216
2	0xbd97be17	-0.07409304
3	0x3db1d85e	0.08683847
4	0x3d747b89	0.059688125
5	0xbd2d2dbc	-0.042279944
6	0x3d11811c	0.03552352
7	0xbdb56148	-0.088564456
8	0x3d058c54	0.03260453
9	0xbd89a4cb	-0.06720885
10	0x3d822c50	0.06356108
11	0x3d1721dc	0.036897525
12	0x3d861137	0.06546252
13	0x3cf35446	0.02970327
14	0x3d0d6b2c	0.034526035
15	0xbd905525	-0.0704749
16	0xbe716051	-0.23571898
17	0x3d8bd23b	0.06827208
18	0x3bb4e4d9	0.005520445
19	0x3d71fdaf	0.059079822
20	0xbd924aa1	-0.071431406
21	0x3db3b014	0.087738186
22	0x3d9f1aa1	0.07768751
23	0x3d9ede51	0.07757247
24	0xbd6d1311	-0.05787951
25	0x3d44261d	0.04788791
26	0x3d4b0c47	0.049572255
27	0x3d5d36e7	0.054007437
28	0x3d624b69	0.055247698
29	0x3d29516d	0.04133742
30	0xbdd18213	-0.10229888
31	0x3d64bb3d	0.055842627
32	0x3d7780fe	0.06042575
33	0x3d70c409	0.058780704
34	0x3d67ecfe	0.056622498
35	0xbdb43f9f	-0.08801197
36	0xbde18283	-0.11011221
37	0x3d0c2f05	0.03422453
38	0xbdaaf012	-0.08346571
39	0x3d107ad3	0.035273384
40	0x3d9284eb	0.07154258
41	0xbdcbdffc	-0.09954831
42	0x3d52303d	0.051315535
43	0x3d8235ea	0.063579395
44	0x3d466194	0.0484329
45	0x3d380b6b	0.044932764
46	0x3d858291	0.06519044
47	0x3ce9b60f	0.028529195
48	0x3d1a0d87	0.037610557
49	0xbafbc9cc	-0.001920992
50	0xbd8bfe11	-0.06835569
51	0x3cf9f0ae	0.030510273
52	0xbdc15530	-0.09440076
53	0x3d4208ee	0.047371797
54	0x3d684be2	0.056712992
55	0x3d0f45cb	0.03497867
56	0x3d931e36	0.07183497
57	0x3d070579	0.032964204
58	0x3d52b28c	0.051439807
59	0x3d25b7d2	0.040458508
60	0x3d0bd770	0.034141004
61	0x3cfb0cc4	0.030645736
62	0x3ce5acaf	0.028036444
63	0x3d142f39	0.036177848
64	0x3d159268	0.036516577
65	0x3d137c0a	0.036006965
66	0xbc2bafe5	-0.010478948
67	0x3dcad05f	0.09903025
68	0x3d598e22	0.053114064
69	0xbb1cba9f	-0.0023914946
70	0x3d2afb99	0.04174385
71	0xbc980ad9	-0.01855986
72	0x3cb9ac78	0.022665247
73	0x3bf0d851	0.0073500057
74	0x3d6a62d9	0.057223175
75	0x3d103e29	0.03521553
76	0x3daf22f9	0.085515924
77	0x3d5bdd92	0.053678103
78	0x3cbf2ea3	0.023337668
79	0x3bdb4565	0.006691622
80	0xbce0fbb4	-0.027463771
81	0x3d54c3a3	0.051944386
82	0x3d5a7d1a	0.053341962
83	0x3d44ab2e	0.048014812
84	0x3ca241cf	0.01980677
85	0x3de808f5	0.113298334
86	0x3dba5e9c	0.091000766
87	0x3d8a1368	0.06741983
88	0xbcf4066d	-0.02978822
89	0x3d1c57b4	0.038169578
90	0x3d740af8	0.059580773
91	0x3d8a58d1	0.06755222
92	0x3d9dde50	0.07708418
93	0x3d191efa	0.037383057
94	0x3ae7d610	0.0017687697
95	0x3d5b21f7	0.05349919
96	0x3aa8b4de	0.0012871285
97	0x3d32f627	0.04369178
98	0x3d54899c	0.051889047
99	0x3c92ac28	0.017904356
100	0xbcd850c8	-0.026405707
101	0x3d836105	0.064149894
102	0xbb10fb4a	-0.0022122436
103	0x3cdeff6b	0.027221402
104	0x3d1f8de2	0.03895367
105	0x3c4c2964	0.01246104
106	0x3d4991d4	0.04921134
107	0x3d8cbe0d	0.06872187
108	0x3d6a6bec	0.05723183
109	0x3d54841b	0.051883798
110	0x3d96208b	0.07330426
111	0x3cfe3477	0.031030877
112	0x3d0c2c27	0.034221794
113	0xbc8b9f57	-0.017043753
114	0xbbc5ea54	-0.006039897
115	0x3d5a8477	0.053348985
116	0xbd6f596c	-0.05843489
117	0x3d1abe28	0.037779003
118	0x3d4302c5	0.047610063
119	0x3d0fca21	0.035104875
120	0x3dbdc1f2	0.09265508
121	0x3d21d948	0.039513856
122	0x3d6a8dcd	0.057264138
123	0x3d478428	0.04871002
124	0x3cf1dc72	0.029524062
125	0x3d16f7dc	0.03685747
126	0x3d031923	0.032006394
127	0x3d045e6c	0.03231661
128	0x3d14d296	0.036333643
129	0x3d25507e	0.040359966
130	0xbd063b34	-0.032771304
131	0x3deb93a8	0.115027726
132	0x3c950d0b	0.018194696
133	0x3d54fd0b	0.051999133
134	0x3d59851f	0.05310547
135	0xbd52b05e	-0.051437728
136	0x3d850ed6	0.0649697
137	0xbc93ea40	-0.018056035
138	0xbc719156	-0.014744123
139	0x3d8a7a01	0.06761552
140	0x3c12dfb3	0.008964467
141	0x3da63243	0.081150554
142	0x3d997808	0.07493597
143	0xbd1fd2ac	-0.03901927
144	0xbdfd2e60	-0.12362361
145	0xbbb9677e	-0.005658089
146	0x3d8d9215	0.069126286
147	0xba4ac8a6	-0.00077355874
148	0xbd9232dc	-0.07138607
149	0x3dda69d4	0.10664716
150	0x3c5201cc	0.012817811
151	0x3d0ad0cd	0.033890534
152	0xbd1361db	-0.035981994
153	0x3d2de069	0.042450342
154	0x3d3cbd9c	0.046079263
155	0xbc2fe8f3	-0.010736692
156	0x3d549760	0.051902175
157	0xbd0ef227	-0.034898903
158	0xbd736985	-0.059426803
159	0x3d316b08	0.043314964
160	0x3c25d761	0.010122151
161	0x3c7f1ca1	0.0155707905
162	0xbb0e8728	-0.002174804
163	0xbd36ba1a	-0.044611074
164	0xbd1fabe7	-0.0389823
165	0x3d29e84a	0.041481294
166	0x3cd93e7f	0.026519058
167	0x3d63e495	0.055637915
168	0x3d99af0e	0.07504092
169	0xbd805470	-0.06266105
170	0xbce18c3f	-0.027532695
171	0xbc8999d6	-0.016796988
172	0x3d6bb4ff	0.05754566
173	0x3d9e1a5c	0.077198714
174	0x3ac50b0d	0.0015033201
175	0x3d701d64	0.05862178
176	0x3da12b8e	0.078696355
177	0x3d8ecda4	0.069728166
178	0x3d8f96ae	0.07011162
179	0x3d9b4c33	0.07582893
180	0xbc9f074e	-0.019412663
181	0xbb9b6e04	-0.0047433395
182	0x3d5738ff	0.05254459
183	0x3d7618d3	0.060082268
184	0x3d9a9bb7	0.075492315
185	0x3d22c8b5	0.03974219
186	0xbb07c08f	-0.002071414
187	0x3d17d4aa	0.037068047
188	0x3d5fe781	0.05466414
189	0x3d2371ce	0.039903454
190	0x3d270461	0.04077566
191	0x3d400671	0.046881143
192	0x3c10a000	0.0088272095
193	0x3d0a18fa	0.033715226
194	0xbd3b9b45	-0.045802373
195	0x3dd11cc1	0.102105625
196	0xbb81f519	-0.0039659855
197	0x3bf81dbb	0.0075719035
198	0x3d68faa3	0.05687965
199	0xbd2be6ab	-0.04196803
200	0x3d950706	0.0727673
201	0xbce88461	-0.028383436
202	0x3c30aefe	0.010783909
203	0x3d931054	0.07180849
204	0x3cdf62f2	0.02726886
205	0x3d828d79	0.0637464
206	0x3d61420d	0.05499463
207	0xbcf08f72	-0.029365275
208	0xbdcc080b	-0.099624716
209	0x3d29c010	0.04144293
210	0xbbc3f0d2	-0.0059796358
211	0x3cc2eb51	0.023793848
212	0x3d917047	0.07101493
213	0x3dda8736	0.10670321
214	0x3c7ac34c	0.0153053515
215	0x3d9dd7f9	0.07707209
216	0xbd2ef1b0	-0.04271096
217	0x3d66a73b	0.056311827
218	0x3c2f2a5c	0.010691252
219	0x3c9d51ef	0.019204108
220	0x3d221e66	0.03957977
221	0x3d99e0c7	0.07513576
222	0xbd108af9	-0.035288785
223	0x3cdb9f48	0.02680935
224	0xbcd0ada2	-0.02547342
225	0x3c8b3b2b	0.016995987
226	0x3c7f5c80	0.015586019
227	0x3d265e6e	0.0406174
228	0xbd19429a	-0.03741703
229	0x3ce6db35	0.028180698
230	0xbd316f9d	-0.043319333
231	0x3d57ea3e	0.052713625
232	0x3dcdffe7	0.10058575
233	0xbd4021cf	-0.046907242
234	0x3d62fece	0.055418782
235	0x3c84fb67	0.01623316
236	0x3b92841b	0.0044713146
237	0xbe1a68a6	-0.15078983
238	0x3d148600	0.036260605
239	0x3d6f4c37	0.058422294
240	0x3d7cf776	0.061759435
241	0x3d918f37	0.07107394
242	0xbdaccb6e	-0.08437239
243	0x3d8ac477	0.06775754
244	0x3d8cbc1e	0.06871818
245	0x3d35010d	0.044190455
246	0x3d302b21	0.04300988
247	0x3d66eb70	0.056376874
248	0x3dce9eff	0.1008892
249	0x3d58ba66	0.05291214
250	0x3c9c2488	0.019060388
251	0x3c70f7cd	0.014707518
252	0x3d59dcc7	0.053189065
253	0x3d9ea20b	0.07745751
254	0x3d658557	0.056035366
255	0x3d780876	0.060554944

output.bias f4 [4]
0	0x3fb977ac	1.4489646
1	0x3fa20c99	1.2660094
2	0x3fad4b1a	1.3538544
3	0x3fadaa24	1.3567548
