experiments/navigate_1385_18Oct22075811.pth (torch_old, 54660 bytes, 6 tensors)

hidden_layers.0.weight f4 [128, 37]
000000 fb b7 42 3e 2d 6f c3 be 66 ba be be 6d f2 bd be
       0.19015495 -0.38170758 -0.37251586 -0.3709902
000010 81 f3 86 bf fc 84 cb 3b 66 a2 02 3c d7 7e cc 3d
       -1.0543061 0.0062109213 0.007973289 0.0998513
000020 71 15 0b 3e 79 e1 30 3e 8a 4f 43 bd 94 af bc bd
       0.13582398 0.17273511 -0.047683276 -0.09213176
000030 97 e9 bd bd 2e 95 cf bd 3b 85 e2 3b d7 c3 1e 3d
       -0.09273069 -0.10135876 0.006912855 0.038760986
000040 87 42 af 3d cd f5 59 bc 92 a3 f4 bd ba 96 29 be
       0.08557611 -0.013303232 -0.11945261 -0.16561404
000050 e0 f2 bf 3d c2 be 50 3d 16 00 b7 3d 07 b0 4d 3d
       0.093724966 0.05096317 0.08935563 0.0502167
000060 44 f5 bb 3c 37 8d df 3b 25 07 54 3c fb 62 1c 3c
       0.0229441 0.006822254 0.0129411565 0.009545083
000070 a5 81 d6 bc 50 cb 8b 3c 7c 69 fb 3b 87 1b ed 3c
       -0.026184866 0.01706472 0.007672487 0.02894379
000080 83 77 14 bd 73 50 17 3d e2 c4 46 bd 2a ea af bc
       -0.036246788 0.036941957 -0.048527606 -0.021473963
000090 f6 f2 23 3c d4 c2 72 3d 28 47 bf 3d 82 c9 dd 3d
       0.010006657 0.059267834 0.09339744 0.1082945
0000a0 f2 66 a3 3d f0 f4 b5 3c 74 c3 d6 3d 14 45 07 bf
       0.0797862 0.022211522 0.104864985 -0.5283978
0000b0 c3 e8 ca be 81 ef f4 be 6a 2c ba bf fc 41 0c 3c
       -0.39630708 -0.47838977 -1.4544804 0.008560654
0000c0 27 2e ab ba 18 07 58 3c 2b 3d f9 3c 56 bd 78 3d
       -0.0013060019 0.013185285 0.030424675 0.06072744
0000d0 a3 16 87 3c 29 a3 96 3c af 08 84 3d 81 58 ae 3d
       0.016490286 0.018388348 0.06446969 0.085129745
0000e0 14 68 24 3d ba bf cd bd 50 55 ba bd d0 9b 84 bd
       0.04013832 -0.100463346 -0.09098303 -0.064750314
0000f0 8a 41 8e bd 61 98 65 3d f0 16 47 bd db 5b c8 bc
       -0.06946094 0.056053523 -0.04860586 -0.024457863
000100 a7 59 62 bc ad fc d8 3b 40 b3 b7 3d 74 62 13 3d
       -0.01381532 0.006621918 0.08969736 0.035982564
000110 a3 1e bf 3d 9f c2 c3 3d 5c 13 d7 3d a5 0e 7f 3c
       0.09332015 0.095586054 0.105017394 0.015567456
000120 b5 cf 1b 3c d6 76 b0 bb 12 96 b4 3d bc ab ae 3d
       0.00950997 -0.00538526 0.08817686 0.085288495
000130 b0 f6 a3 3d 4b c6 a4 3d 86 8f ca bc a7 04 d3 be
       0.08006036 0.08045634 -0.02472664 -0.41214487
000140 47 34 28 3e 80 fe 68 3e c4 5d 6f 3e 2f 31 7f be
       0.16426192 0.22753334 0.23375612 -0.24921106
000150 49 a5 62 bc f4 62 f0 bb 57 62 d8 3c b0 4b 5a bc
       -0.013833352 -0.007336015 0.02641408 -0.013323709
000160 38 9f 15 ba e8 23 96 bd 75 57 6d 3d fa e1 a5 3d
       -0.00057076244 -0.07331067 0.057944734 0.08099742
000170 05 d8 f7 3d fe 2f b2 3d 5b db 13 bf 84 be f4 3d
       0.12101749 0.0870056 -0.57756585 0.119504005
000180 a5 38 52 3d 3d 8a fa 3c 44 8a 72 be 8c 44 88 bc
       0.05132355 0.030583495 -0.23685557 -0.016634248
000190 98 a2 0f 3d fd aa c1 3d a5 a8 58 3d 6c 84 db 3d
       0.03506717 0.094564416 0.052895207 0.10718617
0001a0 27 a0 4c be e0 84 56 bb 1d 98 09 bc 4b e9 6d bc
       -0.19982968 -0.0032733008 -0.008398083 -0.014520953
0001b0 b7 2b f2 3d 50 91 d7 3c 8a ad 7f bc 35 5b 99 3e
       0.11824744 0.026314408 -0.01560534 0.29952398
0001c0 2c fb ae be 45 2e 53 be f0 4e 34 be 11 51 8e bf
       -0.34176004 -0.20623119 -0.17608237 -1.111849
0001d0 51 dd 2b bd 6e e4 1e 3c 11 81 9d 3c 45 80 ca 3d
       -0.04195911 0.009698017 0.019226583 0.09887747
0001e0 8f f4 f2 3d 9a 59 31 bd 52 cd a7 3c 69 58 a1 bd
       0.11863052 -0.04329834 0.020483647 -0.07878191
0001f0 84 47 7d bc 5a 23 f7 bd 51 83 d7 bc 85 8b 13 3d
       -0.015458945 -0.1206729 -0.026307734 0.036021728
000200 a1 8b e6 bd fe 9c 56 be c1 40 ca be a8 e9 ee 3c
       -0.11257101 -0.20958325 -0.39502528 0.02916415
000210 6e 22 6a bd 79 ad 3f bc 40 b8 c6 3d a6 79 7d 3d
       -0.05716174 -0.011699074 0.09703112 0.06188359
000220 8f 7d 4a bd c1 cc fd 3c 30 f0 ed 3c 1e 5b 1a 3e
       -0.04943615 0.030981423 0.029045194 0.15073821
000230 eb 4d 00 3e 9e 03 9e 3d 38 0b e3 3d 9b b9 9f 3c
       0.12529723 0.07715534 0.11086124 0.019497683
000240 c7 26 2c 3d 3f 7f 01 bc aa 51 46 3c 90 4a b8 3b
       0.04202917 -0.007903873 0.012104431 0.005624123
000250 34 34 7e be 96 ab 9a bc b4 3d 28 be 1a c2 78 be
       -0.24824601 -0.018880647 -0.16429788 -0.24292794
000260 d9 dd ae be 04 b0 33 be b7 97 8e 3b 1b d0 92 3c
       -0.3415363 -0.17547613 0.004351582 0.017921498
000270 40 63 21 be b1 29 4e bf dc bb 92 bd 16 48 0f be
       -0.15760517 -0.80532366 -0.071647376 -0.13992342
000280 90 ce 1e bd 8a 6f 87 be 43 0c 9c bd 1f a8 fb be
       -0.038771212 -0.26452285 -0.07619526 -0.49151704
000290 9e 0d 08 bd c6 64 b6 3d 5d 91 46 be 68 24 1c bf
       -0.03321611 0.0890594 -0.19391389 -0.6099305
0002a0 1f 92 21 be e5 0b 48 bd aa b9 50 3d 37 98 4e be
       -0.15778397 -0.04883947 0.050958313 -0.20175253
0002b0 95 42 6e 3d d4 aa 65 be 35 27 50 be de 67 60 3e
       0.058168966 -0.22428447 -0.20327456 0.21914622
0002c0 77 17 8d bd 1e 83 84 bf 4c 36 90 bd cf f1 a7 be
       -0.06889241 -1.0352514 -0.07041606 -0.32801673
0002d0 3c 15 ee 3d 0c 14 8e be 31 89 f4 bd 2a d9 08 3e
       0.11625144 -0.2774967 -0.1194023 0.13364092
0002e0 d8 27 2a 3d 74 a3 3a bc c9 b6 36 bd 3b 51 0c bc
       0.041541904 -0.011391509 -0.04460791 -0.008564289
0002f0 a4 dc 5f 3b 0d 59 c7 3d 92 f0 6a 3e 9d 07 dc bd
       0.0034158612 0.09733782 0.22943333 -0.107436396
000300 9b 6f 75 be 19 76 82 be 84 34 cc bf 45 de d2 bc
       -0.23968355 -0.25480726 -1.5953526 -0.025740752
000310 d1 f5 52 bd d8 1a 69 bd 3b 45 d5 bd 1f bf 1f bd
       -0.05150396 -0.056910366 -0.10413595 -0.039000627
000320 57 a6 b0 bc 46 94 88 3c f7 4d 73 3c e3 6a b0 bc
       -0.021563692 0.016672265 0.014850131 -0.021535343
000330 49 f1 c6 3a 20 5f 11 3e 75 e8 85 3d b6 93 c0 3d
       0.001517811 0.14196444 0.06538478 0.094031736
000340 c3 0c 66 3d b7 79 72 3c 8f a7 0a 3c 28 a0 18 3c
       0.056164514 0.014799527 0.008462801 0.009315528
000350 f3 15 bd 3b 42 d7 37 bc eb ee 94 3d df 71 91 3d
       0.005770439 -0.011220755 0.072721325 0.07101797
000360 40 87 eb bd 7b 3c 05 be 9d e5 b4 3d 7e 2d 34 bf
       -0.11500406 -0.13011353 0.08832858 -0.70381916
000370 64 5c 03 3c 8a f2 9c 3a a7 d4 95 bd 1f d1 7e bb
       0.008017633 0.0011974138 -0.07315951 -0.003888197
000380 7f 1b 65 ba a5 09 43 bd 59 e7 6b 3d 3a 60 c7 be
       -0.0008739754 -0.04761662 0.057593677 -0.38940603
000390 b9 36 c7 3d f5 ee ee 3c a1 d9 1e 3e 84 ec 55 3e
       0.097272344 0.029166678 0.15512706 0.20891005
0003a0 05 e3 43 bc 08 60 ed 3d 53 97 a8 3d 79 4c 14 bd
       -0.011955981 0.11590582 0.08231988 -0.036205743
0003b0 b0 a7 ab bc c0 4a c0 bd a6 8a aa bd cd 70 8a 3a
       -0.020953983 -0.093892574 -0.08327226 0.0010562182
0003c0 0d 41 d6 bc 21 fc 91 3e 2b 76 62 be df 15 20 bc
       -0.026154066 0.28512672 -0.2211539 -0.0097708395
0003d0 fc f1 7c 3d 33 26 e0 3a 3e de ba 3d 10 9e ae be
       0.06175421 0.0017101228 0.091244206 -0.34104967
0003e0 b4 b9 e8 3a a7 ee 86 bc 56 ab 4b 3d 2f f3 12 3e
       0.0017755539 -0.01647122 0.049723946 0.1435058
0003f0 e4 ac 94 be 16 0b e6 3d 9b 13 0a 3e 41 a6 dc 3d
       -0.29038155 0.11232583 0.13484041 0.10773898

hidden_layers.0.bias f4 [128]
000000 9f b2 c9 ba d0 ae 0b 3d c9 1f 98 bd b7 a2 5c bd
       -0.0015388316 0.03410226 -0.074279375 -0.053866114
000010 9d 42 9c bd 58 f7 c3 bd a2 fc 8a bc 5a 41 80 3d
       -0.07629893 -0.095686615 -0.016966168 0.06262465
000020 92 01 2f be ef cd 89 bc ad 22 13 be e6 0e cd bd
       -0.17090443 -0.01682183 -0.14368697 -0.10012607
000030 d5 81 d7 bd ca 21 18 be a8 2b d4 bd 0d 4c 65 bd
       -0.1052281 -0.1485664 -0.10359889 -0.05598073
000040 b2 6d 6f bd bb c2 15 be 4a 3f cf bd 25 1b 1f bd
       -0.058454223 -0.14625065 -0.10119493 -0.038844246
000050 17 e6 47 be f8 85 41 3d cd 9b aa 3d 67 52 a1 bd
       -0.19521366 0.047246903 0.08330498 -0.07877045
000060 d0 f6 9e bd a8 66 02 3e 7a 02 9d 3d ba 1e 46 be
       -0.077619195 0.12734473 0.07666488 -0.19347659
000070 d2 07 e8 bd 29 ce 22 be 59 9c 52 3d 14 af c5 3d
       -0.113296166 -0.15898956 0.051418636 0.09652534
000080 14 79 a1 bd 03 16 d6 3c 08 bf 29 bc 68 66 92 be
       -0.07884422 0.026133543 -0.010360487 -0.28593755
000090 b0 41 52 bd 42 59 bd 39 63 59 c4 bd 95 03 05 3d
       -0.051332176 0.0003611539 -0.09587362 0.03247412
0000a0 45 79 84 bc 83 5f 5f 3d 10 f0 e0 3d b5 d6 5c bb
       -0.016171107 0.054534446 0.10983288 -0.0033697311
0000b0 ef 2b b6 bc b8 8e 4c be 19 7b 0e 3d e6 df 19 be
       -0.022237746 -0.19976318 0.034785364 -0.15026817
0000c0 08 34 6f be 15 81 a4 3d 4e d8 a0 bc f1 d8 09 bb
       -0.23359692 0.08032433 -0.019634392 -0.0021033848
0000d0 cb c1 a1 bc 0c bb e8 3c d2 64 0d bd b4 f7 80 3c
       -0.019745728 0.028409503 -0.034519978 0.015743114
0000e0 7c 6f 38 be fd bf ba bd 3a 84 4e 3b 61 c3 0c be
       -0.18011278 -0.0911865 0.0031511919 -0.13746406
0000f0 88 ad 43 be c9 94 b2 bc ee 2e 2a 3d 4f 99 ae bd
       -0.19109166 -0.021799462 0.041548662 -0.08525335
000100 63 5a f2 3d 94 75 41 3d b6 ec 97 bd 0c b4 ea bd
       0.11833646 0.047231272 -0.07418196 -0.114601225
000110 ff 1e 13 be 91 c1 e0 bd 96 b7 de 3a 54 b8 ad bd
       -0.14367293 -0.1097442 0.0016991969 -0.084824234
000120 eb 24 e4 3c 9d a9 27 be 56 cf 54 be 29 63 9c bd
       0.027849635 -0.16373296 -0.20782217 -0.07636101
000130 76 6f b9 3d 2c 21 1c be 4a d3 b8 3c 0b 1b a7 bd
       0.090544626 -0.15247029 0.022561688 -0.08159455
000140 d1 99 e2 bd 67 ee b9 bc e8 7d 9a 3b 62 25 e1 bd
       -0.110644944 -0.022696687 0.004714716 -0.10993458
000150 de ec 01 be 6f 78 2a 3e c9 9c e0 3a df 30 25 be
       -0.12688014 0.16647504 0.0017136569 -0.16131924
000160 c7 78 d0 bb f6 f8 b5 3c 97 d8 af 3d b9 f7 57 be
       -0.006362054 0.02221344 0.08586233 -0.21090592
000170 8f 0a 17 be 23 54 5c be e8 3f d7 bd b9 27 75 3d
       -0.14750122 -0.2151647 -0.10510236 0.059852336
000180 03 c4 d3 bd e9 44 5d be 5f 78 7f bd 7b bc e8 3d
       -0.10340121 -0.21608318 -0.062370654 0.11364075
000190 21 b4 4f be 7c 8f 7c be 97 c5 7b 3d 15 a7 da 3d
       -0.20283557 -0.2466411 0.061467733 0.106763996
0001a0 39 c8 9d be b7 11 04 be 47 fb 44 be 51 37 cb 3d
       -0.3081682 -0.12897383 -0.1923648 0.0992266
0001b0 94 9f 47 be c9 1e e4 bd e9 cc d6 3d c8 54 36 bd
       -0.19494468 -0.11138684 0.10488302 -0.044514447
0001c0 a2 c9 dc bd c5 46 0e be f0 db 9e bc 7d ed 9f 3d
       -0.10780646 -0.13894184 -0.019391984 0.07808969
0001d0 42 6c 06 be 2f 23 94 3d 58 87 f0 bc 2e 8d 0f be
       -0.13127235 0.07233273 -0.029361412 -0.140187
0001e0 b1 8b 9f bd 1f 22 ae 3c 2c 98 f4 bb 46 ce 72 be
       -0.07790316 0.021256505 -0.0074644294 -0.237115
0001f0 4b 06 e3 bd a5 a4 ba 3c a6 b2 60 3d 5e fb 22 bd
       -0.11085185 0.022783587 0.054857872 -0.039790504

hidden_layers.1.weight f4 [64, 128]
000000 a9 99 46 bc fe fa 8c bd 9d 03 b1 be 2c 08 95 3d
       -0.012121596 -0.068838105 -0.3457307 0.07276949
000010 b0 1c 00 3e 42 15 ca 3d 6d 04 39 be 80 f6 de bd
       0.12510943 0.09867336 -0.18068095 -0.1088686
000020 7b f7 dc 3d 48 6a 46 bc 50 74 30 bd ca a4 02 bc
       0.10789391 -0.0121103 -0.043079674 -0.007973859
000030 c5 df aa be f6 85 95 3d 16 e3 52 be 92 8e 19 3d
       -0.33373848 0.07300942 -0.20594439 0.03748948
000040 a8 3c a8 be 0c 84 44 be 65 4b 53 bd b1 e5 11 3d
       -0.32858777 -0.19190997 -0.051585574 0.03561944
000050 49 88 3a 3e 0f 61 3e 3d 41 6a 01 3d 25 6a 16 be
       0.18216051 0.04647928 0.031595472 -0.14688928
000060 61 5e 94 ba b9 2e 9a 3c 01 4b fd bd 3c 28 76 be
       -0.0011319631 0.018821107 -0.123678215 -0.24038786
000070 63 0f be bc 15 ea b9 3d cf 53 d6 be 1e 2e 42 3d
       -0.023200696 0.09077851 -0.41860816 0.047407262
000080 ee 1c 26 be f0 1f e1 bd 8f 73 62 be ae ea 3f bd
       -0.16221973 -0.1099242 -0.22114395 -0.046854667
000090 66 95 65 3b e9 8d ee bc d1 2d 96 be 90 f0 17 bc
       0.0035031675 -0.029120402 -0.2933183 -0.009273663
0000a0 e5 8a 42 bd c2 3a ea bd c6 52 14 bd ca d3 10 ba
       -0.04749574 -0.114369884 -0.03621175 -0.0005524723
0000b0 41 00 f3 3c 82 36 b0 bb 86 f6 3e bd 12 ea 56 bd
       0.029663207 -0.0053775916 -0.04662182 -0.05246932
0000c0 04 04 6c bd e3 61 4e 3c 9c bd 06 be a7 fb 46 3d
       -0.057621017 0.01259658 -0.13158268 0.048579838
0000d0 be 62 87 bd ec ee c2 bc fc 53 84 be 0a fe a1 3d
       -0.066106305 -0.023795567 -0.25845325 0.07909782
0000e0 e0 ff a4 3d 9b 2c 8f 3d ca f4 03 3e e4 f5 79 3d
       0.08056617 0.0699093 0.12886348 0.061025515
0000f0 0b 8b 9a bd 27 ed 57 bd e3 4e 83 be 85 a1 96 3d
       -0.075460516 -0.0527164 -0.25646123 0.07355026
000100 4d 3c 67 3d b1 51 6c 3d 34 95 ef bb 12 2a 07 bf
       0.05645399 0.057695094 -0.0073114876 -0.5279857
000110 18 a6 06 3d 4e 8d 6f bd b3 ba 23 3d aa 23 76 bd
       0.032873243 -0.058484368 0.039972972 -0.060092606
000120 68 20 65 be cd 97 cd bd e2 eb cb 3b 61 9e 61 3d
       -0.22375643 -0.10038719 0.006223188 0.055082683
000130 4d a9 de bd a0 06 95 bd 61 87 d7 bd 44 49 03 3e
       -0.10872135 -0.07276654 -0.10523868 0.12820917
000140 15 c4 04 3c eb 32 0b be 40 29 72 bd b9 d8 82 3c
       0.00810339 -0.13593642 -0.05912137 0.015972482
000150 f4 d1 ed bc bb 8b ad 3c 74 1d e6 be aa 2a 56 3d
       -0.029030778 0.021184793 -0.44944346 0.05228678
000160 49 86 6c bb 9b 94 99 bc 63 a1 24 3c e5 b8 55 bc
       -0.0036090782 -0.018747618 0.010048243 -0.013044571
000170 13 ff 97 3b 26 bf 51 bc 6c 31 2e 3d e8 79 9c bc
       0.0046385615 -0.012801921 0.0425276 -0.019101098
000180 96 dd 49 be 49 96 c0 3d f4 93 22 be 5a 76 da ba
       -0.19713435 0.094036646 -0.15876752 -0.0016667352
000190 5d 9b 78 be 9c 2e 9d 3d 4c 1a 88 bd fd fc 61 3d
       -0.24278016 0.07674906 -0.06645641 0.05517291
0001a0 ae 56 20 3d 91 b3 b4 bc a6 df 29 3c 6c 32 b9 be
       0.039145164 -0.02205828 0.010368263 -0.3617128
0001b0 2b db ba 3d 56 8c ad bc cf 73 56 be aa f1 4c bd
       0.09123834 -0.021185081 -0.20942615 -0.050035156
0001c0 1d 41 68 3d a8 af 8a be c4 7a ae bc eb d2 f5 be
       0.056702722 -0.2708714 -0.021298774 -0.4801248
0001d0 4f 3c 9d bd 3b 63 46 3d 7e 34 89 bc 62 ad b0 3d
       -0.076775186 0.048434477 -0.016748663 0.0862682
0001e0 04 ee 51 bc 37 10 e6 bd cc 95 07 3b c8 5e 2c bc
       -0.012813095 -0.112335615 0.002068865 -0.0105206445
0001f0 36 a1 9e be 31 15 32 3d 94 7a 09 bd 43 94 82 bd
       -0.3098237 0.04347724 -0.033564165 -0.06375935
000200 85 ea 24 be da ea 01 bf 8e b8 80 ba f7 00 54 be
       -0.16105087 -0.5074898 -0.0009820627 -0.20703493
000210 cf 76 3a 3e 06 a9 75 be 6b 9c b8 3a 29 50 56 be
       0.18209384 -0.23990259 0.0014084702 -0.20929016
000220 26 bb 2f 3e 51 f1 8a be a9 7f dd be 25 65 23 bf
       0.17161235 -0.27137235 -0.4326146 -0.6382621
000230 e0 91 1b 3d 7e 01 52 3c 75 3d d6 3b bc d0 fb bd
       0.037980914 0.012817739 0.006538088 -0.12295672
000240 94 2e 94 3c ee 89 82 ba 2a 26 fc 3b 7b c1 0f 3d
       0.018088616 -0.0009959319 0.007694979 0.035096627
000250 25 82 65 3e 98 d4 d0 3c 73 12 3d be 7f fe 7d bd
       0.22412927 0.025491998 -0.18464069 -0.062010285
000260 e3 db 32 bf 7b ef 22 bf ad 41 93 be ee cc ea 3c
       -0.6986677 -0.6364667 -0.28761044 0.028662171
000270 46 f9 16 bc 86 bc 09 be c4 d7 af 3c 9b a6 e8 3c
       -0.009214705 -0.13450822 0.02146519 0.028399756
000280 ac 30 95 3c 8d c4 ce bd 3a 4b a4 3b 28 10 ad bd
       0.018211685 -0.10096083 0.0050138505 -0.08450347
000290 e4 4f 5c 3b 93 fd d8 be c2 57 8d bc de 7d 5c be
       0.0033616954 -0.42380962 -0.01725376 -0.2153239
0002a0 47 64 db be 7b 8c 8a be a2 4f aa bd 14 f9 ec be
       -0.42849943 -0.27060303 -0.0831597 -0.46283782
0002b0 3a 4b eb bb 8d 26 1b 3d c2 98 b6 3d 0e 7f 2b 3e
       -0.0071805986 0.03787856 0.08915855 0.16747686
0002c0 33 4f 7f bb 43 ed 10 be 59 8f 0c bd 4e 84 08 bf
       -0.0038957119 -0.14153008 -0.034316394 -0.5332688
0002d0 ae ca b7 38 30 2d 88 bc 9f 77 b7 3b 24 7f 87 be
       8.763872e-05 -0.01662311 0.0055989767 -0.26464188
0002e0 21 8d d7 3d 7f 00 dd 3d d9 58 44 bf cf b1 36 3c
       0.10524965 0.1079111 -0.7669807 0.011150791
0002f0 df bc 07 3e c4 84 6b be 9e 8a 79 bb 40 7a 94 be
       0.13255642 -0.22999865 -0.0038077007 -0.2899952
000300 be 7e 14 bf ea 3e 3a be 27 ae c3 3c 9f 4d 10 3c
       -0.58005893 -0.18188062 0.023886753 0.008807569
000310 12 10 8c 3d 49 60 22 3d 8e 17 4a bc c6 19 c5 be
       0.06839003 0.039642606 -0.012334717 -0.38496226
000320 08 9a 49 3b fe 58 ce 3c ef 6f ca 3a 10 66 ad bd
       0.0030761976 0.02518892 0.0015444736 -0.084667325
000330 a7 97 d3 be f6 ca a4 3e 98 16 b1 bb a0 1d 5b bd
       -0.4132664 0.32186097 -0.0054043047 -0.05349505
000340 94 de f8 be 43 4e 5e bb 86 62 60 3c 91 34 af be
       -0.48607314 -0.003392116 0.013695365 -0.34219792
000350 2e 23 12 3c 08 71 5c bf 77 de d7 bc 1e 8a 63 3c
       0.00891952 -0.8610997 -0.026351197 0.01388791
000360 14 4a 46 be 4f aa 93 be 93 7c 72 be 9d 0e 97 bd
       -0.19364196 -0.28840873 -0.23680334 -0.07375834
000370 48 dd 75 be aa c4 a8 bd 46 ed 4f bb ae ca 51 bf
       -0.24010193 -0.08240636 -0.003172712 -0.8194989
000380 4f 43 1e bc 41 18 6b bd c3 48 6c bd 6d c8 5e be
       -0.009659602 -0.057396177 -0.05768658 -0.21756144
000390 ce b2 0e 3c 79 6a 42 3c a2 a6 be be 36 bb 76 3e
       0.008709623 0.011866205 -0.37236506 0.24094853
0003a0 1e f6 ac 3c ce bc 6c be 1f 2a 0c 3c f0 94 f8 3c
       0.021113452 -0.23118898 0.008554964 0.030344456
0003b0 59 fb d6 3b 7b b0 89 bd 9f 4c d4 3b 21 5b 26 be
       0.0065607247 -0.06723114 0.0064788605 -0.162457
0003c0 ac 82 2c bb d4 b7 36 3a e3 99 f7 bd 2e bf b5 3b
       -0.0026323004 0.00069701415 -0.120898984 0.005546472
0003d0 fb 4b f5 3b 20 f4 a6 be 5d ac 7a be 15 d5 44 3e
       0.007485864 -0.32608128 -0.24479814 0.1922191
0003e0 3e 4f b0 be 12 86 6a be db 4f ad bd b1 50 a9 3c
       -0.34435457 -0.22902706 -0.08462497 0.02066836
0003f0 0c 6a a2 bc 3e 6e e2 bd 51 1d 60 3d 87 d6 fd be
       -0.019825958 -0.11056183 0.05471546 -0.49577734

hidden_layers.1.bias f4 [64]
000000 86 9a 80 3e 72 84 cd 3d bd 33 e5 3d f7 cb f3 3d
       0.25117892 0.100350276 0.11191509 0.119041376
000010 96 58 8d 3e ff 5f 52 3e 2d 0b fd 3d a3 50 0f 3e
       0.27606648 0.20544432 0.12355647 0.13995604
000020 35 40 3e 3e 9a 16 01 3e 18 1a 8a 3e c2 67 f1 3d
       0.1857918 0.12606278 0.26973033 0.11787368
000030 e9 8a 5b 3e cb 93 fc 3d c5 ac d7 3d 8d 07 1d 3e
       0.21439709 0.12332877 0.10531 0.15334912
000040 32 36 dd 3d 15 98 e2 3d 58 86 7c 3e 29 00 20 3e
       0.108013526 0.110641636 0.24660623 0.15625061
000050 93 74 0a be 51 70 74 3e 66 3a 07 be 5e bb 79 3e
       -0.13521032 0.2387097 -0.13205871 0.24387881
000060 26 1e 0d 3e 76 3c 8a 3e fc ff 80 3e 5b f4 82 3e
       0.13781032 0.26999253 0.251953 0.25577053
000070 34 41 cf 3d 36 4a e1 3b cf 4c 23 3e 1a 31 3e 3e
       0.101198584 0.0068753017 0.15947269 0.18573418
000080 ab d4 28 bd 13 68 86 3e 4c 86 70 3e 35 fb 35 3e
       -0.04121844 0.26251277 0.2348873 0.17771609
000090 0c 77 20 be 72 0e 24 3e ac f9 09 3e 4f d8 3a 3e
       -0.15670413 0.16021135 0.13474149 0.18246578
0000a0 43 c6 1b 3e 97 ea 42 3e 55 f6 df 3d 3c 03 7b 3e
       0.1521235 0.19034801 0.10935656 0.24512953
0000b0 fe 52 fc 3d bc d2 73 3e 08 bc 28 3e 50 6d f4 3d
       0.12320517 0.23810858 0.16477978 0.11934912
0000c0 78 c8 e8 3d 3d 68 d1 3d ef 5c e6 3d 29 d5 f5 3d
       0.113663614 0.1022496 0.112481944 0.12003548
0000d0 8c 2c e9 3d a2 a8 6a 3e a6 64 bc 3d d8 3a cd 3d
       0.1138545 0.22915891 0.09198885 0.10020989
0000e0 10 e0 05 3e d0 b4 7f 3e a4 ad 70 3e ba 71 ed 3d
       0.13073754 0.24971318 0.23503739 0.11593957
0000f0 7a 5b bc 3d 71 93 c6 3d 44 0f e4 3d 6e ce 28 3e
       0.09197135 0.09696091 0.11135724 0.16484997

output.weight f4 [4, 64]
000000 86 4d 71 3d fa 15 03 be 2d f2 18 3d 84 bb 1d 3d
       0.058911823 -0.12801352 0.03734033 0.038508907
000010 bd 57 8f 3d d4 1d 25 3d 98 68 30 3d 22 02 29 3d
       0.069991566 0.04031165 0.0430685 0.0412618
000020 79 7b 06 3d ef 77 39 3d b1 24 79 3d ed fb cc 3c
       0.032832596 0.045280393 0.060826007 0.025022471
000030 f5 1b 74 3d b9 b6 32 3d bb 58 10 3d 31 d8 07 3d
       0.059596974 0.04363129 0.03524087 0.03316516
000040 02 e2 f6 bd a1 08 31 3d eb 6c b2 3d d1 1d 2d 3d
       -0.12054826 0.04322112 0.08712181 0.042264763
000050 a0 ba 64 bd 8d 73 64 3d 66 59 a1 3d 35 d3 d9 3d
       -0.055842042 0.05577426 0.078783795 0.10635988
000060 98 14 cc bd e3 4e b9 3d 87 b7 68 3d a1 94 8b 3d
       -0.099648654 0.090482496 0.05681565 0.06815458
000070 62 06 2f 3d bf ca ac bd d8 76 24 bd d9 d0 22 3d
       0.042730696 -0.08437108 -0.0401524 0.039749954
000080 81 f8 be bd c0 54 83 3d ba b9 8c 3d 86 c1 0b be
       -0.09324742 0.06412649 0.06871362 -0.13648042
000090 4d 7c 5c 3c 10 8f 21 3d ce 81 dd bd 82 3c 48 3d
       0.01345737 0.039443076 -0.10815774 0.04888583
0000a0 fe a6 01 3d d7 06 f0 bd 9f 1e ec bd a0 0d a1 3d
       0.031653397 -0.117200546 -0.11529278 0.07863927
0000b0 52 78 9b bd f6 e2 8b 3d 98 7b 14 3d 2d 42 2b 3d
       -0.07591309 0.06830399 0.03625068 0.041811157
0000c0 8e 38 fc 3c 4f c4 04 3d f3 97 cb bd b9 f7 f6 3c
       0.030788686 0.032413777 -0.099410914 0.03014742
0000d0 34 0a d5 bd aa 95 5e 3d 8b d9 12 3d 7b 09 0d 3d
       -0.10402337 0.05434195 0.035851996 0.03443287
0000e0 a8 94 37 3d ae 5f 63 3d 7c b9 82 3d c1 15 0c 3d
       0.044819504 0.05551117 0.063830346 0.034200434
0000f0 51 74 09 3d d4 fd 18 3d ed 95 f6 3c 60 ef 28 3d
       0.033558194 0.037351444 0.030100787 0.04124391
000100 91 6c 46 3d dd b2 80 bd a7 fd 9d 3c ad 86 93 3c
       0.04844338 -0.062841155 0.01928599 0.018008554
000110 ca d5 6c 3d cb 5b 0f 3d 90 e8 5e 3d 1f 5e 66 3d
       0.057821073 0.03499965 0.054421008 0.056242105
000120 d9 91 1c 3d b7 1b 05 3d 39 ca a8 3d d3 72 08 3d
       0.03822503 0.032497134 0.08241696 0.03331263
000130 d7 95 6b 3d 29 86 d3 3c 81 42 17 3d 8e 76 02 3d
       0.057515945 0.025820808 0.036928657 0.031851344
000140 ba 2c bc bc 89 84 f1 3c cc 07 e2 3d b6 3b 7e 3c
       -0.022970546 0.029482143 0.110366434 0.015517166
000150 38 e0 7e bd 57 43 61 3d a2 fd 6b bd 94 7e d6 3d
       -0.06222555 0.05499586 -0.05761493 0.104733616
000160 98 7b 08 3b 01 36 c9 3d 66 51 8f 3d 74 8a 2c 3d
       0.002082562 0.098247536 0.069979474 0.042124227
000170 b8 81 dd 3c 4c 44 b7 bd 7f 73 94 bd 47 9a de 3c
       0.027039394 -0.089485735 -0.07248592 0.027173175
000180 75 bc b2 bd 9e 23 5d 3d 1b e4 e3 3d f3 46 ce bd
       -0.087273516 0.053989045 0.11127492 -0.10072126
000190 7a 9f f3 bb e1 fd 07 3d 7d f0 c6 bc 4b a5 c3 3c
       -0.0074347826 0.033201102 -0.024284596 0.023882529
0001a0 a5 8a a0 3c 50 e8 97 bd bf 99 a4 ba bf 80 88 3d
       0.01959736 -0.07417357 -0.0012558027 0.06665181
0001b0 3b 88 9c 3a 32 14 88 3d d9 c2 05 3a 16 c9 e2 3c
       0.0011942455 0.06644477 0.0005102582 0.027683776
0001c0 6b 75 b2 3c ad d1 dc 3c b7 d3 cc 3c c8 79 fa 3c
       0.021784505 0.02695545 0.025003297 0.030575648
0001d0 0a 64 0d bc 50 75 4f 3d 89 7e a2 3c 75 65 f2 3c
       -0.008629808 0.050648987 0.019835727 0.029589394
0001e0 8d 15 52 3d 8d 03 55 3d 68 dd 75 3d ce c5 22 3d
       0.051290084 0.05200534 0.060025603 0.039739423
0001f0 c9 74 e6 3c 17 78 de 3c fa 3b 75 3b 82 c9 09 3d
       0.02813186 0.027156873 0.0037419782 0.03363944
000200 5f 8c 87 3b 9f a7 5b bd 0e d7 9a 3d 33 62 4a 3d
       0.0041366066 -0.053626653 0.0756055 0.049410056
000210 f4 f2 07 bd 75 3f 99 3d 4e 61 1b 3d e5 e9 97 3d
       -0.033190683 0.074828066 0.037934594 0.07417659
000220 24 ba 76 3d 51 75 47 3d 47 a1 de 3c 36 37 4f 3d
       0.06023611 0.048695866 0.027176512 0.050589763
000230 e8 86 e4 3c b5 74 dd 3c a8 a2 5c 3d 58 04 42 3d
       0.02789636 0.02703319 0.05386606 0.047367424
000240 f2 b3 8c bd c1 10 dc bc f1 67 34 3d fd b6 24 bd
       -0.06870259 -0.026863458 0.04404444 -0.040213574
000250 94 76 bd 3b 35 4c 4a bc 1d f4 10 3a 09 1b ac 3d
       0.005781958 -0.012347271 0.000552954 0.08403594
000260 be ea 9a 3d 7e e7 84 3d 5a 80 0c 3b 55 0f 06 3d
       0.07564305 0.06489466 0.0021438808 0.032729466
000270 c0 2f 30 3d 6f 5b 94 bd 83 45 99 be 49 68 68 3d
       0.043014288 -0.07244002 -0.29935846 0.05674008
000280 4a a2 ef bd b8 87 4d bb ba f5 41 3b 45 ac 29 bd
       -0.11700876 -0.0031361412 0.0029595927 -0.041424055
000290 16 0b 42 3d 75 f6 15 3d 7b 51 08 bd cd 08 0a 3d
       0.047373854 0.036611993 -0.03328083 0.0336998
0002a0 d4 2b 63 3d 4d f5 99 bd a1 67 08 bd bd 08 9a 3d
       0.05546172 -0.075174905 -0.033301953 0.07521198
0002b0 91 a1 fa 3c b1 80 77 3b 44 c2 49 3d f0 52 00 3d
       0.030594619 0.0037765915 0.04925753 0.031329095
0002c0 75 b9 5c 3d 3a 78 55 3d 4b 08 ea bd 2d 0f 8d 3d
       0.053887803 0.05211661 -0.11427363 0.0688766
0002d0 5b 4d 29 bd c2 2e e1 3c 32 e5 39 3d ef f0 6a 3d
       -0.041333538 0.027488116 0.045384593 0.05735868
0002e0 3f b2 11 3d cd 5e 1b bc 26 94 25 3d 48 30 81 3d
       0.03557038 -0.0094830515 0.04042449 0.06308037
0002f0 b2 53 fe 3c dc d7 e4 3c 37 31 50 3d 37 ab d5 3c
       0.031045768 0.027934961 0.050828185 0.026082618
000300 22 a9 03 3d 32 bd a2 bd 44 2a 3f 3d c9 c4 7b 3d
       0.03214372 -0.079462424 0.046671167 0.061466966
000310 0a 8c 21 3d 1a 8f 77 3d 0d 74 31 3d 68 33 3c bd
       0.039440192 0.060439207 0.043323565 -0.045947462
000320 ee fd 95 3d 04 1b 89 3d 78 24 7d 3c 22 4e 48 3d
       0.07323824 0.06694606 0.015450589 0.04890264
000330 3e b4 39 3d cf ab 00 3d 05 39 32 3d 27 5c 0b 3d
       0.045337908 0.03141385 0.04351141 0.03402343
000340 10 a5 71 bd c8 f5 3a 3d 23 51 2c 3d 80 25 3e 3d
       -0.058995306 0.04564455 0.042069566 0.04642248
000350 b2 16 c9 3d 0a 0a dc 3c 95 15 7e bc a8 55 cc 3d
       0.09818782 0.026860256 -0.015508075 0.09977275
000360 d7 69 fa bd 80 1f 4b 3d bc 90 d9 3c d8 9f be b8
       -0.122272186 0.049590588 0.026558273 -9.089679e-05
000370 ca c4 68 3d 78 da 27 be 5f f9 88 be a3 16 5b 3d
       0.056828298 -0.16391933 -0.26752755 0.053488385
000380 f4 aa 1b be 51 7b 6d 3c a5 26 8b 3c c9 39 d6 bd
       -0.15201932 0.014494733 0.0169862 -0.104602404
000390 3b ae 94 bd b9 68 31 3d a1 32 3f bd ac c9 e2 3c
       -0.07259794 0.043312762 -0.046679143 0.027684055
0003a0 ee f6 ed 3c 39 1d a7 bd 09 34 ac bd ae a8 a6 3d
       0.02904841 -0.08159871 -0.084083624 0.08137642
0003b0 4e 69 67 3d 60 fe a6 3c 73 bf 39 3d 4e ec 40 3d
       0.05649691 0.020384967 0.045348596 0.047100358
0003c0 52 a7 57 3d 46 cf 3a 3d 87 ae 77 3d c3 db ff 3c
       0.052649803 0.045607828 0.060469177 0.03123272
0003d0 1c 55 35 bd e0 3d 6a 3d da f3 0a 3d 95 60 3b 3d
       -0.04427062 0.057187915 0.03392396 0.045746405
0003e0 53 14 b8 bd 30 3a 36 3c ac 22 04 3d de 10 2e 3d
       -0.089882515 0.011122271 0.03225963 0.042496555
0003f0 cb cd 48 3d a0 37 37 3d 3d 77 21 3d 80 36 35 3d
       0.049024384 0.044730783 0.039420355 0.04424143

output.bias f4 [4]
000000 e5 b7 bc 3f 93 d3 a8 3f be 53 b2 3f 69 a7 b2 3f
       1.474362 1.3189567 1.3931806 1.395734
