experiments/navigate_1306_18Oct22075718.pth (torch_old, 54660 bytes, 6 tensors)

hidden_layers.0.weight f4 [128, 37]
0	0x3e4040d3	0.18774728
1	0xbeba3b2f	-0.36373278
2	0xbeb88a9e	-0.36043257
3	0xbec771d9	-0.38954046
4	0xbf7fe914	-0.99965024
5	0xbb85be39	-0.004081514
6	0x3c92f49f	0.01793891
7	0x3de43894	0.11143604
8	0x3e012a05	0.12613685
9	0x3e59117e	0.21198079
10	0xbd62e1d9	-0.055391166
11	0xbda1249a	-0.07868309
12	0xbde8cef4	-0.11367598
13	0xbdb3f300	-0.08786583
14	0x3d0fb832	0.03508777
15	0x3d1ec7e5	0.038764853
16	0x3d9aa770	0.075514674
17	0x3c242bb0	0.010020182
18	0xbe09e097	-0.1346458
19	0xbe38aab6	-0.18033871
20	0x3dc506a2	0.09620406
21	0x3d697bb1	0.057002727
22	0x3d9ed420	0.077553034
23	0x3d25b2b7	0.04045364
24	0x3cf5c512	0.030001197
25	0x3bd17b7e	0.0063928952
26	0x3caf4cff	0.02139902
27	0xb8e4a3d5	-0.00010902403
28	0xbc9f89a4	-0.019474812
29	0x3c13c782	0.009019734
30	0xbce5a3e4	-0.02803225
31	0x3d6c72e8	0.05772677
32	0xbd051309	-0.032488856
33	0x3d53a954	0.051675156
34	0xbcbf21b2	-0.023331497
35	0x3c1dac9e	0.009623675
36	0x3c134325	0.0089881765
37	0x3d94b253	0.07260575
38	0x3da9f2b6	0.082982466
39	0x3dae4e99	0.08511085
40	0x3dda5b9f	0.106620066
41	0xbbaf398d	-0.0053474368
42	0x3ddf3c00	0.10900116
43	0xbf074514	-0.5283978
44	0xbecae8c3	-0.39630708
45	0xbee76802	-0.4519654
46	0xbfb7001b	-1.4296907
47	0x371c4a7c	9.315667e-06
48	0xbc592a63	-0.013254735
49	0x3cbb8af0	0.022893399
50	0x3d5f5fe4	0.054534808
51	0x3d9a4e89	0.07534511
52	0x3d327f9c	0.04357873
53	0x3c03e28c	0.008049618
54	0x3d5b19e0	0.053491473
55	0x3d9e08c7	0.07716518
56	0x3d574cdd	0.052563537
57	0xbdc49744	-0.09599164
58	0xbda96840	-0.08271837
59	0xbd8a2b18	-0.06746501
60	0xbd9106f0	-0.07081401
61	0x3d7f65a6	0.0623528
62	0xbd1eb933	-0.03875084
63	0xbd017ab3	-0.031611156
64	0xbb8dbe94	-0.004325697
65	0xbc2ad91c	-0.0104277395
66	0x3dd5d4a1	0.10440946
67	0x3d8550bf	0.06509542
68	0x3d9aea3e	0.075642094
69	0x3da92b54	0.08260217
70	0x3db95e72	0.09051217
71	0x3b8c9967	0.004290748
72	0x3c8d4736	0.01724587
73	0x3afc1506	0.001923234
74	0x3d71ccf7	0.05903336
75	0x3dd15b24	0.10222462
76	0x3df4cf94	0.11953655
77	0x3d81be2f	0.06335103
78	0xbcfeb5ff	-0.031092642
79	0xbecd637e	-0.4011497
80	0x3e393a47	0.18088637
81	0x3e5358c8	0.20639336
82	0x3e85b145	0.26111808
83	0xbe75e4d2	-0.2401307
84	0x3c8265b1	0.01591763
85	0xbc5d6c66	-0.013514614
86	0x3ccb4cc2	0.024816874
87	0xbb9d8440	-0.004807025
88	0xbc22b0db	-0.009929861
89	0xbdb497a2	-0.08817984
90	0x3dad85f8	0.08472818
91	0x3dc1135b	0.0942752
92	0x3de7e743	0.113234065
93	0x3dd53cdb	0.10411998
94	0xbf13f1e9	-0.57791
95	0x3df4ce30	0.1195339
96	0x3d88ffa9	0.06689388
97	0x3cf8b3b7	0.030359132
98	0xbe6d8c9d	-0.23198171
99	0xbb90f2c6	-0.004423472
100	0x3d85077e	0.0649557
101	0x3d914b03	0.070943855
102	0x3d3ead58	0.046552032
103	0x3dbc6c75	0.09200374
104	0xbe3fac97	-0.18718182
105	0xbc4323a7	-0.011910356
106	0x3ba7bf34	0.0051192287
107	0xbc4cc560	-0.01249823
108	0x3d84405a	0.064575866
109	0x3c0304f9	0.007996791
110	0xbc8b9ba3	-0.017041987
111	0x3e938cca	0.2881835
112	0xbe8f7d74	-0.280254
113	0xbe301943	-0.17197137
114	0xbe37b28b	-0.17939202
115	0xbf8b5aa8	-1.0887041
116	0xbd9d8b10	-0.0769254
117	0x3cff2c4a	0.031149048
118	0x3d4021d5	0.046907265
119	0x3dd74c54	0.10512605
120	0x3e03cef2	0.12871912
121	0xbd7a25fe	-0.06107139
122	0x3d285977	0.041100945
123	0xbdad78f2	-0.08470334
124	0xbcd005be	-0.025393363
125	0xbde207e3	-0.110366605
126	0xbd0cd9be	-0.034387343
127	0x3d494b2f	0.049143966
128	0xbdb0e99e	-0.08638309
129	0xbe72e0d1	-0.23718573
130	0xbecdf842	-0.40228468
131	0xbb10baf3	-0.0022084087
132	0xbd390bbb	-0.045177203
133	0xbc02c5df	-0.007981746
134	0x3dee0ddd	0.11623738
135	0x3d444a42	0.04792238
136	0xbd681ceb	-0.056668203
137	0x3d0b94e0	0.034077525
138	0x3d456224	0.048189297
139	0x3e098eec	0.13433427
140	0x3dd1eb2a	0.10249932
141	0x3d41ba3e	0.047296755
142	0x3ddae8b3	0.10688915
143	0x3d711478	0.05885741
144	0x3d0186e6	0.03162279
145	0xbc92b544	-0.0179087
146	0x3cd3258f	0.025774745
147	0xbb0aae14	-0.0021160888
148	0xbe698610	-0.22805047
149	0xbd2fb133	-0.0428936
150	0xbe0b350b	-0.13594453
151	0xbe7e1448	-0.24812424
152	0xbeb8dced	-0.36106053
153	0xbe33e449	-0.17567553
154	0xbb8b45dc	-0.0042502712
155	0x3d15ce07	0.036573436
156	0xbe1f9b38	-0.15586555
157	0xbf490d6e	-0.7853612
158	0xbd192055	-0.03738435
159	0xbdd61600	-0.10453415
160	0xbd846b51	-0.064657815
161	0xbe833778	-0.25628257
162	0xbd40a635	-0.047033507
163	0xbef38768	-0.47564244
164	0xbdac70df	-0.08419966
165	0x3e006022	0.12536672
166	0xbe59ea98	-0.21280897
167	0xbf216a4b	-0.63052815
168	0xbe2644af	-0.16237138
169	0xbcf0cc43	-0.029394275
170	0x3d737611	0.05943877
171	0xbe29070b	-0.16506593
172	0x3d9f6da7	0.077845864
173	0xbe4d0601	-0.20021822
174	0xbe502735	-0.20327456
175	0x3e6f4411	0.23365809
176	0xbda7c241	-0.08191348
177	0xbf79b1dc	-0.97537017
178	0xbd5efb5e	-0.05443894
179	0xbea55c90	-0.32297182
180	0x3dfaa3ad	0.1223825
181	0xbe89ae11	-0.26890615
182	0xbdd5acc4	-0.10433343
183	0x3e092daa	0.13396326
184	0x3d25a9d7	0.040445175
185	0xbb0919ae	-0.0020919847
186	0xbd378c12	-0.044811316
187	0xbd1dd86c	-0.038536474
188	0x3cc5e8c2	0.02415884
189	0x3da051a8	0.07828075
190	0x3e671b81	0.22569086
191	0xbddc079d	-0.107436396
192	0xbe756f9b	-0.23968355
193	0xbe52c8e1	-0.20584442
194	0xbfc53cb6	-1.5409153
195	0xbd1e0b99	-0.03858528
196	0xbd2c5f86	-0.042083286
197	0xbd5debf4	-0.0541801
198	0xbde1d0c9	-0.11026151
199	0xbc4382db	-0.011933054
200	0xbae96444	-0.0017806371
201	0xb87b1351	-5.9861053e-05
202	0xbc19b34b	-0.009381126
203	0xbc819fdb	-0.015823295
204	0xbcbe60db	-0.023239544
205	0x3df968c4	0.121781856
206	0x3d9fd8f9	0.07805056
207	0x3e030091	0.12793185
208	0x3cf49821	0.029857697
209	0x3d21e102	0.039521225
210	0x3be11a9b	0.0068696267
211	0x3b8a187d	0.004214345
212	0xbc757b3e	-0.0149829965
213	0x3c8b8b57	0.017034216
214	0x3da21484	0.07914069
215	0x3d75e0f8	0.060029
216	0xbe48bdcb	-0.1960365
217	0xbe0b03d5	-0.1357568
218	0x3e01c510	0.1267283
219	0xbf3238fc	-0.696182
220	0xbb15d64f	-0.0022863334
221	0x3b140113	0.0022583648
222	0xbd924859	-0.071427055
223	0xbd00e260	-0.031465888
224	0xbbf2425f	-0.007393166
225	0xbc1d626e	-0.009605987
226	0x3d1e2a1c	0.038614377
227	0xbed24ead	-0.4107565
228	0x3dc7df8b	0.09759434
229	0x3d1e1c1d	0.03860103
230	0x3e297b93	0.16551046
231	0x3e6109cc	0.21976393
232	0xbca13ec3	-0.019683247
233	0x3e0daccd	0.1383545
234	0x3d8eb6a7	0.06968432
235	0xbdb218b5	-0.08696119
236	0xbbba7949	-0.005690728
237	0xbdb52e08	-0.088466704
238	0xbd97d98e	-0.07414542
239	0xbca0b442	-0.019617204
240	0xbcbef5c9	-0.023310559
241	0x3e91b84a	0.28460914
242	0xbe481c95	-0.19542153
243	0xbb82c566	-0.003990817
244	0x3caaad55	0.020834604
245	0x3ccae7c2	0.024768714
246	0x3da1a5d6	0.07892959
247	0xbea71294	-0.3263136
248	0xbc8aa103	-0.01692248
249	0xbc564ff6	-0.013080588
250	0x3d66f723	0.05638803
251	0x3deac79c	0.11463854
252	0xbe951c86	-0.29123324
253	0x3de2ec80	0.11080265
254	0x3e05fb6e	0.13084194
255	0x3de1900a	0.110138014

hidden_layers.0.bias f4 [128]
0	0xbb9a1eea	-0.0047033923
1	0x3d1dd922	0.038537152
2	0xbd852bda	-0.06502505
3	0xbd6c72ca	-0.05772666
4	0xbd75c28f	-0.06
5	0xbdc6d759	-0.09709043
6	0xbc9ae27a	-0.01890682
7	0x3d79ef35	0.06101914
8	0xbe257785	-0.16158874
9	0xbc6e0d1f	-0.0145294955
10	0xbe06344d	-0.13105889
11	0xbdb71875	-0.08940212
12	0xbdd5f59f	-0.10447239
13	0xbe0e53e6	-0.13899192
14	0xbdd70d05	-0.1050053
15	0xbd59cd37	-0.053174224
16	0xbd8c4144	-0.06848386
17	0xbe167c00	-0.1469574
18	0xbde2fb90	-0.11083138
19	0xbd149744	-0.03627707
20	0xbe4cf0ee	-0.20013782
21	0x3d539d81	0.05166388
22	0x3dbd89a0	0.092547655
23	0xbd8b76ff	-0.06809806
24	0xbd810be1	-0.06301094
25	0x3e012c9b	0.12614672
26	0x3da8c198	0.0824005
27	0xbe5145bd	-0.2043676
28	0xbde6f069	-0.11276323
29	0xbe22494a	-0.1584827
30	0x3d2d6f46	0.042342447
31	0x3dc1433d	0.09436653
32	0xbd8c444e	-0.068489656
33	0x3ccf8ab5	0.025334695
34	0xbc8b9bd1	-0.017042072
35	0xbe926668	-0.28593755
36	0xbd7dbc0c	-0.061946914
37	0x3bfe2cd5	0.0077568092
38	0xbd9d6548	-0.076853335
39	0x3cfc70cb	0.030815503
40	0xbc55798c	-0.013029467
41	0x3d649e47	0.055815008
42	0x3df1d597	0.11808317
43	0x3a3d8771	0.000722996
44	0xbc4b5c67	-0.012412167
45	0xbe4af1a9	-0.19818749
46	0x3ccc5a2c	0.024945341
47	0xbe0ad6cb	-0.135585
48	0xbe71c434	-0.23610002
49	0x3dab5c76	0.08367245
50	0xbc389df2	-0.011268126
51	0xba5e34a2	-0.0008476471
52	0xbcda4d94	-0.02664832
53	0x3cdd79e2	0.027035657
54	0xbd296b2c	-0.041361973
55	0x3cb07533	0.02154026
56	0xbe26ad32	-0.16277006
57	0xbdbba7cc	-0.09162864
58	0x3b245e0c	0.002508047
59	0xbe004573	-0.12526493
60	0xbe4555f2	-0.19271067
61	0xbd0d5a2e	-0.03450983
62	0x3d0e681d	0.03476726
63	0xbda5fe0a	-0.08105095
64	0x3df6453e	0.12024926
65	0x3d49d2d5	0.04927333
66	0xbd8acee1	-0.0677774
67	0xbde9f2f3	-0.11423292
68	0xbe36dc17	-0.17857395
69	0xbdf5e131	-0.120058425
70	0x3b055f10	0.002035085
71	0xbdaacfee	-0.08340441
72	0x3cd87ffd	0.026428217
73	0xbe2eda7b	-0.17075531
74	0xbe4854b9	-0.19563569
75	0xbd94ee0e	-0.07271968
76	0x3dd0ec67	0.1020134
77	0xbe28a25b	-0.16468184
78	0x3c722c92	0.014781134
79	0xbda71b0b	-0.08159455
80	0xbdd95323	-0.1061156
81	0xbd1abe85	-0.03777935
82	0xbc4354b5	-0.011922051
83	0xbdd4fd63	-0.10399892
84	0xbe110138	-0.14160621
85	0x3e29f059	0.16595592
86	0x3bee0158	0.007263344
87	0xbe0ab18e	-0.13544294
88	0xbb33eed6	-0.002745559
89	0x3ca0b396	0.019616883
90	0x3da5e943	0.08101132
91	0xbe596e11	-0.21233393
92	0xbe176ded	-0.14788027
93	0xbe5c5423	-0.2151647
94	0xbdceb8ac	-0.10093817
95	0x3d5276f3	0.05138297
96	0xbdcc5c2c	-0.09978518
97	0xbe6342ca	-0.22193447
98	0xbd7788bf	-0.060433146
99	0x3de4c046	0.11169486
100	0xbe50fe22	-0.20409444
101	0xbe8a6576	-0.27030534
102	0x3d80c69a	0.0628788
103	0x3deed891	0.116624005
104	0xbe9dc839	-0.3081682
105	0xbe08f934	-0.13376313
106	0xbe366da9	-0.1781527
107	0x3dc9dbc3	0.09856369
108	0xbe503dc6	-0.20336065
109	0xbde41ec9	-0.11138684
110	0x3dd00b07	0.10158353
111	0xbce319f9	-0.027722346
112	0xbdfe2533	-0.12409439
113	0xbe143e1d	-0.1447682
114	0xbc29d3de	-0.0103654545
115	0x3db17c6d	0.086663105
116	0xbe026cd8	-0.12736833
117	0x3d979ac6	0.074025676
118	0xbd202256	-0.039095245
119	0xbe10ebae	-0.14152405
120	0xbda69a54	-0.081349045
121	0x3cbe52ce	0.023232844
122	0xbbc14c34	-0.0058989767
123	0xbe7395b1	-0.23787571
124	0xbdf05f2a	-0.11736901
125	0x3c9789b9	0.018498288
126	0x3d838ca2	0.06423308
127	0xbd244a4f	-0.04010993

hidden_layers.1.weight f4 [64, 128]
0	0x3d03ce5d	0.032179225
1	0xbd8bdfe3	-0.068298124
2	0xbea537d2	-0.3226915
3	0x3d7ae1e1	0.06125057
4	0x3dd6818b	0.10473927
5	0x3d98d4cb	0.07462462
6	0xbe3e0124	-0.18555123
7	0xbdd38853	-0.10328736
8	0x3de9d8e3	0.11418321
9	0xbc1ecdf2	-0.009692656
10	0xbce9e9a8	-0.028553799
11	0x3bb173ca	0.0054154145
12	0xbe9e838c	-0.30959737
13	0x3d4ef09b	0.050522428
14	0xbe5d1a99	-0.21592177
15	0x3d577ff0	0.052612245
16	0xbe9ab972	-0.3021961
17	0xbe494d47	-0.19658385
18	0xbd76a389	-0.060214553
19	0x3cab8059	0.020935224
20	0x3de6522f	0.11246144
21	0x3d4e81dc	0.050416812
22	0x3cd00375	0.025392273
23	0xbe21629b	-0.15760271
24	0xbc20ff17	-0.009826443
25	0x3ced731a	0.028985549
26	0xbe1fcd6d	-0.15605707
27	0xbe6e86f7	-0.23293673
28	0xbc876a56	-0.016530197
29	0x3de03c02	0.109489456
30	0xbecfd535	-0.40592352
31	0x3ccb486b	0.024814805
32	0xbe3196ec	-0.17342728
33	0xbdd4d575	-0.10392276
34	0xbe690793	-0.22756796
35	0xbd3feaae	-0.046854667
36	0x3cce4535	0.025179485
37	0xbce39d28	-0.027784899
38	0xbe9c4201	-0.30519107
39	0xbc87fb0d	-0.016599203
40	0xbd868bb3	-0.06569614
41	0xbe05f103	-0.1308022
42	0xbd2cfca2	-0.042233117
43	0x3b8ff493	0.004393169
44	0x3ce68047	0.02813734
45	0xbce3337c	-0.02773451
46	0xbd1ea88f	-0.03873497
47	0xbd86a3b1	-0.065741904
48	0xbd18bad8	-0.037287563
49	0x3cdefec0	0.027221084
50	0xbe0bc993	-0.13651113
51	0x3d44e0ab	0.048065823
52	0xbd952c94	-0.07283893
53	0xbc2cafab	-0.010539929
54	0xbe85aa3b	-0.26106438
55	0x3d97ff44	0.07421735
56	0x3d6917f4	0.05690761
57	0x3d84c88f	0.06483566
58	0x3df21600	0.118206024
59	0x3d80302d	0.06259189
60	0xbd82c8d8	-0.06385964
61	0xbcb41cb8	-0.02198635
62	0xbe6532ae	-0.22382614
63	0x3d88a841	0.06672717
64	0x3d7cb0ef	0.061692175
65	0x3d3df3b8	0.046375006
66	0xbc57c054	-0.013168413
67	0xbf0b1c8d	-0.5434044
68	0x3cdf0793	0.027225291
69	0xbd10e8fb	-0.035378437
70	0x3d04f53e	0.032460444
71	0xbd3ab6d1	-0.045584504
72	0xbe4267ca	-0.18984905
73	0xbdabdc81	-0.08391667
74	0x3bb9b4fb	0.0056673265
75	0x3d47512a	0.04866139
76	0xbde4afcd	-0.11166344
77	0xbdeaad0d	-0.11458788
78	0xbdb99dd5	-0.09063307
79	0x3e034944	0.12820917
80	0x3c87b1f1	0.016564341
81	0xbe078b4a	-0.13236728
82	0xbd85fe82	-0.06542684
83	0x3c9b7f27	0.01898153
84	0xbd2d8029	-0.04235855
85	0x3c52f961	0.012876839
86	0xbedeffd1	-0.43554547
87	0x3d6a1203	0.057146084
88	0x3c26a22b	0.0101705
89	0xbb34b499	-0.0027573465
90	0xbbadb3b7	-0.0053009647
91	0xbc55b8e5	-0.013044571
92	0xbb9e41d0	-0.004829623
93	0xbc51bf26	-0.012801921
94	0x3d904c4a	0.07045801
95	0x3bb0b94e	0.005393184
96	0xbe4ada2f	-0.19809793
97	0x3deb208a	0.11480816
98	0xbe163744	-0.1466952
99	0xbc1156b3	-0.008870768
100	0xbe6d492b	-0.23172443
101	0x3d8026d6	0.06257407
102	0xbd832880	-0.06404209
103	0x3d85041f	0.06494927
104	0x3d2056ae	0.039145164
105	0xbcdc417d	-0.026886696
106	0xbcad1c8d	-0.021131778
107	0xbec06cf3	-0.37583122
108	0x3dd2a6cb	0.102857195
109	0xbcad8c56	-0.021185081
110	0xbe4e85b7	-0.20168196
111	0xbd294439	-0.041324828
112	0x3d275763	0.040854823
113	0xbe82e68e	-0.25566524
114	0xbc807d26	-0.015684675
115	0xbf01275b	-0.50450677
116	0xbd94e40c	-0.07270059
117	0x3d81130b	0.0630246
118	0xbcc949cb	-0.02457132
119	0x3db7b335	0.08969728
120	0xbbe296ae	-0.006914935
121	0xbdc19630	-0.09452474
122	0x3d1b4d4e	0.03791552
123	0x3bfb8140	0.00767532
124	0xbe95d1c2	-0.29261595
125	0x3d9010af	0.07034432
126	0xbbee668f	-0.0072754095
127	0xbd81a5a7	-0.06330424
128	0xbe23efcd	-0.16009445
129	0xbef1431a	-0.47121507
130	0xbc0cdd8f	-0.008597746
131	0xbe5352db	-0.20637076
132	0x3e332875	0.17495902
133	0xbe721337	-0.23640142
134	0x3a38f724	0.000705587
135	0xbe40d940	-0.18832874
136	0x3e47f296	0.19526133
137	0xbe8966bf	-0.26836202
138	0xbecf967e	-0.40544504
139	0xbf11ca29	-0.56949097
140	0x3d02f5a2	0.031972535
141	0x3c9acb16	0.018895667
142	0xbbbdb0b7	-0.0057888883
143	0xbd841c83	-0.06450751
144	0x3cc350bd	0.02384221
145	0x3cd31254	0.025765575
146	0x3bb78f9f	0.0056018378
147	0x3d07b419	0.03313074
148	0x3e64849b	0.2231621
149	0x3d377ce6	0.044796847
150	0xbe499425	-0.19685419
151	0xbd69450e	-0.05695062
152	0xbf27b962	-0.65517247
153	0xbf19f262	-0.6013547
154	0xbe884c27	-0.266206
155	0x3c524a18	0.012835048
156	0xbd0e31a8	-0.034715325
157	0xbe03aecb	-0.12859647
158	0x3c1d2e1a	0.009593511
159	0x3ba3dc36	0.0050006164
160	0x3c7e340f	0.015515341
161	0xbdbb8f94	-0.09158245
162	0xbb4adfbf	-0.0030956117
163	0xbdad1028	-0.08450347
164	0x3bc71776	0.006075795
165	0xbec8a0e4	-0.3918525
166	0xbc1d2f27	-0.0095937615
167	0xbe60ede6	-0.21965751
168	0xbed167cc	-0.40899503
169	0xbe78cd02	-0.24296954
170	0xbd94b84a	-0.07261713
171	0xbee56866	-0.44806212
172	0xbc0b2406	-0.008492475
173	0x3c0a9e45	0.008460586
174	0x3d80b968	0.062853634
175	0x3e330358	0.17481744
176	0xbb2b0680	-0.0026096404
177	0xbe25379c	-0.16134495
178	0x3c4b820d	0.012421143
179	0xbefe14f7	-0.4962537
180	0xbc1b930d	-0.009495509
181	0xbc6f7770	-0.014615878
182	0x3c8303f9	0.015993105
183	0xbe5eea11	-0.21768977
184	0x3de13011	0.10995496
185	0x3e112a57	0.14176308
186	0xbf3ca0f1	-0.7368308
187	0x3bba7b42	0.005690963
188	0x3def9819	0.11698932
189	0xbe5f7c81	-0.21824838
190	0xb9df7fee	-0.0004262919
191	0xbe88026c	-0.26564348
192	0xbf0c7d74	-0.54878926
193	0xbe1ecf0b	-0.15508668
194	0x3c467d8e	0.0121148955
195	0xbad726a0	-0.0016414709
196	0x3d45f721	0.048331384
197	0x3b071897	0.0020614022
198	0x3b379684	0.0028013298
199	0xbec101a7	-0.37696573
200	0x3a9b8d88	0.0011867741
201	0x3cce0741	0.025149943
202	0x3c7c9cd4	0.01541825
203	0xbda9bad9	-0.082875915
204	0xbec5d276	-0.3863713
205	0x3e945b4e	0.2897591
206	0x3b0681b6	0.002052409
207	0xbd5b1da0	-0.05349505
208	0xbedfcb31	-0.4370971
209	0x3ba3369a	0.0049808742
210	0x3c995b72	0.018720362
211	0xbe9500af	-0.29102084
212	0xbc118c17	-0.008883498
213	0xbf5d0a36	-0.86343706
214	0xbcb8a01c	-0.022537284
215	0xba70f7e8	-0.00091922143
216	0xbe365618	-0.1780628
217	0xbe883ea2	-0.26610285
218	0xbe5392b2	-0.20661429
219	0xbd9489b2	-0.07252826
220	0xbe75537c	-0.23957628
221	0xbda8c4aa	-0.08240636
222	0xbcf37151	-0.02971712
223	0xbf432577	-0.7622904
224	0xbcf5c1c2	-0.029999617
225	0xbda5b971	-0.08092011
226	0xbd9d7962	-0.076891676
227	0xbe49ad15	-0.19694932
228	0x3c1a0cf8	0.009402506
229	0xbb07e515	-0.0020735909
230	0xbead8fb3	-0.33898696
231	0x3e8931cc	0.26795805
232	0x3cacf61e	0.021113452
233	0xbe72d7c2	-0.23715118
234	0x3cbca386	0.023027193
235	0x3c69ff2e	0.014282031
236	0xbb812770	-0.003941469
237	0xbd89b07b	-0.06723114
238	0xbaeb0c1a	-0.0017932684
239	0xbe2b4d39	-0.16728677
240	0x3ab13a11	0.0013521333
241	0x3c4a214f	0.012337043
242	0xbdcc61ed	-0.09979615
243	0xba6eb309	-0.0009105658
244	0xbbcc4d62	-0.0062348107
245	0xbe9e020f	-0.30860946
246	0xbe6b742d	-0.22993536
247	0x3e09af5e	0.13445804
248	0xbea20c8b	-0.31650195
249	0xbe6f5515	-0.233723
250	0xbdaa0260	-0.08301234
251	0x3cf09085	0.029365787
252	0xbc0a9fa9	-0.0084609175
253	0xbdd362cd	-0.10321579
254	0x3d24d406	0.040241264
255	0xbef346ed	-0.4751505

hidden_layers.1.bias f4 [64]
0	0x3e839d1b	0.257058
1	0x3dd34847	0.1031652
2	0x3dbe0802	0.09278871
3	0x3dd39cec	0.10332665
4	0x3e837110	0.25672197
5	0x3e4e29de	0.20133159
6	0x3de70b8a	0.11281498
7	0x3e0e9609	0.13924421
8	0x3e3478e2	0.17624238
9	0x3dfbed18	0.123010814
10	0x3e8321f1	0.25611833
11	0x3df5687e	0.11982821
12	0x3e487194	0.19574577
13	0x3df997ad	0.12187133
14	0x3dc12fe8	0.094329655
15	0x3e2665e5	0.16249807
16	0x3dd61d36	0.1045479
17	0x3ddaaf37	0.10677951
18	0x3e69dcf2	0.2283819
19	0x3e1e8677	0.15480982
20	0xbe04c359	-0.12965144
21	0x3e7e74b2	0.24849203
22	0xbe073a66	-0.13205871
23	0x3e802596	0.25028676
24	0x3e1223f5	0.14271529
25	0x3e806978	0.25080466
26	0x3e77de22	0.2420583
27	0x3e732406	0.2374421
28	0x3dceeec0	0.10104132
29	0x3c9506a0	0.018191636
30	0x3e2c2f27	0.16814862
31	0x3e40da9f	0.18833397
32	0xbd7ccd83	-0.06171943
33	0x3e807be1	0.25094512
34	0x3e6790a6	0.22613773
35	0x3e175e10	0.14781976
36	0xbe20770c	-0.15670413
37	0x3e208fb4	0.15679818
38	0x3e021e81	0.12706949
39	0x3e36ffc7	0.17871009
40	0x3e17531c	0.14777797
41	0x3e42e176	0.19031319
42	0x3ddee5d7	0.10883682
43	0x3e6cd89d	0.23129506
44	0x3deaa10b	0.11456498
45	0x3e745490	0.23860383
46	0x3e2487b8	0.16067398
47	0x3df08964	0.11744955
48	0x3dd43db8	0.103633344
49	0x3dc7e43a	0.09760328
50	0x3ddb8c7c	0.10720155
51	0x3e05ce40	0.1306696
52	0x3de7811e	0.11303924
53	0x3e68b649	0.22725786
54	0x3dc56902	0.09639169
55	0x3dd1f77f	0.10252284
56	0x3e0e9ebe	0.13927743
57	0x3e798701	0.24367906
58	0x3e697e93	0.2280219
59	0x3de730e2	0.112886205
60	0x3dc14b0c	0.09438142
61	0x3dca31df	0.098727934
62	0x3df7377a	0.12071128
63	0x3e14264f	0.14467739

output.weight f4 [4, 64]
0	0x3d8fa535	0.070139326
1	0xbe109294	-0.14118415
2	0x3ce4e036	0.027938943
3	0x3d09c0de	0.033631198
4	0x3d73af08	0.059493095
5	0x3d31f6b5	0.04344817
6	0x3d1b08e1	0.037850264
7	0x3d50a0a2	0.05093444
8	0x3d1d664b	0.038427632
9	0x3d239eca	0.039946355
10	0x3d8ca8eb	0.06868156
11	0x3d07250d	0.03299432
12	0x3d66dc26	0.056362294
13	0x3d1a9a4a	0.037744798
14	0x3cd4194e	0.025890972
15	0x3d3a8422	0.045536168
16	0xbdfc60fb	-0.12323185
17	0x3d1d4c49	0.03840283
18	0x3da5fc23	0.08104732
19	0x3d4648b6	0.048409186
20	0xbd7b5ab6	-0.061365806
21	0x3d884d30	0.06655347
22	0x3da15966	0.078783795
23	0x3de4785f	0.111557715
24	0xbde4aea7	-0.11166125
25	0x3da50b4d	0.08058796
26	0x3d60633d	0.05478214
27	0x3d7040bb	0.05865548
28	0x3d194f99	0.037429426
29	0xbdc06bf6	-0.09395592
30	0xbd02a8e2	-0.03189934
31	0x3d193747	0.037406232
32	0xbde09cf5	-0.10967437
33	0x3d8f0d8c	0.06985006
34	0x3d9f81b7	0.07788413
35	0xbe033998	-0.12814939
36	0x3c5c7c4d	0.01345737
37	0x3d2a8e35	0.041639525
38	0xbde714de	-0.11283277
39	0x3d3bd485	0.04585697
40	0x3d261cbb	0.040554743
41	0xbe028cda	-0.12749043
42	0xbdfddc80	-0.12395573
43	0x3d8f8aea	0.07008918
44	0xbda0cf8a	-0.07852085
45	0x3d9706ae	0.07374321
46	0x3d1b2c39	0.03788397
47	0x3d0dbdfc	0.03460501
48	0x3d097fe1	0.03356922
49	0x3d075b42	0.033046015
50	0xbdd45645	-0.10368017
51	0x3d2560d1	0.040375534
52	0xbdeab5f9	-0.1146049
53	0x3d7df020	0.06199658
54	0x3d1000f6	0.035157166
55	0x3cff30c5	0.031151185
56	0x3d2a8cb5	0.041638095
57	0x3d5fd72c	0.054648563
58	0x3d6967ae	0.056983642
59	0x3d3eb750	0.04656154
60	0x3d0fd94f	0.03511935
61	0x3d089121	0.03334153
62	0x3d1eb64f	0.03874808
63	0x3d1a1255	0.03761514
64	0x3d66a894	0.056313112
65	0xbd6ff334	-0.058581546
66	0x3caa3bb7	0.020780427
67	0x3d24cfc6	0.04023721
68	0x3d7b9b48	0.061427385
69	0x3d47b839	0.048759673
70	0x3ceeddb7	0.029158456
71	0x3d468f14	0.048476294
72	0x3d29b036	0.041427813
73	0x3cc88fd4	0.024482645
74	0x3da38209	0.079837866
75	0x3d006b3d	0.03135227
76	0x3d8bc2d8	0.06824273
77	0x3d071764	0.03298129
78	0x3d0fcd16	0.035107695
79	0x3d235e42	0.039884813
80	0xbd0c6879	-0.03427932
81	0x3d06ca97	0.03290805
82	0x3dd2d03e	0.10293625
83	0x3d4eee62	0.05052031
84	0xbd7ee038	-0.06222555
85	0x3d973309	0.07382781
86	0xbd6bfda2	-0.05761493
87	0x3e07be11	0.13256098
88	0xbbd481ce	-0.0064852005
89	0x3de4ae0a	0.11166008
90	0x3d87e983	0.06636336
91	0x3d11a9bf	0.035562273
92	0x3d06d2c3	0.03291584
93	0xbde98a39	-0.11403317
94	0xbd7236d0	-0.059134305
95	0x3d5708e1	0.052498702
96	0xbe027874	-0.12741262
97	0x3d809fa4	0.06280449
98	0x3dcfa990	0.10139763
99	0xbdec0ba6	-0.11525659
100	0xbbf39f7a	-0.0074347826
101	0x3ccf3cd6	0.025297564
102	0xbcaf0dbf	-0.02136886
103	0x3d10c15f	0.035340663
104	0x3ccc827e	0.024964567
105	0xbdd18b5e	-0.1023166
106	0xbc2e30ab	-0.010631721
107	0x3da48090	0.08032334
108	0x3d14e403	0.03635026
109	0x3d9ce392	0.07660593
110	0x3d09c262	0.033632644
111	0x3d332bea	0.04374305
112	0x3ccda7d9	0.02510445
113	0x3cb27e4a	0.021788735
114	0x3cd796b7	0.026316984
115	0x3d53ca60	0.05170667
116	0x3abb62f0	0.0014296453
117	0x3d3d3cc6	0.046200536
118	0x3d3b1a67	0.045679476
119	0x3d28c9af	0.041207965
120	0x3d05eccc	0.03269653
121	0x3d97eb48	0.07417923
122	0x3d605ea2	0.05477775
123	0x3cc242d6	0.02371351
124	0x3d07f6ad	0.033194233
125	0x3cd55cf1	0.026045294
126	0x3d0fb252	0.03508217
127	0x3cf3aece	0.02974644
128	0x3b396cf4	0.00282937
129	0xbd48fa04	-0.04906656
130	0x3d6cd5e0	0.057821155
131	0x3d24d1fd	0.040239323
132	0xbd1a1e93	-0.037626814
133	0x3d94b631	0.07261313
134	0x3d34cd99	0.044141386
135	0x3d69ab62	0.05704821
136	0x3d6ee590	0.058324397
137	0x3da636b2	0.08115901
138	0x3bc86cd1	0.0061164876
139	0x3d51274b	0.051062863
140	0x3c8c7ac8	0.01714839
141	0x3d3ea976	0.04654833
142	0x3d49bf19	0.04925451
143	0x3d48f8c5	0.04906537
144	0xbd7833d4	-0.060596302
145	0xbcf3f0fa	-0.029777993
146	0x3d6b3c40	0.057430506
147	0xbd5e801d	-0.054321397
148	0x3bbd7694	0.005781958
149	0x3b56b33e	0.0032760645
150	0x3a10f41d	0.000552954
151	0x3dba7400	0.091041565
152	0x3dc73dc6	0.09728579
153	0x3d846605	0.06464771
154	0x3b501279	0.0031749292
155	0x3cbf8847	0.023380412
156	0x3d3471ee	0.044053964
157	0xbd260360	-0.040530562
158	0xbe9bd38b	-0.30434832
159	0x3d20a862	0.039223082
160	0xbdfb62f1	-0.12274731
161	0x3c235d1f	0.009970932
162	0x3a0e316f	0.00054242363
163	0xbd40c4fd	-0.047062863
164	0x3d420b16	0.047373854
165	0x3d43a912	0.04776866
166	0xbd3865a4	-0.045018807
167	0x3cc98ea9	0.024604158
168	0x3d75f72b	0.06005017
169	0xbdd57b73	-0.10423937
170	0xbd3b6b71	-0.04575676
171	0x3d6731ab	0.05644385
172	0x3d225b61	0.039637927
173	0x3c68e4f4	0.014214743
174	0x3d3636ac	0.044485733
175	0x3d8a0fff	0.06741332
176	0x3d49ab29	0.049235497
177	0x3d6613a6	0.056171082
178	0xbdeb52e0	-0.114904165
179	0x3d5bb399	0.053638075
180	0xbd2d1110	-0.0422526
181	0x3d429db1	0.047513667
182	0x3d67eb68	0.056620985
183	0x3d5c39e6	0.053766154
184	0x3d5e17f5	0.054222066
185	0x3bdb2b19	0.0066884873
186	0x3ccfe7f2	0.025379155
187	0x3d55b90f	0.05217844
188	0x3d449091	0.04798943
189	0x3d3fffc4	0.046874776
190	0x3d522e93	0.051313948
191	0x3c41af43	0.011821571
192	0x3c6d96f1	0.014501319
193	0xbd9ab688	-0.07554346
194	0x3d2731d9	0.040819023
195	0x3d5f3b96	0.054500185
196	0x3d0db65c	0.03459774
197	0x3d95e315	0.07318703
198	0x3d4d0903	0.050057422
199	0xbd6622eb	-0.056185644
200	0x3d68644e	0.056736283
201	0x3d82e730	0.06391752
202	0x3cf5d2bb	0.03000771
203	0x3d3e8d73	0.046521615
204	0x3d17ddf5	0.03707691
205	0x3d0e3bbf	0.034724947
206	0x3d60ca72	0.054880567
207	0x3d5b9948	0.053612977
208	0xbd5efead	-0.054442097
209	0x3d80ff32	0.06298675
210	0x3d4f7924	0.050652638
211	0x3d420fc9	0.047378335
212	0x3dc916b2	0.09818782
213	0x3b556153	0.003255923
214	0xbc7e1595	-0.015508075
215	0x3dc00e0f	0.093776815
216	0xbe0889fa	-0.13333884
217	0x3d9afbc6	0.07567553
218	0x3cd85f25	0.026412556
219	0x3b465ebf	0.0030268875
220	0x3d8b8249	0.06811959
221	0xbe217e45	-0.15770824
222	0xbe86c577	-0.2632253
223	0x3d5776f5	0.05260368
224	0xbdee17da	-0.11625643
225	0x3ca27943	0.019833213
226	0x3cd6574f	0.026164679
227	0xbdce3afa	-0.10069843
228	0xbd94ae3b	-0.07259794
229	0x3c898aa1	0.016789736
230	0xbd749615	-0.059713442
231	0x3d209b73	0.039210748
232	0x3c2dedb5	0.010615756
233	0xbda252d7	-0.07925957
234	0xbd8bdcc3	-0.06829216
235	0x3d8a00fd	0.0673847
236	0x3d87b44c	0.06626186
237	0x3d222d42	0.039593942
238	0x3cfb7ebf	0.030700086
239	0x3d94451c	0.07239744
240	0x3d19a4db	0.037510734
241	0x3d64cd84	0.055860057
242	0x3d80b892	0.06285204
243	0x3d571b7f	0.052516457
244	0xbd2899b0	-0.041162193
245	0x3d5b6ed1	0.05357248
246	0x3d3766f0	0.044775903
247	0x3d198491	0.03747994
248	0xbd7e49b9	-0.062082026
249	0xbadf3a57	-0.0017030936
250	0x3d1dea74	0.03855367
251	0x3d85bd75	0.06530277
252	0x3d2d7942	0.04235197
253	0x3d6f8ee7	0.05848589
254	0x3d491770	0.049094617
255	0x3d079562	0.033101447

output.bias f4 [4]
0	0x3fb2b19e	1.3960454
1	0x3fa061a7	1.2529801
2	0x3fa72577	1.3058308
3	0x3fa8abc4	1.3177419
