experiments/navigate_1385_18Oct22082702.pth (torch_old, 54660 bytes, 6 tensors)

hidden_layers.0.weight f4 [128, 37]
0	0xbdc64b6a	-0.09682353
1	0xbbe434df	-0.0069643105
2	0xbe2bf6c7	-0.16793357
3	0xbda98a34	-0.08278313
4	0xbe3e22cf	-0.18567966
5	0x3c0f5988	0.008749373
6	0xbdfc162b	-0.12308916
7	0x3e006ec0	0.12542248
8	0xbd6ac7e3	-0.057319533
9	0xbc0e1ae1	-0.008673401
10	0xbd9fb272	-0.077977076
11	0xbe3ac702	-0.18239978
12	0xbe36d8d8	-0.17856157
13	0xbdd493fe	-0.1037979
14	0xbe33e4dc	-0.17567772
15	0xbd058576	-0.03259798
16	0xbd33b87a	-0.043877102
17	0x3d9edd48	0.0775705
18	0xbe10c314	-0.14136916
19	0xbe115f07	-0.14196406
20	0xbc279d3a	-0.010230357
21	0x3dc66305	0.09686855
22	0xbd76ae77	-0.060224976
23	0x3d8e3efb	0.06945606
24	0xbddbfef4	-0.10741988
25	0xbd41f072	-0.047348447
26	0x3cb6d12e	0.022316542
27	0xbe323d34	-0.1740616
28	0xbd6c0486	-0.0576215
29	0xbe046abf	-0.12931345
30	0xbdb6bc32	-0.08922614
31	0x3d8e2445	0.069405116
32	0xbe0406f2	-0.12893274
33	0xbde83a66	-0.113392636
34	0xbe39c149	-0.18140139
35	0xbd77544b	-0.060383122
36	0x3c2bae02	0.010478498
37	0x3d467d8e	0.048459582
38	0x3de8a36c	0.11359295
39	0x3ddb8420	0.1071856
40	0x3d272c46	0.040813707
41	0xbd3ea9c0	-0.046548605
42	0x3dc5ba1e	0.0965464
43	0xbed697e1	-0.4191275
44	0xbef911d2	-0.48646408
45	0xbeb3bfb1	-0.35107186
46	0xbfe14da8	-1.7601824
47	0x3c02b701	0.007978202
48	0xbbfae99e	-0.007657244
49	0x3c926468	0.017870143
50	0x3d39d1d1	0.045366112
51	0x3c9b0ebf	0.01892793
52	0x3d45101a	0.04811106
53	0x3c512e62	0.012767406
54	0x3d09eaac	0.033671066
55	0x3c1efcdd	0.009703842
56	0x3b65a122	0.003503867
57	0xbd82098b	-0.063494764
58	0xbe0b820c	-0.13623828
59	0xbdec6e5b	-0.11544486
60	0xbda319ee	-0.0796393
61	0x3d0feb63	0.03513659
62	0xbcf7fcf3	-0.030271983
63	0x3c4ffdb3	0.012694764
64	0x3c946689	0.018115299
65	0xbcc8a161	-0.024491014
66	0x3ca40239	0.020020591
67	0x3d4e2754	0.050330475
68	0x3d9ba883	0.076005004
69	0x3d16f434	0.036853984
70	0x3c688fdd	0.014194456
71	0xbdb5dca2	-0.08879973
72	0xbcbf41e7	-0.023346854
73	0x3be653b5	0.0070290216
74	0x3d983615	0.0743219
75	0x3e40f419	0.18843116
76	0xbda5b670	-0.08091438
77	0xbd57e2b1	-0.052706424
78	0x3b936bb1	0.004498922
79	0xbddd4070	-0.10803306
80	0xbe9ae7b3	-0.30254897
81	0x3df67e97	0.12035864
82	0x3e0c17e9	0.13680996
83	0xbe01b568	-0.12666857
84	0xbdc84060	-0.097779036
85	0x3d36ca54	0.04462655
86	0xbdbffc98	-0.0937435
87	0x3d6ca216	0.057771765
88	0x3e40246f	0.18763898
89	0xbdcfa5b0	-0.10139024
90	0xbe3a87ec	-0.18215913
91	0x3e38b916	0.18039355
92	0x3e43ebbf	0.19132899
93	0x3d99a7f3	0.07502737
94	0xbe5037fb	-0.20333855
95	0xbddf841b	-0.10913869
96	0x399bcd7c	0.00029717002
97	0x3d128229	0.03576866
98	0x3cd0da1b	0.025494626
99	0xbe7c9f4f	-0.24670146
100	0x3de32a83	0.11092093
101	0x3e620435	0.22071917
102	0xbde3a3b3	-0.111152075
103	0xbd89a31d	-0.067205645
104	0xbe1a172c	-0.15047902
105	0xbe5eaa4c	-0.2174465
106	0x3d402680	0.046911716
107	0xbe3e2634	-0.18569261
108	0x3dcb9924	0.09941319
109	0xbc237b65	-0.00997815
110	0xbccfc130	-0.025360674
111	0xbd0513d4	-0.032489613
112	0x3e1adb4a	0.15122715
113	0x3db73302	0.08945276
114	0x3d413b45	0.047175664
115	0xbdb79140	-0.08963251
116	0xbdc6ae5c	-0.09701225
117	0xbc855e35	-0.016280273
118	0x3cccac45	0.024984488
119	0x3d1d13c2	0.03834892
120	0x3ebafca2	0.3652087
121	0xbdfcecce	-0.123498544
122	0x3d9082e3	0.07056215
123	0xbcf58414	-0.029970206
124	0xbdadf278	-0.08493513
125	0xbdee11f5	-0.11624519
126	0xbdfd327f	-0.12363147
127	0xbdd6ca66	-0.10487823
128	0xbe094563	-0.13405375
129	0xbc0dfbe2	-0.008666011
130	0x3e0850ad	0.13312025
131	0xbd97816b	-0.073977314
132	0xbce0e641	-0.027453544
133	0xbbf2c28d	-0.007408446
134	0x3d8fc2dc	0.07019588
135	0x3e3a328b	0.18183343
136	0xbd645cce	-0.055752568
137	0xbe04f43b	-0.12983792
138	0xbbdb22a6	-0.00668748
139	0x3e49d4b1	0.19710042
140	0x3ef79dd8	0.48362613
141	0xbcc4dc99	-0.02403097
142	0xbb0e6d77	-0.0021732727
143	0x3d311185	0.0432296
144	0x3e75d7dd	0.24008127
145	0x3e90fded	0.2831873
146	0x3c0c4ccf	0.0085632345
147	0xbc7b3881	-0.015333296
148	0xbe0da048	-0.13830674
149	0xbe85c27d	-0.26124945
150	0xbd97f71f	-0.074201815
151	0xbeb2c10f	-0.34912917
152	0xbe28e21c	-0.16492504
153	0xbeaa90df	-0.33313653
154	0x3d9971e8	0.07492429
155	0x3e8031de	0.25038046
156	0x3e10369c	0.14083332
157	0xbf0195e9	-0.5061937
158	0xbdd6d941	-0.10490657
159	0x3d1ded46	0.03855636
160	0xbda5a799	-0.08088607
161	0xbe12f469	-0.14351048
162	0xbbdddbe6	-0.0067705987
163	0xbe8e26bc	-0.27763927
164	0xbbf84657	-0.0075767445
165	0x3d632e68	0.05546418
166	0xbebeb1bd	-0.3724498
167	0xbd60a2e9	-0.054842863
168	0xbe86d76f	-0.26336238
169	0x3d621ba4	0.05520214
170	0x3d9ffcff	0.07811927
171	0x3cfc09f3	0.030766463
172	0xbd618a14	-0.055063322
173	0xbe5fdf43	-0.21862511
174	0xbdb766cb	-0.08955153
175	0x3e90c56b	0.28275618
176	0xbd958010	-0.072998166
177	0xbf089c14	-0.53363156
178	0xbd009f43	-0.031401884
179	0xbdcd0eab	-0.10012563
180	0x3de84cb5	0.11342756
181	0xbe04d140	-0.12970448
182	0xbd8e0910	-0.06935322
183	0x3d7c7db8	0.061643332
184	0x3b02014a	0.0019837194
185	0x3ca94379	0.020662056
186	0x3c1c4eb4	0.009540249
187	0xbc32a002	-0.010902407
188	0x3c750cc0	0.014956653
189	0x3d36b5d2	0.04460699
190	0x3e5c8980	0.21536827
191	0xbe90d6da	-0.2828892
192	0xbea3b331	-0.3197265
193	0xbebe399d	-0.3715333
194	0xbfdb30c3	-1.7124256
195	0xbd25c350	-0.040469468
196	0xbd07590d	-0.03304391
197	0xbd6e1c13	-0.058132242
198	0xbcf3b82f	-0.029750912
199	0xbce9dfd8	-0.02854912
200	0x3cf9dd3c	0.030501
201	0x3c358706	0.011079555
202	0xbc1eddc5	-0.009696429
203	0xbc1bef17	-0.009517453
204	0xbd309269	-0.043108378
205	0x3dd7d25b	0.10538169
206	0x3cf922eb	0.030412158
207	0x3dbd8f7c	0.09255883
208	0x3e0efc89	0.13963522
209	0x3d6c1577	0.057637658
210	0xbc3f5b59	-0.011679494
211	0x3d0d6339	0.034518454
212	0x3d9d6b3e	0.076864704
213	0x3dcf9802	0.10136415
214	0x3dc35471	0.0953759
215	0xbc51d474	-0.012807
216	0x3d8d3df9	0.06896586
217	0x3d4efce8	0.05053416
218	0x3d86e32c	0.06586298
219	0x3d4b848b	0.04968695
220	0x3c83a8ea	0.016071755
221	0x3b6ad3ca	0.0035831803
222	0xbd22d432	-0.039753146
223	0x3c82eb0d	0.015981222
224	0xbd1a9725	-0.0377418
225	0xbca0d1f6	-0.019631367
226	0xbc9dcfe7	-0.019264175
227	0xbdd325d3	-0.10309949
228	0xbd629c81	-0.055325035
229	0x3c27ef16	0.010249874
230	0x3dbfc443	0.09363606
231	0x3e693aad	0.2277629
232	0x3c12b952	0.008955317
233	0x3d9f55f7	0.07780068
234	0x3d4fba25	0.05071463
235	0x3d6c5423	0.057697427
236	0x3da13d9c	0.07873079
237	0xbdb2270b	-0.08698853
238	0xbd6377b2	-0.055534072
239	0xbcaffc97	-0.021482749
240	0xbb45699e	-0.0030122767
241	0x3d6e8597	0.05823287
242	0xbd547167	-0.05186596
243	0x3b8fd09b	0.0043888814
244	0x3c469fbe	0.012123046
245	0xbd2b7447	-0.041858938
246	0x3d859baf	0.06523835
247	0xbdbb693c	-0.09150931
248	0xbe056a37	-0.13028799
249	0xbd881548	-0.06644684
250	0xbd174a38	-0.036936015
251	0x3d827c3c	0.06371352
252	0x3e669941	0.22519399
253	0xbf021861	-0.5081845
254	0xbed48ff6	-0.41516083
255	0xbec934e1	-0.39298156

hidden_layers.0.bias f4 [128]
0	0xbdd48bc1	-0.103782184
1	0x3d10cb26	0.035349987
2	0xbe2739ee	-0.16330692
3	0xbe2a42dc	-0.16627067
4	0xbdce31ac	-0.10068068
5	0xbd8c2f79	-0.06844992
6	0x3d73a5d6	0.059484325
7	0x3cd02665	0.025408933
8	0xbe1e09a6	-0.15433368
9	0xbb9868fe	-0.004651188
10	0xbe1fd43c	-0.15608305
11	0xbded2e5e	-0.115811095
12	0xbe280161	-0.16406776
13	0xbdb54afb	-0.08852192
14	0xbe0fc99c	-0.14041752
15	0xbb96ef08	-0.0046061315
16	0xbd713514	-0.05888851
17	0xbcd6b66b	-0.02621003
18	0xbe0bbaa3	-0.13645415
19	0xbdb96797	-0.09052961
20	0xbe44ac84	-0.19206434
21	0xbcd07a1b	-0.02544885
22	0x3d2935f3	0.041311216
23	0xbd8d719b	-0.06906434
24	0xbd4ffdb5	-0.050779063
25	0x3c513d17	0.012770913
26	0x3d8f869e	0.07008098
27	0xbe36e6be	-0.17861459
28	0xbde104a0	-0.1098721
29	0xbe22b1fe	-0.15888211
30	0x3b801481	0.0039086943
31	0x3ca394bd	0.019968385
32	0xbdbbff3e	-0.09179543
33	0xbe0d9a2b	-0.13828342
34	0xbd9805a5	-0.074229516
35	0xbe616ee9	-0.22014965
36	0xbe189378	-0.14900005
37	0xbbd55780	-0.006510675
38	0xbdce5e23	-0.10076549
39	0xbd9ba65e	-0.076000914
40	0xbd029874	-0.031883672
41	0x3ceadafc	0.028668873
42	0x3e20dde3	0.15709643
43	0xbc8e2dcb	-0.01735582
44	0xbdb73199	-0.08945007
45	0xbe2f03b6	-0.1709126
46	0x3da2e1c0	0.07953215
47	0xbe498d76	-0.1968287
48	0xbe882555	-0.26590982
49	0xb9423a50	-0.00018523005
50	0x3841e04d	4.6223682e-05
51	0xbdc5546b	-0.09635242
52	0xbc44ee15	-0.012019654
53	0x3b2bc9d9	0.002621284
54	0xbd3ea11a	-0.046540357
55	0xbd8ec6b7	-0.069714956
56	0xbe3315a2	-0.17488721
57	0xbd8a167c	-0.0674257
58	0x3bee9d00	0.0072818995
59	0xbd9ac2b6	-0.075566694
60	0xbe4cf061	-0.20013572
61	0xbd2663af	-0.04062241
62	0x3c817343	0.015802031
63	0xbe2078ad	-0.15671034
64	0x3c95812b	0.018250069
65	0x3d9a7a84	0.07542899
66	0xbdb0318e	-0.08603202
67	0xbe042df4	-0.12908155
68	0xbe85d52c	-0.261392
69	0xbdc70d56	-0.097193405
70	0xbd261269	-0.0405449
71	0xbde0350f	-0.1094762
72	0xbca7d4a4	-0.020487137
73	0xbe13a4c0	-0.14418316
74	0xbdec316d	-0.11532865
75	0xbe063cf0	-0.13109183
76	0x3a9a0211	0.0011749883
77	0xbe243422	-0.16035512
78	0x3d607ed8	0.054808468
79	0x3d890f8b	0.06692418
80	0xbdaa6ae5	-0.0832117
81	0xba915cbf	-0.0011090263
82	0x3b934982	0.004494847
83	0xbe01da8a	-0.12681022
84	0xbdc62e82	-0.096768394
85	0x3cc754ca	0.024332423
86	0x3cf27d3a	0.029600728
87	0xbdbc2b61	-0.09187961
88	0xbc50671e	-0.012719898
89	0xbcf23bdd	-0.02956956
90	0x3db5a43f	0.08869218
91	0xbd9a7a5d	-0.0754287
92	0xbe1ea81b	-0.15493815
93	0xbe93bc23	-0.28854474
94	0xbde02195	-0.10943905
95	0x3d56c320	0.05243218
96	0xbddd84c4	-0.10816339
97	0xbe9d5512	-0.30728966
98	0xbe2b716b	-0.16742484
99	0x3c76a566	0.0150540825
100	0xbe017ee9	-0.12646069
101	0xbe89859c	-0.26859748
102	0x3c2caa3f	0.010538637
103	0x3d858e71	0.06521309
104	0xbe64da95	-0.22349007
105	0xbe22a1a6	-0.15881976
106	0xbd3f2800	-0.046669006
107	0x3e1c979c	0.1529221
108	0xbe8755ae	-0.26432556
109	0xbe20e10e	-0.15710852
110	0xbba226d2	-0.0049484754
111	0xbd847c42	-0.06469013
112	0xbdf47fdc	-0.1193845
113	0xbd859ecc	-0.06524429
114	0xbc05d704	-0.0081689395
115	0x3d4a115e	0.04933297
116	0x3cc0900f	0.023506192
117	0x3d6af8b5	0.05736609
118	0xbd3e9bb1	-0.046535198
119	0xbde048f9	-0.109514184
120	0xbdb8e9f7	-0.09029
121	0x3d40a09d	0.047028173
122	0xbe0ad7d8	-0.135589
123	0xbe9e182a	-0.3087781
124	0xbdcfd34c	-0.101477236
125	0x3cd343ef	0.02578923
126	0x3e1ee242	0.15515998
127	0xbdfbc420	-0.12293267

hidden_layers.1.weight f4 [64, 128]
0	0xbd972992	-0.07380976
1	0xbd0d81b8	-0.034547538
2	0x3c2c67ca	0.010522792
3	0x3e11c2bd	0.14234443
4	0x3dd85ecf	0.10564958
5	0xbc51712e	-0.012783332
6	0xbd817082	-0.06320287
7	0xbd83a788	-0.064284384
8	0x3d091304	0.0334654
9	0xbba78024	-0.005111711
10	0x3d16753f	0.03673291
11	0x3daa3208	0.08310324
12	0xbea462d0	-0.32106638
13	0xbdbe6c75	-0.0929803
14	0x3d3353ab	0.043780964
15	0xbd62dc35	-0.055385787
16	0xbdcc621c	-0.099796504
17	0x3cbab485	0.022791157
18	0xbe7f795d	-0.2494864
19	0xbd85490b	-0.065080725
20	0x3c2e2bbb	0.010630543
21	0x3db12efc	0.0865154
22	0x3d4a3665	0.04936828
23	0xbdbc6068	-0.091980755
24	0x3d7b0922	0.061288007
25	0x3d9df919	0.07713527
26	0xbdaffd59	-0.08593244
27	0xbcf0d004	-0.029396065
28	0xbca6347f	-0.020288704
29	0x3db6018d	0.088870145
30	0xbea8480a	-0.3286746
31	0xbd69b045	-0.05705287
32	0xbeb10395	-0.34573045
33	0xbd875b63	-0.066092275
34	0xbefb1649	-0.4904044
35	0xbe22dec1	-0.15905286
36	0xbd1cee73	-0.03831334
37	0xbc87d52f	-0.016581146
38	0x3d5f007c	0.05444382
39	0xbb2ddef7	-0.0026530602
40	0xbde0967c	-0.109662026
41	0xbe80d236	-0.25160378
42	0x3d4ee08b	0.05050711
43	0xbbf68c3b	-0.007524041
44	0xbddb166a	-0.106976345
45	0xbd5d6bf4	-0.05405803
46	0xbd7df98c	-0.062005565
47	0xbd9e6db7	-0.0773577
48	0xbd85ba19	-0.06529636
49	0xbd68b631	-0.056814376
50	0xbdcf176c	-0.10111889
51	0xbda61dfa	-0.08111186
52	0xbe446980	-0.1918087
53	0xbd51139f	-0.051044103
54	0xbb925b0a	-0.004466419
55	0xbe004b9f	-0.12528847
56	0x3dd44113	0.103639744
57	0xbe802c5b	-0.2503384
58	0xbc9dfa1b	-0.019284299
59	0xbd5a0d53	-0.053235363
60	0xbe2c415f	-0.16821812
61	0xbddd46cf	-0.10804521
62	0xbc177a13	-0.009245413
63	0xbe86189a	-0.26190645
64	0xbdcec672	-0.10096444
65	0x3c64278b	0.013925443
66	0x3c536ebd	0.01290482
67	0xbddb9ce4	-0.10723284
68	0xbe27ee4e	-0.163995
69	0x3d211a67	0.03933182
70	0x3e1dd5b7	0.15413557
71	0xbe409a41	-0.18808843
72	0xbdc23e49	-0.09484536
73	0xbddd7eec	-0.10815224
74	0x3d3d9dd0	0.04629308
75	0xbe2bc40d	-0.16774006
76	0xbe9da7bd	-0.30792037
77	0xbdfb3b12	-0.12267126
78	0x3bbaee0b	0.0057046465
79	0xbcd0a1fc	-0.025467865
80	0x3cfb943f	0.030710338
81	0xbe8bb600	-0.27287292
82	0xbeb99e0c	-0.36253393
83	0x3d5198e8	0.051171213
84	0xbe0110a7	-0.12604009
85	0xbe9dd252	-0.30824524
86	0xbe848427	-0.25882074
87	0xbdf6bf5f	-0.1204822
88	0xbd2111f0	-0.039323747
89	0x3d87e8f6	0.06636231
90	0x3dbb35bf	0.09141111
91	0xbdcb97ce	-0.09941064
92	0xbdf15690	-0.117840886
93	0xbdd8413e	-0.10559319
94	0x3daf21a5	0.08551339
95	0x3cc65688	0.024211183
96	0xbe9ba7e3	-0.30401525
97	0x3d348953	0.044076275
98	0xbccb314a	-0.024803776
99	0xbddd0230	-0.10791433
100	0x3d18fe2a	0.037351765
101	0xbe6e9c30	-0.23301768
102	0xbdc624c7	-0.096749835
103	0xbc759215	-0.014988442
104	0xbda47333	-0.08029785
105	0x3bab0184	0.0052186865
106	0x3bd54e69	0.0065095914
107	0xbcefffc9	-0.029296773
108	0xbe88c159	-0.26710013
109	0xbd3f79be	-0.04674696
110	0xbe211d98	-0.15733945
111	0x3c82f4e5	0.015985915
112	0xbca3710e	-0.01995137
113	0x3d652512	0.055943556
114	0xbce97948	-0.028500214
115	0xbe5586a7	-0.20852147
116	0x3d5627b5	0.05228396
117	0x3d481880	0.04885149
118	0x3adc0ba7	0.0016788141
119	0xbe9087f4	-0.28228724
120	0x3d5ecc7e	0.054394238
121	0xbd337638	-0.043813914
122	0x3d800949	0.06251771
123	0xbce7a0e4	-0.02827496
124	0xbc69fafa	-0.014281029
125	0xbc69d369	-0.0142715955
126	0xbd41fda1	-0.04736102
127	0xbe519340	-0.20466328
128	0x3ca48490	0.020082742
129	0x3ce7d479	0.028299557
130	0x3d733670	0.059378088
131	0xbda67d3e	-0.08129357
132	0xbdf8bf5e	-0.121458754
133	0x3d0fef56	0.035140358
134	0x3e08a1a0	0.13342905
135	0xbb9d8eba	-0.004808274
136	0x3d086225	0.033296723
137	0x3cdb6db1	0.026785703
138	0x3b943048	0.004522357
139	0x3d4c0333	0.04980774
140	0xbe9fe71c	-0.3123101
141	0x3dc4ae7d	0.096035935
142	0xbd3c6dc5	-0.046003122
143	0xbe0c82ed	-0.13721819
144	0xbdc3ad07	-0.09554487
145	0x3c1ef925	0.009702955
146	0xbe0dc3da	-0.13844243
147	0xbe0d7a9e	-0.13816306
148	0xbe5c34a0	-0.2150445
149	0xbd10c4e8	-0.035344034
150	0xbc712f3e	-0.014720736
151	0x3da72c58	0.08162755
152	0x3ca1c603	0.01974774
153	0x3dbbede9	0.09176237
154	0x3ca82e24	0.020529814
155	0x3dd64ec2	0.104642406
156	0xbc3a23de	-0.0113610905
157	0xbba0fc60	-0.004912898
158	0xbe9ff282	-0.31239706
159	0xbe813356	-0.2523448
160	0xbd23e758	-0.04001555
161	0xbd23b719	-0.039969537
162	0x3b2a2ddd	0.0025967278
163	0x3c6dea4a	0.014521191
164	0x3d11773a	0.035514094
165	0x3d55b1c1	0.052171472
166	0xbc858755	-0.016299883
167	0x3be7f889	0.0070791882
168	0xbc74fa68	-0.01495228
169	0xbdc4560e	-0.09586726
170	0x3d0c5b60	0.03426683
171	0x3d107f5b	0.035277706
172	0xbdff4b65	-0.12465552
173	0xbe571a6a	-0.2100617
174	0xbd2283ab	-0.03967635
175	0x3e0bc774	0.13650304
176	0xbe1ea330	-0.15491939
177	0x3db9c516	0.09070794
178	0x3d3ea7a3	0.04654659
179	0xbe1b52a8	-0.1516825
180	0xbd73ccb5	-0.059521396
181	0x3c948b59	0.018132852
182	0xbe09eb8a	-0.13468757
183	0xbda3e717	-0.08003061
184	0xbdb14c88	-0.08657175
185	0xbcf77181	-0.03020549
186	0x3d9e6f58	0.07736081
187	0xbdb66528	-0.08906013
188	0xbe3ad5dd	-0.18245645
189	0xbdc88ddf	-0.09792685
190	0xbe3bb4b6	-0.18330655
191	0xbcce76da	-0.025203157
192	0xbe8fe842	-0.28106886
193	0x3e2bfffa	0.16796866
194	0x3d1bf39e	0.03807413
195	0xbdaab808	-0.083358824
196	0xbd69abad	-0.05704849
197	0x3ca77233	0.020440197
198	0x3c16ea35	0.009211113
199	0xbc897e1f	-0.016783772
200	0xbe173d9e	-0.14769599
201	0xbe6ad2ba	-0.22931948
202	0x3cd14d09	0.025549429
203	0x3e41b28b	0.18915765
204	0xbd357d13	-0.044308733
205	0xbd836bf6	-0.06417076
206	0xbc394e92	-0.0113102365
207	0x3c600895	0.013673921
208	0x3cda169a	0.026622105
209	0xbce48436	-0.027895074
210	0xbcf14b74	-0.029454924
211	0x3d3b2a3f	0.045694586
212	0x3cb20fef	0.021736113
213	0xbea97193	-0.33094463
214	0xbe2c7dfe	-0.16844937
215	0xbc1aae51	-0.009440974
216	0x3d180817	0.03711709
217	0x3d3f00ce	0.046631627
218	0x3caab0e1	0.020836296
219	0xbdb293ad	-0.08719573
220	0x3c588b79	0.013216847
221	0xbe0ee5fd	-0.13954921
222	0xbdaefc5f	-0.0854423
223	0x3da5039e	0.080573305
224	0xbd77b8fe	-0.060479157
225	0xbcda3adb	-0.026639393
226	0xbe0075f8	-0.12545002
227	0xbe6339f0	-0.2219007
228	0x3d05c387	0.032657173
229	0xbe019662	-0.12655023
230	0xbd1b7e40	-0.0379622
231	0x3dee816d	0.1164578
232	0x3d2e2e65	0.042524714
233	0x3d409fc7	0.047027376
234	0x3d23af2f	0.03996199
235	0xbc8cfd42	-0.017210606
236	0xbe8528b4	-0.26007617
237	0xbdb9eae9	-0.09078009
238	0xbde733e3	-0.112891935
239	0xbded2ea9	-0.11581165
240	0xbce7b46a	-0.02828427
241	0x3d3e05b6	0.046392165
242	0xbddd53a6	-0.1080697
243	0xbe233530	-0.15938258
244	0x3d2a6b16	0.04160603
245	0x3e2f0066	0.17089996
246	0x3ce65355	0.028115908
247	0xbe62c61e	-0.22145888
248	0x3dd37191	0.103243954
249	0x3a7b6d39	0.00095911656
250	0x3d57e72f	0.05271071
251	0xbd402dc5	-0.04691865
252	0x3d7cded6	0.06173595
253	0x3c5fd3ac	0.013661306
254	0xbd32ee08	-0.043684036
255	0xbd9fa3ad	-0.077948906

hidden_layers.1.bias f4 [64]
0	0x3e7a6696	0.24453196
1	0x3e5c5669	0.21517338
2	0x3e2a9354	0.16657764
3	0x3e6266c0	0.22109509
4	0x3e8f280e	0.27960247
5	0xbdf8b497	-0.1214382
6	0x3e0d91e7	0.13825189
7	0x3db91ca4	0.09038666
8	0x3db28fb4	0.087188154
9	0x3dc0edd3	0.09420361
10	0x3e791f60	0.24328375
11	0x3dd15e6d	0.102230884
12	0x3e6e6816	0.23281893
13	0x3dc090a1	0.09402586
14	0x3dfc665c	0.12324211
15	0x3ddcafad	0.10775695
16	0xbcdc368e	-0.026881482
17	0x3e4d40ca	0.20044246
18	0xbe1522f9	-0.14564122
19	0x3e63d101	0.22247697
20	0x3df4225f	0.11920618
21	0x3e61fab3	0.2206829
22	0x3e70cd16	0.23515734
23	0x3e695302	0.22785571
24	0x3e30f3df	0.1728053
25	0x3e608eff	0.21929549
26	0x3e6ce7c7	0.23135291
27	0x3e6e2825	0.23257501
28	0x3e8535d7	0.2601764
29	0x3e35f8e9	0.17770733
30	0x3dbbc6a9	0.09168751
31	0x3e74ce15	0.23906739
32	0xbe0d6106	-0.13806543
33	0x3e854b39	0.26033953
34	0x3e7e648f	0.24843048
35	0x3dd7fa22	0.10545756
36	0x3e2cd7ab	0.16879146
37	0x3e540dbc	0.20708364
38	0x3dd9fe42	0.10644199
39	0x3e2335c6	0.15938482
40	0x3e682654	0.22670871
41	0x3dc414de	0.095742926
42	0x3e4f6bb5	0.2025593
43	0x3e6fb2bc	0.23408026
44	0x3e4d7232	0.20063093
45	0x3e290aa2	0.16507962
46	0x3e77f11b	0.24213068
47	0x3e02b5fc	0.12764734
48	0x3e057884	0.13034254
49	0xbe2659fe	-0.16245267
50	0x3dcdde1f	0.10052132
51	0x3dde2466	0.10846786
52	0xbe14534b	-0.14484899
53	0x3e3200d1	0.17383124
54	0x3e78ba33	0.2428978
55	0x3e3248c5	0.17410572
56	0x3e5e5364	0.21711498
57	0x3e617289	0.22016348
58	0x3e86f4ba	0.26358587
59	0x3e4ee887	0.2020589
60	0x3dd3f9ac	0.103503555
61	0x3ddb5a66	0.107106015
62	0x3e02304f	0.12713741
63	0x3dfbea3e	0.123005375

output.weight f4 [4, 64]
0	0x3d439cac	0.047756836
1	0x3d25b4a4	0.040455475
2	0xbd8d505e	-0.069000944
3	0x3dca3b51	0.09874595
4	0x3d87d19b	0.06631776
5	0xbd2d2dbc	-0.042279944
6	0x3d20e22e	0.0392782
7	0xbdbf8444	-0.093513995
8	0x3cc468ed	0.023975814
9	0xbd7835a0	-0.060598016
10	0x3d89c1a2	0.06726386
11	0x3cb152f5	0.021646002
12	0x3d851792	0.06498636
13	0x3cf51bbf	0.029920457
14	0x3d2cc0dc	0.042176113
15	0xbd8f18f0	-0.06987178
16	0xbe5a5e6f	-0.21325086
17	0x3d7810cd	0.060562897
18	0x3bb4e4d9	0.005520445
19	0x3d7ff97b	0.062493782
20	0xbd908b69	-0.070578404
21	0x3dc86f66	0.097868726
22	0x3d944a32	0.07240714
23	0x3da4f58b	0.08054646
24	0xbd84a297	-0.06476324
25	0x3d56d0df	0.05244529
26	0x3d5aa457	0.053379383
27	0x3d4750af	0.04866093
28	0x3d74e69d	0.059790242
29	0x3d25f274	0.040514424
30	0xbdc9d7e3	-0.0985563
31	0x3d75007a	0.059814908
32	0x3d7780fe	0.06042575
33	0x3d72670a	0.059180297
34	0x3d638c5d	0.055553783
35	0xbdc97913	-0.09837546
36	0xbdde5648	-0.108563006
37	0x3d2189f6	0.03943821
38	0xbd9b41be	-0.07580899
39	0x3d0cb846	0.034355424
40	0x3d6d4521	0.057927255
41	0xbdd52dd3	-0.10409131
42	0x3d4e4575	0.050359208
43	0x3d5eaf61	0.054366473
44	0x3d1b298c	0.03788142
45	0x3d15d6da	0.03658185
46	0x3d82ad97	0.06380766
47	0x3d08e43a	0.03342078
48	0x3d1a5b81	0.03768492
49	0xbafbc9cc	-0.001920992
50	0xbd802fbb	-0.06259104
51	0x3d0c5cd4	0.034268215
52	0xbdc15530	-0.09440076
53	0x3d352370	0.04422325
54	0x3d492798	0.049110025
55	0x3d294d71	0.04133362
56	0x3d7e58c6	0.06209638
57	0x3d0c42da	0.034243442
58	0x3d7364d1	0.059422318
59	0x3d19bfd9	0.037536476
60	0x3cf0ce6c	0.029395305
61	0x3d26af34	0.04069443
62	0x3d1c8dc3	0.038221132
63	0x3d0c3583	0.03423072
64	0x3d3e5baf	0.046474155
65	0x3d1d9d09	0.03847984
66	0xbc168fd8	-0.009189568
67	0x3dc12c95	0.094323315
68	0x3d599a9b	0.05312596
69	0xbb1cba9f	-0.0023914946
70	0x3d32561e	0.04353916
71	0xbcde7efc	-0.02716016
72	0x3ca77730	0.020442575
73	0x3ca1ea8d	0.019765163
74	0x3d49cdf3	0.049268674
75	0x3d17257e	0.03690099
76	0x3dafc6f6	0.08582871
77	0x3d0f2c23	0.0349542
78	0x3cfb9725	0.03071172
79	0x3ca600e8	0.020264104
80	0xbd0141af	-0.03155678
81	0x3d8f4d70	0.06997192
82	0x3d5a7d1a	0.053341962
83	0x3d3cf16b	0.04612867
84	0x3cf709d1	0.030156048
85	0x3dfd24bf	0.123605244
86	0x3dd49e6d	0.1038178
87	0x3d8c6207	0.06854635
88	0xbc9b8cd8	-0.018988058
89	0x3d49fdbc	0.049314246
90	0x3d7f7023	0.0623628
91	0x3d97d67c	0.074139565
92	0x3d8f3a1d	0.06993506
93	0x3d001017	0.031265344
94	0xbcacfd12	-0.021116767
95	0x3d3ff69d	0.046866048
96	0x3aa8b4de	0.0012871285
97	0x3d3a0805	0.045417804
98	0x3d55f01e	0.052230947
99	0x3cea2d97	0.028586192
100	0xbd0ebee2	-0.03485001
101	0x3d8f8048	0.070068896
102	0x3aacfc84	0.0013197814
103	0x3cf25aae	0.029584255
104	0x3d4d4257	0.050112095
105	0x3a449bdb	0.0007500031
106	0x3d4e3e35	0.050352294
107	0x3da06205	0.07831196
108	0x3d5013c0	0.050800085
109	0x3d75ddfa	0.060026146
110	0x3d6c59dc	0.057702884
111	0x3d09ced5	0.033644516
112	0x3d164c14	0.036693648
113	0xbc8b9f57	-0.017043753
114	0xbabf4a56	-0.0014594297
115	0x3d4fea1b	0.05076037
116	0xbd6f596c	-0.05843489
117	0x3cd199ea	0.025586087
118	0x3d4b2675	0.049597222
119	0x3cea8864	0.02862949
120	0x3db038e1	0.08604599
121	0x3d4998b1	0.049217883
122	0x3d37c503	0.04486562
123	0x3d522981	0.051309112
124	0x3cd044f6	0.025423508
125	0x3d05dcce	0.03268128
126	0x3c9e1136	0.019295316
127	0x3d0fe61e	0.035131566
128	0x3d0cdf2b	0.034392517
129	0x3d5071f2	0.050889917
130	0xbd06c789	-0.032905135
131	0x3de7965a	0.11307974
132	0x3ce9ca37	0.028538806
133	0x3d54fd0b	0.051999133
134	0x3d7885d2	0.060674496
135	0xbd27119c	-0.040788278
136	0x3d8ab322	0.06772448
137	0xbcf27819	-0.029598283
138	0xbba8139f	-0.005129292
139	0x3d7f0628	0.06226173
140	0x3c4be1b9	0.012443953
141	0x3d95254a	0.07282503
142	0x3d9a3a42	0.07530643
143	0xbd399a85	-0.045313377
144	0xbe0119a1	-0.12607433
145	0xbc590337	-0.013245395
146	0x3d8d9215	0.069126286
147	0x3b3be664	0.002867126
148	0xbd8b9471	-0.06815422
149	0x3dd2b826	0.1028903
150	0x3c1dd59d	0.009633449
151	0x3cef40e0	0.02920574
152	0xbcf518c1	-0.02991903
153	0x3d19cd3f	0.037549254
154	0x3d479af5	0.048731763
155	0xbc6933de	-0.0142335575
156	0x3d889c8c	0.06670484
157	0xbd24d9bf	-0.04024672
158	0xbd897b48	-0.06712967
159	0x3ce07fbc	0.027404658
160	0x3c25d761	0.010122151
161	0x3c618baa	0.013766209
162	0x3c1c757e	0.009549497
163	0xbd67ef29	-0.056624565
164	0xbd110b2e	-0.035411052
165	0x3d461114	0.04835613
166	0x3d0c3680	0.034231663
167	0x3d6de9f1	0.058084432
168	0x3daa8990	0.08327019
169	0xbd636615	-0.055517275
170	0xbc8e14e4	-0.017343946
171	0xbc017403	-0.0079011945
172	0x3d7c8855	0.061653454
173	0x3da331b4	0.079684645
174	0x3c008f86	0.007846719
175	0x3d84315a	0.064547256
176	0x3da250f9	0.079256006
177	0x3d8ecda4	0.069728166
178	0x3d9d49a6	0.07680063
179	0x3d9f5afb	0.07781025
180	0xbc9f074e	-0.019412663
181	0x3b8de482	0.004330219
182	0x3d732282	0.05935908
183	0x3d82c0eb	0.063844524
184	0x3dbd81a4	0.092532426
185	0x3d388617	0.045049753
186	0x3c93cbe8	0.018041566
187	0x3d38a374	0.045077756
188	0x3d4d0a7b	0.050058823
189	0x3d30b546	0.043141626
190	0x3d475451	0.048664395
191	0x3d52ab20	0.05143273
192	0x3c537a9b	0.012907649
193	0x3c8b7e26	0.017027926
194	0xbd665df3	-0.05624194
195	0x3dc96af6	0.09834854
196	0x3b94dc4c	0.004542863
197	0x3bf81dbb	0.0075719035
198	0x3d94323d	0.07236145
199	0xbd536223	-0.051607262
200	0x3d80e0ab	0.06292852
201	0xbcdd8d78	-0.027044997
202	0x3ba0e5e0	0.0049102157
203	0x3d7f3021	0.06230176
204	0x3cc7ac02	0.024374012
205	0x3d6ab667	0.05730286
206	0x3d6572c6	0.05601766
207	0xbcf8dd64	-0.030379005
208	0xbdd12566	-0.10212211
209	0x3d33c1e9	0.0438861
210	0xbbc3f0d2	-0.0059796358
211	0x3c810122	0.01574761
212	0x3d7917df	0.06081378
213	0x3dbe75b3	0.09299793
214	0x3cbb29b1	0.022847028
215	0x3dab4bf8	0.08364099
216	0xbced32a3	-0.02895481
217	0x3d5f3dc5	0.054502267
218	0x3c5f187f	0.01361668
219	0x3ca6c085	0.020355472
220	0x3d31d6f3	0.043417882
221	0x3d95cbb9	0.07314248
222	0xbd065d4a	-0.03280381
223	0x3c35b09d	0.011089471
224	0xbcd0ada2	-0.02547342
225	0x3d0308f0	0.031990945
226	0x3b259eee	0.0025271731
227	0x3d0a8d04	0.03382589
228	0xbd4dccb6	-0.050244056
229	0x3c87e86e	0.016590323
230	0xbd187d34	-0.037228778
231	0x3d3ea46d	0.046543527
232	0x3dc52708	0.09626585
233	0xbd257965	-0.040398974
234	0x3d3a5fe4	0.045501605
235	0x3c6fb9f8	0.014631741
236	0x3bbce623	0.005764739
237	0xbe1b1c39	-0.15147485
238	0x3d1cd197	0.038285818
239	0x3d64f713	0.05589969
240	0x3d9f45db	0.07776996
241	0x3d918f37	0.07107394
242	0xbd926976	-0.07149021
243	0x3d6eb730	0.05828017
244	0x3d8cbc1e	0.06871818
245	0x3d2a162e	0.04152506
246	0x3d42342a	0.04741303
247	0x3d700558	0.058598846
248	0x3dd7925f	0.10525965
249	0x3d3edc39	0.04659674
250	0x3b6b8fa8	0.003594378
251	0x3bb446bf	0.0055015977
252	0x3d3ddf3f	0.046355482
253	0x3d8ff22c	0.070286125
254	0x3d7457ba	0.059653975
255	0x3d732371	0.05935997

output.bias f4 [4]
0	0x3fbca3a5	1.473744
1	0x3fa4c8e6	1.2873809
2	0x3fb12475	1.3839251
3	0x3fb163c3	1.385857
