experiments/navigate_1349_18Oct22075749.pth (torch_old, 54660 bytes, 6 tensors)

hidden_layers.0.weight f4 [128, 37]
0.19572547 -0.39396632 -0.37032893 -0.3910265 -1.0164671 -0.007899579 0.030830454 0.106722906
0.14105867 0.2075986 -0.06106909 -0.07861026 -0.107500814 -0.07050716 0.020395545 0.038513366
0.09257934 -0.0020764538 -0.1281735 -0.15528935 0.081914335 0.07453553 0.078848846 0.050336942
0.040009197 0.008570115 0.02180072 0.017584942 -0.038548574 0.029514302 -0.029284354 0.052575838
-0.014578004 0.050256897 -0.022730885 -0.0124768885 0.0052202083 0.08344172 0.08725559 0.10791211
0.067266814 0.029168935 0.10847459 -0.5283978 -0.39630708 -0.47838977 -1.4408486 0.014038839
0.004936385 0.011947831 0.019813584 0.071158305 0.03619524 0.0135034 0.050755918 0.08513687
0.05414143 -0.10125218 -0.06600163 -0.087743215 -0.06537107 0.052258797 -0.04211926 -0.016548242
-0.022574473 -3.7409336e-07 0.10580919 0.050234772 0.07915537 0.09427241 0.106057465 -0.006888722
0.019282868 -0.0019237354 0.070044026 0.099851266 0.11128467 0.07260709 -0.033067588 -0.40644422
0.17521995 0.2244174 0.25071365 -0.24167639 -0.011411591 0.006858383 0.024862878 -0.00638018
0.0031784088 -0.08033681 0.077940874 0.0892216 0.12392239 0.08999884 -0.56881016 0.12538764
0.06613667 0.02716696 -0.23095137 -0.0034564277 0.057842106 0.07525696 0.055710543 0.11065717
-0.1874061 -0.0011425457 -0.006471312 -0.006668644 0.095383696 0.025943076 -0.015074905 0.3024476
-0.32394537 -0.20403983 -0.15950903 -1.0956292 -0.06354762 0.018277198 0.05417738 0.12101685
0.13037899 -0.045420066 0.03084453 -0.07650154 -0.0080243675 -0.122328505 -0.024508886 0.056838475
-0.10338162 -0.22146314 -0.394226 0.019215161 -0.052862536 0.0032111863 0.11141691 0.052571256
-0.055982254 0.030485362 0.066927135 0.14478248 0.12547788 0.069830224 0.09059065 0.067553684
0.040889326 -0.0029428317 0.01123345 0.0038701105 -0.22677505 -0.028062887 -0.16018109 -0.25248095
-0.34512764 -0.17744045 -0.00038153375 0.026715 -0.1647374 -0.80611205 -0.06869213 -0.12695411
-0.04759951 -0.25092813 -0.0734054 -0.49151704 -0.058644507 0.10346386 -0.20153913 -0.62412137
-0.16583748 -0.040120017 0.057045788 -0.19148003 0.053043213 -0.22428447 -0.20327456 0.22396387
-0.069188096 -1.0250739 -0.07076348 -0.32839638 0.118942894 -0.26256275 -0.13050538 0.13218306
0.04362741 -0.004127846 -0.039770402 -0.038640518 0.011311962 0.08819112 0.22237127 -0.107436396
-0.23968355 -0.22498265 -1.576645 -0.02966726 -0.046072423 -0.057756927 -0.122020654 -0.021729719
-0.024486918 0.0043510613 0.017011138 -0.01621254 -0.009781347 0.12477248 0.076023236 0.100527644
0.055434823 0.032342926 0.005312219 0.00038042557 -0.0036874895 0.0033662498 0.07403213 0.062737286
-0.1511962 -0.11661046 0.09306328 -0.6951283 0.0025034905 0.0009300562 -0.06875227 0.00052104134
0.005493215 -0.04376701 0.05768964 -0.40676874 0.10119586 0.046549786 0.17418472 0.2129951
-0.010579785 0.1304033 0.08690375 -0.055635955 -0.008216812 -0.09568646 -0.06375509 4.975396e-05
-0.023630729 0.28599492 -0.21144968 0.005907458 0.046057478 0.011827257 0.095782824 -0.313616
-0.010777652 -0.009221043 0.056713246 0.1233034 -0.2954788 0.11645867 0.15262814 0.10843954
00000000: 426c 483e f4b5 c9be c19b bdbe a034 c8be
00000010: 981b 82bf 3c6d 01bc 2690 fc3c 8a91 da3d
00000020: af71 103e ba94 543e 9523 7abd 6afe a0bd
00000030: 6329 dcbd 0f66 90bd 8f14 a73c 31c0 1d3d
00000040: 3d9a bd3d 1d15 08bb ea3f 03be 2c04 1fbe
00000050: b4c2 a73d 15a6 983d 817b a13d 1c2e 4e3d
00000060: afe0 233d ab69 0c3c 6c97 b23c 4c0e 903c
00000070: 1ce5 1dbd fac7 f13c bee5 efbc c359 573d
00000080: 95d8 6ebc 2dda 4d3d 1f36 babc dd6b 4cbc
00000090: 480e ab3b 7ee3 aa3d 0fb3 b23d 0601 dd3d
000000a0: 2fc3 893d b1f3 ee3c ed27 de3d 1445 07bf
000000b0: c3e8 cabe 81ef f4be ba6d b8bf 2903 663c
000000c0: 66c1 a13b d6c0 433c 1950 a23c 72bb 913d
000000d0: 7641 143d 5d3d 5d3c 70e5 4f3d 3d5c ae3d
000000e0: 67c3 5d3d 4e5d cfbd dd2b 87bd b7b2 b3bd
000000f0: 44e1 85bd 520d 563d 3f85 2cbd 2e90 87bc
00000100: 1aee b8bc 00d7 c8b4 7db2 d83d fac2 4d3d
00000110: 361c a23d e511 c13d a834 d93d caba e1bb
00000120: 1bf7 9d3c d925 fcba 3e73 8f3d d27e cc3d
00000130: 38e9 e33d 07b3 943d e171 07bd 7519 d0be
00000140: dc6c 333e adcd 653e 8a5d 803e 047a 77be
00000150: aff7 3abc 49bc e03b 3cad cb3c d410 d1bb
00000160: da4c 503b a087 a4bd 779f 9f3d d0b9 b63d
00000170: 06cb fd3d 5051 b83d 8b9d 11bf 9e65 003e
00000180: aa72 873d 3f8d de3c 847e 6cbe 3c85 62bb
00000190: d8eb 6c3d 5220 9a3d bd30 643d 3aa0 e23d
000001a0: 62e7 3fbe 79c1 95ba 4d0d d4bb a484 dabb
000001b0: 8758 c33d 9386 d43c bcfc 76bc 69da 9a3e
000001c0: 2bdc a5be d1ef 50be 5656 23be 943d 8cbf
000001d0: 4125 82bd 10ba 953c 1ae9 5d3d afd7 f73d
000001e0: 1282 053e 640a 3abd abad fc3c d7ac 9cbd
000001f0: a378 03bc 5e87 fabd dcc6 c8bc 76cf 683d
00000200: beb9 d3bd 3cc7 62be fed7 c9be 1d69 9d3c
00000210: 6386 58bd c472 523b 8d2e e43d f554 573d
00000220: a64d 65bd 70bc f93c 1811 893d dc41 143e
00000230: 467d 003e 2603 8f3d 9787 b93d 9659 8a3d
00000240: 917b 273d 86dc 40bb 810c 383c aea1 7d3b
00000250: b837 68be 24e4 e5bc 8306 24be 2f45 81be
00000260: 92b4 b0be f3b2 35be 9808 c8b9 6ad9 da3c
00000270: ecb0 28be 5c5d 4ebf 76ae 8cbd 4200 02be
00000280: b4f7 42bd a779 80be 9255 96bd 1fa8 fbbe
00000290: 3935 70bd dce4 d33d 4660 4ebe 6bc6 1fbf
000002a0: 4dd1 29be e354 24bd d8a8 693d 5713 44be
000002b0: d743 593d d4aa 65be 3527 50be c956 653e
000002c0: 7db2 8dbd 9f35 83bf 72ec 90bd 9223 a8be
000002d0: 5598 f33d a06e 86be 34a3 05be ff5a 073e
000002e0: a8b2 323d e242 87bb 4ae6 22bd 8545 1ebd
000002f0: cf55 393c 8c9d b43d 4bb5 633e 9d07 dcbd
00000300: 9b6f 75be da61 66be 81cf c9bf c108 f3bc
00000310: 70b6 3cbd 8792 6cbd f7e5 f9bd 8602 b2bc
00000320: ca98 c8bc 5993 8e3b f15a 8b3c 29d0 84bc
00000330: f141 20bc b788 ff3d 12b2 9b3d 70e1 cd3d
00000340: a00f 633d 047a 043d 1f12 ae3b db73 c739
00000350: cfa9 71bb 4d9c 5c3b 289e 973d 687c 803d
00000360: 2dd3 1abe 77d1 eebd f697 be3d eef3 31bf
00000370: 9a11 243b 04cf 733a fdcd 8cbd 7e96 083a
00000380: 6d00 b43b 0945 33bd f94b 6c3d fe43 d0be
00000390: c63f cf3d fdaa 3e3d 7b5d 323e 631b 5a3e
000003a0: d656 2dbc 7188 053e 98fa b13d 87e2 63bd
000003b0: cf9f 06bc 43f7 c3bd 0792 82bd e8ae 5038
000003c0: 3b95 c1bc ed6d 923e 4486 58be 5993 c13b
000003d0: c4a6 3c3d 1dc7 413c c929 c43d 4792 a0be
000003e0: c094 30bc dc13 17bc 264c 683d 7e86 fc3d
000003f0: ff48 97be e281 ee3d 8d4a 1c3e 8d15 de3d

hidden_layers.0.bias f4 [128]
0.0024716724 0.037711903 -0.06230587 -0.04569595 -0.071499124 -0.10111403 -0.007984836 0.063685305
-0.17303568 -0.017964797 -0.13825338 -0.08899108 -0.10219346 -0.14245088 -0.10085858 -0.045463793
-0.06553128 -0.14992736 -0.1041287 -0.032129686 -0.21430467 0.048072804 0.089212686 -0.07907469
-0.07615247 0.12538452 0.073556386 -0.19342105 -0.104116514 -0.15280235 0.05723156 0.09379614
-0.073539704 0.015611293 -0.010528265 -0.28593755 -0.05238597 0.0031809267 -0.08725966 0.037280153
-0.013948181 0.052612573 0.11519248 -0.0065650623 -0.022360576 -0.1953942 0.021419935 -0.15180323
-0.23402977 0.08146046 -0.017766418 -0.0032519205 -0.029362094 0.029565962 -0.031150755 0.015511042
-0.17838189 -0.08783661 -5.249257e-05 -0.12882724 -0.19585648 -0.027178118 0.040817205 -0.08138267
0.11898003 0.04952349 -0.06412706 -0.11744723 -0.15121439 -0.12835987 -0.0042069303 -0.081719786
0.029746747 -0.17227353 -0.21103299 -0.0763615 0.094840445 -0.16697255 0.020288385 -0.08159455
-0.105778344 -0.027746947 -0.0038454654 -0.109033436 -0.13619795 0.16302495 0.005489892 -0.16051896
-0.0060798125 0.025294626 0.0917587 -0.21226104 -0.13977061 -0.2151647 -0.08883868 0.05545153
-0.10483347 -0.20110722 -0.06798341 0.1175579 -0.20909746 -0.27338192 0.06524039 0.11779121
-0.3081682 -0.13365369 -0.17316453 0.09528576 -0.18263388 -0.11138684 0.09409752 -0.034298487
-0.11885169 -0.14653753 -0.01853594 0.07634244 -0.13545303 0.0731168 -0.03321599 -0.1226466
-0.0797588 0.030853115 -0.0052810935 -0.2505008 -0.11644012 0.024249747 0.06953632 -0.043944288
00000000: c8fb 213b cc77 1a3d 7134 7fbd ad2b 3bbd
00000010: 226e 92bd df14 cfbd d4d2 02bc 716d 823d
00000020: 4430 31be e92a 93bc 4b92 0dbe f540 b6bd
00000030: ce4a d1bd a5de 11be f18e cebd 3e38 3abd
00000040: 4435 86bd 8f86 19be 6e41 d5bd 6b9a 03bd
00000050: af72 5bbe fde7 443d 24b5 b63d e9f1 a1bd
00000060: d4f5 9bbd cd64 003e bba4 963d 2b10 46be
00000070: 0a3b d5bd 3878 1cbe a46b 6a3d 3118 c03d
00000080: fc9b 96bd 82c6 7f3c be7e 2cbc 6866 92be
00000090: ac92 56bd 1877 503b 31b5 b2bd 13b3 183d
000000a0: e986 64bc 4880 573d 09ea eb3d bc1f d7bb
000000b0: 872d b7bc 6b15 48be dc78 af3c 4e72 1bbe
000000c0: 80a5 6fbe bed4 a63d e18a 91bc 2c1e 55bb
000000d0: c688 f0bc 5134 f23c de2f ffbc 0722 7e3c
000000e0: bea9 36be aee3 b3bd 782b 5cb8 4aeb 03be
000000f0: 9a8e 48be a5a4 debc f12f 273d f5ab a6bd
00000100: cdab f33d 25d9 4a3d 0c55 83bd 2c88 f0bd
00000110: f2d7 1abe c570 03be 4ada 89bb b45c a7bd
00000120: 73af f33c 7968 30be 0819 58be 6b63 9cbd
00000130: b53b c23d dafa 2abe d433 a63c 0b1b a7bd
00000140: 51a2 d8bd 914d e3bc 3404 7cbb ec4c dfbd
00000150: 7a77 0bbe 03f0 263e 8de4 b33b 155f 24be
00000160: 2a39 c7bb ad36 cf3c fceb bb3d f55a 59be
00000170: 0720 0fbe 2354 5cbe 0ef1 b5bd 2521 633d
00000180: eeb2 d6bd 0def 4dbe e33a 8bbd 32c2 f03d
00000190: a51d 56be b7f8 8bbe c19c 853d 853c f13d
000001a0: 39c8 9dbe 83dc 08be 0b52 31be 2e25 c33d
000001b0: 6004 3bbe c91e e4bd 33b6 c03d 927c 0cbd
000001c0: 8468 f3bd ef0d 16be afd8 97bc 6d59 9c3d
000001d0: 33b4 0abe 43be 953d 7d0d 08bd 242e fbbd
000001e0: 9558 a3bd acbf fc3c 060d adbb a441 80be
000001f0: 2878 eebd 68a7 c63c 0f69 8e3d edfe 33bd

hidden_layers.1.weight f4 [64, 128]
-0.015398956 -0.074271336 -0.33467206 0.061434988 0.103082694 0.088569954 -0.18478364 -0.09383402
0.12946689 -0.00858623 -0.047594137 -0.007926933 -0.33767742 0.05606354 -0.2040432 0.040043063
-0.32422858 -0.18970911 -0.0526077 0.034232266 0.15279573 0.050980724 0.016245378 -0.1515916
-0.010902451 0.018776251 -0.13866813 -0.24386743 -0.03267381 0.09482975 -0.41661996 0.024844427
-0.17126049 -0.098402075 -0.22725743 -0.046854667 0.009537687 -0.033674147 -0.2836344 -0.022646924
-0.0653763 -0.13164675 -0.0377011 0.005558555 0.03478688 -0.012294762 -0.04146243 -0.054065842
-0.052936006 0.015363596 -0.14146814 0.05211947 -0.0774164 -0.03621301 -0.26300237 0.071340024
0.0743195 0.0699093 0.11330399 0.056849174 -0.057730857 -0.02862396 -0.23684539 0.0676525
0.04851776 0.04944644 -0.005298696 -0.53375804 0.0055098794 -0.05345193 0.032544307 -0.057168815
-0.22828616 -0.09665609 0.008002368 0.04928778 -0.10976447 -0.09578522 -0.10386469 0.12820917
0.008024417 -0.14594014 -0.06718209 0.009083741 -0.031281162 0.02021144 -0.4492855 0.051694024
0.012057719 -0.023581406 -0.006308164 -0.013044571 0.004651161 -0.012801921 0.050963625 -0.0047378466
-0.19376568 0.09248401 -0.14452554 -0.010118584 -0.24010392 0.055311404 -0.04988029 0.056398753
0.039145164 -0.02820237 0.010859516 -0.3607397 0.09415627 -0.021185081 -0.21463099 -0.05607316
0.038366757 -0.2757958 -0.019072646 -0.48985153 -0.073541455 0.05415547 -0.028051194 0.08560291
-0.006338456 -0.08739366 0.0049131876 0.012353836 -0.30766892 0.052502982 -0.02056737 -0.0685667
-0.16134077 -0.49519533 0.007804033 -0.19391036 0.17307612 -0.23417012 0.0016215949 -0.21191464
0.1901052 -0.25729933 -0.4165675 -0.60538346 0.03670986 0.01676178 0.0028225956 -0.123283096
0.014022482 -0.002748769 0.005887633 0.04131522 0.1926314 0.034165606 -0.18778823 -0.049994178
-0.69546586 -0.60571784 -0.29460096 0.026329122 -0.023616586 -0.13262269 0.0117253475 0.017684236
0.011207933 -0.10062151 0.0016841196 -0.08450347 0.0015905504 -0.41255 -0.010915159 -0.22833031
-0.43210495 -0.2472543 -0.08219798 -0.45086315 -0.019266002 0.017892802 0.07641223 0.16209622
0.0081895515 -0.14734347 -0.02214194 -0.51336956 0.0007682984 -0.0015927838 -0.0053195907 -0.2467834
0.09512216 0.112375125 -0.7454824 0.0013669034 0.13189231 -0.2219612 -0.008044503 -0.2819217
-0.5656168 -0.16473268 0.013444489 -0.008478561 0.067140564 -0.0019618627 -0.02621166 -0.38095436
0.009891924 0.023962237 0.007527337 -0.07824065 -0.40197158 0.28227195 -0.004672556 -0.05349505
-0.47175005 -0.0019337835 0.019560663 -0.32369035 0.012554888 -0.8606495 -0.023633491 0.017640863
-0.17780702 -0.2923226 -0.22017156 -0.07375834 -0.23115236 -0.08240636 0.006302795 -0.76781887
-0.015036657 -0.058477 -0.07405234 -0.21418719 0.013155733 -0.0024284944 -0.3467224 0.24368365
0.021113452 -0.2547464 0.016287396 0.020537559 0.018008552 -0.06723114 0.0031700872 -0.17013134
0.0023055696 0.006167645 -0.104097106 0.005945003 -0.00022095919 -0.310702 -0.24166898 0.17752615
-0.33658966 -0.22170427 -0.07294124 0.00771326 -0.02000393 -0.110377885 0.043891363 -0.48304716
00000000: e74b 7cbc 921b 98bd 235a abbe 41a3 7b3d
00000010: 051d d33d 2a64 b53d ec37 3dbe 0d2c c0bd
00000020: f892 043e 42ad 0cbc 12f2 42bd f7df 01bc
00000030: 0ee4 acbe e2a2 653d b3f0 50be 3204 243d
00000040: 4a01 a6be 1b43 42be 2c7b 57bd 2237 0c3d
00000050: 7c76 1c3e 2ad1 503d 0715 853c d43a 1bbe
00000060: 32a0 32bc a7d0 993c 05ff 0dbe 62b8 79be
00000070: f9d4 05bd 1a36 c23d 364f d5be 8a86 cb3c
00000080: e95e 2fbe 0787 c9bd 2cb6 68be aeea 3fbd
00000090: f543 1c3c e7ed 09bd 8738 91be 0b86 b9bc
000000a0: 02e4 85bd 68ce 06be 786c 1abd 8a24 b63b
000000b0: b07c 0e3d f86f 49bc 82d4 29bd 2574 5dbd
000000c0: 6dd3 58bd 98b7 7b3c 06dd 10be 3a7b 553d
000000d0: 7d8c 9ebd 1854 14bd 3fa8 86be b81a 923d
000000e0: d234 983d 9b2c 8f3d ec0b e83d aeda 683d
000000f0: 3177 6cbd cc7c eabc 9987 72be 658d 8a3d
00000100: 8fba 463d 5a88 4a3d afa0 adbb 5ea4 08bf
00000110: 388c b43b 69f0 5abd 2e4d 053d d929 6abd
00000120: d9c3 69be a1f3 c5bd 5d1c 033c fce1 493d
00000130: 32cc e0bd 0b2b c4bd 03b7 d4bd 4449 033e
00000140: d878 033c 5571 15be c396 89bd f9d3 143c
00000150: ad20 00bd 7692 a53c c008 e6be 1dbd 533d
00000160: bd8d 453c cb2d c1bc b7b4 cebb e5b8 55bc
00000170: c468 983b 26bf 51bc 3cbf 503d f03f 9bbb
00000180: 836a 46be 4268 bd3d 81fe 13be 6bc8 25bc
00000190: cddd 75be 368e 623d 464f 4cbd 6102 673d
000001a0: ae56 203d a808 e7bc 1dec 313c e0b2 b8be
000001b0: 01d5 c03d 568c adbc 3ac8 5bbe f8ac 65bd
000001c0: 7626 1d3d 1b35 8dbe 3d3e 9cbc d2cd fabe
000001d0: e79c 96bd 20d2 5d3d 9ecb e5bc 9450 af3d
000001e0: d3b2 cfbb 72fb b2bd cefe a03b be67 4a3c
000001f0: c886 9dbe 5e0d 573d e77c a8bc b36c 8cbd
00000200: 8436 25be 3e8a fdbe f9b8 ff3b 7090 46be
00000210: de3a 313e 4bca 6fbe b28b d43a 2700 59be
00000220: f0aa 423e bdbc 83be 5648 d5be 69fa 1abf
00000230: 145d 163d 0050 893c 4cfb 383b d97b fcbd
00000240: 8dbe 653c b124 34bb 0ced c03b 263a 293d
00000250: 2a41 453e 3cf1 0b3d 8f4b 40be b2c6 4cbd
00000260: 0d0a 32bf 5310 1bbf f0d5 96be 2cb0 d73c
00000270: 9277 c1bc 3ece 07be ac1b 403c 88de 903c
00000280: 7aa1 373c a612 cebd adbd dc3a 2810 adbd
00000290: 047a d03a c139 d3be 7fd5 32bc 6ccf 69be
000002a0: dc3c ddbe 3b30 7dbe 6a57 a8bd 89d7 e6be
000002b0: bcd3 9dbc ed93 923c 047e 9c3d 8dfc 253e
000002c0: 782d 063c 35e1 16be 0463 b5bc 306c 03bf
000002d0: a267 493a f5c4 d0ba f64f aebb cab4 7cbe
000002e0: 68cf c23d ee24 e63d efd7 3ebf ab29 b33a
000002f0: c70e 073e cc49 63be 17cd 03bc 0b58 90be
00000300: 43cc 10bf afaf 28be 4646 5c3c aae9 0abc
00000310: fe80 893d 9892 00bb d6b9 d6bc 730c c3be
00000320: bd11 223c 744c c43c e1a7 f63b a23c a0bd
00000330: 38cf cdbe f385 903e 3e1c 99bb a01d 5bbd
00000340: 3989 f1be 0277 fdba af3d a03c beba a5be
00000350: 04b3 4d3c 8753 5cbf 069b c1bc 9283 903c
00000360: 0b13 36be 4fab 95be a774 61be 9d0e 97bd
00000370: 34b3 6cbe aac4 a8bd ad87 ce3b c78f 44bf
00000380: 505c 76bc 9485 6fbd c1a8 97bd e353 5bbe
00000390: 258b 573c 6027 1fbb 9985 b1be 3588 793e
000003a0: 1ef6 ac3c 1f6e 82be 256d 853c 623e a83c
000003b0: ac86 933c 7bb0 89bd 3dc1 4f3b e936 2ebe
000003c0: 0a19 173b f519 ca3b dd30 d5bd 4dce c23b
000003d0: 48b1 67b9 5514 9fbe 1378 77be 6ac9 353e
000003e0: 7b55 acbe 7206 63be 3862 95bd 84bf fc3b
000003f0: 48df a3bc cd0d e2bd 6ec7 333d f551 f7be

hidden_layers.1.bias f4 [64]
0.24240287 0.09849011 0.10254491 0.115865335 0.27067846 0.2126636 0.10983837 0.13372223
0.18164238 0.122328565 0.26619756 0.110711336 0.20450658 0.12131481 0.09387825 0.15806873
0.104328945 0.11242934 0.24811293 0.15584499 -0.13521032 0.24531677 -0.13205871 0.24937975
0.14092875 0.26936328 0.2489377 0.24714127 0.09960668 0.011035561 0.1561703 0.1830321
-0.058698073 0.26331618 0.2323586 0.16263676 -0.15670413 0.160392 0.12945457 0.16789795
0.1474911 0.1822654 0.117324814 0.23044631 0.12314478 0.23091781 0.16106632 0.11455574
0.102702886 0.100495964 0.11361971 0.122907124 0.12078164 0.22448277 0.097901 0.09432985
0.12206327 0.25477508 0.21985815 0.10765113 0.09041968 0.10865494 0.121256694 0.1548377
00000000: 7538 783e 2fb5 c93d 1103 d23d ce4a ed3d
00000010: 5e96 8a3e 7dc4 593e f0f2 e03d 7bee 083e
00000020: 7600 3a3e 6687 fa3d 0c4b 883e a0bc e23d
00000030: 2c6a 513e e673 f83d 3d43 c03d c5dc 213e
00000040: 6aaa d53d 5b41 e63d 5111 7e3e d495 1f3e
00000050: 9374 0abe 5234 7b3e 663a 07be 685d 7f3e
00000060: a04f 103e fce9 893e 86e9 7e3e 9a12 7d3e
00000070: 96fe cb3d 7fce 343c 1beb 1f3e c46c 3b3e
00000080: 646d 70bd 61d1 863e 6aef 6d3e 408a 263e
00000090: 0c77 20be cd3d 243e bd8f 043e 71ed 2b3e
000000a0: e807 173e c8a3 3a3e fe47 f03d 1efa 6b3e
000000b0: 5533 fc3d b875 6c3e 92ee 243e 339c ea3d
000000c0: e455 d23d d4d0 cd3d 73b1 e83d bbb6 fb3d
000000d0: 5d5c f73d d0de 653e 5280 c83d 0230 c13d
000000e0: 4ffc f93d e171 823e 7f22 613e 3278 dc3d
000000f0: f42d b93d 7b86 de3d 6e55 f83d c68d 1e3e

output.weight f4 [4, 64]
0.05155027 -0.13202304 0.028266188 0.039293285 0.067737244 0.045691624 0.03226294 0.034371994
0.041973267 0.034806084 0.066263326 0.024570957 0.058046103 0.039638918 0.034166563 0.038667448
-0.12256517 0.038796473 0.0869149 0.04625684 -0.055842042 0.061310463 0.078783795 0.11024916
-0.09787037 0.094018854 0.055040304 0.063910626 0.041875638 -0.091431156 -0.046755925 0.039341096
-0.09571679 0.06641885 0.07110029 -0.13126251 0.01345737 0.035685107 -0.115238324 0.03945841
0.040925868 -0.13775754 -0.1341519 0.07105237 -0.07156967 0.06072409 0.03232022 0.03733512
0.032762084 0.047680482 -0.1075902 0.02594637 -0.10707151 0.06017437 0.042214613 0.034389026
0.03901256 0.062222335 0.05419077 0.036595363 0.029813925 0.042912047 0.03871661 0.040025365
0.04823612 -0.04434429 0.042501252 0.0239309 0.061737277 0.05056264 0.026877634 0.06587795
0.037924353 0.025378995 0.095660634 0.03327318 0.062466457 0.03331154 0.026189057 0.03202035
-0.03597677 0.056522578 0.09109476 0.022458078 -0.06222555 0.0657967 -0.05761493 0.11691801
0.010191604 0.102819525 0.08681684 0.049093816 0.016180675 -0.10886573 -0.03577608 0.031471916
-0.11030437 0.05595336 0.116493285 -0.096173555 -0.0074347826 0.032708038 -0.0065310765 0.025482358
0.022660147 -0.0849054 -0.004796421 0.04929633 0.011285264 0.06336293 0.029538035 0.04860332
0.025448916 0.032019176 0.0378149 0.031290457 0.0068213884 0.04928935 0.026106909 0.04407387
0.056607973 0.068991125 0.057297703 0.026697932 0.035595726 0.031579442 0.01761831 0.021878896
0.012549676 -0.03877076 0.05867126 0.051647715 -0.020806327 0.07187206 0.040695738 0.06417159
0.06345051 0.068454206 0.008253935 0.049677428 0.02762954 0.040448166 0.047247417 0.051069114
-0.07168651 -0.019592408 0.06428056 -0.030776367 0.005781958 0.010749336 0.000552954 0.095376834
0.08462724 0.067473754 0.014447409 0.02164517 0.049427092 -0.07101517 -0.29301122 0.06058612
-0.12035052 0.005751852 0.00052992394 -0.036475394 0.047373854 0.03488966 -0.04662865 0.03114981
0.05719232 -0.08988247 -0.049328465 0.07213072 0.044254582 0.01118551 0.043772254 0.04911345
0.03695526 0.053636793 -0.10404084 0.06817945 -0.053172365 0.03767282 0.052798167 0.049256522
0.043060973 0.0027217602 0.03783842 0.049576107 0.03504592 0.035194773 0.057031017 0.028308975
0.026673615 -0.07540857 0.04571185 0.055217866 0.03357053 0.07109985 0.03945125 -0.053468864
0.053776607 0.058138516 0.016786316 0.045911185 0.024639219 0.030280674 0.045122955 0.049996715
-0.057841267 0.057226855 0.03276126 0.06893172 0.09818782 0.014510671 -0.015508075 0.09251469
-0.13150635 0.061483484 0.021926789 -0.00033083465 0.063836314 -0.15955748 -0.26554757 0.055029325
-0.13454747 0.013422882 0.02276267 -0.081849195 -0.07259794 0.03682697 -0.036422644 0.030560454
0.02228816 -0.07725638 -0.069899276 0.079573944 0.06740264 0.02936933 0.040401116 0.058281343
0.053321168 0.043225624 0.064126045 0.04488038 -0.050308075 0.042178452 0.03265322 0.044828318
-0.07226001 0.0031257018 0.039540697 0.05725518 0.038087886 0.05533909 0.035959 0.04257481
00000000: 6026 533d 0c31 07be 7e8e e73c fff1 203d
00000010: d3b9 8a3d 2427 3b3d 2526 043d a6c9 0c3d
00000020: 29ec 2b3d d390 0e3d 11b5 873d 0849 c93c
00000030: c0c1 6d3d 6b5c 223d 3df2 0b3d c261 1e3d
00000040: 7303 fbbd 0de9 1e3d 7000 b23d d077 3d3d
00000050: a0ba 64bd ae20 7b3d 6659 a13d 50ca e13d
00000060: 4370 c8bd f58c c03d f171 613d 93e3 823d
00000070: ca85 2b3d 4240 bbbd 2483 3fbd 2124 213d
00000080: 2a07 c4bd 9b06 883d 079d 913d ae69 06be
00000090: 4d7c 5c3c 8c2a 123d 1202 ecbd 249f 213d
000000a0: e2a1 273d 5010 0dbe 1e5f 09be e883 913d
000000b0: 1f93 92bd d3b9 783d 3562 043d b6ec 183d
000000c0: 8931 063d 9c4c 433d 4058 dcbd 7b8d d43c
000000d0: 4f48 dbbd 6679 763d 3be9 2c3d 82db 0c3d
000000e0: a2cb 1f3d d9dc 7e3d 24f7 5d3d 05e5 153d
000000f0: 553c f43c 8bc4 2f3d 4f95 1e3d a3f1 233d
00000100: 3d93 453d 5ca2 35bd cb15 2e3d bc0a c43c
00000110: 3ae0 7c3d c51a 4f3d 7c2e dc3c 05eb 863d
00000120: 9156 1b3d 9ce7 cf3c b9e9 c33d 7549 083d
00000130: d4dc 7f3d ae71 083d 6f8a d63c c527 033d
00000140: 615c 13bd 3884 673d e48f ba3d 01fa b73c
00000150: 38e0 7ebd 6cc0 863d a2fd 6bbd b672 ef3d
00000160: affa 263c 0b93 d23d 07cd b13d 9916 493d
00000170: 568d 843c fff4 debd f089 12bd b2e8 003d
00000180: 42e7 e1bd 5a2f 653d 0894 ee3d a4f6 c4bd
00000190: 7a9f f3bb ddf8 053d a402 d6bb 61c0 d03c
000001a0: c6a1 b93c e2e2 adbd 4c2b 9dbb f3ea 493d
000001b0: d4e5 383c 6dc4 813d c0f9 f13c 4614 473d
000001c0: 3f7a d03c 8a26 033d cce3 1a3d 6c2a 003d
000001d0: f485 df3b a1e3 493d 28de d53c cd86 343d
000001e0: c3dd 673d 384b 8d3d ffb0 6a3d 9fb5 da3c
000001f0: d3cc 113d 7259 013d 4654 903c 5f3b b33c
00000200: 289d 4d3c 17ce 1ebd 4651 703d 8e8c 533d
00000210: 0872 aabc a931 933d 93b0 263d 656c 833d
00000220: 57f2 813d b831 8c3d 833b 073c 8f7a 4b3d
00000230: 5857 e23c faac 253d 8286 413d d92d 513d
00000240: 61d0 92bd 4280 a0bc 87a5 833d b81e fcbc
00000250: 9476 bd3b fc1d 303c 1df4 103a ee54 c33d
00000260: 0c51 ad3d ae2f 8a3d d3b4 6c3c 3651 b13c
00000270: 1074 4a3d 6770 91bd 9105 96be 2729 783d
00000280: 557a f6bd 087a bc3b 98ea 0a3a 3967 15bd
00000290: 160b 423d 76e8 0e3d affd 3ebd e32d ff3c
000002a0: 7e42 6a3d 4d14 b8bd a50c 4abd 45b9 933d
000002b0: 4b44 353d 6e43 373c 894a 333d 2f2b 493d
000002c0: 665e 173d 41b2 5b3d 5d13 d5bd aba1 8b3d
000002d0: 44cb 59bd d14e 1a3d e442 583d 35c1 493d
000002e0: b460 303d 8f5f 323b 76fc 1a3d 5110 4b3d
000002f0: 508c 0f3d 6528 103d 5b99 693d 39e8 e73c
00000300: a082 da3c cf6f 9abd 593c 3b3d 212c 623d
00000310: 4181 093d cc9c 913d a297 213d 2b02 5bbd
00000320: dc44 5c3d a722 6e3d 7583 893c 5e0d 3c3d
00000330: 30d8 c93c 2d0f f83c d9d2 383d 5bc9 4c3d
00000340: f7ea 6cbd b566 6a3d ac30 063d 132c 8d3d
00000350: b216 c93d 2abe 6d3c 9515 7ebc 5778 bd3d
00000360: 9aa9 06be 1bd6 7b3d cf9f b33c e073 adb9
00000370: 9dbc 823d 0963 23be daf5 87be 6e66 613d
00000380: d0c6 09be a6eb 5b3c c778 ba3c 8da0 a7bd
00000390: 3bae 94bd e0d7 163d e92f 15bd eb59 fa3c
000003a0: a995 b63c 9838 9ebd 5a27 8fbd aaf7 a23d
000003b0: 650a 8a3d f397 f03c a47b 253d 6bb8 6e3d
000003c0: 4c67 5a3d 5a0d 313d 8454 833d 7dd4 373d
000003d0: d70f 4ebd 50c3 2c3d 62bf 053d e69d 373d
000003e0: 0efd 93bd 93d8 4c3b 6df5 213d 6884 6a3d
000003f0: 0b02 1c3d 3eab 623d bf49 133d ed62 2e3d

output.bias f4 [4]
1.4375952 1.3028182 1.3526052 1.3611336
00000000: 1f03 b83f bfc2 a63f 2b22 ad3f a039 ae3f
