experiments/navigate_1353_18Oct22082643.pth (torch_old, 54660 bytes, 6 tensors)

hidden_layers.0.weight f4 [128, 37]
-0.09682353 -0.0069643105 -0.16793357 -0.08278313 -0.18567966 0.008749373 -0.12308916 0.12542248
-0.057319533 -0.008673401 -0.077977076 -0.18239978 -0.17856157 -0.1037979 -0.17567772 -0.03259798
-0.043877102 0.0775705 -0.14136916 -0.14196406 -0.010230357 0.09686855 -0.060224976 0.06945606
-0.10741988 -0.047348447 0.022316542 -0.1740616 -0.0576215 -0.12931345 -0.08922614 0.069405116
-0.12893274 -0.113392636 -0.18140139 -0.060383122 0.010478498 0.05249048 0.11140402 0.09762341
0.05182275 -0.05219321 0.09684494 -0.4191275 -0.48646408 -0.35107186 -1.7434125 -0.0073803705
0.015782708 0.012033295 0.041860048 0.038065873 0.044196997 0.008689286 0.032534916 0.026376184
-0.008222424 -0.066516064 -0.12633042 -0.11745584 -0.0844947 0.038949076 -0.028784717 0.011039589
0.018900637 -0.02991738 0.007018095 0.047685288 0.084410906 0.03422649 0.015814887 -0.093007065
-0.0033547338 0.007807982 0.07714244 0.18553352 -0.07301028 -0.051579066 0.009270983 -0.11301621
-0.30052772 0.12661406 0.13656028 -0.12872395 -0.101195395 0.04722798 -0.101544745 0.074950695
0.18367648 -0.099995844 -0.17970018 0.17397426 0.20856966 0.07087896 -0.22806412 -0.11025506
0.01086444 0.044975374 0.018406587 -0.2405599 0.09883921 0.22810619 -0.11210453 -0.064810276
-0.14291131 -0.2125517 0.03694579 -0.17492723 0.091023296 -0.004028255 -0.023161657 -0.027328283
0.1449499 0.10465426 0.04403223 -0.07409295 -0.08633598 -0.016565975 0.019348884 0.03527488
0.36346012 -0.12496379 0.075248115 -0.024026636 -0.08577439 -0.12432049 -0.12675017 -0.103390664
-0.12779135 0.0022406986 0.1397722 -0.06188384 -0.012394863 -0.025868278 0.058864936 0.18929633
-0.059684176 -0.12747422 0.005721502 0.20510077 0.48733273 -0.016107352 0.005412391 0.037974596
0.23677646 0.2801086 -0.011446243 -0.010586339 -0.14545037 -0.24794312 -0.09932407 -0.32860827
-0.17335223 -0.31776768 0.06570533 0.23745754 0.14200693 -0.514902 -0.09292213 0.013905373
-0.085287504 -0.14193937 -0.02100991 -0.2850673 -0.006531596 0.045607552 -0.38108063 -0.049582172
-0.273388 0.05005681 0.090171486 -0.0088700615 -0.05371464 -0.21862511 -0.08955153 0.2717443
-0.06958374 -0.55205923 -0.030975094 -0.12756407 0.101568505 -0.11996271 -0.08728439 0.053715043
0.012456219 0.02353601 0.010842127 -0.020685472 0.011831448 0.03869969 0.21085529 -0.2828892
-0.3197265 -0.37445915 -1.7108471 -0.05272862 -0.030035347 -0.064900175 -0.01636235 -0.019970719
0.015676128 0.024097323 -0.020663328 -0.010207135 -0.053466316 0.09748985 0.03650728 0.090139374
0.133489 0.07192286 -0.011193869 0.03769827 0.07569365 0.0717517 0.0841801 -0.012247303
0.070050135 0.036785007 0.065235734 0.044128623 0.006495762 0.00456781 -0.051723395 0.027307283
-0.045369238 -0.02589068 -0.034905292 -0.11432807 -0.04106658 -0.0009907134 0.09704344 0.22560702
-0.002345311 0.059956156 0.06124736 0.07437131 0.068283424 -0.10684713 -0.043251492 -0.020149743
-0.010341044 0.05599729 -0.0622154 0.0019986178 0.007915849 -0.023473317 0.056711927 -0.10531405
-0.123010255 -0.059981983 -0.047904678 0.06636498 0.2207274 -0.5081845 -0.41516083 -0.4023178
00000000: 6a4b c6bd df34 e4bb c7f6 2bbe 348a a9bd
00000010: cf22 3ebe 8859 0f3c 2b16 fcbd c06e 003e
00000020: e3c7 6abd e11a 0ebc 72b2 9fbd 02c7 3abe
00000030: d8d8 36be fe93 d4bd dce4 33be 7685 05bd
00000040: 7ab8 33bd 48dd 9e3d 14c3 10be 075f 11be
00000050: 3a9d 27bc 0563 c63d 77ae 76bd fb3e 8e3d
00000060: f4fe dbbd 72f0 41bd 2ed1 b63c 343d 32be
00000070: 8604 6cbd bf6a 04be 32bc b6bd 4524 8e3d
00000080: f206 04be 663a e8bd 49c1 39be 4b54 77bd
00000090: 02ae 2b3c 4200 573d ca27 e43d c8ee c73d
000000a0: 1844 543d 8cc8 55bd a456 c63d e197 d6be
000000b0: d211 f9be b1bf b3be 2428 dfbf 09d7 f1bb
000000c0: bd4a 813c 4c27 453c 7175 2b3d f6ea 1b3d
000000d0: e907 353d 825d 0e3c 5543 053d de12 d83c
000000e0: 59b7 06bc 9339 88bd c35c 01be b08c f0bd
000000f0: 8f0b adbd 1189 1f3d edcd ebbc 64df 343c
00000100: 82d5 9a3c 4b15 f5bc 0cf8 e53b a651 433d
00000110: a0df ac3d 1331 0c3d 398e 813c 7d7a bebd
00000120: 18db 5bbb 1ada ff3b dbfc 9d3d 80fc 3d3e
00000130: 6a86 95bd 9244 53bd 52e5 173c 0b75 e7bd
00000140: c5de 99be 1ea7 013e 75d6 0b3e 36d0 03be
00000150: 883f cfbd 2072 413d b1f6 cfbd c07f 993d
00000160: b015 3c3e 9fca ccbd 5303 38be 4f26 323e
00000170: 4993 553e fd28 913d a489 69be 68cd e1bd
00000180: c400 323c 1938 383d 69c9 963c 5655 76be
00000190: 366c ca3d ab94 693e 0f97 e5bd 40bb 84bd
000001a0: 5857 12be 27a7 59be 7854 173d 2020 33be
000001b0: 6c6a ba3d 74ff 83bb 84bd bdbc 90df dfbc
000001c0: bf6d 143e f954 d63d 245b 343d 0bbe 97bd
000001d0: ebd0 b0bd 5eb5 87bc 8d81 9e3c 647c 103d
000001e0: 7217 ba3e 04ed ffbd af1b 9a3d 82d3 c4bc
000001f0: 7caa afbd be9b febd ccca 01be 7cbe d3bd
00000200: bcdb 02be afd8 123b 7220 0f3e e979 7dbd
00000210: d313 4bbc b6e9 d3bc 5c1c 713d e6d6 413e
00000220: 6577 74bd 9a88 02be 707b bb3b f005 523e
00000230: ad83 f93e 91f3 83bc 6d5a b13b 408b 1b3d
00000240: 8775 723e 656a 8f3e 0689 3bbc 5372 2dbc
00000250: f1f0 14be cde4 7dbe 6b6a cbbd 583f a8be
00000260: 3f83 31be 72b2 a2be 8490 863d 1228 733e
00000270: 446a 113e 9ed0 03bf f54d bebd 5dd3 633c
00000280: 37ab aebd 8e58 11be fa1c acbc 57f4 91be
00000290: 0007 d6bb fcce 3a3d 001d c3be ad16 4bbd
000002a0: 83f9 8bbe 5f08 4d3d d4ab b83d bc53 11bc
000002b0: e203 5cbd 43df 5fbe cb66 b7bd 1222 8b3e
000002c0: eb81 8ebd c153 0dbf 7bbf fdbc 28a0 02be
000002d0: 2603 d03d 02af f5bd 29c2 b2bd 4e04 5c3d
000002e0: 2b15 4c3c 97ce c03c 2da3 313c 9474 a9bc
000002f0: b1d8 413c 9183 1e3d 73ea 573e dad6 90be
00000300: 31b3 a3be 1cb9 bfbe 0afd dabf f7f9 57bd
00000310: b00c f6bc 62ea 84bd 560a 86bc a299 a3bc
00000320: 396b 803c c067 c53c 2446 a9bc d43b 27bc
00000330: 7fff 5abd c2a8 c73d a888 153d fe9a b83d
00000340: 57b1 083e 4b4c 933d 7d66 37bc 8069 1a3d
00000350: 4605 9b3d 8ef2 923d 9e66 ac3d e9a8 48bc
00000360: 7276 8f3d e0ab 163d 509a 853d 37c0 343d
00000370: 67da d43b 91ad 953b e9db 53bd 86b3 df3c
00000380: 18d5 39bd b118 d4bc daf8 0ebd d624 eabd
00000390: 6e35 28bd d3da 81ba b6be c63d 8705 673e
000003a0: cab3 19bb 9694 753d 83de 7a3d fc4f 983d
000003b0: 2ed8 8b3d abd2 dabd 7a28 31bd 1311 a5bc
000003c0: 7b6d 29bc 6a5d 653d 93d5 7ebd 3efb 023b
000003d0: 7ab1 013c 1d4b c0bc c44a 683d e5ae d7bd
000003e0: cdec fbbd abaf 75bd b237 44bd 5dea 873d
000003f0: 5d06 623e 6118 02bf f68f d4be 99fc cdbe

hidden_layers.0.bias f4 [128]
-0.103782184 0.035648428 -0.16000335 -0.1602027 -0.11133065 -0.07303851 0.05460019 0.022868933
-0.15477227 -0.009620481 -0.14863038 -0.10730002 -0.16000181 -0.09094219 -0.12488121 0.01054585
-0.056175854 -0.028464984 -0.14805394 -0.07830992 -0.19066821 -0.02544885 0.021968672 -0.05462246
-0.059373375 0.010989836 0.073412254 -0.15458499 -0.11020818 -0.16051632 0.00033756686 0.016894057
-0.09226386 -0.13828342 -0.07222 -0.21100667 -0.14780013 -0.007573162 -0.10076549 -0.05784342
-0.03338898 0.030407429 0.15788542 -0.016099805 -0.07735763 -0.16495073 0.07861664 -0.1968287
-0.25507638 0.008892262 0.0023838528 -0.09644102 -0.007726824 0.006865205 -0.047697436 -0.066084
-0.17716114 -0.06206839 0.010206847 -0.083457135 -0.20753711 -0.029789256 0.0091020875 -0.15567371
0.016755985 0.0924706 -0.08180593 -0.1284022 -0.261392 -0.09106199 -0.026386568 -0.11479285
-0.021015845 -0.13806507 -0.111118846 -0.12500067 0.014285803 -0.16119228 0.051768035 0.057242904
-0.08659279 0.005898324 0.008692242 -0.12196796 -0.12512815 0.031100431 0.01630633 -0.086856276
-0.011728266 -0.020663217 0.09347204 -0.08387679 -0.15455587 -0.28693616 -0.10943905 0.04926649
-0.110952735 -0.30728966 -0.14811474 0.004963374 -0.12664075 -0.26051736 0.006015434 0.067604996
-0.22136031 -0.16246426 -0.047901213 0.15845855 -0.2611704 -0.15710852 0.004499841 -0.058275416
-0.11688841 -0.052227553 -0.014565058 0.045097075 0.022314716 0.030520482 -0.035614148 -0.10168825
-0.097063534 0.054732557 -0.135589 -0.30878046 -0.10128663 0.03716372 0.16566856 -0.13259251
00000000: c18b d4bd 1604 123d ebd7 23be 2d0c 24be
00000010: 5301 e4bd 3795 95bd 73a4 5f3d a157 bb3c
00000020: 9f7c 1ebe 399f 1dbc 9032 18be 1dc0 dbbd
00000030: 84d7 23be e63f babd b8c1 ffbd 80c8 2c3c
00000040: a718 66bd 662f e9bc 749b 17be f460 a0bd
00000050: 873e 43be 1b7a d0bc a5f7 b33c cdbb 5fbd
00000060: 7f31 73bd b70e 343c 2a59 963d 874b 1ebe
00000070: d4b4 e1bd 645e 24be 75fb b039 6865 8a3c
00000080: d6f4 bcbd 2b9a 0dbe 14e8 93bd 2212 58be
00000090: eb58 17be 4a28 f8bb 235e cebd 39ed 6cbd
000000a0: e2c2 08bd 0019 f93c b7ac 213e bde3 83bc
000000b0: ad6d 9ebd d8e8 28be c301 a13d 768d 49be
000000c0: 5f99 82be dab0 113c 6a3a 1c3b df82 c5bd
000000d0: 4c31 fdbb 83f5 e03b 635e 43bd 0c57 87bd
000000e0: bb69 35be 6d3b 7ebd 9f3a 273c 93eb aabd
000000f0: 9c84 54be 9908 f4bc ec20 153c ee68 1fbe
00000100: d943 893c 3a61 bd3d de89 a7bd de7b 03be
00000110: 2cd5 85be b57e babd a528 d8bc 8418 ebbd
00000120: 6c29 acbc ee60 0dbe 4792 e3bd 2d00 00be
00000130: 000f 6a3c 970f 25be b80a 543d 8977 6a3d
00000140: 9057 b1bd ba46 c13b e869 0e3c 56ca f9bd
00000150: 9821 00be 55c6 fe3c da94 853c b4e1 b1bd
00000160: ea27 40bc e845 a9bc 456e bf3d 98c7 abbd
00000170: e543 1ebe 4ce9 92be 9521 e0bd a9cb 493d
00000180: 303b e3bd 1255 9dbe 64ab 17be cda3 a23b
00000190: 1dae 01be 8862 85be 1e1d c53b 7d74 8a3d
000001a0: 47ac 62be 085d 26be 1034 44bd f542 223e
000001b0: 20b8 85be 0ee1 20be 6773 933b 34b2 6ebd
000001c0: 3163 efbd 8fec 55bd 48a2 6ebc b6b7 383d
000001d0: 5acd b63c 1706 fa3c 24e0 11bd ee41 d0bd
000001e0: 3fc9 c6bd 3f2f 603d d8d7 0abe 7918 9ebe
000001f0: 5d6f cfbd fc38 183d 05a5 293e 55c6 07be

hidden_layers.1.weight f4 [64, 128]
-0.07380976 -0.032411728 0.018547937 0.13375698 0.10638988 -0.006929667 -0.06338069 -0.041220017
0.037962716 -0.00887411 0.05787608 0.094484024 -0.3114129 -0.07997816 0.06111415 -0.04760739
-0.098293595 0.023033656 -0.24088885 -0.056533717 0.011609099 0.0865154 0.04797724 -0.10226319
0.094630755 0.09627838 -0.080220625 -0.02722139 -0.015870264 0.09232673 -0.33553997 -0.052821197
-0.3184173 -0.066092275 -0.47307286 -0.14603493 -0.03831334 -0.025594646 0.05444382 0.0025903508
-0.102265045 -0.2499319 0.049043633 0.01922456 -0.11144126 -0.04210805 -0.048733484 -0.0773577
-0.08017442 -0.051291257 -0.088038184 -0.09730232 -0.18327472 -0.03834683 -0.011482731 -0.12534963
0.110697776 -0.2409479 -0.019772686 -0.043678965 -0.15193331 -0.09812264 -0.022904534 -0.2625894
-0.1056454 0.027142324 0.023092233 -0.088875614 -0.163995 0.05374567 0.14357126 -0.1916615
-0.09910093 -0.118753955 0.047728423 -0.16257791 -0.31349868 -0.11243254 0.0064994483 -0.025746465
0.042692598 -0.2593056 -0.35961774 0.060413245 -0.09932094 -0.30798072 -0.24252836 -0.13204728
-0.027386714 0.0701225 0.10443986 -0.10300631 -0.10663621 -0.10559319 0.08551339 0.04389205
-0.28904608 0.044076275 -0.030236602 -0.11741043 0.04054666 -0.23173955 -0.09219795 -0.01736841
-0.07947611 0.023301415 0.010234037 -0.004729438 -0.2664303 -0.04674696 -0.16100568 0.02924351
-0.016609563 0.050123658 -0.03960834 -0.19772953 0.05397832 0.043292657 0.0005206169 -0.28417435
0.062237695 -0.03702163 0.06251771 -0.02827496 -0.0068298806 -0.0063387193 -0.022973305 -0.197577
0.020082742 0.03419361 0.059098534 -0.063054875 -0.13476399 0.03607437 0.13172586 0.0015978761
0.050529495 0.025700398 0.023093874 0.050527155 -0.29050526 0.10035727 -0.027229905 -0.13573281
-0.10205314 0.008903259 -0.1409355 -0.13492087 -0.21878551 -0.035344034 -0.015113262 0.07758564
0.01267052 0.103528194 0.011517499 0.10720749 -0.007530564 0.0068888175 -0.29614198 -0.24081121
-0.039867 -0.039969537 0.008352505 0.040222034 0.035514094 0.03907991 -0.016299883 0.019294647
-0.011470643 -0.094380476 0.039477624 0.025520047 -0.14358322 -0.21718292 -0.030500323 0.13650304
-0.15349829 0.08872353 0.04320613 -0.1319618 -0.05698622 0.021059966 -0.13326396 -0.06804938
-0.06574045 -0.012195153 0.056337677 -0.11296031 -0.17846526 -0.10001522 -0.18381816 -0.031786397
-0.2780992 0.20501538 0.034441706 -0.09013893 -0.05704849 0.037699495 0.025497658 -0.007008473
-0.1789094 -0.23093636 0.025874285 0.20706232 -0.051184688 -0.06485728 -0.008574328 0.0146905985
0.040371507 -0.022582317 -0.027322914 0.04176576 0.023505619 -0.3279855 -0.1709074 -0.017518898
0.03840507 0.029578567 0.04072693 -0.08581481 0.012469191 -0.13954921 -0.0854423 0.080283724
-0.052530214 -0.026639393 -0.12897502 -0.21692744 0.018403722 -0.13618997 -0.031189296 0.13116626
0.03594652 0.04682508 0.050071955 -0.012376058 -0.25325537 -0.09078009 -0.13582404 -0.1095337
-0.024732409 0.043576445 -0.108513996 -0.1462997 0.032029252 0.18557186 0.034942657 -0.22188753
0.109892376 0.020829204 0.05271071 -0.04691865 0.057509765 0.012550454 -0.0590112 -0.062500596
00000000: 9229 97bd 29c2 04bd d8f1 973c 97f7 083e
00000010: f0e2 d93d 4312 e3bb bccd 81bd 52d6 28bd
00000020: cb7e 1b3d b764 11bc 780f 6d3d d780 c13d
00000030: 8371 9fbe 97cb a3bd d552 7a3d f7ff 42bd
00000040: 274e c9bd 14b1 bc3c 91ab 76be e68f 67bd
00000050: 1734 3e3c fc2e b13d c883 443d 5d6f d1bd
00000060: c5cd c13d 992d c53d b64a a4bd 64ff debc
00000070: 5b02 82bc cc15 bd3d e5cb abbe 0a5b 58bd
00000080: 9807 a3be 635b 87bd 9b36 f2be 2e8a 15be
00000090: 73ee 1cbd ddab d1bc 7c00 5f3d e0c2 293b
000000a0: 5670 d1bd 26ee 7fbe fae1 483d d37c 9d3c
000000b0: 513b e4bd 7e79 2cbd c39c 47bd b76d 9ebd
000000c0: 7c32 a4bd c816 52bd 5d4d b4bd 7046 c7bd
000000d0: 5eac 3bbe 9111 1dbd 1122 3cbc a75b 00be
000000e0: 84b5 e23d 0cbb 76be 54fa a1bc b7e8 32bd
000000f0: 6894 1bbe 86f4 c8bd 4aa2 bbbc 1e72 86be
00000100: 9e5c d8bd 9459 de3c ec2b bd3c 6b04 b6bd
00000110: 4eee 27be 6b24 5c3d 5804 133e ea42 44be
00000120: 6ef5 cabd 4635 f3bd e17e 433d d37a 26be
00000130: e682 a0be 0843 e6bd 53f9 d43b 40ea d2bc
00000140: 6fde 2e3d b4c3 84be d11f b8be e173 773d
00000150: c768 cbbd a6af 9dbe 5b59 78be 6737 07be
00000160: 1a5a e0bc 639c 8f3d 91e4 d53d f9f4 d2bd
00000170: 1664 dabd 3e41 d8bd a521 af3d 26c8 333d
00000180: d9fd 93be 5389 343d c0b2 f7bc e174 f0bd
00000190: 4114 263d 224d 6dbe 47d2 bcbd 3248 8ebc
000001a0: 5fc4 a2bd 9ce2 be3c aaac 273c 67f9 9abb
000001b0: 8d69 88be be79 3fbd acde 24be 1690 ef3c
000001c0: c710 88bc 774e 4d3d 5b3c 22bd 9c79 4abe
000001d0: 5f18 5d3d a453 313d 027a 083a 4d7f 91be
000001e0: f4ec 7e3d fea3 17bd 4909 803d e4a0 e7bc
000001f0: 31cd dfbb 08b5 cfbb 8332 bcbc a051 4abe
00000200: 9084 a43c 990e 0c3d 4e11 723d ea22 81bd
00000210: 92ff 09be b8c2 133d 25e3 063e d36f d13a
00000220: 04f8 4e3d a489 d23c 5d2f bd3c 90f5 4e3d
00000230: 1bbd 94be 1d88 cd3d 4011 dfbc 8bfd 0abe
00000240: 3d01 d1bd fade 113c 6551 10be b228 0abe
00000250: 4f09 60be e8c4 10bd 9e9d 77bc 38e5 9e3d
00000260: 0398 4f3c 9706 d43d e4b3 3c3c 9a8f db3d
00000270: f3c2 f6bb 97bb e13b ec9f 97be 3797 76be
00000280: 944b 23bd 19b7 23bd f2d8 083c dcbf 243d
00000290: 3a77 113d 4112 203d 5587 85bc cf0f 9e3c
000002a0: 5def 3bbc 8d4a c1bd 4ab3 213d 6b0f d13c
000002b0: 7b07 13be 3365 5ebe d0db f9bc 74c7 0b3e
000002c0: a82e 1dbe afb4 b53d e9f8 303d fe20 07be
000002d0: 626a 69bd f385 ac3c 5976 08be 795d 8bbd
000002e0: eea2 86bd 2ece 47bc 56c2 663d bc57 e7bd
000002f0: 99bf 36be c8d4 ccbd d43a 3cbe 7432 02bd
00000300: 0563 8ebe 8def 513e bf12 0d3d c29a b8bd
00000310: adab 69bd c96a 1a3d 77e0 d03c 55a7 e5bb
00000320: 0734 37be 957a 6cbe 4ff6 d33c 2508 543e
00000330: 09a7 51bd e5d3 84bd 577b 0cbc d6b0 703c
00000340: 985c 253d 8dfe b8bc 4ed4 dfbc 9312 2b3d
00000350: db8e c03c b7ed a7be 5902 2fbe cb83 8fbc
00000360: a24e 1d3d c04e f23c 48d1 263d adbf afbd
00000370: 944b 4c3c fde5 0ebe 5ffc aebd cb6b a43d
00000380: ec29 57bd db3a dabc 0712 04be 3a22 5ebe
00000390: 67c3 963c 6275 0bbe b280 ffbc 7350 063e
000003a0: a83c 133d a8cb 3f3d 4018 4d3d f3c4 4abc
000003b0: b0aa 81be e9ea b9bd 7515 0bbe 3453 e0bd
000003c0: 9f9b cabc 377d 323d 963c debd 97cf 15be
000003d0: 1b31 033d 8d06 3e3e 0820 0f3d 7c36 63be
000003e0: 410f e13d 02a2 aa3c 2fe7 573d c52d 40bd
000003f0: 5c8f 6b3d 6ba0 4d3c bab5 71bd 5000 80bd

hidden_layers.1.bias f4 [64]
0.25834435 0.21612619 0.1764538 0.20928936 0.27327725 -0.1214382 0.12169831 0.09114797
0.09276338 0.107756205 0.23978218 0.119462185 0.22571792 0.09647478 0.117812105 0.110240586
-0.034854725 0.19910263 -0.14564122 0.2179394 0.127786 0.21569607 0.23805445 0.21852146
0.17142119 0.22321339 0.2287246 0.2312477 0.24592637 0.17271791 0.10522865 0.2392155
-0.13806543 0.25812405 0.24367946 0.10420692 0.17272319 0.20297727 0.113962606 0.16195537
0.22431082 0.09441159 0.20302646 0.24596126 0.19443318 0.1696894 0.24277517 0.12319815
0.1206247 -0.16245267 0.10754308 0.106912166 -0.14484899 0.17386825 0.24947849 0.15998112
0.21058613 0.22642061 0.25724027 0.2032169 0.104682036 0.1018669 0.11493629 0.12030168
00000000: b645 843e 2f50 5d3e 4eb0 343e f34f 563e
00000010: ffea 8b3e 97b4 f8bd f73c f93d c9ab ba3d
00000020: bafa bd3d 49af dc3d 7689 753e 97a8 f43d
00000030: 9922 673e 9294 c53d 7947 f13d d1c5 e13d
00000040: d4c3 0ebd 8fe1 4b3e f922 15be 822b 5f3e
00000050: 55da 023e 6edf 5c3e 8cc4 733e 17c4 5f3e
00000060: 0989 2f3e 0d92 643e c836 6a3e 32cc 6c3e
00000070: 1fd4 7b3e f7dc 303e 1e82 d73d e8f4 743e
00000080: 0661 0dbe d628 843e 1c87 793e 706a d53d
00000090: 59de 303e 46d9 4f3e 3a65 e93d a1d7 253e
000000a0: bcb1 653e dd5a c13d 2be6 4f3e 45dd 7b3e
000000b0: 7e19 473e 0fc3 2d3e 0e9a 783e 504f fc3d
000000c0: 150a f73d fe59 26be 8c3f dc3d c4f4 da3d
000000d0: 4b53 14be 850a 323e 4a77 7f3e 17d2 233e
000000e0: e4a3 573e ceda 673e ffb4 833e 1718 503e
000000f0: 8963 d63d 989f d03d b863 eb3d ba60 f63d

output.weight f4 [4, 64]
0.06136092 0.04159183 -0.07330887 0.08670675 0.061406825 -0.042279944 0.03385429 -0.089563444
0.030231215 -0.06782833 0.06539992 0.03793986 0.063727215 0.029327156 0.035301242 -0.07340769
-0.23571947 0.0653345 0.005520445 0.06042749 -0.07222047 0.08797248 0.07960134 0.078518085
-0.06354438 0.050355885 0.053213783 0.05381855 0.049515996 0.04176777 -0.100799285 0.056610867
0.06042575 0.05659246 0.05334132 -0.088359125 -0.11829547 0.033575527 -0.08482641 0.03155941
0.07068942 -0.10148515 0.048000462 0.064207844 0.04246426 0.04241903 0.06201234 0.029928058
0.036821 -0.001920992 -0.07040309 0.029805863 -0.09440076 0.047995683 0.052318744 0.034529265
0.070060305 0.03233568 0.05208145 0.03911533 0.03278059 0.03411842 0.035345085 0.036639176
0.0352907 0.037703194 -0.011711072 0.09686271 0.052706216 -0.0023914946 0.04275712 -0.020837033
0.019661387 0.005999421 0.056963935 0.035681684 0.08270371 0.050901428 0.024247762 0.004106192
-0.027456906 0.051730346 0.053341962 0.045495197 0.01760924 0.11126859 0.0882959 0.06643208
-0.03213634 0.0372389 0.058247887 0.06435146 0.07040979 0.034070726 -0.00035561895 0.051774155
0.0012871285 0.04449424 0.050767053 0.016495872 -0.026380468 0.06371863 -0.002993257 0.026348092
0.037485592 0.011751523 0.048332516 0.06909673 0.055594068 0.053370487 0.07050755 0.029345615
0.031785585 -0.017043753 -0.0069720075 0.053157113 -0.05843489 0.03621579 0.04901457 0.033734947
0.096041664 0.03924231 0.060007196 0.04788181 0.02861749 0.037600253 0.034623638 0.028627304
0.036978863 0.04625853 -0.034519203 0.111931875 0.016944468 0.051999133 0.05313078 -0.048321426
0.070032805 -0.014113895 -0.015845833 0.073615946 0.011385919 0.080836646 0.07909074 -0.036534693
-0.123603985 0.0011288271 0.069126286 1.799014e-05 -0.06765117 0.11030851 0.012798028 0.041690823
-0.036932934 0.049361836 0.047096346 -0.011740331 0.057942584 -0.032098845 -0.05810141 0.044065267
0.010122151 0.01710909 -0.0065222164 -0.04236099 -0.04290264 0.043535154 0.025555896 0.0553468
0.077502005 -0.059250083 -0.02824418 -0.014162948 0.058164213 0.086658746 -0.0018280506 0.056055337
0.07539771 0.069728166 0.072428696 0.080952935 -0.019412663 -0.0026750015 0.057528734 0.059889827
0.06789425 0.046146348 -0.0042882133 0.042381603 0.0639032 0.042653967 0.041876502 0.05064909
0.009179315 0.03897291 -0.051740028 0.10524719 -0.0012399948 0.0075719035 0.057948563 -0.043891657
0.06918403 -0.031792957 0.0142324045 0.06353286 0.03011681 0.06911747 0.05749412 -0.026387207
-0.09962433 0.040594198 -0.0059796358 0.02821097 0.07118904 0.10821862 0.015653787 0.078474194
-0.04212304 0.05575366 0.0058107157 0.016305204 0.040991277 0.07219353 -0.041295804 0.027045874
-0.02547342 0.015997075 0.020488871 0.03690564 -0.04473614 0.028118284 -0.04355804 0.056276917
0.09607083 -0.04755023 0.05805917 0.021797666 0.0035618297 -0.14420173 0.03553664 0.062357303
0.063248865 0.07107394 -0.085747436 0.06621831 0.06871818 0.05037341 0.046779122 0.05967766
0.105097555 0.05982629 0.019031826 0.024914453 0.053159982 0.073125325 0.057116 0.062079147
00000000: 9755 7b3d 325c 2a3d f622 96bd 4f93 b13d
00000010: b985 7b3d bc2d 2dbd ccaa 0a3d 0a6d b7bd
00000020: 74a7 f73c 94e9 8abd 65f0 853d d466 1b3d
00000030: 6a83 823d 813f f03c 0998 103d c556 96bd
00000040: 7260 71be 18ce 853d d9e4 b43b d182 773d
00000050: 53e8 93bd ea2a b43d 0706 a33d 17ce a03d
00000060: 8e23 82bd f941 4e3d b2f6 593d d770 5c3d
00000070: 49d1 4a3d ae14 2b3d db6f cebd cce0 673d
00000080: fe80 773d 7fcd 673d 6e7c 5a3d a1f5 b4bd
00000090: e544 f2bd 7e86 093d 78b9 adbd 7144 013d
000000a0: 9dc5 903d 72d7 cfbd 229c 443d 677f 833d
000000b0: 01ef 2d3d 94bf 2d3d a700 7e3d b02b f53c
000000c0: 9ed1 163d ccc9 fbba 7f2f 90bd 6d2b f43c
000000d0: 3055 c1bd 1f97 443d 2e4c 563d 8f6e 0d3d
000000e0: c77b 8f3d 6b72 043d 5c53 553d 6537 203d
000000f0: f144 063d c2bf 0b3d 02c6 103d f612 163d
00000100: fb8c 103d aa6e 1a3d ccdf 3fbc f55f c63d
00000110: 79e2 573d 9fba 1cbb 1722 2f3d 6db2 aabc
00000120: eb10 a13c ca96 c43b 0453 693d f526 123d
00000130: 9060 a93d 047e 503d 3ea3 c63c 3c8d 863b
00000140: 4eed e0bc 33e3 533d 1a7d 5a3d 2c59 3a3d
00000150: 4141 903c c9e0 e33d 7bd4 b43d 8b0d 883d
00000160: 65a1 03bd d187 183d 5695 6e3d b3ca 833d
00000170: 0233 903d bf8d 0b3d 5e72 bab9 2311 543d
00000180: deb4 a83a 983f 363d 1df1 4f3d 5a22 873c
00000190: da1b d8bc ea7e 823d 852a 44bb f4d7 d73c
000001a0: 7e8a 193d 7689 403c 51f8 453d 9682 8d3d
000001b0: 9bb6 633d 039b 5a3d 4366 903d 3766 f03c
000001c0: 9a31 023d 579f 8bbc 7075 e4bb 46bb 593d
000001d0: 6c59 6fbd 0257 143d 80c3 483d a82d 0a3d
000001e0: 7eb1 c43d 8bbc 203d 1bca 753d b81f 443d
000001f0: 3a6f ea3c b902 1a3d 84d1 0d3d cf83 ea3c
00000200: 2677 173d 9679 3d3d 0264 0dbd 8a3c e53d
00000210: 20cf 8a3c 0bfd 543d a99f 593d b0ec 45bd
00000220: 5c6d 8f3d f73d 67bc 1fcf 81bc f5c3 963d
00000230: 018c 3a3c af8d a53d 53fa a13d 67a5 15bd
00000240: 1624 fdbd 27f5 933a 1592 8d3d 88e9 9637
00000250: b28c 8abd 6ee9 e13d d2ae 513c ffc3 2a3d
00000260: fd46 17bd a32f 4a3d 19e8 403d 845a 40bc
00000270: 3455 6d3d 147a 03bd befb 6dbd c87d 343d
00000280: 61d7 253c 5d28 8c3c 51b8 d5bb b882 2dbd
00000290: aeba 2fbd eb51 323d 995a d13c 53b3 623d
000002a0: 5fb9 9e3d 37b0 72bd 5760 e7bc b60b 68bc
000002b0: 993d 6e3d 247a b13d 339b efba 489a 653d
000002c0: 1d6a 9a3d a4cd 8e3d 7f55 943d a7ca a53d
000002d0: 4e07 9fbc 144f 2fbb 40a3 6b3d 094f 753d
000002e0: 240c 8b3d f403 3d3d 2484 8cbb 5598 2d3d
000002f0: aedf 823d edb5 2e3d b286 2b3d 6c75 4f3d
00000300: d664 163c 0fa2 1f3d 5aed 53bd d78b d73d
00000310: 5287 a2ba bb1d f83b 795b 6d3d bdc7 33bd
00000320: 5bb0 8d3d 5539 02bd 082f 693c 841d 823d
00000330: 87b7 f63c 768d 8d3d f47e 6b3d fc29 d8bc
00000340: d707 ccbd 1a46 263d d2f0 c3bb b11a e73c
00000350: 8fcb 913d b9a1 dd3d 5f3c 803c 14b7 a03d
00000360: 3589 2cbd f35d 643d d167 be3b 7e92 853c
00000370: 78e6 273d 34da 933d ca25 29bd 4f8f dd3c
00000380: a2ad d0bc 4c0c 833c 47d8 a73c 5e2a 173d
00000390: 3e3d 37bd 5158 e63c ea69 32bd a082 663d
000003a0: c9c0 c43d 08c4 42bd 74cf 6d3d 0591 b23c
000003b0: 966d 693b 9ea9 13be de8e 113d 5f6a 7f3d
000003c0: 9f88 813d 378f 913d 5a9c afbd 779d 873d
000003d0: 1ebc 8c3d 5954 4e3d 779b 3f3d 9070 743d
000003e0: 633d d73d 690c 753d a2e8 9b3c 6519 cc3c
000003f0: 48be 593d bbc2 953d 78f2 693d b446 7e3d

output.bias f4 [4]
1.4448017 1.261099 1.3538369 1.3543963
00000000: 43ef b83f b16b a13f 874a ad3f dc5c ad3f
