experiments/navigate_1315_18Oct22075722.pth (torch_old, 54660 bytes, 6 tensors)

hidden_layers.0.weight f4 [128, 37]
0.19145142 -0.3717501 -0.35993886 -0.38775206 -0.99657637 -0.002220228 0.021307362 0.11341497
0.1251273 0.2161089 -0.059379138 -0.06958875 -0.116226465 -0.0850252 0.032728534 0.047123104
0.07615093 0.0021852865 -0.1411489 -0.17091753 0.09944768 0.058369223 0.0779997 0.0434759
0.028210573 0.005958793 0.024702508 0.003471405 -0.01392188 0.010894106 -0.026476748 0.062293768
-0.029199269 0.046580803 -0.018074904 0.010922003 0.008377807 0.07375236 0.085480146 0.09356267
0.095541716 0.003325571 0.10944422 -0.5283978 -0.39630708 -0.4519654 -1.4323243 0.0050296034
-0.013518056 0.022210363 0.050786555 0.07205619 0.03617352 0.015731916 0.050116576 0.08597561
0.050138395 -0.093240105 -0.08104871 -0.07372249 -0.06827188 0.05897676 -0.03736731 -0.029211143
-0.007258298 -0.010157697 0.10590752 0.06535987 0.070300385 0.08584577 0.09876819 -0.0053225765
0.019303108 0.001618265 0.052710544 0.099416725 0.12013552 0.06943365 -0.037722588 -0.40135786
0.17747903 0.20415191 0.26406842 -0.24418347 0.016407594 -0.018552452 0.026717404 -0.0069953087
-0.0076136156 -0.09268311 0.0837116 0.091713205 0.11848174 0.10140134 -0.57791 0.11556324
0.06544562 0.03389514 -0.23540708 0.0006315452 0.059693143 0.063142456 0.04536296 0.09428911
-0.18936157 -0.014635867 0.007053381 -0.013627138 0.063354485 0.0046845083 -0.019788478 0.29134175
-0.280254 -0.17197137 -0.17975463 -1.0878538 -0.07061628 0.032460064 0.043398228 0.10428539
0.12857859 -0.0636116 0.045300305 -0.08296749 -0.024699172 -0.10743629 -0.032329664 0.05662539
-0.089029744 -0.23858778 -0.3984105 -0.0021622423 -0.03895618 -0.011617403 0.11789152 0.052832093
-0.055753265 0.042681865 0.04340454 0.13602604 0.10653681 0.046519432 0.11282601 0.059286997
0.02942233 -0.012714658 0.025588535 5.4698103e-05 -0.22564407 -0.035784118 -0.1350255 -0.255302
-0.3511023 -0.17817976 -0.0042502712 0.0417665 -0.15875143 -0.787172 -0.039768733 -0.112421945
-0.05317521 -0.25809553 -0.05070979 -0.47564244 -0.08529143 0.12865384 -0.21280897 -0.6195509
-0.16279823 -0.02896423 0.063206926 -0.16546895 0.07516707 -0.20021822 -0.20327456 0.2367661
-0.08097235 -0.9808832 -0.056187678 -0.32297182 0.1270412 -0.2681693 -0.10659534 0.13214146
0.041399647 -0.00670835 -0.046328068 -0.04092015 0.030561343 0.0704231 0.22291677 -0.107436396
-0.23968355 -0.2042244 -1.5599755 -0.032824915 -0.046571784 -0.06673844 -0.10229971 -0.028688425
-0.0044845934 0.00011933983 -0.008919589 -0.018804254 -0.024372881 0.12141597 0.072754316 0.12770389
0.030878376 0.028391324 0.0077663884 0.005574434 -0.016532395 0.005736705 0.073189735 0.058666974
-0.1960365 -0.13237342 0.12084442 -0.70429564 -0.0045217806 0.00044508016 -0.07154513 -0.029540027
-0.010345709 -0.007501561 0.036442414 -0.40556607 0.09642148 0.038300645 0.16548465 0.21850936
-0.018895479 0.1373086 0.07104188 -0.08537234 -0.006109859 -0.0953351 -0.073371366 -0.01356723
-0.01964811 0.2804646 -0.19297332 -0.005095912 0.021067299 0.026112426 0.07692313 -0.32237208
-0.021275297 -0.0072738267 0.053433634 0.11228063 -0.2975 0.11167383 0.13961808 0.10529079
00000000: d70b 443e 0756 bebe e849 b8be 7087 c6be
00000010: a11f 7fbf 3f81 11bb c78c ae3c 1c46 e83d
00000020: 5f21 003e a74b 5d3e 8a37 73bd 8c84 8ebd
00000030: 2408 eebd b121 aebd 5b0e 063d 2804 413d
00000040: 05f5 9b3d 0637 0f3b 5689 10be 0105 2fbe
00000050: 3aab cb3d 9114 6f3d 4fbe 9f3d c913 323d
00000060: dc19 e73c fb41 c33b ea5c ca3c 8380 633b
00000070: 9918 64bc 317d 323c c4e5 d8bc c027 7f3d
00000080: 4e33 efbc 83cb 3e3d d211 94bc 33f2 323c
00000090: 1243 093c 7a0b 973d 3710 af3d c99d bf3d
000000a0: 60ab c33d d3f1 593b 4b24 e03d 1445 07bf
000000b0: c3e8 cabe 0268 e7be 6756 b7bf 5fcf a43b
000000c0: d67a 5dbc 82f2 b53c 9005 503d 3292 933d
000000d0: af2a 143d 38e0 803c 0a47 4d3d fb13 b03d
000000e0: eb5d 4d3d abf4 bebd defc a5bd d1fb 96bd
000000f0: 21d2 8bbd 9d91 713d 770e 19bd 354c efbc
00000100: 04d7 edbb 786c 26bc 0be6 d83d 65db 853d
00000110: a6f9 8f3d e8cf af3d fa46 ca3d 0269 aebb
00000120: 8d21 9e3c f71b d43a 03e7 573d ff9a cb3d
00000130: 9d09 f63d 3b33 8e3d 0083 1abd c77e cdbe
00000140: 10bd 353e 330d 513e fa33 873e 3b0b 7abe
00000150: 3869 863c 50fb 97bc 75de da3c e738 e5bb
00000160: a37b f9bb a4d0 bdbd fd70 ab3d 22d4 bb3d
00000170: 8ea6 f23d 81ab cf3d e9f1 13bf 6cac ec3d
00000180: 5a08 863d a1d5 0a3d 8e0e 71be 488e 253a
00000190: cc80 743d d550 813d 83ce 393d a61a c13d
000001a0: 00e8 41be 47cb 6fbc 0c20 e73b 5c44 5fbc
000001b0: ffbf 813d 8180 993b 721b a2bc bf2a 953e
000001c0: 747d 8fbe 4319 30be 9911 38be cb3e 8bbf
000001d0: 459f 90bd d8f4 043d 57c2 313d 9493 d53d
000001e0: 1baa 033e cc46 82bd d08c 393d dcea a9bd
000001f0: eb55 cabc 8f07 dcbd 1c6c 04bd 06f0 673d
00000200: 3a55 b6bd 5b50 74be 76fc cbbe 68b4 0dbb
00000210: 8490 1fbd eb56 3ebc 1c71 f13d 7766 583d
00000220: 895d 64bd 2ed3 2e3d f5c8 313d 694a 0b3e
00000230: f92f da3d 298b 3e3d 5311 e73d ecd6 723d
00000240: 1907 f13c 2451 50bc 0c9f d13c a46b 6538
00000250: 3d0f 67be 5e92 12bd 2044 0abe f2b6 82be
00000260: aec3 b3be c174 36be dc45 8bbb 5913 2b3d
00000270: bc8f 22be 1b84 49bf 8ae4 22bd 7a3d e6bd
00000280: 40ce 59bd 1925 84be 12b5 4fbd 6887 f3be
00000290: 46ad aebd d5bd 033e 98ea 59be e39a 1ebf
000002a0: 94b4 26be 6546 edbc a272 813d b170 29be
000002b0: 31f1 993d 0106 4dbe 3527 50be d072 723e
000002c0: d5d4 a5bd 291b 7bbf 0d25 66bd 905c a5be
000002d0: 1717 023e 7d4d 89be a84e dabd 1750 073e
000002e0: ad92 293d b8d1 dbbb 80c2 3dbd e39b 27bd
000002f0: c85b fa3c fc39 903d 4b44 643e 9d07 dcbd
00000300: 9b6f 75be 3320 51be 47ad c7bf 6b73 06bd
00000310: 0ec2 3ebd 2aae 88bd 8382 d1bd fd03 ebbc
00000320: 7ff3 92bb 1546 fa38 7823 12bc 610b 9abc
00000330: a3a9 c7bc f0a8 f83d 3700 953d cfc4 023e
00000340: a6f4 fc3c ec94 e83c 307d fe3b bea9 b63b
00000350: f26e 87bc f8fa bb3b 80e4 953d c84c 703d
00000360: cbbd 48be e68c 07be 477d f73d b84c 34bf
00000370: 722b 94bb a659 e939 4186 92bd edfd f1bc
00000380: 0c81 29bc a8cf f5bb a444 153d 5ba6 cfbe
00000390: a078 c53d 23e1 1c3d cf74 293e ebc0 5f3e
000003a0: b1ca 9abc a09a 0c3e 687e 913d b2d7 aebd
000003b0: 3635 c8bb 0d3f c3bd ba43 96bd 1649 5ebc
000003c0: 13f5 a0bc 0e99 8f3e cc9a 45be 9cfb a6bb
000003d0: 5495 ac3c bae9 d53c e089 9d3d f40d a5be
000003e0: 8849 aebc 4859 eebb 3add 5a3d 63f3 e53d
000003f0: ec51 98be 40b5 e43d 0bf8 0e3e b3a2 d73d

hidden_layers.0.bias f4 [128]
-0.00092535245 0.038980175 -0.06751401 -0.054672614 -0.056871023 -0.09978522 -0.0185795 0.06047166
-0.15909979 -0.019487511 -0.13160044 -0.09364885 -0.10794766 -0.13962778 -0.1120981 -0.04796984
-0.06716268 -0.14379285 -0.11031283 -0.03799144 -0.19520468 0.049540497 0.09045028 -0.06717327
-0.06056806 0.12916929 0.08016743 -0.20859052 -0.11265793 -0.16209282 0.04349205 0.091120444
-0.0655808 0.03276879 -0.01827274 -0.28593755 -0.060139734 0.0039016616 -0.07194924 0.03787271
-0.012798992 0.05879146 0.11349335 -0.001016536 -0.021463513 -0.18350655 0.024042146 -0.13929859
-0.23646079 0.080353014 -0.0150839165 -0.002784975 -0.0264071 0.026164984 -0.036766805 0.013847281
-0.16473323 -0.08055408 -0.0032005338 -0.13240053 -0.19014777 -0.03658839 0.039733585 -0.0834847
0.1224211 0.04821447 -0.069392785 -0.11342705 -0.17914787 -0.1191069 0.004408768 -0.082662635
0.026178341 -0.16824313 -0.20140018 -0.07779131 0.10293207 -0.16786735 0.017980238 -0.08159455
-0.110109806 -0.03720298 -0.012609894 -0.11205882 -0.13865146 0.16510233 0.0011903432 -0.14892994
-0.0075976877 0.016145328 0.08426799 -0.21233393 -0.14391358 -0.2151647 -0.09158978 0.051398735
-0.09545683 -0.21733165 -0.0559304 0.11454158 -0.20640448 -0.2750925 0.060504638 0.119598135
-0.3081682 -0.13735582 -0.16581398 0.09382048 -0.20491597 -0.11138684 0.095935315 -0.033664584
-0.12879203 -0.15076786 -0.0058925455 0.08583758 -0.13163505 0.08049993 -0.031180559 -0.13624829
-0.08318869 0.024942802 -0.003896813 -0.24084787 -0.1176666 0.024657726 0.05851737 -0.041896053
00000000: 5a93 72ba ada9 1f3d c944 8abd 64f0 5fbd
00000010: 97f1 68bd 325c ccbd 0934 98bc 22b1 773d
00000020: 0eeb 22be 46a4 9fbc 44c2 06be f8ca bfbd
00000030: aa13 ddbd 96fa 0ebe b093 e5bd 067c 44bd
00000040: 968c 89bd 6f3e 13be b1eb e1bd ea9c 1bbd
00000050: bce3 47be faea 4a3d ff3d b93d 2492 89bd
00000060: 3716 78bd f444 043e d22e a43d c198 55be
00000070: 33b9 e6bd a9fb 25be b824 323d 5b9d ba3d
00000080: 3a4f 86bd 9138 063d b7b0 95bc 6866 92be
00000090: 1555 76bd 05b3 7f3b 205a 93bd 6a20 1b3d
000000a0: ddb2 51bc 50cf 703d 346f e83d 4a3d 85ba
000000b0: 40d4 afbc 24e9 3bbe 09f4 c43c 4aa4 0ebe
000000c0: c722 72be 1f90 a43d 8822 77bc 2184 36bb
000000d0: b453 d8bc f357 d63c ca98 16bd b5df 623c
000000e0: d4af 28be 8af9 a4bd 0cc0 51bb 0194 07be
000000f0: 19b6 42be b5dd 15bd afbf 223d 07fa aabd
00000100: eab7 fa3d 897c 453d ce1d 8ebd 714c e8bd
00000110: 8a72 37be 52ee f3bd 6d77 903b 074b a9bd
00000120: f673 d63c ed47 2cbe d93b 4ebe 0d51 9fbd
00000130: 0dce d23d 6be5 2bbe 4b4b 933c 0b1b a7bd
00000140: 4081 e1bd 2762 18bd bb99 4ebc 187f e5bd
00000150: a6fa 0dbe 9610 293e 4a05 9c3a 1781 18be
00000160: 06f6 f8bb 3543 843c b294 ac3d 116e 59be
00000170: 155e 13be 2354 5cbe 6c93 bbbd 7b87 523d
00000180: df7e c3bd 308c 5ebe 4617 65bd c794 ea3d
00000190: b25b 53be edd8 8cbe b6d3 773d deef f43d
000001a0: 39c8 9dbe 01a7 0cbe 24cb 29be f424 c03d
000001b0: 7ed5 51be c91e e4bd bc79 c43d e0e3 09bd
000001c0: 0fe2 03be e462 1abe 4116 c1bb 9dcb af3d
000001d0: 57cb 06be 26dd a43d 5f6e ffbc ac84 0bbe
000001e0: d55e aabd d954 cc3c ac61 7fbb d3a0 76be
000001f0: 30fb f0bd 00ff c93c e9af 6f3d 329b 2bbd

hidden_layers.1.weight f4 [64, 128]
0.023153562 -0.07251984 -0.32266486 0.061098043 0.10473582 0.07779653 -0.1767209 -0.099110186
0.11534371 -0.00809257 -0.034200463 0.0015901008 -0.3098835 0.048534736 -0.21197523 0.048692808
-0.30614445 -0.18509717 -0.060509432 0.014867176 0.11242847 0.048926283 0.025457326 -0.16019273
-0.0059676557 0.024245963 -0.15386738 -0.23294562 -0.016435232 0.109696336 -0.40816557 0.025145652
-0.17373978 -0.0894653 -0.22493954 -0.046854667 0.03201768 -0.03094434 -0.29331562 -0.019727964
-0.072837085 -0.133215 -0.049159538 -0.0006634161 0.03417949 -0.027342105 -0.038723722 -0.05869931
-0.028525118 0.0154862115 -0.13276942 0.049572714 -0.07283893 -0.019566275 -0.26407415 0.07129301
0.05776831 0.064950764 0.119193286 0.061022248 -0.058158346 -0.03388419 -0.2215715 0.06243007
0.052074198 0.041638073 -0.01400481 -0.5478953 0.027222771 -0.032916617 0.0369261 -0.049372103
-0.19272174 -0.08397713 0.008325308 0.042995065 -0.11860917 -0.11458788 -0.09266695 0.12820917
0.01276314 -0.13169044 -0.06856351 0.016710347 -0.04545405 0.018121047 -0.43512627 0.053568892
0.009852715 -0.002935626 -0.0065375953 -0.013044571 0.00010875442 -0.012801921 0.068223946 0.010525159
-0.19738251 0.099441156 -0.14385024 -0.010641588 -0.23172443 0.06258277 -0.07759579 0.06657327
0.039145164 -0.018023008 -0.017384231 -0.37583122 0.10283197 -0.021185081 -0.19199724 -0.047152765
0.043082334 -0.255128 -0.0068622055 -0.5059409 -0.07228389 0.06312049 -0.0243 0.08969728
-0.005056806 -0.095219634 0.038449038 0.00767532 -0.2902003 0.07061474 -0.020381168 -0.07086804
-0.15501383 -0.47596413 -0.005728501 -0.20718507 0.17422946 -0.22578084 -0.0019247081 -0.19700938
0.20270446 -0.26887605 -0.4123912 -0.56475365 0.03310697 0.01710721 -0.0005598195 -0.06474482
0.021644944 0.019929513 0.0016118365 0.035321824 0.23060215 0.046321563 -0.19539417 -0.056022648
-0.655277 -0.6047367 -0.27121893 0.014905733 -0.033487752 -0.12859647 0.0066677597 0.0058111544
0.013491389 -0.092305064 -0.00591368 -0.08450347 0.00030487892 -0.39379874 -0.015838983 -0.22545555
-0.40738592 -0.24227163 -0.07412288 -0.43798113 -0.0137700625 0.0063564484 0.070759535 0.17546593
-0.001597709 -0.13980213 -0.0020238722 -0.4959148 -0.008987916 -0.0055294083 0.006261456 -0.21511109
0.1096574 0.14550489 -0.72730005 0.0070076752 0.13647097 -0.21790206 -0.0070872023 -0.26373053
-0.55264723 -0.15187322 0.016070165 -0.0050988537 0.048803236 -0.0028695848 -0.0006743758 -0.3767808
0.00082851446 0.01752731 0.011573929 -0.083514534 -0.3935202 0.29924613 7.6433964e-05 -0.05349505
-0.44691756 -0.0035620178 0.017857825 -0.29052046 -0.009798829 -0.8606414 -0.02504073 0.016498223
-0.16846354 -0.25355813 -0.20468764 -0.07252826 -0.24312629 -0.08240636 -0.012203433 -0.76303744
-0.023841774 -0.06644675 -0.074530706 -0.19658743 0.0056143194 -0.0020735909 -0.3248686 0.27415127
0.021113452 -0.24052882 0.02456999 0.01658728 -0.0026266677 -0.06723114 -0.0064739855 -0.17806503
0.005068963 0.005322611 -0.10504716 -0.0042539868 -0.011871912 -0.31814528 -0.23195781 0.14805555
-0.31826946 -0.23271166 -0.084613904 0.034557115 -0.0077131926 -0.10321579 0.031990014 -0.46765912
00000000: 8aac bd3c 4885 94bd 5434 a5be f141 7a3d
00000010: bc7f d63d ca53 9f3d 53f6 34be 48fa cabd
00000020: 5339 ec3d b396 04bc c915 0cbd ee6a d03a
00000030: 0da9 9ebe 5ccc 463d 0910 59be 1c72 473d
00000040: f7be 9cbe 1d8a 3dbe bdd8 77bd 7595 733c
00000050: e640 e63d ed66 483d e28b d03c 9009 24be
00000060: 538c c3bb 789f c63c 698f 1dbe 4c89 6ebe
00000070: 2ea3 86bc 79a8 e03d 14fb d0be 41fe cd3c
00000080: d7e8 31be 9539 b7bd 8d56 66be aeea 3fbd
00000090: f924 033d fc7e fdbc 772d 96be 8a9c a1bc
000000a0: 9c2b 95bd 8369 08be 835b 49bd 1ae9 2dba
000000b0: cbff 0b3d 8dfc dfbc c49c 1ebd b06e 70bd
000000c0: 82ad e9bc e1b9 7d3c b5f4 07be c20c 4b3d
000000d0: 942c 95bd 7449 a0bc ba34 87be 1202 923d
000000e0: 779e 6c3d e804 853d 9c1b f43d 77f2 793d
000000f0: 7237 6ebd 26ca 0abd a4e3 62be acb6 7f3d
00000100: c14b 553d af8c 2a3d 6e74 65bc de42 0cbf
00000110: 4a02 df3c 93d3 06bd d23f 173d 673a 4abd
00000120: d958 45be 34fc abbd df66 083c 981b 303d
00000130: 5de9 f2bd 0dad eabd 2bc8 bdbd 4449 033e
00000140: 7d1c 513c dcd9 06be 076b 8cbd 23e4 883c
00000150: 072e 3abd 9772 943c dfc8 debe 0e6b 5b3d
00000160: 486d 213c a263 40bb 5339 d6bb e5b8 55bc
00000170: 1613 e438 26bf 51bc ffb8 8b3d b771 2c3c
00000180: a41e 4abe cea7 cb3d 7a4d 13be 0e5a 2ebc
00000190: 2b49 6dbe 652b 803d 8bea 9ebd 9157 883d
000001a0: ae56 203d fda4 93bc 6069 8ebc f36c c0be
000001b0: 9199 d23d 568c adbc ed9a 44be 4223 41bd
000001c0: 1a77 303d 23a0 82be 5adc e0bb 5885 01bf
000001d0: 9309 94bd 5145 813d cb10 c7bc 35b3 b73d
000001e0: 90b3 a5bb 8302 c3bd bd7c 1d3d 4081 fb3b
000001f0: 2295 94be 769e 903d 68f6 a6bc 4323 91bd
00000200: f2bb 1ebe 92b1 f3be 26b6 bbbb 5328 54be
00000210: 3569 323e 1833 67be 7d46 fcba d4bc 49be
00000220: c291 4f3e 1faa 89be f024 d3be b293 10bf
00000230: 2d9b 073d 6b24 8c3c dac0 12ba ef98 84bd
00000240: bd50 b13c 3843 a33c 4244 d33a 9ead 103d
00000250: f822 6c3e aebb 3d3d 6915 48be 0178 65bd
00000260: 3cc0 27bf 06d0 1abf 35dd 8abe 2d37 743c
00000270: 742a 09bd cbae 03be 397d da3b 7f6b be3b
00000280: fd0a 5d3c 700a bdbd 8bc7 c1bb 2810 adbd
00000290: 28d8 9f39 fd9f c9be c1c0 81bc d2dd 66be
000002a0: e394 d0be 0e16 78be bdcd 97bd 103f e0be
000002b0: d49b 61bc c149 d03b 60ea 903d 57ad 333e
000002c0: 386a d1ba 4a28 0fbe f1a2 04bb 8be8 fdbe
000002d0: 0d42 13bc 0a30 b5bb e62c cd3b 1546 5cbe
000002e0: 0f94 e03d 3cff 143e 5630 3abf a4a0 e53b
000002f0: 0cbf 0b3e b821 5fbe c33b e8bb b007 87be
00000300: 4a7a 0dbf a784 1bbe 94a5 833c 4914 a7bb
00000310: e7e5 473d a50f 3cbb 98c8 30ba 6ae9 c0be
00000320: aa30 593a 6f95 8f3c 94a0 3d3c ab09 abbd
00000330: 7b7b c9be ca36 993e 2c4b a038 a01d 5bbd
00000340: 61d2 e4be be70 69bb 934a 923c 19bf 94be
00000350: 458b 20bc ff52 5cbf 3822 cdbc 4827 873c
00000360: b581 2cbe 5fd2 81be a399 51be b289 94bd
00000370: 19f6 78be aac4 a8bd e8f0 47bc 6c56 43bf
00000380: d34f c3bc 3c15 88bd 8ea3 98bd 374e 49be
00000390: 53f8 b73b 15e5 07bb 2d55 a6be 8e5d 8c3e
000003a0: 1ef6 ac3c 304d 76be 0147 c93c 0ce2 873c
000003b0: 2c24 2cbb 7bb0 89bd ba23 d4bb ae56 36be
000003c0: 8b19 a63b 4c69 ae3b f722 d7bd 0765 8bbb
000003d0: 6882 42bc f0e3 a2be 5986 6dbe e09b 173e
000003e0: 37f4 a2be f74b 6ebe 0e4a adbd c38b 0d3d
000003f0: f3be fcbb cd62 d3bd f607 033d 0471 efbe

hidden_layers.1.bias f4 [64]
0.2555509 0.10195264 0.09698612 0.101854175 0.2582836 0.19305399 0.11437306 0.13621294
0.17224406 0.11662608 0.26018244 0.12469544 0.19896285 0.1276539 0.095457256 0.15553144
0.10912574 0.10604933 0.23584662 0.15289494 -0.13521032 0.24022229 -0.13205871 0.2417986
0.13969722 0.25109866 0.2391539 0.23861466 0.100912176 0.018142669 0.1615558 0.18577334
-0.06187649 0.25590798 0.22783609 0.15978749 -0.15670413 0.16147932 0.13188212 0.16963229
0.14596693 0.1910552 0.1059607 0.23144543 0.119149916 0.23108248 0.16211057 0.11079006
0.110528484 0.09481085 0.10609924 0.1312481 0.12139128 0.21867266 0.09230904 0.10432342
0.13734193 0.24978401 0.23115127 0.11345755 0.09679096 0.097476475 0.12173828 0.14895846
00000000: 91d7 823e 8ccc d03d a9a0 c63d ec98 d03d
00000010: bf3d 843e f2af 453e 6c3c ea3d 687b 0b3e
00000020: bf60 303e a7d9 ee3d a236 853e 5360 ff3d
00000030: ebbc 4b3e b4b7 023e 187f c33d a243 1f3e
00000040: 517d df3d 6430 d93d c781 713e 7e90 1c3e
00000050: 9374 0abe d5fc 753e 663a 07be 0d9a 773e
00000060: ca0c 0f3e 0190 803e c3e4 743e 6757 743e
00000070: 0bab ce3d ef9f 943c e26e 253e 5e3b 3e3e
00000080: 3472 7dbd 5f06 833e dd4d 693e 559f 233e
00000090: 0c77 20be d65a 253e 1b0c 073e 16b4 2d3e
000000a0: 5b78 153e f9a3 433e ec01 d93d 0800 6d3e
000000b0: df04 f43d e3a0 6c3e 5000 263e e6e5 e23d
000000c0: c25c e23d 312c c23d 8f4a d93d e765 063e
000000d0: fe9b f83d baeb 5f3e 860c bd3d 84a7 d53d
000000e0: 5da3 0c3e 61c7 7f3e ebb2 6c3e 6f5c e83d
000000f0: 573a c63d bfa1 c73d eb51 f93d 9188 183e

output.weight f4 [4, 64]
0.06818986 -0.13762262 0.032607537 0.026544489 0.06326894 0.04323412 0.03792326 0.040251836
0.034856003 0.03662267 0.071642816 0.032537606 0.060105644 0.043502353 0.029021572 0.037998684
-0.1316242 0.033627383 0.08679602 0.049369287 -0.055842042 0.059256237 0.078783795 0.10503185
-0.10808815 0.084361985 0.050506376 0.06006356 0.0374085 -0.1071068 -0.036812104 0.035509102
-0.10844417 0.07221239 0.07906431 -0.14112717 0.01345737 0.03941103 -0.114150785 0.04132905
0.040267948 -0.13670829 -0.118210085 0.07109966 -0.08381535 0.06616591 0.035063513 0.038723134
0.03939923 0.035772886 -0.103944495 0.036078617 -0.12352034 0.052500844 0.03147981 0.03496289
0.03947927 0.06270342 0.06644319 0.04372207 0.038569316 0.033239156 0.039952032 0.04510398
0.060390398 -0.061910655 0.014515486 0.036016054 0.06311797 0.047638852 0.027005121 0.04808063
0.042857174 0.024669731 0.08025131 0.02710528 0.06818593 0.031381223 0.026321765 0.037684295
-0.029681345 0.029618485 0.09681571 0.045848597 -0.06222555 0.07277439 -0.05761493 0.13421032
-0.0052196905 0.112428285 0.06461805 0.03899761 0.027191427 -0.10754071 -0.064237826 0.051172897
-0.123874225 0.065598644 0.10041662 -0.11226009 -0.0074347826 0.032450173 -0.018355187 0.035431642
0.019959558 -0.09767138 -0.005081116 0.0819772 0.033134032 0.07831783 0.030479232 0.04182122
0.01798092 0.018068947 0.01568863 0.042674635 -0.00029892987 0.04664015 0.038650826 0.03321409
0.029036252 0.074405104 0.055709608 0.025731368 0.032978225 0.025219807 0.031074692 0.0252578
0.0030359975 -0.049225196 0.053112935 0.041548986 -0.0330578 0.058606114 0.03961274 0.059946496
0.053705804 0.06908634 0.005906527 0.05073824 0.023054615 0.04966472 0.042510312 0.054063454
-0.059695523 -0.026796 0.06477615 -0.049207125 0.005781958 0.0028487465 0.000552954 0.09373045
0.08739492 0.059281465 0.007092186 0.026503636 0.038040802 -0.037037414 -0.29349196 0.048488095
-0.12188283 0.012049416 0.0012733449 -0.048578758 0.047373854 0.054890584 -0.052570194 0.01933495
0.06312659 -0.10295365 -0.05138674 0.05683375 0.03879221 0.01645037 0.044844735 0.06027482
0.046928372 0.05157626 -0.10605841 0.060853727 -0.037010215 0.04444015 0.060516566 0.05429619
0.051867813 -0.0009994401 0.021355037 0.06091093 0.041930586 0.04498404 0.049629305 0.012077023
0.011584942 -0.078756414 0.045294143 0.05140413 0.032296915 0.06705736 0.048403047 -0.060278106
0.055033397 0.059317216 0.030139182 0.047383867 0.038162127 0.027277313 0.055413052 0.051675003
-0.06452616 0.064265266 0.049881432 0.049827408 0.09818782 0.00740623 -0.015508075 0.08938279
-0.12893112 0.06692502 0.024810571 -0.007282453 0.06905829 -0.1571004 -0.26632816 0.047536235
-0.12659165 0.017740391 0.028066382 -0.09982326 -0.07259794 0.020116631 -0.06207467 0.033971593
0.009594766 -0.08534895 -0.07370443 0.07095687 0.066694655 0.03807573 0.035226107 0.064873576
0.04414399 0.04843401 0.06417014 0.052886967 -0.04384752 0.04280036 0.040390912 0.043257236
-0.070187256 -0.0073887776 0.030398205 0.06321508 0.044906396 0.058540754 0.04699066 0.031494215
00000000: 20a7 8b3d f2ec 0cbe 7b8f 053d d473 d93c
00000010: 2593 813d 4316 313d 6c55 1b3d 1cdf 243d
00000020: 2bc5 0e3d a701 163d 78b9 923d 2746 053d
00000030: 5631 763d 862f 323d a6be ed3c 82a4 1b3d
00000040: 7fc8 06be debc 093d 1dc2 b13d 7337 4a3d
00000050: a0ba 64bd abb6 723d 6659 a13d f01a d73d
00000060: 525d ddbd fac5 ac3d c6df 4e3d 3505 763d
00000070: a839 193d cf5a dbbd 4ac8 16bd fe71 113d
00000080: fa17 debd 17e4 933d 78ec a13d a483 10be
00000090: 4d7c 5c3c 766d 213d e3c7 e9bd a648 293d
000000a0: 01f0 243d 42fd 0bbe 2118 f2bd b39c 913d
000000b0: 62a7 abbd fe81 873d c29e 0f3d 269c 1e3d
000000c0: 1661 213d 9786 123d dae0 d4bd 2cc7 133d
000000d0: 3bf8 fcbd 200b 573d f9f0 003d 3f35 0f3d
000000e0: 04b5 213d a76a 803d 5e13 883d ea15 333d
000000f0: dcfa 1d3d c825 083d bea4 233d f3be 383d
00000100: ec5b 773d 0796 7dbd 5cd2 6d3c 9285 133d
00000110: ff43 813d f520 433d d839 dd3c 32f0 443d
00000120: 018b 2f3d 2d18 ca3c cc5a a43d e40b de3c
00000130: 11a5 8b3d 9989 003d bea0 d73c d95a 1a3d
00000140: 4b26 f3bc 77a2 f23c 5147 c63d bdcb 3b3d
00000150: 38e0 7ebd bd0a 953d a2fd 6bbd 6e6e 093e
00000160: f009 abbb cd40 e63d 7856 843d f5bb 1f3d
00000170: 8ec0 de3c 4e3e dcbd 1f8f 83bd ac9a 513d
00000180: c5b1 fdbd 9558 863d 3ba7 cd3d 9ee8 e5bd
00000190: 7a9f f3bb 79ea 043d 9e5d 96bc c520 113d
000001a0: 3a82 a33c ef07 c8bd 7e7f a6bb aae3 a73d
000001b0: 8db7 073d 1965 a03d 95af f93c ba4c 2b3d
000001c0: b94c 933c 5405 943c 7185 803c 99cb 2e3d
000001d0: b0b9 9cb9 be09 3f3d 5450 1e3d 7f0b 083d
000001e0: 6fdd ed3c b461 983d c22f 643d 97ca d23c
000001f0: 2d14 073d c599 ce3c 5a90 fe3c 72e9 ce3c
00000200: 96f7 463b 5ca0 49bd f38c 593d 452f 2a3d
00000210: 9e67 07bd f70c 703d f840 223d 758a 753d
00000220: 9efa 5b3d 247d 8d3d 8a8b c13b e7d2 4f3d
00000230: 08dd bc3c 3c6d 4b3d 4b1f 2e3d a471 5d3d
00000240: 4b83 74bd 4983 dbbc 5ca9 843d 698d 49bd
00000250: 9476 bd3b 09b2 3a3b 1df4 103a c0f5 bf3d
00000260: 1cfc b23d 1fd1 723d 9165 e83b 271e d93c
00000270: acd0 1b3d 8bb4 17bd 9444 96be 749b 463d
00000280: b59d f9bd ea6a 453c 5de6 a63a 85fa 46bd
00000290: 160b 423d f3d4 603d d853 57bd 5464 9e3c
000002a0: 8348 813d 5dd9 d2bd e77a 52bd 82ca 683d
000002b0: 95e4 1e3d edc2 863c 1daf 373d bbe2 763d
000002c0: f737 403d a141 533d 2735 d9bd c241 793d
000002d0: 0698 17bd e006 363d 38e0 773d af65 5e3d
000002e0: 5873 543d a5ff 82ba c2f0 ae3c bd7d 793d
000002f0: 68bf 2b3d 2f41 383d 1948 4b3d b5de 453c
00000300: c5ce 3d3c 0b4b a1bd 5a86 393d 238d 523d
00000310: c549 043d 5f55 893d 4642 463d 2de6 76bd
00000320: b36a 613d 9cf6 723d 72e6 f63c 9615 423d
00000330: e44f 1c3d ac74 df3c ccf8 623d 2ba9 533d
00000340: 4b26 84bd 829d 833d 7950 4c3d d317 4c3d
00000350: b216 c93d f6af f23b 9515 7ebc 530e b73d
00000360: 8506 04be fc0f 893d 8a3f cb3c a5a1 eebb
00000370: 6f6e 8d3d edde 20be 2a5c 88be 5bb5 423d
00000380: 3ea1 01be 4c54 913c 78eb e53c 2370 ccbd
00000390: 3bae 94bd a2cb a43c 0242 7ebd cc25 0b3d
000003a0: 5e33 1d3c 6ecb aebd 59f2 96bd d651 913d
000003b0: 3597 883d 4cf5 1b3d 4049 103d 70dc 843d
000003c0: 54d0 343d be62 463d a26b 833d 01a0 583d
000003d0: 7599 33bd 6e4f 2f3d f170 253d 802e 313d
000003e0: 56be 8fbd 8f1d f2bb a805 f93c e876 813d
000003f0: c5ef 373d 6ec8 6f3d 4779 403d 1400 013d

output.bias f4 [4]
1.400606 1.2538838 1.3137083 1.3167654
00000000: 0f47 b33f 447f a03f 9827 a83f c58b a83f
