experiments/navigate_1314_18Oct22075720.pth (torch_old, 54660 bytes, 6 tensors)

hidden_layers.0.weight f4 [128, 37]
0	0x3e3e6c31	0.18595959
1	0xbebdeb60	-0.3709364
2	0xbeb87153	-0.3602396
3	0xbec771d9	-0.38954046
4	0xbf801564	-1.0006528
5	0xbbd62cfc	-0.0065361243
6	0x3c9b78af	0.018978445
7	0x3de185a0	0.11011815
8	0x3e00c504	0.12575155
9	0x3e5a8d01	0.21342851
10	0xbd7a43dc	-0.061099872
11	0xbd9c32e5	-0.07626895
12	0xbdea00df	-0.114259474
13	0xbdb69568	-0.08915216
14	0x3ce7a717	0.028277917
15	0x3d25bf0a	0.040465392
16	0x3d93c7da	0.07215853
17	0x3bd4d0ef	0.0064946334
18	0xbe0f6207	-0.14002238
19	0xbe35c4e0	-0.17750883
20	0x3dbf6118	0.09344691
21	0x3d5b106d	0.05348246
22	0x3da40c24	0.08010128
23	0x3d2eed7b	0.042706948
24	0x3caf2585	0.021380195
25	0x3b04f9fe	0.0020290609
26	0x3ca979f8	0.020688042
27	0x3a8235f6	0.0009934295
28	0xbc555539	-0.013020807
29	0x3bf36a65	0.0074284547
30	0xbcf335a9	-0.029688673
31	0x3d6ada5a	0.057337143
32	0xbd01be28	-0.031675488
33	0x3d45eac6	0.0483196
34	0xbcb16449	-0.021654265
35	0x3bbfd717	0.005854498
36	0x3be89aff	0.007098555
37	0x3d909922	0.07060458
38	0x3daee2f4	0.085393816
39	0x3db12d05	0.08651165
40	0x3dccc421	0.09998346
41	0xbb848eae	-0.004045329
42	0x3dda0a3a	0.10646482
43	0xbf074514	-0.5283978
44	0xbecae8c3	-0.39630708
45	0xbee76802	-0.4519654
46	0xbfb77838	-1.4333563
47	0x3bc03f7e	0.005866944
48	0xbc878e78	-0.016547427
49	0x3caaa382	0.02082992
50	0x3d45e74b	0.04831628
51	0x3d8fb17f	0.070162766
52	0x3d1a8cd9	0.03773198
53	0x3c553a63	0.013014409
54	0x3d47c794	0.048774317
55	0x3da51fa9	0.08062679
56	0x3d4d0789	0.050056014
57	0xbdc82982	-0.09773542
58	0xbda7006e	-0.08154379
59	0xbd95d937	-0.07316821
60	0xbd8fe4c4	-0.070260555
61	0x3d732e4a	0.059370317
62	0xbd2cdaa8	-0.042200714
63	0xbd00d8b0	-0.03145665
64	0xbbab51a4	-0.005228238
65	0xbc259a68	-0.010107614
66	0x3dd54020	0.104126215
67	0x3d80c409	0.06287391
68	0x3d8f1376	0.06986134
69	0x3db06cbf	0.08614492
70	0x3dc06841	0.09394885
71	0xbb3df289	-0.0028983674
72	0x3c8eb8b1	0.017422052
73	0xba483cc3	-0.0007638449
74	0x3d5d390b	0.05400948
75	0x3dce1698	0.10062903
76	0x3df249ae	0.118304595
77	0x3d85442e	0.06507145
78	0xbd169a12	-0.036768027
79	0xbecd7ec7	-0.40135786
80	0x3e397012	0.18109158
81	0x3e4ab411	0.19795252
82	0x3e877eb3	0.2646385
83	0xbe789e5a	-0.24279156
84	0x3c6f148e	0.014592303
85	0xbc899a85	-0.016797313
86	0x3cbe5eac	0.023238502
87	0xbb969b51	-0.004596152
88	0xbc0fa3ae	-0.008767052
89	0xbdbc7e87	-0.09203821
90	0x3dabb3f4	0.08383933
91	0x3db7c8a6	0.089738175
92	0x3def15a1	0.11674047
93	0x3dcc54d7	0.099771194
94	0xbf13f1e9	-0.57791
95	0x3deea600	0.11652756
96	0x3d83d1f2	0.06436528
97	0x3cf96655	0.030444304
98	0xbe6f1d6f	-0.23351072
99	0xba5a5703	-0.0008329006
100	0x3d77ba2b	0.060480278
101	0x3d80039f	0.06250691
102	0x3d3638c7	0.04448774
103	0x3dbabf77	0.0911855
104	0xbe43aa35	-0.19107898
105	0xbc49f867	-0.01232729
106	0x3b36b607	0.0027879493
107	0xbc32c044	-0.0109100975
108	0x3d845a5b	0.064625464
109	0x3b6024f8	0.0034201723
110	0xbcaf7264	-0.02141685
111	0x3e92c8f5	0.28668943
112	0xbe8f7d74	-0.280254
113	0xbe301943	-0.17197137
114	0xbe381193	-0.17975454
115	0xbf8b8bcf	-1.0902041
116	0xbd98cc82	-0.07460882
117	0x3cf42f5e	0.029807743
118	0x3d2cd4b9	0.042195056
119	0x3dd5d447	0.10440879
120	0x3e004592	0.12526539
121	0xbd7dcbed	-0.061962057
122	0x3d2c3aa1	0.0420481
123	0xbdb360c5	-0.08758692
124	0xbcdac1c6	-0.026703727
125	0xbde5cc97	-0.11220663
126	0xbd11b49d	-0.035572637
127	0x3d51b65e	0.05119931
128	0xbdb6f3b9	-0.08933205
129	0xbe73e205	-0.23816688
130	0xbece6929	-0.40314606
131	0xbb444a28	-0.0029951427
132	0xbd3cdcd0	-0.04610902
133	0xbc269b87	-0.010168917
134	0x3df0fb39	0.11766667
135	0x3d3c4c72	0.04597134
136	0xbd69411b	-0.056946855
137	0x3d0d54a0	0.034504533
138	0x3d3477af	0.04405945
139	0x3e0a2592	0.13490894
140	0x3dcd56f2	0.10026349
141	0x3d3f09f6	0.04664036
142	0x3dd93f2c	0.10607752
143	0x3d6c99c3	0.057763826
144	0x3d001c19	0.031276796
145	0xbc9b9bf5	-0.018995265
146	0x3cbaf477	0.022821648
147	0xbb0ecfc6	-0.0021791323
148	0xbe6a741c	-0.22895855
149	0xbd35d53c	-0.04439281
150	0xbe0ab85e	-0.13546893
151	0xbe8296da	-0.25505716
152	0xbeb7588f	-0.35809752
153	0xbe359c21	-0.1773534
154	0xbb8b45dc	-0.0042502712
155	0x3d0debf6	0.034648858
156	0xbe202143	-0.15637688
157	0xbf49604f	-0.7866258
158	0xbd1a7250	-0.037706673
159	0xbde4cadc	-0.11171505
160	0xbd7fb0d2	-0.06242449
161	0xbe842044	-0.25805867
162	0xbd4abf09	-0.04949859
163	0xbef38768	-0.47564244
164	0xbdac70df	-0.08419966
165	0x3dfba1d6	0.12286727
166	0xbe59ea98	-0.21280897
167	0xbf2164ef	-0.6304464
168	0xbe25c84c	-0.16189688
169	0xbcf1e8f2	-0.029530022
170	0x3d66788d	0.05626731
171	0xbe2970aa	-0.16546884
172	0x3d9b80cc	0.075929254
173	0xbe4d0601	-0.20021822
174	0xbe502735	-0.20327456
175	0x3e6cbca0	0.2311883
176	0xbda7c241	-0.08191348
177	0xbf7ae003	-0.97998065
178	0xbd610a22	-0.054941304
179	0xbea55c90	-0.32297182
180	0x3df53656	0.119732544
181	0xbe89ae11	-0.26890615
182	0xbdd7f666	-0.10545044
183	0x3e07bc9c	0.13255543
184	0x3d190a86	0.03736355
185	0xbb1db4c4	-0.0024064044
186	0xbd3fa5e7	-0.046789076
187	0xbd0f7dab	-0.035031956
188	0x3cddc491	0.02707127
189	0x3d9f5f41	0.0778184
190	0x3e68c0ec	0.22729844
191	0xbddc079d	-0.107436396
192	0xbe756f9b	-0.23968355
193	0xbe52e040	-0.20593357
194	0xbfc60635	-1.5470644
195	0xbd138bf6	-0.03602215
196	0xbd1f6459	-0.03891406
197	0xbd79095b	-0.060799938
198	0xbdd8a2a9	-0.105779
199	0xbc89f473	-0.016840195
200	0xbaa93763	-0.0012910183
201	0x3aadde58	0.0013265116
202	0xbbdd0691	-0.0067451675
203	0xbc8dbe26	-0.017302584
204	0xbca9f5d5	-0.020747105
205	0x3dfca47d	0.12336061
206	0x3d9dce14	0.07705322
207	0x3e0442c9	0.12916102
208	0x3d0192bc	0.031634077
209	0x3d15fb01	0.03661633
210	0x3c142e41	0.009044231
211	0x3a6ef3f0	0.0009115329
212	0xbc43ea53	-0.011957723
213	0x3c8aad91	0.016928466
214	0x3d99b025	0.075043
215	0x3d7f4ee8	0.06233111
216	0xbe48bdcb	-0.1960365
217	0xbe073482	-0.13203624
218	0x3dfd03bf	0.1235423
219	0xbf31e5fe	-0.69491565
220	0xbb900486	-0.0043950705
221	0x3ba08521	0.0048986827
222	0xbd92a793	-0.071608685
223	0xbcefbcd0	-0.029264838
224	0xbc29ab87	-0.010355837
225	0xbc039abc	-0.008032497
226	0x3d17208f	0.036896285
227	0xbed03110	-0.40662432
228	0x3dc83e6e	0.097775325
229	0x3d16cec8	0.036818296
230	0x3e288dfd	0.16460414
231	0x3e606517	0.21913563
232	0xbc908c24	-0.01764495
233	0x3e0ceb99	0.13761748
234	0x3d8dde15	0.069271244
235	0xbdadfc41	-0.08495379
236	0xbbc4d5c4	-0.006006928
237	0xbdc01222	-0.093784586
238	0xbd97b147	-0.0740686
239	0xbc731055	-0.014835437
240	0xbc9d9f10	-0.019240886
241	0x3e8ffa86	0.28120822
242	0xbe4423db	-0.19154303
243	0xbb99fea2	-0.004699544
244	0x3c9624f6	0.018328171
245	0x3ce0fd5b	0.02746456
246	0x3da0a222	0.078434244
247	0xbea6d384	-0.3258325
248	0xbc99840a	-0.018739719
249	0xbc014bfc	-0.007891651
250	0x3d5701db	0.052492004
251	0x3de8b7e9	0.11363203
252	0xbe96afd8	-0.29431033
253	0x3de6403b	0.1124272
254	0x3e090930	0.13382411
255	0x3ddc53c2	0.10758163

hidden_layers.0.bias f4 [128]
0	0xbbd80085	-0.006591859
1	0x3d1375b1	0.03600091
2	0xbd8c7d10	-0.06859791
3	0xbd72a863	-0.059242617
4	0xbd7fdc41	-0.06246591
5	0xbdc38f90	-0.09548867
6	0xbc9915d9	-0.018687176
7	0x3d83e536	0.06440203
8	0xbe25bf37	-0.16186224
9	0xbc78c168	-0.01518283
10	0xbe04ab96	-0.1295608
11	0xbdbb1bef	-0.09136187
12	0xbddc63ee	-0.107612476
13	0xbe13ccf2	-0.14433649
14	0xbdd8f4a2	-0.10593535
15	0xbd4ac059	-0.049499843
16	0xbd890aad	-0.06691489
17	0xbe13a9c6	-0.14420232
18	0xbde7fd58	-0.11327618
19	0xbd138423	-0.036014687
20	0xbe4de62f	-0.2010734
21	0x3d40250f	0.04691034
22	0x3db7269c	0.08942911
23	0xbd8c2754	-0.06843439
24	0xbd83e0fe	-0.06439398
25	0x3e012f25	0.1261564
26	0x3dafab15	0.08577553
27	0xbe54f640	-0.20797062
28	0xbde59fb4	-0.112121016
29	0xbe24da76	-0.16098961
30	0x3d32c2d5	0.043642838
31	0x3dba02da	0.09082575
32	0xbd8df16b	-0.069308124
33	0x3cc8c6dc	0.024508886
34	0xbc9af7a6	-0.018916916
35	0xbe926668	-0.28593755
36	0xbd82bca2	-0.06383635
37	0x3bd5700e	0.006513602
38	0xbd980987	-0.07423692
39	0x3d045601	0.032308582
40	0xbc5f8f87	-0.013645059
41	0x3d77c813	0.06049354
42	0x3ded72b3	0.11594143
43	0xbb1e7baa	-0.0024182596
44	0xbc891e17	-0.01673798
45	0xbe48b245	-0.19599254
46	0x3cc917e7	0.02454753
47	0xbe0d9c64	-0.1382919
48	0xbe6c9b2b	-0.23106067
49	0x3d9f29c8	0.07771641
50	0xbc3aeaf8	-0.01140856
51	0xbb3479e9	-0.0027538484
52	0xbcd9263f	-0.026507495
53	0x3cea9d1b	0.028639367
54	0xbd1b3541	-0.037892584
55	0x3c7a7821	0.01528743
56	0xbe29eb41	-0.16593648
57	0xbda48556	-0.08033244
58	0xb9d5d42d	-0.0004078461
59	0xbe0977bb	-0.1342458
60	0xbe43cd43	-0.1912127
61	0xbd114bea	-0.035472788
62	0x3d1823f5	0.037143666
63	0xbdafe72c	-0.085890144
64	0x3df93d01	0.12169839
65	0x3d45c35f	0.048282024
66	0xbd86d4c9	-0.06583554
67	0xbde7730d	-0.11301241
68	0xbe369730	-0.17831111
69	0xbdf43449	-0.11924035
70	0x3b30964e	0.0026945057
71	0xbdabbd3a	-0.083857015
72	0x3cce446f	0.025179116
73	0xbe2e1f50	-0.17004132
74	0xbe4cb20d	-0.19989796
75	0xbd96356f	-0.073344104
76	0x3dce96f0	0.10087383
77	0xbe2ec083	-0.17065625
78	0x3c84e8b8	0.01622425
79	0xbda71b0b	-0.08159455
80	0xbddfe96a	-0.10933192
81	0xbd1caab5	-0.038248736
82	0xbc7032ee	-0.01466058
83	0xbdd8b31a	-0.10581036
84	0xbe0fd871	-0.1404741
85	0x3e260e23	0.1621633
86	0xbb8a0472	-0.0042119557
87	0xbe1584ed	-0.14601488
88	0xbbd2d0c0	-0.0064335763
89	0x3c8a3588	0.016871229
90	0x3daad440	0.08341265
91	0xbe596e11	-0.21233393
92	0xbe12ee79	-0.14348783
93	0xbe5c5423	-0.2151647
94	0xbdcba915	-0.09944359
95	0x3d50a539	0.05093882
96	0xbdcceca1	-0.10006071
97	0xbe617b71	-0.22019745
98	0xbd77b433	-0.060474586
99	0x3de6b0fe	0.11264227
100	0xbe53cf92	-0.2068465
101	0xbe8a1116	-0.2696616
102	0x3d70e3e0	0.05881107
103	0x3de74898	0.11293143
104	0xbe9dc839	-0.3081682
105	0xbe09730f	-0.13422798
106	0xbe32195a	-0.17392483
107	0x3dbed4db	0.09317943
108	0xbe4f0390	-0.20216203
109	0xbde41ec9	-0.11138684
110	0x3dd4afeb	0.10385116
111	0xbd050c02	-0.032482155
112	0xbdfd430f	-0.12366306
113	0xbe1859ed	-0.14878054
114	0xbc4308ce	-0.011903955
115	0x3dab46f3	0.08363142
116	0xbe06004c	-0.13086051
117	0x3d9cb5bf	0.07651853
118	0xbd120709	-0.03565124
119	0xbe128a8f	-0.14310668
120	0xbda1a8ab	-0.07893499
121	0x3cc2a16d	0.023758614
122	0xbb9db584	-0.004812898
123	0xbe753f71	-0.23949982
124	0xbdf219dc	-0.118213385
125	0x3c9c8540	0.019106507
126	0x3d82ca88	0.06386286
127	0xbd1e3abf	-0.038630243

hidden_layers.1.weight f4 [64, 128]
0	0x3cb0bb8e	0.021573808
1	0xbd94410c	-0.07238969
2	0xbea5355f	-0.3226728
3	0x3d768ce7	0.06019297
4	0x3dd68fc0	0.10476637
5	0x3da2270f	0.07917606
6	0xbe364a8d	-0.17801876
7	0xbdce5013	-0.10073867
8	0x3deb2bb0	0.11482942
9	0xbbd11abd	-0.0063813613
10	0xbcf1afa4	-0.029502697
11	0x3beca1e2	0.0072214464
12	0xbe9e838c	-0.30959737
13	0x3d4bdbab	0.04977004
14	0xbe58e485	-0.21180923
15	0x3d4a69d5	0.049417336
16	0xbe9bf313	-0.30458888
17	0xbe493f0e	-0.1965296
18	0xbd78b073	-0.06071515
19	0x3c8b2afc	0.01698827
20	0x3de640e6	0.11242847
21	0x3d308e95	0.043104727
22	0x3cae4151	0.02127138
23	0xbe2661f2	-0.162483
24	0xbc01e61f	-0.0079284
25	0x3ccf8c3a	0.02533542
26	0xbe1b40e8	-0.15161479
27	0xbe6e894c	-0.23294562
28	0xbc803333	-0.015649414
29	0x3ddf16b8	0.10893005
30	0xbed07c56	-0.4071986
31	0x3cdf4f30	0.02725944
32	0xbe31d0b8	-0.17364776
33	0xbdbe85df	-0.09302878
34	0xbe666c4f	-0.22502254
35	0xbd3feaae	-0.046854667
36	0x3cd847be	0.026401397
37	0xbcef4c0d	-0.029211069
38	0xbe95c5dd	-0.2925252
39	0xbc686927	-0.0141852265
40	0xbd971df6	-0.073787615
41	0xbe099e1d	-0.13439222
42	0xbd38dac4	-0.045130506
43	0x397fd540	0.00024398137
44	0x3cf8e9ad	0.030384863
45	0xbce3337c	-0.02773451
46	0xbd1e9cc4	-0.038723722
47	0xbd766ae2	-0.060160525
48	0xbcf9f160	-0.030510604
49	0x3c97e61a	0.018542338
50	0xbe0d0433	-0.13771133
51	0x3d505335	0.050860602
52	0xbd952c94	-0.07283893
53	0xbc8de809	-0.017322557
54	0xbe86bb0d	-0.26314583
55	0x3d8d2bad	0.06893096
56	0x3d6c6860	0.057716727
57	0x3d84c88f	0.06483566
58	0x3df150eb	0.11783012
59	0x3d86237e	0.06549738
60	0xbd741830	-0.05959338
61	0xbcfb3926	-0.030666899
62	0xbe63796a	-0.22214285
63	0x3d7b4ef4	0.061354592
64	0x3d6b0f55	0.05738767
65	0x3d1fb61c	0.038992032
66	0xbc72ecb4	-0.014826942
67	0xbf0b1cbb	-0.54340714
68	0x3cdf024a	0.027222771
69	0xbd0daa4e	-0.034586243
70	0x3d13bdce	0.036069684
71	0xbd4312d8	-0.047625393
72	0xbe45c089	-0.19311728
73	0xbdabfb51	-0.08397544
74	0x3c1d61c8	0.009605832
75	0x3d3e7833	0.04650135
76	0xbde7639f	-0.11298298
77	0xbdeaad0d	-0.11458788
78	0xbdb9c214	-0.090702206
79	0x3e034944	0.12820917
80	0x3c6438de	0.013929574
81	0xbe042c04	-0.12907416
82	0xbd85748b	-0.065163694
83	0x3c9e5e49	0.019332068
84	0xbd30335a	-0.043017723
85	0x3c3e7969	0.011625626
86	0xbedd4f10	-0.43224382
87	0x3d627d93	0.05529554
88	0x3c17ecbb	0.00927275
89	0xbb923cfb	-0.004462836
90	0xbbab9f3a	-0.005237487
91	0xbc55b8e5	-0.013044571
92	0xb8fbae62	-0.00012001094
93	0xbc51bf26	-0.012801921
94	0x3d8bb96e	0.06822477
95	0x3c116905	0.008875136
96	0xbe4a1eb3	-0.19738273
97	0x3dd0adc5	0.10189394
98	0xbe164a42	-0.14676765
99	0xbc2f2a78	-0.010691278
100	0xbe6d492b	-0.23172443
101	0x3d802b65	0.06258277
102	0xbd948c88	-0.07253367
103	0x3d876381	0.06610776
104	0x3d2056ae	0.039145164
105	0xbc9208c6	-0.01782645
106	0xbc939e00	-0.018019676
107	0xbec06cf3	-0.37583122
108	0x3dd1c31f	0.102422945
109	0xbcad8c56	-0.021185081
110	0xbe466397	-0.19373928
111	0xbd493208	-0.04911998
112	0x3d30a244	0.0431235
113	0xbe82644e	-0.2546715
114	0xbc7b4da6	-0.015338337
115	0xbf0162c0	-0.50541306
116	0xbd92622b	-0.0714763
117	0x3d7d9e22	0.061918385
118	0xbcdd3935	-0.027004818
119	0x3db7b335	0.08969728
120	0xbb4f83d8	-0.0031664278
121	0xbdc0a9bd	-0.09407375
122	0x3d1b61d6	0.0379351
123	0x3bfb8140	0.00767532
124	0xbe946f48	-0.2899115
125	0x3d8b8912	0.068132535
126	0xbc78ddaa	-0.015189568
127	0xbd88c92a	-0.06678994
128	0xbe200e11	-0.15630366
129	0xbef29606	-0.47380084
130	0xbb66087d	-0.0035100274
131	0xbe546dab	-0.2074496
132	0x3e2fd182	0.17169765
133	0xbe70e87d	-0.23526187
134	0x3b029e7a	0.0019930885
135	0xbe446a8a	-0.19181266
136	0x3e4c1363	0.1992927
137	0xbe861536	-0.26188058
138	0xbed1909c	-0.4093064
139	0xbf103b72	-0.56340706
140	0x3d0de4b7	0.034641948
141	0x3cb2411e	0.021759566
142	0xbb456564	-0.0030120248
143	0xbd85fcc7	-0.06542354
144	0x3cccd43e	0.025003549
145	0x3cedb8dc	0.029018812
146	0x3adcddd4	0.0016850778
147	0x3d0ea2ed	0.034823347
148	0x3e648969	0.22318043
149	0x3d36b5e7	0.04460707
150	0xbe4a0b6d	-0.19730921
151	0xbd68c36c	-0.056826994
152	0xbf282077	-0.6567454
153	0xbf1b87f8	-0.60754347
154	0xbe8a1e6f	-0.26976344
155	0x3c91d4de	0.017801698
156	0xbd0e2ada	-0.034708835
157	0xbe03aecb	-0.12859647
158	0x3c523666	0.012830352
159	0x3c0e85e1	0.008698911
160	0x3c899ea4	0.016799279
161	0xbdb63fc4	-0.08898881
162	0xba0a40c3	-0.00052739325
163	0xbdad1028	-0.08450347
164	0x3bb14818	0.0054102056
165	0xbecc6881	-0.3992348
166	0xbc4015d1	-0.011723951
167	0xbe65368b	-0.22384088
168	0xbed03fa6	-0.4067356
169	0xbe7b3cf8	-0.24534976
170	0xbd95d830	-0.07316625
171	0xbedf431b	-0.43605885
172	0xbc86767a	-0.016413916
173	0x3bc7760f	0.0060870717
174	0x3d8697a2	0.065718904
175	0x3e33ec1a	0.17570534
176	0xbbb5ebbf	-0.0055517848
177	0xbe184245	-0.1486903
178	0x3b709a85	0.0036713195
179	0xbefde88c	-0.49591482
180	0xbc0c8d9b	-0.008578683
181	0xbc6c3db4	-0.014419008
182	0x3c81126d	0.015755856
183	0xbe5b6a89	-0.21427359
184	0x3dde09d9	0.10841722
185	0x3e174489	0.14772238
186	0xbf3a56ad	-0.72788507
187	0x3bb26719	0.005444419
188	0x3e022aad	0.12711592
189	0xbe6221ac	-0.22083157
190	0xbb37dded	-0.0028055862
191	0xbe8707cb	-0.26373133
192	0xbf0cb6f0	-0.5496664
193	0xbe1ddbe6	-0.15415916
194	0x3c4ed34a	0.012623617
195	0xbb0e2cae	-0.0021694112
196	0x3d4a9d6d	0.04946654
197	0xbb28e9e0	-0.0025774166
198	0x3aaedf5d	0.0013341714
199	0xbec0e97a	-0.37678128
200	0x3b77c6d1	0.0037807713
201	0x3ccdd039	0.025123702
202	0x3c89d490	0.01682499
203	0xbdab05a8	-0.08350688
204	0xbec73cec	-0.38913667
205	0x3e9433bc	0.2894572
206	0x3b1b8a13	0.0023733422
207	0xbd5b1da0	-0.05349505
208	0xbee25f0a	-0.44213134
209	0x3b09aaba	0.0021006302
210	0x3ca1fea8	0.01977475
211	0xbe9500af	-0.29102084
212	0xbc2f6211	-0.010704533
213	0xbf5bfd03	-0.8593294
214	0xbcd57b5c	-0.026059799
215	0x3bc4ed52	0.006009736
216	0xbe34d9a2	-0.17661145
217	0xbe85a1b8	-0.26099944
218	0xbe52f18a	-0.20599952
219	0xbd9489b2	-0.07252826
220	0xbe78a608	-0.24282086
221	0xbda8c4aa	-0.08240636
222	0xbcad7691	-0.0211747
223	0xbf43264f	-0.7623033
224	0xbcd0c5d7	-0.025484962
225	0xbd89ce12	-0.06728758
226	0xbd9ef54f	-0.07761633
227	0xbe48acf4	-0.19597226
228	0x3c2e85d3	0.010652023
229	0xbb07e515	-0.0020735909
230	0xbead39c2	-0.33833128
231	0x3e87dda7	0.26536295
232	0x3cacf61e	0.021113452
233	0xbe75fd0b	-0.2402231
234	0x3cafc0a0	0.021454155
235	0x3ca1f255	0.019768873
236	0xbac0baed	-0.0014704146
237	0xbd89b07b	-0.06723114
238	0xbac4f975	-0.0015027957
239	0xbe2eae43	-0.17058663
240	0x3b48c335	0.003063393
241	0x3c114075	0.008865465
242	0xbdd1dd7b	-0.10247322
243	0xbabc587d	-0.0014369633
244	0xbc066cd3	-0.008204657
245	0xbea10b4f	-0.3145394
246	0xbe6bbb48	-0.23020661
247	0x3e09af5e	0.13445804
248	0xbea1d5d3	-0.31608447
249	0xbe6e6db5	-0.23284037
250	0xbdac3507	-0.08408552
251	0x3d09d350	0.03364879
252	0xbbda13a5	-0.006655174
253	0xbdd362cd	-0.10321579
254	0x3d06bcb5	0.03289481
255	0xbef0409f	-0.46924302

hidden_layers.1.bias f4 [64]
0	0x3e837de6	0.2568199
1	0x3dd76f32	0.10519256
2	0x3dc103c4	0.09424546
3	0x3dccbab6	0.0999655
4	0x3e86c4ed	0.26322117
5	0x3e4f5173	0.20245914
6	0x3de726c3	0.1128669
7	0x3e0a3dc7	0.13500129
8	0x3e334d78	0.1751002
9	0x3df2038f	0.11817085
10	0x3e82f673	0.2557865
11	0x3dfa0265	0.12207488
12	0x3e491159	0.19635524
13	0x3e005d79	0.12535657
14	0x3dc0f4f0	0.09421718
15	0x3e209051	0.15680052
16	0x3dd9c301	0.10632897
17	0x3dd8669a	0.10566445
18	0x3e6fbe26	0.2341238
19	0x3e1d7f97	0.15380703
20	0xbe0a7407	-0.13520823
21	0x3e7b9acf	0.24570774
22	0xbe073a66	-0.13205871
23	0x3e7d1a2c	0.24717015
24	0x3e12ff0e	0.14355108
25	0x3e7eb4fc	0.24873728
26	0x3e75df9d	0.24011083
27	0x3e71b13d	0.23602767
28	0x3dda9817	0.1067354
29	0x3c98234a	0.018571515
30	0x3e2a78c7	0.16647635
31	0x3e3d9e8c	0.18517512
32	0xbd8499a3	-0.064746164
33	0x3e81e32a	0.25368625
34	0x3e681167	0.22662888
35	0x3e1c5ad8	0.15269029
36	0xbe20770c	-0.15670413
37	0x3e210c89	0.15727438
38	0x3e01d199	0.12677611
39	0x3e310f5f	0.1729102
40	0x3e166ca2	0.14689878
41	0x3e4528eb	0.1925389
42	0x3de2d392	0.1107551
43	0x3e6aeae0	0.2294116
44	0x3df3a974	0.11897555
45	0x3e6ebca4	0.23314148
46	0x3e26193f	0.16220568
47	0x3ded1038	0.11575359
48	0x3dde821e	0.10864662
49	0x3dc95b91	0.09831918
50	0x3de95f17	0.1139509
51	0x3e052986	0.13004121
52	0x3df517e0	0.119674444
53	0x3e6375d9	0.22212924
54	0x3dc00d13	0.09377494
55	0x3dd180ad	0.10229621
56	0x3e0ae416	0.1356357
57	0x3e7a2bbe	0.24430749
58	0x3e6e490a	0.2327005
59	0x3de71714	0.11283699
60	0x3dc47659	0.095928855
61	0x3dc95611	0.09830869
62	0x3dfb5fdb	0.12274142
63	0x3e1a911e	0.1509442

output.weight f4 [4, 64]
0	0x3d8dc663	0.06922605
1	0xbe14da10	-0.14536309
2	0x3cf605f3	0.030032134
3	0x3ce4f1b0	0.027947277
4	0x3d88980f	0.06669628
5	0x3d3df440	0.046375513
6	0x3d0fb6ce	0.035086446
7	0x3d374a9a	0.04474888
8	0x3d122d00	0.035687447
9	0x3d1973b0	0.037463844
10	0x3d8e2538	0.06940693
11	0x3d04f8c7	0.032463815
12	0x3d6a0d8a	0.057141818
13	0x3d1cfe58	0.0383285
14	0x3ce4720c	0.027886413
15	0x3d213b8a	0.03936342
16	0xbe055b79	-0.13023175
17	0x3d0e1468	0.03468743
18	0x3dae22e2	0.08502747
19	0x3d465fde	0.04843127
20	0xbd64bcd9	-0.05584416
21	0x3d84740f	0.06467449
22	0x3da15966	0.078783795
23	0x3de1c979	0.11024756
24	0xbde40f53	-0.11135735
25	0x3da2e81f	0.0795443
26	0x3d54b344	0.051928774
27	0x3d6f0c39	0.058361266
28	0x3d242059	0.04006991
29	0xbddaf5ef	-0.10691439
30	0xbd1a5098	-0.037674516
31	0x3d0ac23f	0.033876654
32	0xbddf9955	-0.10917918
33	0x3d8f4d12	0.06997122
34	0x3da1dc22	0.07903315
35	0xbe0d67ac	-0.13809079
36	0x3c5c7c4d	0.01345737
37	0x3d1f8854	0.038948372
38	0xbde9321e	-0.11386512
39	0x3d2c764c	0.042105004
40	0x3d2b9b26	0.041896008
41	0xbe0be1b8	-0.13660324
42	0xbe009756	-0.1255773
43	0x3d8f3f18	0.06994456
44	0xbda84244	-0.08215764
45	0x3d8cb6b4	0.06870785
46	0x3d10b75a	0.035331108
47	0x3d1d4934	0.03839989
48	0x3d20ace1	0.03922737
49	0x3d09c3e3	0.033634078
50	0xbdde7144	-0.108614475
51	0x3d1ee163	0.038789164
52	0xbdf87587	-0.121317916
53	0x3d6326fa	0.055457093
54	0x3d0ba62c	0.03409402
55	0x3d0673d5	0.03282531
56	0x3d267dcb	0.04064731
57	0x3d6a7aa4	0.057245865
58	0x3d844b0b	0.06459626
59	0x3d3223d8	0.043491215
60	0x3d1377b6	0.036002837
61	0x3d122f58	0.03568968
62	0x3d22f551	0.039784733
63	0x3d3a0177	0.045411553
64	0x3d596e68	0.053083807
65	0xbd600a6d	-0.054697443
66	0x3c9a0502	0.018801216
67	0x3d179d05	0.03701498
68	0x3d74ea40	0.05979371
69	0x3d3cc30a	0.04608444
70	0x3cf3d91f	0.029766617
71	0x3d3fccf8	0.046826333
72	0x3d269b40	0.0406754
73	0x3cb8ce3e	0.022559281
74	0x3d9eaf09	0.07748229
75	0x3cf69840	0.030101895
76	0x3d8429a2	0.06453253
77	0x3d0e6347	0.034762647
78	0x3cfba003	0.030715948
79	0x3d184804	0.037178054
80	0xbcf3eb91	-0.029775413
81	0x3cf38526	0.029726576
82	0x3dd236ae	0.102643356
83	0x3d408852	0.047005005
84	0xbd7ee038	-0.06222555
85	0x3d8f97b5	0.07011358
86	0xbd6bfda2	-0.05761493
87	0x3e05adca	0.13054577
88	0xba5ff998	-0.0008543967
89	0x3ddeb4a0	0.10874295
90	0x3d8533af	0.065039985
91	0x3d113478	0.03545043
92	0x3ce821b8	0.02833639
93	0xbddd1d5e	-0.10796617
94	0xbd73f142	-0.059556253
95	0x3d4d0851	0.05005676
96	0xbdfe498c	-0.12416372
97	0x3d80049a	0.06250878
98	0x3dc69dd9	0.09698076
99	0xbde67e5f	-0.11254572
100	0xbbf39f7a	-0.0074347826
101	0x3cdf6ded	0.027274096
102	0xbc9dc640	-0.019259572
103	0x3d105597	0.035237875
104	0x3cc5190b	0.024059793
105	0xbdc9f6e5	-0.098615445
106	0xbba53daf	-0.0050427536
107	0x3da3599c	0.07976076
108	0x3d08aa81	0.03336573
109	0x3d9ba875	0.0760049
110	0x3cdf1b4f	0.027234701
111	0x3d292a0f	0.041299876
112	0x3ca99fef	0.020706145
113	0x3ca3b216	0.019982379
114	0x3c984cbe	0.018591281
115	0x3d3ff56b	0.04686491
116	0x3b8c0be3	0.004273878
117	0x3d43256b	0.047643106
118	0x3d1d416b	0.038392466
119	0x3d1c78e9	0.038201246
120	0x3d04e582	0.03244544
121	0x3d8d7800	0.06907654
122	0x3d65d5f9	0.056112263
123	0x3cbc7021	0.023002686
124	0x3d03e3b8	0.03219959
125	0x3cbb8cce	0.02289429
126	0x3d053007	0.032516506
127	0x3cd7a43c	0.02632343
128	0x3adfaaaa	0.0017064412
129	0xbd48b87a	-0.049004056
130	0x3d6397b7	0.05556461
131	0x3d1f5606	0.038900398
132	0xbd1095f0	-0.03529924
133	0x3d8319b5	0.064013876
134	0x3d3055fd	0.043050755
135	0x3d6781b2	0.05652017
136	0x3d6d9727	0.05800548
137	0x3d961b7a	0.073294595
138	0x3bb9dfe0	0.00567244
139	0x3d430d3f	0.047620054
140	0x3c88d2ee	0.016702142
141	0x3d55d6cd	0.052206803
142	0x3d3c6f0f	0.04600435
143	0x3d4dc318	0.050234884
144	0xbd6ca4e0	-0.057774425
145	0xbce07829	-0.027401047
146	0x3d78dc28	0.060756832
147	0xbd4acf33	-0.049514007
148	0x3bbd7694	0.005781958
149	0x3b4822a7	0.0030538233
150	0x3a10f41d	0.000552954
151	0x3db9d1e2	0.09073235
152	0x3db72928	0.08943397
153	0x3d821b30	0.06352842
154	0x3b85e7b8	0.004086461
155	0x3cd4cdde	0.025977071
156	0x3d27551a	0.040852644
157	0xbd15d1bf	-0.036576983
158	0xbe9a111b	-0.30091175
159	0x3d2d1784	0.042258754
160	0xbdf9fe20	-0.122066736
161	0x3c1938dd	0.009351936
162	0xb9861157	-0.0002557139
163	0xbd40af5e	-0.047042243
164	0x3d420b16	0.047373854
165	0x3d4db8bf	0.050225016
166	0xbd343415	-0.04399498
167	0x3cbde63e	0.023181077
168	0x3d6fbede	0.058531635
169	0xbdcccfd0	-0.100005746
170	0xbd3d2fed	-0.046188284
171	0x3d5de6bd	0.054175127
172	0x3d24801b	0.040161233
173	0x3c755be4	0.014975522
174	0x3d3c48c5	0.045967836
175	0x3d7ff72d	0.062491585
176	0x3d3c23e8	0.04593268
177	0x3d6bde2e	0.057584934
178	0xbdeae3fa	-0.11469264
179	0x3d5662be	0.05234026
180	0xbd2ee162	-0.04269541
181	0x3d3a15b6	0.04543086
182	0x3d663146	0.056199335
183	0x3d5bb42b	0.05363862
184	0x3d5bb955	0.053643543
185	0x3b70f2b3	0.0036765754
186	0x3cd733b2	0.026269767
187	0x3d5730ae	0.05253666
188	0x3d378550	0.04480487
189	0x3d28c367	0.041201975
190	0x3d5a8b4b	0.053355496
191	0x3c1e5da0	0.009665877
192	0x3c76a59e	0.015054135
193	0xbd98f819	-0.07469196
194	0x3d2aa9bc	0.041665778
195	0x3d589015	0.052871782
196	0x3d0b7042	0.034042604
197	0x3d94c4dc	0.072641104
198	0x3d4b0f2e	0.049575023
199	0xbd7018a7	-0.05861726
200	0x3d6bf0fe	0.057602875
201	0x3d7a1155	0.061051685
202	0x3ce92fae	0.028465118
203	0x3d424ee3	0.047438513
204	0x3d13f2ea	0.036120333
205	0x3d0630b5	0.032761294
206	0x3d63333c	0.055468783
207	0x3d59f9e6	0.053216837
208	0xbd58a4da	-0.05289159
209	0x3d7ab994	0.061212137
210	0x3d532f55	0.05155881
211	0x3d3c39b2	0.04595346
212	0x3dc916b2	0.09818782
213	0x3b7edcf7	0.003888903
214	0xbc7e1595	-0.015508075
215	0x3dbc5437	0.0919575
216	0xbe06ea40	-0.13175297
217	0x3d967045	0.073456325
218	0x3cc8d583	0.024515873
219	0xba44680f	-0.00074923126
220	0x3d8eec3b	0.06978651
221	0xbe203971	-0.15646912
222	0xbe85f636	-0.26164407
223	0x3d49ccd1	0.049267594
224	0xbde93cd9	-0.11388559
225	0x3cad8bab	0.021184763
226	0x3cd3d6e9	0.025859313
227	0xbdca7555	-0.098856606
228	0xbd94ae3b	-0.07259794
229	0x3c7ca9d8	0.015421353
230	0xbd6828c8	-0.056679517
231	0x3d18f8e0	0.03734672
232	0x3c396e7f	0.011317848
233	0xbda2dc71	-0.07952202
234	0xbd8ee990	-0.06978142
235	0x3d8ed5d5	0.06974379
236	0x3d8af50c	0.0678502
237	0x3d282f4a	0.041060723
238	0x3d101786	0.035178684
239	0x3d8cc798	0.06874007
240	0x3d20e17d	0.039277542
241	0x3d54cc60	0.05195272
242	0x3d8266c6	0.06367259
243	0x3d4ddd1f	0.050259706
244	0xbd300b24	-0.042979375
245	0x3d448da7	0.047986653
246	0x3d242627	0.040075447
247	0x3d136a3e	0.035989992
248	0xbd769f42	-0.060210474
249	0xbb687dc5	-0.0035475355
250	0x3d06112a	0.032731213
251	0x3d83f79a	0.064437106
252	0x3d34d213	0.044145655
253	0x3d6f0418	0.058353513
254	0x3d3de642	0.04636217
255	0x3d038276	0.03210684

output.bias f4 [4]
0	0x3fb2e73d	1.3976818
1	0x3fa05106	1.2524726
2	0x3fa7e0f5	1.3115526
3	0x3fa8f040	1.3198318
