experiments/navigate_1327_18Oct22082538.pth (torch_old, 54660 bytes, 6 tensors)

hidden_layers.0.weight f4 [128, 37]
00000000: 6a4b c6bd df34 e4bb c7f6 2bbe 348a a9bd
00000010: cf22 3ebe 8859 0f3c 2b16 fcbd c06e 003e
00000020: e3c7 6abd e11a 0ebc 72b2 9fbd 02c7 3abe
00000030: d8d8 36be fe93 d4bd dce4 33be 7685 05bd
00000040: 7ab8 33bd 48dd 9e3d 14c3 10be 075f 11be
00000050: 3a9d 27bc 0563 c63d 77ae 76bd fb3e 8e3d
00000060: f4fe dbbd 72f0 41bd 2ed1 b63c 343d 32be
00000070: 8604 6cbd bf6a 04be 32bc b6bd 4524 8e3d
00000080: f206 04be 663a e8bd 49c1 39be 4b54 77bd
00000090: 02ae 2b3c 130a 793d d59e ce3d e48e c83d
000000a0: f985 9d3d c8e2 83bd 6263 d63d e197 d6be
000000b0: d211 f9be b1bf b3be 09fa d6bf 66bb 1aba
000000c0: 2bf6 1c3d b339 fe3b cbd6 a03c f07f 473d
000000d0: cf01 283d 4d8f 2b3c e9e3 273d 193d 353d
000000e0: 507d aabc a818 98bd 939b efbd c4a2 e0bd
000000f0: e747 8fbd c9ef 0c3d 9f5e 4f3a 14ea a4bc
00000100: e7d3 44bc 2e2f c6bc 03b7 43bc 4985 243d
00000110: 78e6 c23d eaa5 733d ddcc e43c 003b e9bd
00000120: 290d b33b f145 aa3a 9931 8e3d b6bf 0e3e
00000130: 6d35 46bd ad02 b3bc 2fbf a6bc 4fbd f5bd
00000140: 4b2e 9abe 7904 043e 3e0e ee3d 14e1 00be
00000150: b01f c0bd d0ac 873d be29 1fbe 9405 303d
00000160: d028 4f3e a5f3 eabd 17c0 d8bd 431e 0b3e
00000170: a1e7 6e3e 24c2 5b3d 5677 8fbe 3643 15be
00000180: 068f 673b 6671 cf3d aa00 b6ba fae5 56be
00000190: 5d25 a13d 6673 4f3e 0731 dfbd c346 6ebd
000001a0: df5e 0bbe 4f31 68be 24c3 b63c 21d9 37be
000001b0: 7e9b 653d 0ac7 39bc cc03 22bd 3bb7 a2bc
000001c0: 7604 273e 220d cf3d 2dde c13c d7b0 70bd
000001d0: 2f69 bfbd 3743 05bc a5ba ba39 5949 963d
000001e0: 328d b83e 054b 1fbe c21c 933d 4dd8 353b
000001f0: 06c1 abbd 6df4 e1bd daf6 fbbd 3f9b c4bd
00000200: 1ec1 e3bd 2f9a 1dbd 5beb 1b3e 91fd 23bd
00000210: 4492 21bd 7753 8cbc 02ed 813d bc2d 373e
00000220: ce64 5dbd ca00 14be 52b9 833c 1476 563e
00000230: e647 f13e 6a80 c1bc 40fd b03b bbca 823d
00000240: 0dac 663e e510 893e 8062 74b9 24cc e4bb
00000250: 2f5a 02be 5b9e 81be 1f55 e0bd 33a8 a6be
00000260: cafa 1dbe 72d0 9cbe c6c2 be3d f5dd 663e
00000270: 6bfa 313e b76d eebe b009 b7bd 10db f33c
00000280: 7650 b8bd f36b 30be 3ebf b8bc 81be 7ebe
00000290: 6a5b 00bd 6f74 293d ea6c bfbe 7214 7cbd
000002a0: e671 8abe 0a94 873d e013 963d cff2 cbbb
000002b0: 7601 8cbd 4163 4cbe cb66 b7bd dcb1 8b3e
000002c0: 2925 b1bd 70ae 07bf 3a8c cfbc da25 0abe
000002d0: 9789 d73d 0904 0bbe 78f3 4cbd d5dd 603d
000002e0: 88af c3bb 2915 4bbc 2486 c93c a2e5 b5bc
000002f0: e340 203d 3639 4b3d 1af5 573e dad6 90be
00000300: 31b3 a3be 90b0 aabe 2796 d7bf 2a0f 50bd
00000310: 74db d4bc 7b72 8fbd b48b dcbc afeb 34bd
00000320: 6ec4 a3bc 8159 fc3b 60b1 c53b 0624 913c
00000330: 33c9 86bd 3fb6 ca3d c45d 3a3d e38e 5a3d
00000340: e80d 263e f67b 8a3d 26dd f83b ca67 9c3c
00000350: f1d7 9f3d c2f6 ee3c e305 d73d 2b8a bdbc
00000360: ba5e 483d 3aa2 743d e05c 9b3d df08 a13c
00000370: 430c 84bb 2722 1f3c 3ebf 20bd 09ec bc3c
00000380: c60f 1dbd 126b d4bc 0963 12bd 0268 bfbd
00000390: a1fc 01bd e234 9bbb 9bd1 3f3d bc96 5d3e
000003a0: 05ff 1e3c 9642 3f3d 66e0 823d 8d6d ac3d
000003b0: c03c 683d 64dc b2bd 9545 34bd c27d c7bc
000003c0: fd99 acbc 6f1a 3d3d a1f0 5bbd 4206 483c
000003d0: 9203 97bb 8149 9cbc 44cf 0b3d a346 dabd
000003e0: ada2 e6bd 415e 71bd 5457 4fbd 3d47 593d
000003f0: 4258 683e 6118 02bf f68f d4be 45ec c0be
-0.09682353 -0.0069643105 -0.16793357 -0.08278313 -0.18567966 0.008749373 -0.12308916 0.12542248
-0.057319533 -0.008673401 -0.077977076 -0.18239978 -0.17856157 -0.1037979 -0.17567772 -0.03259798
-0.043877102 0.0775705 -0.14136916 -0.14196406 -0.010230357 0.09686855 -0.060224976 0.06945606
-0.10741988 -0.047348447 0.022316542 -0.1740616 -0.0576215 -0.12931345 -0.08922614 0.069405116
-0.12893274 -0.113392636 -0.18140139 -0.060383122 0.010478498 0.060800623 0.100888886 0.09792879
0.07691569 -0.064397395 0.104681745 -0.4191275 -0.48646408 -0.35107186 -1.6795055 -0.00059025583
0.0383207 0.007758343 0.019633671 0.048705995 0.04101735 0.010471177 0.040988836 0.04424772
-0.020811707 -0.07426578 -0.11699595 -0.10968545 -0.06996136 0.034408364 0.0007910523 -0.020131148
-0.012013412 -0.024192419 -0.011945489 0.040166173 0.09516615 0.0594844 0.027929718 -0.113882065
0.0054642153 0.0012990815 0.06943054 0.1394032 -0.048390795 -0.021851862 -0.020354835 -0.119989984
-0.30113444 0.12892331 0.1162381 -0.1258586 -0.09381044 0.06624758 -0.15543267 0.04297407
0.20230412 -0.11472253 -0.10583513 0.13585763 0.23330547 0.053651944 -0.28020734 -0.1457642
0.0035333051 0.10129051 -0.0013885696 -0.20986167 0.078684546 0.20258865 -0.10898023 -0.058172952
-0.13610409 -0.2267506 0.022309847 -0.17953922 0.056056492 -0.0113389585 -0.039554402 -0.019862762
0.16310295 0.10109927 0.023665512 -0.058762398 -0.09346234 -0.008133701 0.00035615746 0.07338209
0.36045223 -0.15555961 0.071832195 0.0027747334 -0.08386426 -0.11032949 -0.123029426 -0.09599923
-0.111208186 -0.03847712 0.152265 -0.04003674 -0.03944613 -0.017129643 0.06344034 0.1788854
-0.054051213 -0.14453426 0.016079579 0.2094348 0.47125167 -0.023620803 0.0054012835 0.06386324
0.2252657 0.26770702 -0.00023306347 -0.0069823433 -0.12729715 -0.25316128 -0.109537356 -0.325502
-0.154277 -0.3062778 0.09314494 0.22545607 0.17380683 -0.4656808 -0.089373946 0.029767543
-0.08999722 -0.1722868 -0.022552129 -0.24877359 -0.03133718 0.041370805 -0.37387782 -0.061542936
-0.27040023 0.06620033 0.073280096 -0.0062240134 -0.06836216 -0.19959737 -0.08955153 0.27284133
-0.08649666 -0.53000546 -0.02533542 -0.13491002 0.1052429 -0.13575758 -0.050036877 0.054899056
-0.0059718527 -0.012395182 0.024600096 -0.022204224 0.03912438 0.049615107 0.21089593 -0.2828892
-0.3197265 -0.33337831 -1.6842698 -0.05079571 -0.02598355 -0.07004257 -0.026922084 -0.044170078
-0.019991126 0.0077010994 0.0060331076 0.017717373 -0.065813445 0.09898042 0.045499578 0.053358924
0.16216242 0.06761925 0.0075947223 0.01909246 0.078048594 0.029170398 0.1049917 -0.023137173
0.048918463 0.059725024 0.07586074 0.01965755 -0.004029782 0.009712732 -0.039244883 0.02306177
-0.03834512 -0.025929961 -0.03573898 -0.0934601 -0.031735066 -0.0047365287 0.046830755 0.21639532
0.009704356 0.04669436 0.06390457 0.08419333 0.05669856 -0.087334424 -0.04401167 -0.024351958
-0.021069521 0.046167787 -0.05369628 0.012208523 -0.00460858 -0.019078018 0.03413321 -0.10658004
-0.11261497 -0.05892778 -0.050620392 0.053046454 0.22689918 -0.5081845 -0.41516083 -0.3768026

hidden_layers.0.bias f4 [128]
00000000: c18b d4bd 471d 323d c738 2dbe 8e94 23be
00000010: e3a2 dabd 1af5 91bd 6f85 7c3d 0e72 1c3c
00000020: 5881 0ebe 3098 c8bb b081 18be 2f2d e6bd
00000030: 231d 29be d787 a4bd 3a87 08be ea08 36bc
00000040: 0e30 6cbd bb2f 04bd f914 15be 4578 acbd
00000050: a1a0 3fbe 1b7a d0bc 2805 673c 90c2 95bd
00000060: 8ad9 5cbd 3206 753c 8769 903d 77a9 1cbe
00000070: 3ca4 d2bd 5fda 1ebe 916e de3b ccb6 063d
00000080: 290b e1bd 2b9a 0dbe 5390 a7bd 12af 58be
00000090: 7261 f8bd 730b aabb 235e cebd 2afa 9fbd
000000a0: 2d33 08bd b9da 9a3c 87d0 1b3e 4b7b ccbc
000000b0: 1f3c a8bd 0b76 18be db48 8b3d 768d 49be
000000c0: 8e85 85be b5ff 9f3c 8405 833b 922e d4bd
000000d0: 1931 70bc 13a4 053c f28e 0ebd 207c 7ebd
000000e0: 57bd 38be e498 97bd eb48 7d3c 8779 c3bd
000000f0: 6f42 56be 80d3 07bd 0ebe 823c 8442 13be
00000100: 5bc3 f73c b2fd 9a3d aab2 98bd ff2e fabd
00000110: a01d 7ebe 548f b2bd 9a6e 2dbd ba9e 01be
00000120: 5005 1cbd 8da5 0fbe b4a1 debd e06c 06be
00000130: 6a3c 773c 5609 2dbe 6268 4a3d ad47 853d
00000140: 7409 b0bd 2e0e cebb 7ca3 aeba 3a12 f8bd
00000150: a965 d4bd 384c b23c 1c57 f13c 9a1a b0bd
00000160: 713a 62bc c619 dabc d0cd c63d fd22 93bd
00000170: 21ba 21be 6c80 89be 9521 e0bd c7ee 3f3d
00000180: e040 debd 1255 9dbe 110e 1cbe 5c0f df3a
00000190: bb76 04be e668 88be a649 7639 66b4 7b3d
000001a0: c8ba 67be 2141 2bbe d75e 0bbd 7817 1a3e
000001b0: 1a06 7bbe 590b 14be 81f7 253b 4bdf 3cbd
000001c0: ec59 05be 82bf 79bd dae9 57bc 3ac8 3e3d
000001d0: d9cf fe3c 305e 063b beb1 0cbd bab3 bebd
000001e0: f29a bfbd 52b6 3f3d d8d7 0abe 0b6e 9ebe
000001f0: 755b debd e6f8 083d 4bdc 173e a9ee 0dbe
-0.103782184 0.043484952 -0.1691619 -0.15974638 -0.106755994 -0.071268275 0.06165069 0.009548677
-0.13916528 -0.006121658 -0.14893222 -0.11239087 -0.16515021 -0.08033722 -0.13332835 -0.011110524
-0.057663016 -0.03227208 -0.14558782 -0.08421377 -0.18713619 -0.02544885 0.01410035 -0.073125005
-0.0539184 0.01495509 0.07051378 -0.1529902 -0.102852315 -0.1551299 0.006788083 0.032889172
-0.10988457 -0.13828342 -0.081818245 -0.21160534 -0.12127961 -0.005189353 -0.10076549 -0.07811387
-0.03325193 0.018903123 0.15216266 -0.024961134 -0.08214592 -0.1488878 0.068010055 -0.1968287
-0.26078457 0.01953111 0.0039984602 -0.10360445 -0.014660143 0.008156794 -0.034804292 -0.062130094
-0.18040977 -0.074022084 0.0154592795 -0.09544664 -0.2092378 -0.033160686 0.015959766 -0.14380842
0.03024452 0.0756792 -0.074559525 -0.12215995 -0.24815989 -0.08718744 -0.042341806 -0.12658206
-0.038091004 -0.14027996 -0.10870686 -0.1312747 0.015090087 -0.16898093 0.049415953 0.06507812
-0.08595553 -0.0062883114 -0.0013323869 -0.121128514 -0.10370953 0.02176486 0.029460482 -0.08598824
-0.013807879 -0.026623618 0.09707224 -0.07184408 -0.15793659 -0.2685579 -0.10943905 0.046858575
-0.10852218 -0.30728966 -0.15239741 0.0017018127 -0.12935917 -0.2664253 0.00023487824 0.06145134
-0.22629845 -0.16724063 -0.034025993 0.15048015 -0.24514046 -0.14457454 0.0025324526 -0.046111386
-0.13022584 -0.06097365 -0.013178313 0.04657767 0.031104969 0.0020502917 -0.034349196 -0.09311624
-0.09355725 0.046804734 -0.135589 -0.3094333 -0.10857288 0.033440493 0.14830129 -0.13860573

hidden_layers.1.weight f4 [64, 128]
00000000: 9229 97bd acdd b0bc c790 453d d5d6 f93d
00000010: 8572 ec3d c4dd 8fbc ffce 8abd 6ca8 38bd
00000020: 0162 553c cf16 b23c de8c 523d d8c5 a83d
00000030: 8f47 92be fc59 92bd 3b3b 213d 3b35 9fbd
00000040: d4e9 8dbd edec b9bb b47e 34be 108e 2dbd
00000050: f29b eb3a fc2e b13d 5d9b 543d 4f4f e0bd
00000060: 2e1e cf3d 828f e93d 5eb0 63bd 19e8 03bd
00000070: 5451 91bc 98f9 b33d 3e0e acbe d6ab e13a
00000080: b1e4 90be 635b 87bd 6be6 f3be 021f ecbd
00000090: b61a 32bd 77b3 94bc 7c00 5f3d 2e76 cbbc
000000a0: 814a cebd 95ec 92be 6cfa c23c 343d 253d
000000b0: 7a67 0fbe 57e7 3dbd 948c 80bd b76d 9ebd
000000c0: dec1 27be 8019 2bbd 289b c6bd e9fb e4bd
000000d0: 1a2b 50be 5150 62bd bc6b 433c 9a2c b9bd
000000e0: d74f b23d fb23 5bbe 4236 73bc b19e e1bc
000000f0: 01ae fdbd 236f dabd 1884 5ebd ddcc 79be
00000100: 83c2 a5bd 4c75 673d 57a4 0f3d a924 f4bd
00000110: 4eee 27be 6632 5c3d c723 f53d a3b4 33be
00000120: 5215 0cbe 9b45 0dbe 4abe 883c f5b8 07be
00000130: bf6f 90be e55a 04be b902 49bb 7b53 01bd
00000140: e4da ae3c d109 6cbe 0957 b0be 0daf 153d
00000150: b250 c6bd 343f 93be 6dd5 83be e5a2 debd
00000160: 6e43 36bd a357 883d c600 df3d e3ef 9fbd
00000170: c47f a6bd 3e41 d8bd a521 af3d 1feb 243d
00000180: c1a6 90be 5389 343d fd62 64bc 8a66 c7bd
00000190: efde 4d3d 84c4 5dbe 9f0e f9bd f1d3 8abc
000001a0: 485d bbbd e09b 063d 0f1a 603b a8dc dcbc
000001b0: f9c1 85be da2e 2cbd 51c1 24be 023f 083d
000001c0: f449 a6bc 1d29 073d 8faf edbb 26a6 40be
000001d0: 4a2e 493d a2f2 e23c ea82 2ebc d8c7 6fbe
000001e0: edd9 603d e445 5fbd 4909 803d e4a0 e7bc
000001f0: 180b 18bd 3093 0d3c 280d e6bc 2326 18be
00000200: 9084 a43c 21f9 523d 8741 ee3c 6c62 a0bd
00000210: 5dc0 e9bd b0d6 2d3d f6ac ea3d bf15 dabb
00000220: eb83 933d 9498 213d d13b 233d b554 653d
00000230: d879 86be 2fdb e73d 0f3b ecbc 3c09 2ebe
00000240: 5e0d 6bbd 5415 c5ba 4479 f2bd f7ce 06be
00000250: fe35 4dbe e8c4 10bd c6aa 15bd 2eed 893d
00000260: 54e7 e03c 142d b23d d800 dd3c 3ff4 ac3d
00000270: 8466 9a3b c975 8a3a d36e 95be 124e 5bbe
00000280: 3ab1 1abd 19b7 23bd 9645 3dbc dfb6 623c
00000290: 54e9 fa3c d58f 433d 5587 85bc a6e2 163d
000002a0: 80bb b8bc 0f17 95bd 6d9d e53c 13e1 0a3d
000002b0: dcc1 07be 827c 55be 7deb 96bc 74c7 0b3e
000002c0: ddd6 38be 16c2 b23d 8c33 473d 422e d7bd
000002d0: 6c27 b9bd d947 a43c 60e7 1bbe 5b4e 90bd
000002e0: d6b4 04be 677f cfbc 3576 8b3d 5a51 a9bd
000002f0: 09e5 28be 6ed0 ecbd 4ade 59be dea1 91bd
00000300: 2fa3 7bbe f012 463e 66aa 343d 27a4 42bd
00000310: adab 69bd abc1 3f3d 2bc1 113c 40e8 a0bc
00000320: 1439 0dbe be64 6cbe d59b 163d d540 4f3e
00000330: 6b9b a8bd f8be a1bd 32b5 e83b c254 193c
00000340: 20d0 e63c b665 1dbc dc5e 60bc 93a9 293d
00000350: 652c ee3c dada 97be 2964 0cbe 0b1a f9bb
00000360: 9df5 253d bfdb 253d 607d 2f3d 368f 4bbd
00000370: f28c 97bb fde5 0ebe 5ffc aebd bdb4 bb3d
00000380: 8357 8cbd db3a dabc 91dd cfbd 46e5 33be
00000390: a43b 3d3d 0494 d7bd ea85 8fbd 0545 e63d
000003a0: f3ef 0ebb 7615 9e3c 29a1 9d3d a7a9 cabc
000003b0: f520 77be e9ea b9bd 4aec cdbd 6e25 22be
000003c0: 6751 e8bc 831e a83d 0ee0 a4bd 4cdd 16be
000003d0: 3456 de3c 5218 043e 02ef 753d 540e 51be
000003e0: dc2d fe3d ea7e 173d 2fe7 573d c52d 40bd
000003f0: 328f 533d 1aba f33c 1878 c8bd 831c 2ebd
-0.07380976 -0.021590076 0.048233774 0.12199179 0.1154528 -0.0175618 -0.067777626 -0.045082495
0.013023854 0.021739392 0.051403873 0.08240861 -0.2857022 -0.071460694 0.039363127 -0.07773825
-0.06929365 -0.0056739957 -0.17626458 -0.04237181 0.0017975552 0.0865154 0.05190598 -0.10952627
0.10113178 0.11404325 -0.05558812 -0.032203767 -0.017738976 0.087878406 -0.33604616 0.0017217349
-0.28299478 -0.066092275 -0.47636732 -0.11529352 -0.043482505 -0.018151982 0.05444382 -0.024836626
-0.10072804 -0.28696123 0.023801051 0.04034157 -0.14004317 -0.0463632 -0.06276813 -0.0773577
-0.16382548 -0.041772366 -0.096975625 -0.111808605 -0.20328942 -0.055252377 0.011927541 -0.0904171
0.087066345 -0.21400444 -0.014844479 -0.02754149 -0.12386704 -0.10665729 -0.054325193 -0.24394555
-0.08093741 0.056508347 0.035068836 -0.11921055 -0.163995 0.053759 0.119697146 -0.17549376
-0.13680008 -0.13796084 0.0166923 -0.1325415 -0.28210256 -0.12925299 -0.003067179 -0.031573754
0.02134461 -0.2305062 -0.34441403 0.036543895 -0.0968336 -0.28759158 -0.25748768 -0.108709134
-0.0444979 0.066573404 0.108888194 -0.07809427 -0.08129838 -0.10559319 0.08551339 0.04026329
-0.28252223 0.044076275 -0.013939616 -0.09736355 0.050261434 -0.21656996 -0.12160992 -0.016946765
-0.09148651 0.032863498 0.003419522 -0.026960686 -0.26124552 -0.04203687 -0.1608937 0.033263214
-0.020298935 0.032998193 -0.007253594 -0.1881338 0.04911641 0.027703587 -0.0106513295 -0.23416078
0.05489533 -0.054510012 0.06251771 -0.02827496 -0.037119955 0.008641049 -0.028082445 -0.14858298
0.020082742 0.05150712 0.02908398 -0.078312725 -0.114136435 0.04244107 0.11458771 -0.0066554244
0.07202896 0.03945215 0.039851967 0.055988986 -0.26264834 0.11321103 -0.028836755 -0.1699571
-0.057385795 -0.0015036264 -0.11839536 -0.13164888 -0.20040128 -0.035344034 -0.036539815 0.067346916
0.027454056 0.08700004 0.026977941 0.08445024 0.004711928 0.0010563667 -0.29186115 -0.214165
-0.037766673 -0.039969537 -0.011552235 0.013837545 0.030628838 0.04774459 -0.016299883 0.036837243
-0.022550344 -0.07279789 0.028029168 0.033906054 -0.13257545 -0.20848277 -0.018422836 0.13650304
-0.18050714 0.08728425 0.048633143 -0.1050687 -0.09040722 0.02005379 -0.15224981 -0.07046195
-0.12959608 -0.025329305 0.068096556 -0.0826747 -0.1649362 -0.11563192 -0.21276203 -0.07110952
-0.24573968 0.19343162 0.044107817 -0.04751983 -0.05704849 0.046815556 0.0088961525 -0.019641995
-0.13791305 -0.23085305 0.036769707 0.20239575 -0.082327686 -0.078977525 0.0071016783 0.009358587
0.028175414 -0.009606769 -0.013694491 0.041421484 0.029073903 -0.29659158 -0.13710083 -0.0076019815
0.04051744 0.04049277 0.042844176 -0.049697123 -0.0046249563 -0.13954921 -0.0854423 0.091653325
-0.06852629 -0.026639393 -0.10149682 -0.1756793 0.046199456 -0.105262786 -0.07007964 0.11243633
-0.0021810501 0.019297343 0.076967545 -0.0247391 -0.24133666 -0.09078009 -0.10054834 -0.15834591
-0.028359128 0.08208945 -0.080505475 -0.14732856 0.027140714 0.12899902 0.06004239 -0.20415622
0.12411091 0.03698627 0.05271071 -0.04691865 0.051650234 0.029751826 -0.09788531 -0.04250766

hidden_layers.1.bias f4 [64]
00000000: f290 7e3e c433 623e 460a 403e 81ed 513e
00000010: 4518 8a3e 97b4 f8bd bbf2 e83d caba d03d
00000020: 9f6b a13d a666 ab3d ba66 6e3e cfcb e93d
00000030: f058 673e 449f e13d cb61 d13d cab7 d33d
00000040: 7ccb 58bd d0a0 563e f922 15be 40d1 4c3e
00000050: 1a79 cc3d 69a7 603e 4d0e 6a3e 4aff 513e
00000060: 68a7 103e e561 573e 1c3a 653e 10db 7a3e
00000070: a358 843e ae5a 373e 8894 cf3d 179e 703e
00000080: 0661 0dbe d0cb 7e3e 4e69 823e 6f9c bf3d
00000090: 188d 203e 1210 573e d6ef d43d cbc9 2e3e
000000a0: 5cbc 613e eb3a d63d 0cc3 413e e9ac 753e
000000b0: bf0b 2d3e 76c1 1d3e 85f6 793e fc79 f03d
000000c0: c714 fd3d fe59 26be f846 d63d c027 de3d
000000d0: 4b53 14be 7585 1c3e fbe9 6a3e aec6 0f3e
000000e0: 8d1b 493e 6b00 6f3e b880 823e 1396 4e3e
000000f0: 4748 bb3d 6907 b13d ab2e d03d 49f8 f93d
0.2485998 0.2209006 0.18753919 0.20500757 0.2697164 -0.1214382 0.11374422 0.10191877
0.07881855 0.08369188 0.23281375 0.114158265 0.2259252 0.11016706 0.10223731 0.10337789
-0.052928433 0.20959783 -0.14564122 0.20001698 0.09984036 0.21938862 0.22857018 0.20507541
0.1412636 0.21033438 0.22385448 0.24497628 0.25848874 0.17905685 0.10135752 0.23497806
-0.13806543 0.24882436 0.25470966 0.09356009 0.15678823 0.21002224 0.103973076 0.17069165
0.2204451 0.104604565 0.1892206 0.23991741 0.16899012 0.1540583 0.24410446 0.11742017
0.123574786 -0.16245267 0.10462755 0.108474255 -0.14484899 0.15285285 0.22940819 0.14040634
0.19639416 0.23340003 0.2548883 0.20174436 0.09144645 0.086439915 0.10165151 0.1220556

output.weight f4 [4, 64]
00000000: 4a01 4b3d 6874 3a3d cf45 8fbd b88d bf3d
00000010: 6ee6 853d bc2d 2dbd a648 083d a240 d3bd
00000020: 1a89 aa3c 1a40 52bd d5d4 813d 195e 193d
00000030: 01a0 933d 4fe8 f03c e18c 013d 71df 89bd
00000040: 40fb 6ebe 778c 923d d9e4 b43b 2f7b 533d
00000050: 2e97 77bd fd10 bc3d cb3d 8b3d e5a2 983d
00000060: 82e9 cebd 0a33 253d d7a7 3a3d f7d3 6c3d
00000070: 1166 6a3d 0e2d 593d 9638 c2bd 3920 813d
00000080: fe80 773d a797 583d a295 823d bfde acbd
00000090: ecef e3bd 6165 263d 018d 8cbd 244d 1f3d
000000a0: e396 5d3d eb71 d3bd 7ab8 2d3d c193 733d
000000b0: 7fd2 103d 46fb 293d e12a 8c3d 77d7 0b3d
000000c0: a3a6 293d ccc9 fbba f00b 86bd 8a0d 093d
000000d0: 3055 c1bd e184 2d3d 16b8 513d a6fb 063d
000000e0: 16d5 7e3d a3cd 003d bdc9 563d 70fe 373d
000000f0: 203e 153d eaf7 da3c d061 b23c 96f5 3f3d
00000100: 8787 7b3d 5dcb 5d3d 0203 26bd a4c2 be3d
00000110: 50a5 203d 9fba 1cbb 7563 393d 8f21 26bc
00000120: 2495 013d 7116 b73a 790c c03d f83b fc3c
00000130: dc0e a23d 553a b33c 6315 1f3d 4b3c 3f3c
00000140: 17a1 0cbd 517d 693d 1a7d 5a3d 4430 273d
00000150: f65f c73c 896a cb3d fcd9 af3d b341 a53d
00000160: fe2a 90bc 5de4 343d c84c 403d 7b6f 9e3d
00000170: e490 783d e82c 1d3d 23bb ab3c 3927 163d
00000180: deb4 a83a e285 733d f9ce 893d 02cc 3b3c
00000190: c041 e5bc 8698 673d 8a44 2fba e615 253d
000001a0: d3f2 173d f551 7d3c 871c 763d d587 2d3d
000001b0: a778 153d eee0 463d 058e 6b3d 743a 8f3c
000001c0: 933e b43c 579f 8bbc 691a 31bc 508a 1c3d
000001d0: 6c59 6fbd b502 3d3d 49eb 653d bb8b da3c
000001e0: 330b 9e3d aa2d d43c 9e3f 903d 63f9 603d
000001f0: fc00 e83c c8b3 ae3c 0d12 2b3d a885 2a3d
00000200: 8124 303d 96a9 883d 36a5 96bd fef5 cf3d
00000210: 9e93 5b3b 0bfd 543d 088b 853d ca51 54bd
00000220: 781e 8f3d a163 9abc ef88 aebb d47c 673d
00000230: 392e 053d f976 933d 9e13 6b3d 2adb d2bc
00000240: 7848 dbbd fca0 d23b 1592 8d3d 1601 fe3b
00000250: 151e 60bd 9bc0 e23d 6f72 023d ce41 2c3d
00000260: a771 0bbd b8be 6c3d 7007 843d 40ee 82bc
00000270: 0cd9 a43d f8ba 29bd d620 82bd 9af9 20bb
00000280: 61d7 253c 82e1 323c 6eec 6cbc 35a2 51bd
00000290: 1644 7ebd ab9c 2c3d 35f5 ab3c be4c 303d
000002a0: b82c c13d 665e 7ebd 80d7 37bc 9e4b 7f3c
000002b0: bf7b 703d de90 a73d f391 26bc 6b80 3a3d
000002c0: a038 7b3d a4cd 8e3d e69a a13d c717 7a3d
000002d0: 4e07 9fbc 4693 1c3a b37c 603d d86d 673d
000002e0: 4780 813d d18c 4e3d cbb3 0dbc 2227 863d
000002f0: dab6 473d fd97 883d 9bf6 7b3d a857 793d
00000300: 5e1a e23c 589d 063d 92f0 89bd f7ea d63d
00000310: 04e5 973c bb1d f83b 8400 6e3d c7cb 69bd
00000320: 3ff5 8e3d 2ab7 58bc ad51 9e3c b30d 553d
00000330: 3cfc 823c 36a0 793d 5191 803d cb2c bcbc
00000340: ed23 1ebe 583f db3c d2f0 c3bb 4160 e93c
00000350: dd7b 8a3d d66d aa3d ba28 c83b f700 593d
00000360: e997 2cbd a9a4 a13d 78d0 b03c e3a6 de3c
00000370: 692c 3d3d eb6f 963d f934 15bd 95cc 033d
00000380: a2ad d0bc 7894 ebbc 84ba 8eb9 5b40 163b
00000390: bd53 6abd be28 a03c 668b 43bd 47c2 7d3d
000003a0: 7b70 ab3d 7375 61bd f5ca 873d 736d 133d
000003b0: 8a04 c2bb e20a 2dbe d853 b83c 24b1 933d
000003c0: 86b0 8a3d 378f 913d 89b9 a0bd 9904 903d
000003d0: 1ebc 8c3d 67ce 553d fb34 de3c 614f 713d
000003e0: 6b50 b43d b565 853d e208 453d bf5e 33bc
000003f0: 3630 183d ec95 8d3d 4d07 603d 9662 413d
0.049561776 0.04552117 -0.06995737 0.093532026 0.065380916 -0.042279944 0.033272408 -0.10315062
0.020817328 -0.051330663 0.063394226 0.037443254 0.07208253 0.029407648 0.031628493 -0.06732071
-0.23338032 0.07155698 0.005520445 0.05163115 -0.06044691 0.09182928 0.067988954 0.07452945
-0.10103132 0.040331878 0.04557022 0.057819333 0.057226244 0.053021483 -0.09483449 0.06304974
0.06042575 0.052879002 0.063761964 -0.08440923 -0.11129746 0.040624026 -0.06862832 0.038891926
0.054098975 -0.103244625 0.04241226 0.05946708 0.035356995 0.0414994 0.06844116 0.03414103
0.041418683 -0.001920992 -0.06545246 0.033460177 -0.09440076 0.04236305 0.05120095 0.032954834
0.062214933 0.03144611 0.052438486 0.044920385 0.0364362 0.026729543 0.021775156 0.04686507
0.061408546 0.05414902 -0.040530212 0.093144685 0.039220154 -0.0023914946 0.045260865 -0.010139837
0.031636372 0.001396848 0.09377379 0.030790314 0.079129905 0.0218784 0.038838755 0.01167209
-0.034333315 0.057004277 0.053341962 0.040817514 0.02433775 0.09932429 0.08586499 0.08069172
-0.017598625 0.044163097 0.046948224 0.07736107 0.060685053 0.038372904 0.020963257 0.0366585
0.0012871285 0.059453852 0.0672893 0.0114622135 -0.027985454 0.056541942 -0.00066859333 0.040304087
0.03709681 0.015461435 0.0600858 0.042365868 0.036492016 0.048554353 0.057508487 0.017483927
0.022002494 -0.017043753 -0.010809519 0.038217843 -0.05843489 0.04614516 0.05613259 0.026677957
0.0771698 0.02590068 0.07043384 0.054925334 0.028320782 0.02132596 0.04176526 0.04163137
0.043003563 0.06672971 -0.0735573 0.10154341 0.0033504735 0.051999133 0.06520659 -0.051835813
0.06988233 -0.018846335 -0.0053263824 0.05651553 0.032514784 0.072004266 0.057391755 -0.025739271
-0.10707182 0.0064278822 0.069126286 0.0077515943 -0.05471619 0.11071893 0.031847414 0.042054944
-0.034043934 0.05779907 0.06446731 -0.015982747 0.08049211 -0.041438073 -0.06353919 -0.0024562837
0.010122151 0.010918023 -0.014460666 -0.051180083 -0.06207665 0.042141598 0.020990947 0.043041937
0.094323575 -0.062101744 -0.011220813 0.015581993 0.058711763 0.08181928 -0.010166633 0.045532625
0.0613333 0.069728166 0.07890873 0.061057832 -0.019412663 0.0005972873 0.054806422 0.05650124
0.06323295 0.05042726 -0.008648823 0.06550433 0.048758365 0.066696145 0.06151448 0.06087461
0.027600463 0.0328649 -0.06735338 0.10494035 0.01854182 0.0075719035 0.05810596 -0.057079103
0.06980371 -0.013227263 0.019326055 0.052015018 0.015989415 0.060943805 0.06277717 -0.022970578
-0.15443392 0.026763603 -0.0059796358 0.02848828 0.06761906 0.08321731 0.0061083706 0.052979436
-0.04213706 0.078927346 0.02158378 0.027179187 0.04618493 0.073455654 -0.03642747 0.032177527
-0.02547342 -0.028757319 -0.00027223316 0.0022926542 -0.057208765 0.019550677 -0.047740363 0.061952855
0.08371063 -0.05504365 0.06630508 0.03599305 -0.0059209513 -0.16898683 0.022500917 0.07211521
0.067719504 0.07107394 -0.07847888 0.07032127 0.06871818 0.052198794 0.027124872 0.058913592
0.08804401 0.0651354 0.048104174 -0.010947882 0.037155353 0.06913361 0.054694463 0.04721316

output.bias f4 [4]
00000000: 2451 ab3f f61d 963f 4e07 a03f ef06 a03f
1.3384137 1.1727893 1.2502229 1.2502116
