experiments/navigate_1316_18Oct22073150.pth (torch_old, 54660 bytes, 6 tensors)

hidden_layers.0.weight f4 [128, 37]
0.0013870521 -0.035153754 0.0031954998 -0.048004188 -0.039540716 -0.0018035728 0.02862461 0.06989824
0.20981774 0.27807626 -0.067090206 -0.010639672 -0.04867145 -0.050219793 -0.072799675 0.03785913
0.04289417 0.018965648 0.050680455 0.031491857 0.2725349 -0.5356054 -0.41108808 -0.31020066
-1.5708246 0.005636117 0.04495089 0.01934603 0.06067951 0.049549982 -0.06082748 0.11204228
0.016269434 -0.07969598 -0.174926 -0.0039368775 -0.00116913 0.082373135 -0.39058083 0.1465535
0.009638522 -0.36314425 -0.52814466 -0.24235067 0.07377272 -0.27748227 -0.80368143 -0.11325769
-0.15195967 0.03512429 -0.14640158 -0.0052839336 0.06207578 -0.21780062 -0.021503193 -0.31400326
-0.26947683 -0.27482262 -0.18520668 -0.14664961 -0.13362569 -0.20346282 -0.36131158 -0.049131602
0.14110199 -0.364462 -0.7072498 -0.01875714 -0.024411414 0.0305945 -0.2759764 -0.30772832
0.111949846 0.045665376 0.023249947 0.13341106 0.08984672 0.057634413 0.0015600257 -0.47450075
0.20116784 0.26568145 0.039544772 -0.66684353 -0.03782366 -0.017866876 0.034148697 -0.013549937
-0.0026629416 -0.16922806 0.10032246 0.13326137 -0.012619191 -0.007674588 -0.13718113 -0.00582524
0.14651261 -0.030270979 -0.11356117 -0.23463647 0.18633606 0.2124351 -0.20654805 -0.22903416
-0.18462192 -0.039194338 0.012408848 -0.20385167 -0.057837956 -0.00024675 -0.0005756996 0.043599296
0.080686115 0.077771194 0.11080777 -0.059003666 -0.11563513 0.024845634 0.040750526 0.12918557
0.2408731 0.012524328 -0.067800954 0.019809065 -0.063709445 -0.19408384 -0.05054754 -0.07989364
-0.072999656 -0.07100039 -0.038487833 0.14269125 -0.46866256 -0.09126236 -0.18396574 -0.8235541
0.00023220856 0.023800137 0.09834687 0.07429755 0.13539755 0.10482394 0.23826978 -0.1860679
-0.08874834 -0.4400854 0.16800106 0.011042609 -0.19200571 -0.109404214 -0.10021969 -0.07343389
0.09732709 -0.12599178 0.047388252 0.18048209 0.1722393 0.551829 -0.120640025 0.03456958
-0.03701133 -0.118256524 -0.2011625 -0.085499644 -0.11417954 -0.055082995 -0.02100019 0.117702216
-0.23184542 0.050954755 0.054322913 0.099385075 -0.08416565 -0.03323161 -0.073218025 0.090331264
0.21429397 0.31146398 -0.043356128 0.054854237 0.047913816 0.1610554 0.24714789 0.005010271
-0.009682865 0.019000197 -0.11840137 -0.026717113 0.028777437 0.060881004 -0.03421133 -0.03214794
0.09918509 -0.34922427 -1.609309 -0.01828053 0.02364959 -0.039025456 -0.34582087 -0.12101908
-0.07685244 0.03414071 0.028365342 -0.12607376 -0.15464567 0.09444323 0.017039774 0.06553865
-0.013247527 -0.19134638 -0.09014961 0.009462473 0.08328366 -0.18784161 -0.0860967 -0.03604649
-0.22681893 -0.032464575 -0.07812295 -1.0457579 -0.2132615 0.058065567 -0.025284661 0.014089431
0.009771812 -0.115018606 -0.110561006 -0.0982559 -0.17974038 0.00899105 -0.15364274 0.0087471455
0.061977368 0.07405982 0.02410957 0.02242127 -0.032765415 -0.23712873 -0.025968837 -0.0010146338
0.09368983 0.16510208 -0.17178017 0.017303795 0.10637824 -0.031381775 0.2137234 -0.13483018
-0.007892618 -0.0839449 -0.1260189 -0.01862885 0.15780132 -0.04795201 -0.2345747 -0.18240084
00000000: bfcd b53a 62fd 0fbd 976b 513b 0aa0 44bd
00000010: 72f5 21bd dc65 ecba 287e ea3c cf26 8f3d
00000020: 76da 563e 0360 8e3e 9766 89bd 0552 2ebc
00000030: b75b 47bd 45b3 4dbd ff17 95bd 2d12 1b3d
00000040: ccb1 2f3d d95d 9b3c 4f96 4f3d 9bfd 003d
00000050: b289 8b3e 6f1d 09bf 237a d2be 9fd2 9ebe
00000060: c810 c9bf 2daf b83b 6d1e 383d 917b 9e3c
00000070: 148b 783d ecf4 4a3d 3c26 79bd 6c76 e53d
00000080: 7a47 853c a537 a3bd cd1f 33be ec00 81bb
00000090: 7e3d 99ba 3fb3 a83d 36fa c7be 1f12 163e
000000a0: e4ea 1d3c 0bee b9be 7d34 07bf c62a 78be
000000b0: 2716 973d 2812 8ebe 11be 4dbf a6f3 e7bd
000000c0: 519b 1bbe 7dde 0f3d 4cea 15be d924 adbb
000000d0: 2c43 7e3d 2007 5fbe 7727 b0bc 09c5 a0be
000000e0: def8 89be 8db5 8cbe d2a6 3dbe 512b 16be
000000f0: 2cd5 08be 8f58 50be d5fd b8be 383e 49bd
00000100: 0a7d 103e c39a babe 530e 35bf 93a8 99bc
00000110: 72fa c7bc 51a1 fa3c c74c 8dbe 918e 9dbe
00000120: f645 e53d 9e0b 3b3d ac76 be3c e99c 083e
00000130: 8f01 b83d 1012 6c3d c779 cc3a c3f1 f2be
00000140: f1fe 4d3e 6607 883e b3f9 213d 42b6 2abf
00000150: fbec 1abd 8e5d 92bc 81df 0b3d 8e00 5ebc
00000160: bf84 2ebb 1f4a 2dbe dd75 cd3d ab75 083e
00000170: b9c0 4ebc 1c7b fbbb 3679 0cbe a8e1 bebb
00000180: 6707 163e d8fa f7bc c292 e8bd 8b44 70be
00000190: e1ce 3e3e 9688 593e 5581 53be ee87 6abe
000001a0: 870d 3dbe 3e8a 20bd 7b4e 4b3c 7ebe 50be
000001b0: 7ee7 6cbd 395e 81b9 8cea 16ba 2d95 323d
000001c0: c33e a53d 8146 9f3d 2fef e23d d4ad 71bd
000001d0: 1cd2 ecbd 1289 cb3c 06ea 263d 3949 043e
000001e0: 70a7 763e d732 4d3c 3adb 8abd 9f46 a23c
000001f0: 197a 82bd eabd 46be f00a 4fbd 479f a3bd
00000200: d880 95bd a768 91bd 6ba5 1dbd a81d 123e
00000210: 8af4 efbe c3e7 babd 8461 3cbe 71d4 52bf
00000220: 037d 7339 81f8 c23c 156a c93d 5029 983d
00000230: a8a5 0a3e efad d63d fefc 733e 9588 3ebe
00000240: b1c1 b5bd e052 e1be 7808 2c3e 0fec 343c
00000250: 259d 44be 510f e0bd fb3f cdbd 8264 96bd
00000260: 6d53 c73d fd03 01be 2f1a 423d 4cd0 383e
00000270: 805f 303e aa44 0d3f 1e12 f7bd d598 0d3d
00000280: 3199 17bd 7a30 f2bd 8bfd 4dbe 701a afbd
00000290: f6d6 e9bd b59e 61bd 9708 acbc dc0d f13d
000002a0: e368 6dbe efb5 503d b481 5e3d 678a cb3d
000002b0: 0a5f acbd de1d 08bd 55f3 95bd 99ff b83d
000002c0: e16f 5b3e 3578 9f3e 3296 31bd d6ae 603d
000002d0: 4741 443d b5eb 243e 5614 7d3e 332d a43b
000002e0: e1a4 1ebc 4da6 9b3c 6b7c f2bd d9dd dabc
000002f0: a9be eb3c 5c5e 793d 2e21 0cbd 8fad 03bd
00000300: 8d21 cb3d 86cd b2be d6fd cdbf 0dc1 95bc
00000310: c9bc c13c 28d9 1fbd 6f0f b1be dad8 f7bd
00000320: d064 9dbd 21d7 0b3d 6f5e e83c 7b19 01be
00000330: 6f5b 1ebe 746b c13d ff96 8b3c 2139 863d
00000340: 280c 59bc 4ef0 43be 5ca0 b8bd 7d08 1b3c
00000350: a090 aa3d 8d59 40be 7753 b0bd 7ca5 13bd
00000360: 3943 68be 93f9 04bd edfe 9fbd 65db 85bf
00000370: 3961 5abe 29d6 6d3d c721 cfbc 5bd7 663c
00000380: f319 203c e08e ebbd cf6d e2bd 643a c9bd
00000390: dd0d 38be 324f 133c 8654 1dbe 3050 0f3c
000003a0: fbdb 7d3d adac 973d 6f81 c53c d0ac b73c
000003b0: 0735 06bd e0d1 72be 99bc d4bc 76fd 84ba
000003c0: 74e0 bf3d 8510 293e 24e7 2fbe b0c0 8d3c
000003d0: d6dc d93d 2d8a 00bd 4fda 5a3e ec10 0abe
000003e0: 0a50 01bc 4eeb abbd 190b 01be 889b 98bc
000003f0: ab96 213e 5469 44bd 5a34 70be 49c7 3abe

hidden_layers.0.bias f4 [128]
-0.00031600383 -0.06718339 -0.060975965 -0.073158406 -0.09785973 -0.117516264 0.0065025906 -0.07184331
-0.3137197 -0.01883985 -0.1661613 -0.08996992 -0.08778614 -0.15615425 -0.17527679 -0.07664034
-0.037385777 -0.030165803 -0.18140143 -0.12066698 -0.12324636 0.05538063 0.0531575 -0.042444613
-0.06096587 0.11389645 0.08141607 -0.21193299 -0.12596783 -0.153612 -0.016324453 -0.03235954
-0.1632585 0.015370923 -0.017279563 -0.2043248 -0.088013135 0.0013116108 0.017891703 -0.06899021
-0.05631471 0.047752265 0.044040564 -0.059159193 -0.051789824 -0.09411993 0.015598536 -0.09996183
-0.19254427 0.10274694 -0.02448791 -0.020904198 0.06879355 0.03745527 -0.07221084 -0.0036790033
-0.20770743 -0.1590848 0.026161598 -0.19015194 -0.18197289 -0.005204657 0.08274482 -0.07913046
0.14020775 0.024443623 0.0041783927 -0.12611601 -0.23030621 -0.20251486 -0.053071037 -0.16555981
0.019056786 -0.16677693 -0.1999501 -0.063540906 0.118732244 -0.18130209 -0.027202781 0.01318114
-0.07247897 0.02659703 -0.034866072 -0.100385785 -0.107691355 0.045466147 0.10317411 -0.12470009
-0.049821816 -0.049813632 0.0639817 -0.16148537 -0.139699 -0.10474925 -0.08971609 0.060420267
-0.099422745 -0.17888291 -0.17704414 0.061474267 -0.17992531 -0.27029625 0.025907291 0.06459351
-0.2964191 -0.17931181 -0.09969433 0.046782665 -0.106616884 -0.1121341 0.06371802 -0.14973125
-0.121555276 -0.17018783 -0.032881074 0.012551956 -0.093550995 0.016988274 -0.0055071963 -0.15075618
-0.07295014 0.018905398 -0.09736081 -0.25508916 -0.07223392 0.007717027 0.0456824 -0.049598474
00000000: 51ad a5b9 7297 89bd efc1 79bd 13d4 95bd
00000010: af6a c8bd 5eac f0bd af13 d53b 9622 93bd
00000020: de9f a0be 0756 9abc 3026 2abe 2642 b8bd
00000030: 38c9 b3bd e6e6 1fbe c27b 33be 9cf5 9cbd
00000040: d421 19bd 461e f7bc 4cc1 39be 4020 f7bd
00000050: 9668 fcbd cdd6 623d aebb 593d 67da 2dbd
00000060: 59b7 79bd 8b42 e93d 78bd a63d f604 59be
00000070: b6fd 00be 774c 1dbe dcba 85bc 708b 04bd
00000080: 3c2d 27be 53d6 7b3c df8d 8dbc 853a 51be
00000090: 3b40 b4bd 5bea ab3a 9f91 923c bd4a 8dbd
000000a0: 41aa 66bd e197 433d e163 343d e950 72bd
000000b0: 9121 54bd f3c1 c0bd 0091 7f3c cab8 ccbd
000000c0: 532a 45be fd6c d23d df9a c8bc 483f abbc
000000d0: a2e3 8c3d b26a 193d 47e3 93bd 6f1b 71bb
000000e0: 42b1 54be 20e7 22be d950 d63c 31b7 42be
000000f0: 1a57 3abe d48b aabb 1e76 a93d 270f a2bd
00000100: 9f92 0f3e fe3d c83c e6ea 883b 8e24 01be
00000110: 64d5 6bbe 0e60 4fbe 0461 59bd 8388 29be
00000120: fa1c 9c3c 92c7 2abe b8bf 4cbe bc21 82bd
00000130: e429 f33d 41a7 39be 5ed8 debc b5f5 573c
00000140: db6f 94bd 04e2 d93c bacf 0ebd 1097 cdbd
00000150: 498d dcbd b63a 3a3d f34c d33d c362 ffbd
00000160: f611 4cbd 6109 4cbd d608 833d 6c5c 25be
00000170: 410d 0fbe c686 d6bd 12bd b7bd 3e7b 773d
00000180: 279e cbbd 152d 37be 0f4b 35be 71cc 7b3d
00000190: 573e 38be 4564 8abe 873b d43c 9a49 843d
000001a0: 3fc4 97be 849d 37be 8a2c ccbd 2e9f 3f3d
000001b0: f459 dabd 90a6 e5bd 987e 823d 2653 19be
000001c0: f9f1 f8bd b845 2ebe 4eae 06bd b8a6 4d3c
000001d0: aa97 bfbd fe2a 8b3c b675 b4bb d45f 1abe
000001e0: e266 95bd 7edf 9a3c 1b65 c7bd 0c9b 82be
000001f0: 61ef 93bd 1ddf fc3b 781d 3b3d c527 4bbd

hidden_layers.1.weight f4 [64, 128]
0.08051216 0.030341681 -0.06866338 0.111502506 -0.030537525 -0.005726512 0.17297055 0.001788808
0.021470772 0.0474405 3.6268226e-05 -0.014484396 0.16807988 0.02052684 0.032130443 0.1145932
0.059795257 0.07588962 -0.06292624 -0.20766735 0.14166988 -0.14899158 -0.06453474 -0.04724733
-0.03944849 0.008242178 -0.0038318653 -0.046022426 -0.07309189 -0.052560378 -0.12663175 -0.14307104
-0.0036811568 0.11763944 -0.0020958404 0.121927395 -0.010273368 -0.11827996 0.04604065 -0.064558275
0.22945704 -0.03755416 -0.16693352 -0.12519436 0.02690778 0.035984322 -0.017625257 -0.14282902
0.0004627988 0.029678691 0.15635863 0.07758134 0.023798116 -0.01855395 -0.008011488 -0.0071159843
0.19861762 -0.12204122 -0.032225523 0.037737206 -0.0916409 -0.07586541 -0.02402778 -0.056698605
0.011340447 0.05714788 0.1743797 -0.08567921 -0.02163212 -0.01802016 -0.0443196 -0.014893878
-0.056776907 -0.1209957 0.015490163 -0.049875706 -0.030349456 -0.03769105 -0.14705344 0.15051444
0.04212541 -0.019437728 -0.059721224 0.12648183 0.17771508 -0.06938873 0.1406635 -0.034467094
-0.16471946 -0.019102031 0.08130592 0.0102737015 -0.17066313 -0.3229683 0.088165306 -0.016783204
-0.13448521 -0.289046 -0.1093579 0.029871143 0.21270382 -0.26232484 -0.05404276 0.020995358
-0.0012094649 0.13605925 -0.10343732 -0.2516391 0.22043177 0.07419558 -0.0404837 -0.034065094
-0.003085949 -0.016163588 -0.052822363 -0.18746911 -0.03544449 -0.026109993 -0.052820995 -0.14299768
0.13415286 -0.08273062 0.20890468 -0.041015226 0.03353205 -0.007212106 0.073645204 0.031296484
0.13572557 -0.070585005 0.014750917 0.04215341 -0.058116145 -0.046198223 0.10249348 -0.20562609
0.06873523 0.10020718 0.051105604 -0.030670887 0.097747445 0.016864559 0.008126204 0.015112186
-0.084249884 0.048034262 -0.12342051 -0.2532736 -0.03122107 -0.028923696 -0.032277286 0.06887191
0.013669622 0.017852329 0.09576325 -0.07804997 0.10178382 -0.0391375 -0.12143644 -0.14387509
-0.178898 0.05218231 0.0075898594 0.12954327 -0.031766556 0.16719761 0.04756797 -0.028544677
0.230128 -0.00894292 -0.037934143 -0.041953273 0.004864274 0.013145246 -0.0031808626 0.0183096
-0.015714347 0.08202122 0.14384513 0.08629812 0.10552742 -0.082588226 -0.059729878 0.016570121
-0.071197964 -0.03206991 0.091332614 -0.19435327 -0.021023028 -0.022167422 -0.025963904 0.10188297
0.076224186 0.1317025 0.25914228 -0.0053724335 0.06056005 -0.071758 -0.008313518 -0.020305729
0.0028783346 -0.19039765 0.02692012 0.029256402 0.07941862 -0.0992088 -0.0760692 0.13825637
0.037650235 -0.0024120347 -0.18044986 -0.09644357 0.08785685 -0.026582194 0.10568149 0.005494208
0.12462479 0.01718611 0.025507651 -0.10491187 -0.15072805 -0.20253055 -0.01271634 0.032056797
-0.19527769 -0.16269583 -0.050891824 0.111301996 0.07621337 -0.25302172 0.15926588 0.040807903
-0.08660619 0.11878859 -0.009242608 -0.22262776 0.10540711 -0.041015778 -0.017606854 0.0022315788
0.01846288 -0.007071113 0.116620235 -0.115195654 -0.10553094 -0.022590488 0.095671 -0.1668281
0.03169735 0.08825991 0.1924812 -0.01750475 0.092695005 -0.12041432 -0.0046264445 0.030677795
00000000: 8fe3 a43d 1e8f f83c 639f 8cbd 6d5b e43d
00000010: d529 fabc 77a5 bbbb 311f 313e 7076 ea3a
00000020: 79e3 af3c f850 423d b61e 1838 f64f 6dbc
00000030: 221d 2c3e e727 a83c 369b 033d d7af ea3d
00000040: dfeb 743d 046c 9b3d 79df 80bd c0a6 54be
00000050: e911 113e 4091 18be ca2a 84bd 6b86 41bd
00000060: bd94 21bd 330a 073c 0820 7bbb 0382 3cbd
00000070: 33b1 95bd 8d49 57bd c1ab 01be 3781 12be
00000080: 903f 71bb f2ec f03d 5e5a 09bb 12b5 f93d
00000090: a151 28bc c33c f2bd 1f95 3c3d 2137 84bd
000000a0: c9f6 6a3e 64d2 19bd 9ff0 2abe f332 00be
000000b0: b46d dc3c 4c64 133d d862 90bc c541 12be
000000c0: cea3 f239 ba20 f33c 7a1c 203e f7e2 9e3d
000000d0: 44f4 c23c 74fe 97bc 9e42 03bc 342d e9bb
000000e0: 6b62 4b3e bff0 f9bd e9fe 03bd 5492 1a3d
000000f0: 39ae bbbd 535f 9bbd e8d5 c4bc cc3c 68bd
00000100: 48cd 393c e513 6a3d 9890 323e 9578 afbd
00000110: d835 b1bc 049f 93bc 7888 35bd 7405 74bc
00000120: e78e 68bd 98cc f7bd 74ca 7d3c 784a 4cbd
00000130: 6c9f f8bc ee61 1abd 2d95 16be 7520 1a3e
00000140: b28b 2c3d df3b 9fbc 3e9e 74bd 7484 013e
00000150: f1fa 353e ae1b 8ebd 180a 103e 5e2d 0dbd
00000160: 38ac 28be dd7b 9cbc b883 a63d 0753 283c
00000170: 51c2 2ebe 1a5c a5be 0390 b43d ee7c 89bc
00000180: 7eb6 09be d6fd 93be 09f7 dfbd 54b4 f43c
00000190: 08cf 593e 714f 86be f15b 5dbd 75fe ab3c
000001a0: e886 9eba 1e53 0b3e f2d6 d3bd d7d6 80be
000001b0: deb8 613e daf3 973d 3cd2 25bd d787 0bbd
000001c0: a23d 4abb 8069 84bc 435c 58bd e7f7 3fbe
000001d0: 3e2e 11bd a0e4 d5bc d45a 58bd fc6d 12be
000001e0: 5e5f 093e ac6e a9bd 1ceb 553e 95ff 27bd
000001f0: e758 093d 8853 ecbb 4cd3 963d be30 003d
00000200: a5fb 0a3e df8e 90bd d5ad 713c 0ea9 2c3d
00000210: 320b 6ebd 593a 3dbd 1ae8 d13d a58f 52be
00000220: 0ec5 8c3d 6c39 cd3d 1c54 513d 8341 fbbc
00000230: d02f c83d 8b27 8a3c c523 053c 1a99 773c
00000240: 348b acbd 93bf 443d e4c3 fcbd 14ad 81be
00000250: 54c3 ffbc 63f1 ecbc 3035 04bd b70c 8d3d
00000260: 8df6 5f3c 0c3f 923c 861f c43d aad8 9fbd
00000270: 0974 d03d a54e 20bd abb3 f8bd fe53 13be
00000280: 0a31 37be 1ebd 553d 5bb4 f83b fea6 043e
00000290: a61d 02bd da35 2b3e a2d6 423d 87d6 e9bc
000002a0: ada6 6b3e 5385 12bc d560 1bbd 32d7 2bbd
000002b0: 7d64 9f3b 285f 573c 0576 50bb 04fe 953c
000002c0: 60bb 80bc befa a73d 234c 133e 12bd b03d
000002d0: c31e d83d 0424 a9bd 51a7 74bd 10be 873c
000002e0: 3dd0 91bd bd5b 03bd 980c bb3d 8b04 47be
000002f0: 7c38 acbc 7498 b5bc 41b2 d4bc 05a8 d03d
00000300: 6d1b 9c3d 05dd 063e 4cae 843e 3d0b b0bb
00000310: d10d 783d dcf5 92bd 6c35 08bc 3358 a6bc
00000320: 71a2 3c3b 9af7 42be 9587 dc3c 1fab ef3c
00000330: 3ba6 a23d fc2d cbbd 2bca 9bbd 1493 0d3e
00000340: 2237 1a3d 3a13 1ebb d9c7 38be 3584 c5bd
00000350: 4bee b33d e7c2 d9bc 896f d83d c208 b43b
00000360: 483b ff3d e3c9 8c3c 6cf5 d03c 09dc d6bd
00000370: 7458 1abe 2b64 4fbe 3258 50bc fd4d 033d
00000380: e0f6 47be bc99 26be f273 50bd 4df2 e33d
00000390: c115 9c3d 108c 81be 9816 233e 3026 273d
000003a0: 965e b1bd 6f47 f33d 4f6e 17bc 88f8 63be
000003b0: afdf d73d 2900 28bd 403c 90bc ae3f 123b
000003c0: 773f 973c ccb4 e7bb 97d6 ee3d b3eb ebbd
000003d0: 9b20 d8bd b00f b9bc 28ef c33d fcd4 2abe
000003e0: 15d5 013d 9dc1 b43d cb19 453e 1f66 8fbc
000003f0: e1d6 bd3d c89b f6bd 6e99 97bb 0050 fb3c

hidden_layers.1.bias f4 [64]
0.21876799 0.18763381 0.1416248 0.22944973 0.28348216 -0.1561469 0.12970917 0.074498095
0.1598248 0.19306637 0.02039504 0.14263627 -0.15292752 0.22663207 0.13482334 -0.113445945
0.099207446 0.21976963 0.23792204 -0.1594283 -0.13685404 0.2622214 0.22852196 0.23886426
-0.0563654 0.15910819 0.27985108 0.20691659 0.17846774 -0.0080859605 0.26647547 0.26056713
0.11915266 0.2934913 0.2694845 0.0740111 -0.13437562 0.17363988 0.079132676 0.23920736
0.26765934 0.23861605 0.023937752 0.24476896 0.2880415 0.1705668 0.26251704 0.22157311
0.17887802 0.06520645 0.12925486 0.113660514 -0.16273922 0.2576982 0.28111488 0.24018161
0.16567867 0.18024842 0.28507182 0.26943624 0.2996871 0.22010067 0.13231567 0.18889299
00000000: b704 603e 1423 403e 1706 113e dff4 6a3e
00000010: 9324 913e f9e4 1fbe 7bd2 043e 7592 983d
00000020: 1da9 233e 31b3 453e 8013 a73c 3e0f 123e
00000030: 0899 1cbe 3d12 683e 210f 0a3e 5956 e8bd
00000040: 462d cb3d 4a0b 613e d6a1 733e 2c41 23be
00000050: 7723 0cbe e241 863e a901 6a3e d598 743e
00000060: 68df 66bd 42ed 223e a448 8f3e f1e1 533e
00000070: 3fc0 363e fa7a 04bc 796f 883e 0e69 853e
00000080: 4f06 f43d 7e44 963e dff9 893e 2293 973d
00000090: c399 09be a7ce 313e 5010 a23d c6f2 743e
000000a0: a50a 893e c457 743e 1b19 c43c b7a4 7a3e
000000b0: 2d7a 933e 10a9 2e3e a268 863e 10e4 623e
000000c0: cd2b 373e f68a 853d 635b 043e d8c6 e83d
000000d0: 1ca5 26be 05f1 833e 4aee 8f3e 2bf2 753e
000000e0: aba7 293e 0b93 383e eff4 913e 8cf3 893e
000000f0: 9670 993e 1262 613e c27d 073e 2a6d 413e

output.weight f4 [4, 64]
0.0426293 0.039458044 0.03897206 0.091117695 0.05936685 -0.0183332 0.043244455 -0.0670188
0.044953708 0.053506993 0.070947215 0.04510459 0.017368266 0.04149017 0.043628503 0.04582109
-0.09859366 0.06406882 0.08709268 0.022047283 -0.04076524 0.065542005 0.050389595 0.061983936
-0.108752616 -0.070126876 0.06276412 0.041879926 0.048031423 -0.110516265 0.07829708 0.055722155
-0.04770243 0.05685384 0.059954982 -0.048806142 -0.0038883411 0.034843136 -0.06460074 0.10025463
0.07333961 0.04944192 -0.03623516 0.072119966 0.062169064 0.04083634 0.05045188 0.056135736
0.03867776 -0.035231054 -0.09334222 0.034348223 -0.08565844 0.041356113 0.06932444 0.04901549
0.04150729 0.03536251 0.056201693 0.06387493 0.06532105 0.042031404 0.04531049 0.04833736
0.031162342 0.03106277 0.0068486864 0.1027744 0.06816956 0.017064143 0.07071411 0.001565488
0.030823756 0.06838281 -0.08690403 0.026227528 0.0792668 0.06317725 0.08205682 -0.067875214
-0.036370445 0.04946896 0.063679084 0.027947819 -0.05321129 0.04528521 0.037088163 0.060249597
-0.05692654 -0.016314184 0.05749889 0.055849332 0.044770163 -0.07549525 0.06456294 0.05360713
-0.018651418 0.06331091 0.053188134 0.018584324 -0.057881225 0.041008193 0.004747727 0.07899911
0.064116485 0.095532246 0.04062086 0.08437074 0.042295113 0.051173452 0.06774893 0.044936366
0.044813238 0.0040645516 -0.0046145786 0.013597869 -0.015881307 0.016246255 0.073034234 0.043353777
0.06154177 0.030361557 0.05542592 0.07531293 0.047186814 0.0599369 0.05780961 0.02886905
0.059206203 0.06481624 0.06130211 0.076142475 0.057894368 0.055564642 0.05879848 -0.028962199
0.05906111 0.06995692 -0.20688544 0.05948579 -0.0062536667 0.07392394 0.056486145 0.0051498385
-0.02073032 0.08657546 0.04578719 -0.043743975 0.022701396 0.039521735 0.053211123 0.04403003
-0.20763643 -0.05096155 0.029248485 -0.15150636 0.07669343 -0.18038599 0.058731005 0.042469133
-0.0134825 -0.029176198 0.034435425 -0.021342281 0.015112093 0.04894993 -0.03527841 0.12642294
0.04393184 -0.22054441 0.045232173 0.048379555 0.024360536 0.055471223 0.0060247965 0.08175648
0.014241883 -0.12528244 -0.04360168 0.061780848 -0.041109346 -0.003658984 0.028847435 0.065166295
0.059067324 0.062635824 0.021571282 0.0078040417 0.032981556 0.046254206 0.06711242 0.02642622
-0.035122335 0.040832374 0.051077757 0.108460166 0.0038539618 0.0145843215 0.07411307 -0.047947988
0.055347435 0.06586356 -0.06543877 0.049671974 -0.092563786 0.070542224 0.05396194 0.03012626
-0.083676055 0.07839026 0.054331254 0.05175062 0.104446776 0.041950777 0.058744512 0.047536585
-0.103951626 -0.048146307 0.07183624 0.06468587 0.055578746 -0.08079432 0.027480325 0.029719135
-0.027699947 0.022962637 0.018754315 -0.037077148 -0.0917046 0.049445756 -0.03156957 0.11550301
0.036254298 -0.3478705 0.01924253 0.07314958 -0.0020681133 0.05576216 0.03999976 0.069802485
0.050563697 0.074323095 -0.053165823 0.0628105 0.056567714 0.052957453 0.038121976 0.012009022
0.05006444 0.04857005 0.018159188 0.07449495 0.016073195 0.057274505 0.06050379 0.052019864
00000000: 109c 2e3d c29e 213d 2ba1 1f3d ea9b ba3d
00000010: a72a 733d 822f 96bc 1921 313d 2741 89bd
00000020: 6121 383d 262a 5b3d c64c 913d 97bf 383d
00000030: e547 8e3c 99f1 293d cdb3 323d e5ae 3b3d
00000040: 79eb c9bd 8336 833d a65d b23d 819c b43c
00000050: 74f9 26bd e33a 863d 5265 4e3d dee2 7d3d
00000060: b1b9 debd ae9e 8fbd 7a8a 803d 498a 2b3d
00000070: 99bc 443d 5a56 e2bd 385a a03d ea3c 643d
00000080: a063 43bd 92df 683d 5b93 753d f3e8 47bd
00000090: 8ad3 7ebb adb7 0e3d 654d 84bd 4d52 cd3d
000000a0: 1433 963d 9c83 4a3d 526b 14bd a2b3 933d
000000b0: fda4 7e3d 0244 273d a1a6 4e3d 96ee 653d
000000c0: 926c 1e3d 704e 10bd 352a bfbd b9b0 0c3d
000000d0: b16d afbd 0765 293d f9f9 8d3d 77c4 483d
000000e0: 8c03 2a3d 47d8 103d bf33 663d dcd0 823d
000000f0: 0bc7 853d 1f29 2c3d 7e97 393d 65fd 453d
00000100: 2b48 ff3c 5a77 fe3c f26a e03b 627b d23d
00000110: 7b9c 8b3d 1aca 8b3c 8fd2 903d 1031 cd3a
00000120: 1a82 fc3c 490c 8c3d bdfa b1bd 1ddb d63c
00000130: a256 a23d 1363 813d 680d a83d 2902 8bbd
00000140: 2df9 14bd f79f 4a3d 2e6a 823d d3f2 e43c
00000150: 15f4 59bd fc7c 393d c2e9 173d 48c8 763d
00000160: ce2b 69bd 53a5 85bc f583 6b3d 45c2 643d
00000170: eb60 373d 419d 9abd 9339 843d 2693 5b3d
00000180: dcca 98bc 26a9 813d cddb 593d 273e 983c
00000190: dd14 6dbd 35f8 273d d292 9b3b 49ca a13d
000001a0: 814f 833d 69a6 c33d 0f62 263d 91ca ac3d
000001b0: a43d 2d3d 419b 513d f3bf 8a3d 320f 383d
000001c0: 168e 373d ee2f 853b e435 97bb 99c9 5e3c
000001d0: 8419 82bc de16 853c f992 953d bb93 313d
000001e0: 3913 7c3d cdb8 f83c 4a06 633d aa3d 9a3d
000001f0: f646 413d 6580 753d c5c9 6c3d c97e ec3c
00000200: 3482 723d 60be 843d ec17 7b3d 96f0 9b3d
00000210: a522 6d3d c097 633d add6 703d 2242 edbc
00000220: 10ea 713d 9345 8f3d c7d9 53be 5fa7 733d
00000230: 8feb ccbb 6f65 973d 045e 673d fabf a83b
00000240: a2d2 a9bc 7a4e b13d 598b 3b3d e22c 33bd
00000250: 47f8 b93c 8be1 213d e8f3 593d d558 343d
00000260: a59e 54be 0fbd 50bd 859a ef3c 7c24 1bbe
00000270: 7211 9d3d 1bb7 38be ec8f 703d 1df4 2d3d
00000280: b4e5 5cbc ec02 efbc 290c 0d3d 02d6 aebc
00000290: b698 773c b97f 483d 1880 10bd 0475 013e
000002a0: e0f1 333d 65d6 61be 5f45 393d a429 463d
000002b0: bf8f c73c cb35 633d a86b c53b f16f a73d
000002c0: c956 693c 0a4a 00be ad97 32bd ea0d 7d3d
000002d0: 4662 28bd 91cb 6fbb 7551 ec3c e875 853d
000002e0: 94f0 713d 3647 803d 42b6 b03c 0cb9 ff3b
000002f0: ab17 073d 0d75 3d3d 3d72 893d cd7b d83c
00000300: 70dc 0fbd d93f 273d e936 513d 5d20 de3d
00000310: c092 7c3b 14f3 6e3c 98c8 973d 1c65 44bd
00000320: feb3 623d 79e3 863d c304 86bd d774 4b3d
00000330: 1592 bdbd 7178 903d 3207 5d3d 59cb f63c
00000340: 5a5e abbd 138b a03d 738a 5e3d 75f8 533d
00000350: 31e8 d53d 94d4 2b3d 169e 703d b9b5 423d
00000360: 97e4 d4bd 1035 45bd e11e 933d 077a 843d
00000370: 8aa6 633d 7e77 a5bd 6b1e e13c 8b75 f33c
00000380: 00eb e2bc 241c bc3c a6a2 993c 35de 17bd
00000390: 9fcf bbbd a287 4a3d 184f 01bd d88c ec3d
000003a0: 637f 143d 151c b2be 83a2 9d3c 72cf 953d
000003b0: 2f89 07bb dd66 643d cad6 233d 9bf4 8e3d
000003c0: e11b 4f3d b536 983d 68c4 59bd cba2 803d
000003d0: 8cb3 673d eae9 583d ca25 1c3d 7dc1 443c
000003e0: 5f10 4d3d 64f1 463d 94c2 943c cf90 983d
000003f0: efab 833c ac98 6a3d d2d2 773d c812 553d

output.bias f4 [4]
1.315328 1.1899029 1.2646524 1.2630938
00000000: ab5c a83f bd4e 983f 21e0 a13f 0fad a13f
