experiments/navigate_1326_18Oct22073200.pth (torch_old, 54660 bytes, 6 tensors)

hidden_layers.0.weight f4 [128, 37]
0	0xbc695442	-0.01424128
1	0xbc65d4da	-0.014027799
2	0xbc0c6da9	-0.008571067
3	0xbd0cf1fe	-0.03441047
4	0xbcf5cf0d	-0.030005956
5	0x3bf56911	0.0074893315
6	0x3c6fbb4c	0.014632057
7	0x3d8f7da3	0.07006385
8	0x3e4cb2b6	0.19990048
9	0x3e86e3e7	0.2634575
10	0xbd64398a	-0.055718936
11	0xbca9c383	-0.02072311
12	0xbd5fe928	-0.054665715
13	0xbd5640cb	-0.052307885
14	0xbd94cb90	-0.07265389
15	0x3d0df810	0.0346604
16	0x3d561a6a	0.052271284
17	0x3c7bd606	0.015370851
18	0x3d51be47	0.051206853
19	0x3d225aa4	0.039637223
20	0x3e8c2356	0.2737071
21	0xbf091d6f	-0.5356054
22	0xbed27a23	-0.41108808
23	0xbea34921	-0.3189173
24	0xbfcb6e7c	-1.5893092
25	0x3c403e38	0.011733584
26	0x3d33e974	0.04392381
27	0x3c45d2ae	0.012074156
28	0x3d841d6c	0.06450924
29	0x3d4d4557	0.050114956
30	0xbd590b45	-0.052989263
31	0x3dd75b2d	0.10515437
32	0x3cc673cf	0.024225144
33	0xbdc8ac3a	-0.097984746
34	0xbe3839ec	-0.17990845
35	0xbc6a58c1	-0.014303387
36	0x3b753919	0.0037418066
37	0x3d99129e	0.07474254
38	0xbec7fa36	-0.39058083
39	0x3e1dafc8	0.15399086
40	0xbb8f38e1	-0.004370794
41	0xbebd1238	-0.36927962
42	0xbf07347d	-0.52814466
43	0xbe782ac6	-0.24235067
44	0x3d8b1ff3	0.06793203
45	0xbe8e1115	-0.27747408
46	0xbf4e9f6a	-0.80711997
47	0xbdf4f059	-0.11959905
48	0xbe171dc1	-0.14757444
49	0x3ce3fb8a	0.027829904
50	0xbe0d6cb4	-0.13810998
51	0xbbfe534f	-0.007761396
52	0x3d42730a	0.04747299
53	0xbe5f0720	-0.21780062
54	0xbc604dab	-0.0136903925
55	0xbea0c509	-0.31400326
56	0xbe8e627d	-0.27809516
57	0xbe8a4214	-0.2700354
58	0xbe3e94c5	-0.18611439
59	0xbe1aea74	-0.151285
60	0xbe1541ba	-0.14575854
61	0xbe4e257b	-0.20131485
62	0xbeb8fdd5	-0.36131158
63	0xbd493e38	-0.049131602
64	0x3e0a6c91	0.13517977
65	0xbeba9ac3	-0.364462
66	0xbf388916	-0.72084177
67	0xbc9e66a0	-0.019336045
68	0xbcc83644	-0.024439938
69	0x3cb90c26	0.0225888
70	0xbe8d4cc7	-0.2759764
71	0xbe9e70ef	-0.30945536
72	0x3de21999	0.110400386
73	0x3d181e4c	0.03713827
74	0x3cbc00d8	0.022949621
75	0x3e01c303	0.12672047
76	0x3dc04b60	0.09389377
77	0x3d55a1c5	0.05215623
78	0xbb925335	-0.0044654855
79	0xbef2f1c3	-0.47450075
80	0x3e569827	0.20956479
81	0x3e83c975	0.25739637
82	0x3d165106	0.036698364
83	0xbf2ed34b	-0.6829116
84	0xbd40b957	-0.047051754
85	0xbc933ecb	-0.017974278
86	0x3ced9f95	0.029006759
87	0xba4dde47	-0.00078532513
88	0xbc4c0c66	-0.012454128
89	0xbe323f6f	-0.1740701
90	0x3dcb3fb6	0.09924261
91	0x3e090da9	0.13384117
92	0xbc467d45	-0.0121148275
93	0xbbfc877f	-0.007706582
94	0xbdfcf9fa	-0.12352367
95	0xbc305be3	-0.010764095
96	0x3e0f95aa	0.14021936
97	0xbd21b070	-0.039474905
98	0xbdce5f34	-0.10076752
99	0xbe744848	-0.23855698
100	0x3e44596b	0.19174735
101	0x3e5403f1	0.20704629
102	0xbe5125d9	-0.20424594
103	0xbe75ad3b	-0.23991863
104	0xbe37b6d2	-0.17940834
105	0xbd29cc05	-0.041454334
106	0x3917807a	0.00014448343
107	0xbe4999b2	-0.19687536
108	0xbd8b6a4f	-0.06807386
109	0xbaefa194	-0.0018282407
110	0xbb65b856	-0.00350525
111	0x3d115104	0.035477653
112	0x3dbad22c	0.09122118
113	0x3d8c2be5	0.0684431
114	0x3de5fb43	0.11229565
115	0xbd40eb32	-0.0470993
116	0xbdf6a966	-0.12044029
117	0x3cc6f1d9	0.024285244
118	0x3d5ae755	0.05344327
119	0x3df55895	0.11979786
120	0x3e796768	0.24355853
121	0xbbacd303	-0.005274178
122	0xbd5c5a7a	-0.053797223
123	0x3cada42f	0.021196453
124	0xbd3e97d1	-0.046531502
125	0xbe37d2c1	-0.1795149
126	0xbd7e6cd1	-0.062115494
127	0xbd98fc45	-0.074699916
128	0xbd83d454	-0.06436983
129	0xbd99a3d6	-0.07501952
130	0xbce4b02e	-0.02791604
131	0x3e0d5eb8	0.13805664
132	0xbef2d2b8	-0.4742639
133	0xbda9814e	-0.08276616
134	0xbe3d5bf2	-0.18492106
135	0xbf501011	-0.81274515
136	0xbbd2b9ec	-0.006430855
137	0x3cae8e70	0.021308154
138	0x3dd46577	0.103709154
139	0x3d9ef836	0.07762186
140	0x3e128fd6	0.14312682
141	0x3dceafc9	0.10092122
142	0x3e766946	0.24063596
143	0xbe3c5a0e	-0.18393728
144	0xbdb3c0c0	-0.087769985
145	0xbee2d438	-0.44302535
146	0x3e321bdd	0.17393441
147	0x3ba63a96	0.005072902
148	0xbe3b4983	-0.18289761
149	0xbde06f7b	-0.10958763
150	0xbdc571bf	-0.09640836
151	0xbdb066a7	-0.086133294
152	0x3dcd30e1	0.100190885
153	0xbdfdf250	-0.12399733
154	0x3d4e1026	0.05030837
155	0x3e392da3	0.18083815
156	0x3e24dce9	0.16099896
157	0x3f0ce8ea	0.550429
158	0xbdff02be	-0.12451695
159	0x3d2ba2b4	0.041903213
160	0xbd290587	-0.041265037
161	0xbdf30099	-0.11865348
162	0xbe4fa77c	-0.20278734
163	0xbda5e330	-0.08099973
164	0xbdfcf067	-0.123505406
165	0xbd4cb8bb	-0.04998086
166	0xbcb8b5fd	-0.022547716
167	0x3de5a29b	0.11212655
168	0xbe6b63c3	-0.22987275
169	0x3d9284a8	0.071542084
170	0x3d24bd35	0.040219504
171	0x3db69319	0.089147754
172	0xbd8fe2f3	-0.07025709
173	0xbd177d1d	-0.03698455
174	0xbd8e28bc	-0.06941363
175	0x3dbc95fa	0.09208293
176	0x3e5edd6c	0.21764153
177	0x3ea243a6	0.31692237
178	0xbd4e854b	-0.050420087
179	0x3d827f57	0.063719444
180	0x3d4d0fd5	0.050063927
181	0x3e205ebe	0.15661141
182	0x3e82a1d1	0.2551408
183	0xba973992	-0.0011537543
184	0xbba5d926	-0.0050612865
185	0x3c86731d	0.016412312
186	0xbdf7b1c1	-0.12094451
187	0xbcdd362b	-0.027003368
188	0x3d02cb97	0.03193244
189	0x3d59c297	0.05316409
190	0xbd1a19c0	-0.037622213
191	0xbd1ea7ba	-0.038734175
192	0x3dd5cd4c	0.10439548
193	0xbeaee079	-0.34155634
194	0xbfcf6b95	-1.6204706
195	0xbca5103f	-0.020149348
196	0x3d1b6b56	0.03794416
197	0xbd65fd98	-0.05615005
198	0xbeb23aa4	-0.34810364
199	0xbdd9c08e	-0.1063243
200	0xbd9fb19b	-0.077975474
201	0x3cd23df7	0.025664313
202	0x3d33f8e8	0.043938547
203	0xbe124ff8	-0.14288318
204	0xbe1ddc9a	-0.15416184
205	0x3dbef11c	0.09323332
206	0x3c39daa6	0.011343634
207	0x3d859a5d	0.06523583
208	0xbc0c202c	-0.008552592
209	0xbe3c7ef2	-0.18407801
210	0xbdb7fd30	-0.089838386
211	0x3b5f52a1	0.003407635
212	0x3da701fc	0.08154675
213	0xbe3df71e	-0.18551299
214	0xbdaa46da	-0.08314295
215	0xbd17d68c	-0.037069842
216	0xbe6b4626	-0.22975978
217	0xbd1cdcc3	-0.038296472
218	0xbd9b5bd7	-0.075858764
219	0xbf864622	-1.0490153
220	0xbe4ba0e4	-0.19885594
221	0x3d70c75c	0.058783874
222	0xbcef4149	-0.029205935
223	0x3c570844	0.013124529
224	0x3c0620d0	0.008186534
225	0xbdd31565	-0.10306815
226	0xbdf02c81	-0.117272384
227	0xbdc825d2	-0.09772839
228	0xbe3836f3	-0.17989711
229	0x3c8b24a3	0.016985243
230	0xbe3a6521	-0.1820264
231	0x3c8a98b9	0.016918527
232	0x3d91d0c1	0.07119895
233	0x3d90931e	0.070593104
234	0x3cb3a1f5	0.021927813
235	0x3cb65a7d	0.022259945
236	0xbd1389ad	-0.03601997
237	0xbe726d2f	-0.23674463
238	0xbcc94870	-0.024570674
239	0xbb9fac36	-0.004872824
240	0x3dc8c264	0.09802702
241	0x3e26e13d	0.16296859
242	0xbe26c85d	-0.1628737
243	0x3c9a957b	0.018870106
244	0x3dc9cfd1	0.09854091
245	0xbc7a3ae1	-0.015272827
246	0x3e59b265	0.21259458
247	0xbe0ba574	-0.13637334
248	0xbbeb0dd8	-0.007173281
249	0xbd9caf8a	-0.07650669
250	0xbe0d3c7d	-0.13792606
251	0xbc8f384e	-0.017482903
252	0x3e2246e8	0.15847361
253	0xbd44fde2	-0.048093684
254	0xbe785397	-0.24250637
255	0xbe331d5c	-0.17491668

hidden_layers.0.bias f4 [128]
0	0x3a36c9d3	0.0006972823
1	0xbd956560	-0.07294726
2	0xbd805264	-0.06265715
3	0xbd9b85fe	-0.07593916
4	0xbdc6729f	-0.09689831
5	0xbdf50189	-0.119631834
6	0x3be4093b	0.006959108
7	0xbd996dec	-0.07491669
8	0xbea09fde	-0.3137197
9	0xbca7c04e	-0.02047744
10	0xbe29e080	-0.16589546
11	0xbdb510c3	-0.08841088
12	0xbdba5261	-0.09097744
13	0xbe1fd572	-0.15608767
14	0xbe362d28	-0.17790663
15	0xbd837cd6	-0.06420295
16	0xbd24bdc2	-0.04022003
17	0xbd092e83	-0.033491623
18	0xbe3a231a	-0.18177453
19	0xbdedcc4f	-0.116112344
20	0xbe007545	-0.12544735
21	0x3d49ee03	0.04929925
22	0x3d428c3c	0.04749702
23	0xbd26cfc1	-0.040725473
24	0xbd7c7055	-0.061630566
25	0x3e02e6e4	0.1278339
26	0x3dac7901	0.08421517
27	0xbe5904f6	-0.21193299
28	0xbe01d6f2	-0.12679651
29	0xbe1a5a6f	-0.1507356
30	0xbc014d4c	-0.007891964
31	0xbd09cd8c	-0.03364329
32	0xbe229ef7	-0.15880953
33	0x3c99f868	0.018795207
34	0xbca91e2e	-0.020644274
35	0xbe547e9c	-0.20751423
36	0xbd965be7	-0.07341748
37	0x3c2243bf	0.009903847
38	0x3c893dcc	0.0167531
39	0xbd956994	-0.07295528
40	0xbd624aef	-0.055247243
41	0x3d33f34b	0.043933194
42	0x3d4b0799	0.049567793
43	0xbd6d0a58	-0.057871193
44	0xbd50a75f	-0.050940868
45	0xbdc84f6d	-0.09780774
46	0x3c77468f	0.015092506
47	0xbdcf93ca	-0.101356104
48	0xbe448132	-0.19189909
49	0x3dc9580a	0.09831245
50	0xbcaa10d6	-0.020759981
51	0xbca65cfc	-0.02030801
52	0x3d993748	0.07481247
53	0x3d196cb9	0.0374572
54	0xbd93e2e2	-0.07221009
55	0xb9b8d501	-0.00035253915
56	0xbe54d2e9	-0.20783581
57	0xbe2a587b	-0.16635315
58	0x3cc8eab7	0.024525983
59	0xbe51da65	-0.20493467
60	0xbe3a2baf	-0.18180726
61	0xbb87c5a8	-0.0041434355
62	0x3dabef87	0.083952956
63	0xbd979353	-0.07401147
64	0x3e12922a	0.1431357
65	0x3cb10244	0.021607526
66	0xbb73f547	-0.0037225054
67	0xbe012f8b	-0.12615792
68	0xbe6bd564	-0.23030621
69	0xbe572c12	-0.21012905
70	0xbd51cb33	-0.051219177
71	0xbe2d226d	-0.16907664
72	0x3c9ab24b	0.018883845
73	0xbe24ca25	-0.16092737
74	0xbe4cbfb8	-0.1999501
75	0xbd8a2892	-0.067460194
76	0x3defd048	0.11709648
77	0xbe33e5e6	-0.17568168
78	0xbd33375d	-0.04375397
79	0x3c814f31	0.015784832
80	0xbd930db9	-0.07180352
81	0x3cf30161	0.029663743
82	0xbcfda9d7	-0.030964775
83	0xbdc2ee34	-0.0951809
84	0xbddbaab7	-0.10725921
85	0x3d378bbd	0.044811
86	0x3dcc215d	0.09967301
87	0xbe035f4c	-0.12829322
88	0xbd434471	-0.047672693
89	0xbd4ef475	-0.0505261
90	0x3d854d6c	0.06508908
91	0xbe211058	-0.15728891
92	0xbe0e9446	-0.1392375
93	0xbde0ecd1	-0.10982669
94	0xbdb2b652	-0.08726181
95	0x3d4e82bf	0.050417658
96	0xbdcd0245	-0.100101985
97	0xbe4167cf	-0.18887256
98	0xbe3af9a2	-0.1825929
99	0x3d702084	0.05862476
100	0xbe349294	-0.1763404
101	0xbe893bc6	-0.26803416
102	0x3cb590b8	0.022163734
103	0x3d996d0c	0.07491502
104	0xbea43583	-0.32072076
105	0xbe3063c9	-0.17225565
106	0xbdc95696	-0.09830968
107	0x3d36f5d3	0.04466803
108	0xbddb9005	-0.10720829
109	0xbde5a690	-0.1121341
110	0x3d88e701	0.066846855
111	0xbe195326	-0.14973125
112	0xbdf59fb7	-0.11993354
113	0xbe33df32	-0.17565611
114	0xbd0e5eaa	-0.034758247
115	0x3b8ccdae	0.00429698
116	0xbdb2a8fb	-0.08723637
117	0x3ca3a3b7	0.019975526
118	0xbb9df805	-0.004820826
119	0xbe0c6096	-0.1370872
120	0xbd91cfbb	-0.071196996
121	0x3c493409	0.012280473
122	0xbddcea90	-0.10786927
123	0xbe842efe	-0.25817102
124	0xbda3dff4	-0.080017
125	0x3be44958	0.006966751
126	0x3d3b1d78	0.0456824
127	0xbd577eca	-0.05261115

hidden_layers.1.weight f4 [64, 128]
0	0x3dc66e95	0.096890606
1	0x3cf977e4	0.030452676
2	0xbd6ffc17	-0.05859002
3	0x3dec25b4	0.11530629
4	0xbd0a31ca	-0.03373889
5	0xbc4a0647	-0.012330598
6	0x3e2ae992	0.16690663
7	0x3711b6c0	8.685223e-06
8	0x3cafe379	0.021470772
9	0x3d5f4c35	0.054516036
10	0x3bf6d0c9	0.0075322133
11	0xbc4bb405	-0.012433057
12	0x3e309e9c	0.17248005
13	0x3c676c6f	0.014124974
14	0x3cdac033	0.026702976
15	0x3df6279b	0.12019273
16	0x3d489a22	0.048975118
17	0x3d9bb897	0.07603567
18	0xbd54db12	-0.051966734
19	0xbe5b78ae	-0.21432754
20	0x3e14fa2c	0.14548558
21	0xbe167fea	-0.14697233
22	0xbd82c1f3	-0.06384649
23	0xbd37bc3c	-0.04485725
24	0xbd00faa1	-0.03148902
25	0x3c439158	0.011936508
26	0x3b332052	0.0027332497
27	0xbd3c8203	-0.046022426
28	0xbd987f89	-0.074462004
29	0xbd3945a9	-0.04523245
30	0xbdfc771c	-0.12327406
31	0xbe1480fe	-0.14502332
32	0x3c2dc21a	0.010605359
33	0x3dfd6649	0.12373025
34	0xbb8eea61	-0.0043614362
35	0x3df3b52c	0.1189979
36	0xbc974445	-0.01846517
37	0xbdde6708	-0.108594954
38	0x3d4569d8	0.048196644
39	0xbd8a1373	-0.06741991
40	0x3e6f8c85	0.23393448
41	0xbcf12552	-0.029436741
42	0xbe19089f	-0.14944695
43	0xbde48b62	-0.11159398
44	0x3ccd1d8a	0.0250385
45	0x3ca6c47e	0.020357367
46	0xbca436d9	-0.020045685
47	0xbe168bc1	-0.1470175
48	0xbbcf0231	-0.0063174
49	0x3d101864	0.03517951
50	0x3e220358	0.15821588
51	0x3da2859d	0.07935641
52	0x3d2ad011	0.041702334
53	0xbc7b4f82	-0.01533878
54	0x3b31b6ac	0.0027116938
55	0xbc7e9e0e	-0.015540613
56	0x3e4b2270	0.19837356
57	0xbe0c417a	-0.13696852
58	0xbd20a54c	-0.03922014
59	0x3d22219c	0.039582834
60	0xbda0f6ad	-0.0785955
61	0xbd8767c8	-0.066115916
62	0xbc90ecb5	-0.017690996
63	0xbd45def9	-0.048308346
64	0x3c69007a	0.014221305
65	0x3d755a6c	0.059900686
66	0x3e3a575a	0.18197384
67	0xbd99d532	-0.07511367
68	0xbcb135d8	-0.02163212
69	0xbca0780b	-0.019588491
70	0xbd4b12ab	-0.04957835
71	0xbc0cdcc4	-0.0085975565
72	0xbd464f21	-0.048415307
73	0xbe0747da	-0.13211003
74	0x3c7dca74	0.015490163
75	0xbd534fdc	-0.05158983
76	0xbcfb4b43	-0.030675536
77	0xbd1a2597	-0.037633505
78	0xbdfc0424	-0.12305477
79	0x3e2ffe22	0.17186788
80	0x3d1f3779	0.038871262
81	0xbc81d3ee	-0.015848126
82	0xbd52fd33	-0.051511
83	0x3e063db2	0.13109472
84	0x3e335796	0.1751388
85	0xbd8de357	-0.06928127
86	0x3e1964e3	0.14979891
87	0xbcd1971c	-0.02558475
88	0xbe2537c8	-0.1613456
89	0xbcb64ee4	-0.022254415
90	0x3da24214	0.0792276
91	0x3ba529f2	0.0050404007
92	0xbe2608dd	-0.16214319
93	0xbea379b7	-0.319288
94	0x3da76903	0.08174326
95	0xbc4380ed	-0.011932594
96	0xbe00531b	-0.12531702
97	0xbe91abe8	-0.28451467
98	0xbddd18ed	-0.1079577
99	0x3cdbc4fb	0.026827326
100	0x3e5e1f28	0.21691573
101	0xbe722b22	-0.23649266
102	0xbd7f3f7b	-0.0623164
103	0x3cdc41d2	0.026886854
104	0xb92bfec6	-0.00016402741
105	0x3e0cac2b	0.13737552
106	0xbdc4d352	-0.09610619
107	0xbe870568	-0.26371312
108	0x3e6b243d	0.22963043
109	0x3d97f3da	0.07419558
110	0xbd25c5ec	-0.040471956
111	0xbd0b87d7	-0.034065094
112	0xbbd6fa41	-0.0065605943
113	0xbc4a88b8	-0.012361698
114	0xbd56dad1	-0.052454773
115	0xbe3e0142	-0.18555167
116	0xbd25f1ae	-0.040513687
117	0xbc9ca711	-0.019122632
118	0xbd487943	-0.04894377
119	0xbe150267	-0.14551698
120	0x3e106374	0.14100438
121	0xbdbe69c0	-0.09297514
122	0x3e58efde	0.21185252
123	0xbd1038f1	-0.035210554
124	0x3ce683ec	0.028139077
125	0xb9c72f34	-0.00037991407
126	0x3d96d34c	0.073645204
127	0x3d0140e6	0.031556033
128	0x3e067139	0.13129129
129	0xbd6c5798	-0.057700723
130	0x3ca42fb3	0.020042276
131	0x3d00a8cf	0.03141099
132	0xbd6353d6	-0.055499874
133	0xbd438870	-0.04773754
134	0x3de293fc	0.11063382
135	0xbe48f8ad	-0.19626112
136	0x3d8cc50e	0.06873523
137	0x3dd727bf	0.10505628
138	0x3d5d8ff3	0.05409236
139	0xbd117e7e	-0.035521023
140	0x3ddd6386	0.10809998
141	0x3bb98937	0.0056621092
142	0xbc641eca	-0.013923356
143	0x3c0ad01c	0.008472469
144	0xbdb6c6cb	-0.089246355
145	0x3d2a1a1b	0.041528802
146	0xbdeb7c9b	-0.11498376
147	0xbe7bb849	-0.24582018
148	0xbd1c4788	-0.038154155
149	0xbc08b32e	-0.008343501
150	0xbcacbfbc	-0.02108752
151	0x3dacf95e	0.084460005
152	0x3c206437	0.009789518
153	0x3c9e458e	0.019320276
154	0x3dc5ff52	0.09667839
155	0xbd9fd8aa	-0.07804997
156	0x3dd381a4	0.10327461
157	0xbd186c7b	-0.03721283
158	0xbe04ee3e	-0.12981507
159	0xbe174a96	-0.14774546
160	0xbe2ca7cc	-0.16860884
161	0x3d30033b	0.04297183
162	0x3c0bb845	0.00852782
163	0x3e02b54f	0.12764476
164	0xbd351026	-0.044204853
165	0x3e376236	0.17908558
166	0x3d39c96e	0.045358114
167	0xbce4a4f1	-0.027910681
168	0x3e745633	0.23861007
169	0xbc3e17ac	-0.0116023235
170	0xbd1ad2bf	-0.03779864
171	0xbd157eae	-0.036497764
172	0x3bb74455	0.0055928626
173	0x3c978750	0.01849714
174	0xb98e6107	-0.00027156642
175	0x3c8ab92b	0.016933998
176	0xbc285896	-0.010275027
177	0x3daa0da7	0.08303385
178	0x3e16f72f	0.1474273
179	0x3db3b002	0.08773805
180	0x3dd6473b	0.10462805
181	0xbd85faf7	-0.06542008
182	0xbd7143fb	-0.05890272
183	0x3c74e11e	0.01494625
184	0xbd91d03d	-0.071197964
185	0xbcf39113	-0.029732263
186	0x3db42c52	0.08797516
187	0xbe4595cb	-0.19295423
188	0xbc917bc9	-0.01775922
189	0xbca73cbf	-0.020414708
190	0xbcd793df	-0.026315628
191	0x3de79821	0.11308313
192	0x3d9e6045	0.07733206
193	0x3df8840a	0.121345595
194	0x3e7bd649	0.24593462
195	0xbbfac444	-0.007652791
196	0x3d780dd1	0.06056005
197	0xbd6a8d25	-0.057263512
198	0xbc5c7677	-0.013455979
199	0xbcef6166	-0.029221248
200	0x3aa1f9e8	0.0012357803
201	0xbe3d6743	-0.18496422
202	0x3cdc8795	0.02692012
203	0x3ce5a8a0	0.028034508
204	0x3da472cd	0.08029709
205	0xbdc6f737	-0.09715121
206	0xbd84de2f	-0.06487691
207	0x3e12b37e	0.14326283
208	0x3ccf51dc	0.025307588
209	0xbb8df82e	-0.004332564
210	0xbe423668	-0.18966067
211	0xbdb2200f	-0.08697521
212	0x3da4e7bf	0.080520146
213	0xbcf2c09f	-0.029632865
214	0x3dc982a0	0.09839368
215	0x3bf26d98	0.0073983185
216	0x3df3d13f	0.11905145
217	0x3b7021d1	0.003664125
218	0x3cd69cf0	0.02619788
219	0xbddc9f15	-0.1077253
220	0xbe12f384	-0.14350706
221	0xbe3d6015	-0.18493684
222	0xbbd744ba	-0.006569472
223	0x3d11ecb2	0.03562612
224	0xbe41070a	-0.18850341
225	0xbe1ba6c5	-0.15200336
226	0xbd3f803c	-0.046753153
227	0x3df19b7b	0.11797234
228	0x3d79da4b	0.060999196
229	0xbe865d5b	-0.262431
230	0x3e24450b	0.16041963
231	0x3d5e5578	0.054280728
232	0xbd99a8e9	-0.0750292
233	0x3defed3a	0.11715169
234	0x3d0afc9d	0.033932317
235	0xbe64bcfc	-0.22337717
236	0x3de8e0a8	0.11370975
237	0xbd280029	-0.041015778
238	0xbc9144b8	-0.017732963
239	0x3b123fae	0.0022315788
240	0x3cf5497b	0.029942265
241	0x3ad8e438	0.0016547507
242	0x3df646de	0.120252356
243	0xbdf759bf	-0.120776646
244	0xbdca7d2f	-0.09887158
245	0xbbbd3ad9	-0.0057748375
246	0x3dd14fac	0.10220274
247	0xbe27534e	-0.16340372
248	0x3cfb753c	0.03069555
249	0x3db4d2e9	0.088292904
250	0x3e3e9c13	0.18614225
251	0xbcac484b	-0.021030566
252	0x3db291ba	0.087192014
253	0xbdf92788	-0.12165743
254	0xbb97996e	-0.0046264445
255	0x3d15a0c2	0.036530264

hidden_layers.1.bias f4 [64]
0	0x3e65ebc4	0.22453219
1	0x3e421963	0.18954997
2	0x3e129181	0.14313318
3	0x3e677d39	0.22606362
4	0x3e94e7b1	0.29083017
5	0xbe1fe4f9	-0.1561469
6	0x3dfcf2b0	0.123509765
7	0x3da0a406	0.07843785
8	0x3e25e172	0.16199282
9	0x3e470483	0.19435315
10	0x3cea7fad	0.028625334
11	0x3e0ab436	0.13545308
12	0xbe1c9908	-0.15292752
13	0x3e6a2db9	0.22869004
14	0x3e07b9d8	0.13254488
15	0xbde85659	-0.113445945
16	0x3ddcfcd3	0.1079041
17	0x3e639197	0.22223507
18	0x3e7a6a11	0.24454524
19	0xbe23412c	-0.1594283
20	0xbe0c2377	-0.13685404
21	0x3e8e263e	0.2776355
22	0x3e6a8e0a	0.22905746
23	0x3e6a4a3e	0.22879884
24	0xbd66812a	-0.056275524
25	0x3e233a16	0.15940127
26	0x3e89146f	0.26773402
27	0x3e55bdc7	0.20873176
28	0x3e32c015	0.17456086
29	0x3c8b0ee4	0.016974874
30	0x3e80e457	0.2517421
31	0x3e872e9d	0.2640275
32	0x3e045dad	0.1292636
33	0x3e978189	0.29591015
34	0x3e89a98d	0.2688717
35	0x3da16dff	0.07882308
36	0xbe0999c3	-0.13437562
37	0x3e2cdf00	0.16881943
38	0x3da107f8	0.07862848
39	0x3e7beea4	0.24602753
40	0x3e8766fc	0.26445758
41	0x3e74ca91	0.23905398
42	0x3cae8acf	0.021306423
43	0x3e7ff86c	0.24997109
44	0x3e944176	0.28956193
45	0x3e2dc756	0.16970572
46	0x3e86c1c4	0.26319706
47	0x3e61b48b	0.22041528
48	0x3e3e1234	0.18561631
49	0x3d829033	0.0637516
50	0x3e0f870f	0.14016365
51	0x3df47d47	0.11937957
52	0xbe26a51c	-0.16273922
53	0x3e7e745e	0.24849078
54	0x3e8f4611	0.27983144
55	0x3e760372	0.24024752
56	0x3e2d4168	0.16919482
57	0x3e31ffca	0.17382732
58	0x3e93b99d	0.2885255
59	0x3e881121	0.26575568
60	0x3e984c6a	0.297458
61	0x3e60b3cc	0.21943587
62	0x3e025637	0.12728201
63	0x3e345f66	0.17614517

output.weight f4 [4, 64]
0	0x3d435349	0.04768685
1	0x3d1e0236	0.038576327
2	0x3d136480	0.035984516
3	0x3dc478c7	0.09593349
4	0x3d79cb14	0.060984686
5	0xbc962f82	-0.0183332
6	0x3d1641a8	0.03668371
7	0xbd864c08	-0.065574706
8	0x3d2a1189	0.04152063
9	0x3d51c0a1	0.051209096
10	0x3da03646	0.07822852
11	0x3d1f9ea8	0.038969666
12	0x3c8e47e5	0.017368266
13	0x3d25a7af	0.04044312
14	0x3d2efefe	0.04272365
15	0x3d3baee5	0.04582109
16	0xbdc910ce	-0.09817658
17	0x3d73f144	0.05955626
18	0x3dbd7a31	0.09251822
19	0x3cb49c81	0.022047283
20	0xbd26f974	-0.04076524
21	0x3da4b7f1	0.080428965
22	0x3d558589	0.052129302
23	0x3d528daa	0.051404633
24	0xbddde85b	-0.10835334
25	0xbd93e935	-0.07222215
26	0x3d6c39e4	0.057672396
27	0x3d4b2cc3	0.049603235
28	0x3d2de64d	0.04245596
29	0xbdc86c71	-0.097863086
30	0x3d813387	0.06308656
31	0x3d5d4252	0.054018326
32	0xbd4fd052	-0.05073578
33	0x3d6e014f	0.058106717
34	0x3d7955b8	0.060872763
35	0xbd69b07e	-0.05705308
36	0xbb7ed38a	-0.0038883411
37	0x3d0ff4aa	0.03514544
38	0xbd8d7c60	-0.06908488
39	0x3de0ddc6	0.109798
40	0x3d88f2b6	0.066869184
41	0x3d570fb0	0.052505195
42	0xbd01fb0c	-0.031733558
43	0x3d9c6562	0.07636525
44	0x3d785013	0.06062324
45	0x3d212f0c	0.039351508
46	0x3d4b4e88	0.04963544
47	0x3d71f8e8	0.059075266
48	0x3d473a8e	0.048639826
49	0xbd233100	-0.039841652
50	0xbdb4a43d	-0.088203885
51	0x3d1eb64e	0.038748078
52	0xbdaf6db1	-0.08565844
53	0x3d0e3f1e	0.034728162
54	0x3d8ba1e6	0.06817989
55	0x3d398fbe	0.0453031
56	0x3d4b1a4a	0.049585618
57	0x3d218c76	0.039440595
58	0x3d69cf10	0.057082236
59	0x3d7b3593	0.06133039
60	0x3d8945f4	0.067027956
61	0x3d215e85	0.03939678
62	0x3d2a2330	0.041537464
63	0x3d12c7c1	0.03583503
64	0x3d055ad1	0.032557312
65	0x3cbb4032	0.02285776
66	0x3c6382c6	0.013886159
67	0x3dda5d9a	0.10662384
68	0x3d9143cf	0.070930116
69	0x3c8bca1a	0.017064143
70	0x3d80f64c	0.062969774
71	0xbb41b8d3	-0.0029559627
72	0x3cd8ecf2	0.026480172
73	0x3d64b136	0.055833064
74	0xbdbd9a87	-0.092579894
75	0x3ce1237f	0.027482746
76	0x3da256a2	0.0792668
77	0x3d65d03f	0.056106802
78	0x3d98d39c	0.07462236
79	0xbd8b0229	-0.067875214
80	0xbd3ac53b	-0.04559825
81	0x3d327623	0.043569695
82	0x3d828875	0.06373683
83	0x3ce4f2d3	0.027947819
84	0xbd59f415	-0.05321129
85	0x3d478fd6	0.048721157
86	0x3d13637d	0.03598355
87	0x3d524c1b	0.05134211
88	0xbd7fd555	-0.06245931
89	0xbc876999	-0.016529845
90	0x3d6c58c1	0.05770183
91	0x3d8487ff	0.06471252
92	0x3d16efcc	0.036849782
93	0xbda39e14	-0.079891354
94	0x3d89d3e0	0.06729865
95	0x3d342028	0.04397598
96	0xbcb8f367	-0.022577
97	0x3d6a3b60	0.05718553
98	0x3d801a30	0.06254995
99	0x3cb2696b	0.021778783
100	0xbd6d14dd	-0.057881225
101	0x3d169610	0.036764205
102	0x3ba0e36f	0.0049099247
103	0x3dbe514b	0.09292849
104	0x3d653df2	0.05596728
105	0x3dc6608b	0.09686383
106	0x3cd1c3dd	0.02560609
107	0x3db4892f	0.08815228
108	0x3d53b2bb	0.051684123
109	0x3d42d4eb	0.047566336
110	0x3d7a0696	0.061041437
111	0x3cf4e831	0.029895874
112	0x3d131e2e	0.035917453
113	0xbc23a434	-0.00998788
114	0xbcabb947	-0.02096237
115	0x3c749095	0.014927049
116	0xbc821984	-0.015881307
117	0x3c3912a5	0.011295949
118	0x3d845dcc	0.06463203
119	0x3d1d6a2e	0.03843134
120	0x3d22da09	0.039758716
121	0x3cb49ad0	0.022046477
122	0x3d7840dd	0.060608733
123	0x3d6bb3bf	0.057544466
124	0x3d581fd6	0.052764736
125	0x3d710021	0.058838014
126	0x3d588576	0.052861653
127	0x3cc730f2	0.024315331
128	0x3d673aae	0.056452446
129	0x3d817110	0.06320393
130	0x3d6f2806	0.05838778
131	0x3d8a6e01	0.06759263
132	0x3d82234a	0.06354387
133	0x3d6397c0	0.055564642
134	0x3d744df8	0.05964467
135	0xbce8a32c	-0.028398119
136	0x3d4f2d1a	0.05058012
137	0x3d91e93c	0.07124564
138	0xbe51f622	-0.20504048
139	0x3d4900ca	0.049073018
140	0xbbcceb8f	-0.0062536667
141	0x3da87a89	0.08226497
142	0x3d821176	0.06350987
143	0x3ba8bffa	0.0051498385
144	0xbc8fa789	-0.017535942
145	0x3dcc9223	0.09988811
146	0x3d6bcdc5	0.057569284
147	0xbd332ce2	-0.043743975
148	0x3cb9f847	0.022701396
149	0x3d1f090a	0.03882698
150	0x3d881935	0.06645433
151	0x3d26e0e2	0.04074181
152	0xbe50019e	-0.20313117
153	0xbd5e0484	-0.054203525
154	0x3cf17b13	0.029477632
155	0xbe15da36	-0.14634022
156	0x3d91e531	0.07123793
157	0xbe5684ad	-0.2094905
158	0x3d42aa9c	0.047525987
159	0x3d3b89a1	0.04578555
160	0xbcbb4b92	-0.022863183
161	0xbd02be09	-0.031919513
162	0x3d11f69d	0.03563558
163	0xbcc80a75	-0.024419049
164	0x3c7798b6	0.015112093
165	0x3d608c53	0.054821324
166	0xbd072dba	-0.033002593
167	0x3e0431c2	0.12909606
168	0x3d0dea3a	0.034647204
169	0xbe682e19	-0.22673835
170	0x3d526ec9	0.051375184
171	0x3d3e5306	0.046465896
172	0x3c9d5fb1	0.019210668
173	0x3d6a0a7d	0.05713891
174	0x3c9ebdb0	0.01937756
175	0x3da5b965	0.08092002
176	0x3cb96701	0.022632124
177	0xbe00b7a3	-0.12570052
178	0xbd4ac667	-0.049505617
179	0x3d839daf	0.0642656
180	0xbd286246	-0.041109346
181	0x3b95b6ec	0.004568925
182	0x3c7465cf	0.014916851
183	0x3d817eff	0.06323051
184	0x3d8013dc	0.06253788
185	0x3d423072	0.047409482
186	0x3cf14a2b	0.029454311
187	0x3cbac401	0.02279854
188	0x3cec8e45	0.028876433
189	0x3d2ef24a	0.042711534
190	0x3d9a5a8f	0.07536804
191	0x3cca9ef5	0.024734
192	0xbd324ab5	-0.043528277
193	0x3d35e84f	0.044411
194	0x3d7886ba	0.06067536
195	0x3dbc19d7	0.09184616
196	0x3c473458	0.012158476
197	0x3c6ef314	0.0145843215
198	0x3d889943	0.06669857
199	0xbd5d6aae	-0.054056816
200	0x3d6adf6a	0.05734197
201	0x3d817a82	0.06322195
202	0xbd70cff9	-0.05879209
203	0x3d7dd453	0.061970066
204	0xbdbd9215	-0.092563786
205	0x3d84f58b	0.06492146
206	0x3d5a990e	0.05336862
207	0x3cf6cb59	0.03012626
208	0xbdab6e62	-0.08370663
209	0x3db2cbfc	0.08730313
210	0x3d79050d	0.060795832
211	0x3d53f875	0.05175062
212	0x3dd5e831	0.104446776
213	0x3d04b03e	0.03239464
214	0x3d70cbd2	0.05878813
215	0x3d3cef4a	0.04612664
216	0xbdefa043	-0.11700489
217	0xbd1aa55d	-0.03775536
218	0x3d745f56	0.059661232
219	0x3d6b6422	0.05746854
220	0x3d74c619	0.059759233
221	0xbda24481	-0.07923222
222	0x3d0a0351	0.03369457
223	0x3d2bed00	0.041974068
224	0xbcced7bd	-0.025249356
225	0x3cbc3fb4	0.022979595
226	0x3ca4228d	0.020036006
227	0xbd1971a9	-0.03746191
228	0xbdbbcf9f	-0.0917046
229	0x3d2add25	0.041714806
230	0xbcfcc3bb	-0.03085505
231	0x3dec7b72	0.11546983
232	0x3d12b4cb	0.03581695
233	0xbeaf8ade	-0.34285635
234	0x3c9b891c	0.018986277
235	0x3d8c355b	0.06846114
236	0x3aced653	0.0015780426
237	0x3d46ef72	0.048568197
238	0x3d0a77a8	0.03380552
239	0x3d8d9d9b	0.069148265
240	0x3d6c0089	0.057617698
241	0x3d8f8995	0.070086636
242	0xbd70a2ae	-0.058748893
243	0x3d7828cb	0.06058578
244	0x3d67b38c	0.056567714
245	0x3d3f7969	0.046746645
246	0x3d3ba8b4	0.045815185
247	0x3bb410ba	0.005495158
248	0x3d2d10c8	0.042252332
249	0x3d2bfdd3	0.041990113
250	0x3ca40b6c	0.020024978
251	0x3d8d8c1f	0.069114916
252	0x3c86445f	0.016390024
253	0x3d80ec39	0.06295056
254	0x3d43e9df	0.04783046
255	0x3d35a700	0.044348717

output.bias f4 [4]
0	0x3faac081	1.3339998
1	0x3f9a0b35	1.203467
2	0x3fa3fc8c	1.2811446
3	0x3fa2825a	1.269603
