experiments/navigate_1411_18Oct22075816.pth (torch_old, 54660 bytes, 6 tensors)

hidden_layers.0.weight f4 [128, 37]
0.1921232 -0.38494068 -0.37251586 -0.3709902 -1.0524573 0.0056046713 0.015870938 0.09456427
0.13958716 0.17633684 -0.041427653 -0.08747208 -0.0960997 -0.10864064 0.012655985 0.038912762
0.08761522 -0.01517281 -0.11342008 -0.16729628 0.092610195 0.054920096 0.09191667 0.044628516
0.02358174 0.0057783024 0.026964316 0.000949804 -0.024268927 0.022642016 0.002776643 0.032081276
-0.030024054 0.037946235 -0.04593899 -0.015734982 0.0097750425 0.06612425 0.089007616 0.110975936
0.07684287 0.018083923 0.1067556 -0.5283978 -0.39630708 -0.47838977 -1.4557264 0.012472721
-0.0058882735 0.015681472 0.032228436 0.058427185 0.021795774 0.018674348 0.066674024 0.077088855
0.043504603 -0.094838016 -0.09676994 -0.061803304 -0.07015339 0.05323891 -0.05109115 -0.02152513
-0.013678907 0.012997321 0.09197805 0.036640525 0.099189445 0.0935142 0.104069054 0.014979682
0.006956133 -0.0018433233 0.08936213 0.08642533 0.08795778 0.075706266 -0.024071168 -0.41214487
0.1617631 0.23301962 0.2391673 -0.25610173 -0.011405523 -0.0064095585 0.028269853 -0.010897668
-0.005822607 -0.068243854 0.061285894 0.06999541 0.13270815 0.087247945 -0.5809208 0.12641868
0.048450265 0.030200342 -0.23765868 -0.01394452 0.030666165 0.099981636 0.05890024 0.10418796
-0.20502919 0.010567809 -0.012614814 -0.016211575 0.11619003 0.024877863 -0.013377341 0.30332065
-0.34255558 -0.20623119 -0.17530791 -1.111983 -0.04267041 0.012839696 0.01881884 0.109986454
0.12108141 -0.038928658 0.02629332 -0.07614032 -0.022155464 -0.11330441 -0.025774738 0.03476072
-0.10484691 -0.20162156 -0.3928189 0.026487703 -0.050515097 -0.0065113464 0.096035674 0.063189715
-0.052304097 0.04581385 0.024393812 0.1543015 0.13480322 0.079728544 0.11277644 0.020046068
0.043695126 -0.0006263954 0.014582885 0.008166724 -0.25243834 -0.021190336 -0.16918735 -0.2431473
-0.34563944 -0.17507987 0.004351582 0.0112477485 -0.15867415 -0.8099688 -0.069032356 -0.13998513
-0.050365947 -0.26456225 -0.079377666 -0.49151704 -0.032887932 0.083980784 -0.20155473 -0.6112464
-0.15922284 -0.0551359 0.047560364 -0.20412241 0.05574699 -0.22428447 -0.20327456 0.21273866
-0.06889241 -1.0442665 -0.06887199 -0.32323262 0.10781635 -0.2775229 -0.11960024 0.13099794
0.034012325 -0.017007621 -0.05036566 -0.008215066 0.0016377859 0.092383005 0.22278161 -0.107436396
-0.23968355 -0.25480726 -1.598094 -0.04129884 -0.042741153 -0.058938745 -0.10588554 -0.028451834
-0.026673222 0.015540685 0.0136798285 -0.028928397 0.00040047 0.12344948 0.07363131 0.10118586
0.061850525 0.019170733 0.007853706 0.0028989436 -0.0065351175 -0.01343242 0.06584756 0.064361155
-0.11500406 -0.13360846 0.088588566 -0.7032428 0.011153313 -0.002941055 -0.07947609 0.00015308059
0.0072587566 -0.053304523 0.060777225 -0.38926238 0.098779514 0.03842372 0.14649658 0.20945024
-0.0007786033 0.11588626 0.07906345 -0.035374872 -0.023146952 -0.09389772 -0.07960453 0.0023391044
-0.02274499 0.28538078 -0.22908442 -0.0036760624 0.064414054 -0.0026168071 0.09639879 -0.33727068
0.007107054 -0.02079725 0.04734045 0.145228 -0.28234953 0.10974436 0.13540316 0.10484527
00000000: f2bb 443e f216 c5be 66ba bebe 6df2 bdbe
00000010: ecb6 86bf 64a7 b73b c503 823c e9aa c13d
00000020: f0ef 0e3e a591 343e 0bb0 29bd 9024 b3bd
00000030: ebcf c4bd fc7e debd 0c5b 4f3c fd62 1f3d
00000040: 9c6f b33d 6197 78bc c948 e8bd b74f 2bbe
00000050: 6aaa bd3d e5f3 603d cf3e bc3d 64cc 363d
00000060: 7e2e c13c ea57 bd3b 45e4 dc3c 44fc 783a
00000070: a1cf c6bc c07b b93c 57f8 353b a867 033d
00000080: 01f5 f5bc 836d 1b3d 862a 3cbd a6e6 80bc
00000090: 8027 203c 276c 873d a049 b63d 5a47 e33d
000000a0: cb5f 9d3d bc24 943c aea2 da3d 1445 07bf
000000b0: c3e8 cabe 81ef f4be 3e55 babf 625a 4c3c
000000c0: 6bf2 c0bb 6e76 803c f701 043d 5851 6f3d
000000d0: 0d8d b23c f2fa 983c 648c 883d c3e0 9d3d
000000e0: e231 323d 6f3a c2bd 512f c6bd 7625 7dbd
000000f0: 95ac 8fbd 0b11 5a3d f444 51bd 7855 b0bc
00000100: 7f1d 60bc b7f2 543c fd5e bc3d 6014 163d
00000110: d623 cb3d 5f84 bf3d 2822 d53d 576d 753c
00000120: 46f0 e33b ab9b f1ba 7e03 b73d c3ff b03d
00000130: 3523 b43d e30b 9b3d e630 c5bc a704 d3be
00000140: 3aa5 253e b29c 6e3e 46e8 743e c41f 83be
00000150: 3bde 3abc 4607 d2bb 2e96 e73c 228c 32bc
00000160: 91cb bebb 6fc3 8bbd eb06 7b3d c159 8f3d
00000170: a5e4 073e 0daf b23d 3ab7 14bf e673 013e
00000180: c973 463d b566 f73c cc5c 73be 8e77 64bc
00000190: 9c37 fb3c 2cc3 cc3d 6141 713d 7f60 d53d
000001a0: 2cf3 51be 9b24 2d3c 5dae 4ebc 23ce 84bc
000001b0: 0af5 ed3d a9cc cb3c a32c 5bbc d84c 9b3e
000001c0: 7263 afbe 452e 53be eb83 33be 7555 8ebf
000001d0: 2bc7 2ebd 975d 523c f829 9a3c 9440 e13d
000001e0: 88f9 f73d a873 1fbd 1765 d73c 75ef 9bbd
000001f0: 607f b5bc 240c e8bd 8b25 d3bc 4261 0e3d
00000200: fab9 d6bd e275 4ebe 8f1f c9be bdfc d83c
00000210: ebe8 4ebd 225d d5bb 5aae c43d 9c69 813d
00000220: d23c 56bd 4ea7 3b3d 88d5 c73c 3601 1e3e
00000230: db09 0a3e b848 a33d 56f7 e63d a737 a43c
00000240: a9f9 323d af34 24ba 0eed 6e3c b9cd 053c
00000250: 993f 81be 5b97 adbc 733f 2dbe 9bfb 78be
00000260: a7f7 b0be 2348 33be b797 8e3b 7a48 383c
00000270: 7a7b 22be 1e5a 4fbf d660 8dbd 4358 0fbe
00000280: 864c 4ebd b474 87be c290 a2bd 1fa8 fbbe
00000290: 7fb5 06bd 1efe ab3d 5d64 4ebe a57a 1cbf
000002a0: 500b 23be 2ed6 61bd a8ce 423d 7705 51be
000002b0: f556 643d d4aa 65be 3527 50be 2ad8 593e
000002c0: 7717 8dbd 86aa 85bf c20c 8dbd bf7e a5be
000002d0: d2ce dc3d 7b17 8ebe f8f0 f4bd 5324 063e
000002e0: 8250 0b3d 9153 8bbc 394c 4ebd 7c98 06bc
000002f0: faaa d63a 4d33 bd3d dd20 643e 9d07 dcbd
00000300: 9b6f 75be 1976 82be 588e ccbf f928 29bd
00000310: 5911 2fbd c169 71bd 85da d8bd d213 e9bc
00000320: cd81 dabc 5b9e 7e3c 5c21 603c 3ffb ecbc
00000330: 2cf6 d139 15d3 fc3d 03cc 963d 883a cf3d
00000340: fa56 7d3d f10b 9d3c d5ac 003c 34fc 3d3b
00000350: 8a24 d6bb a713 5cbc 16db 863d c8cf 833d
00000360: 4087 ebbd a8d0 08be ec6d b53d b807 34bf
00000370: 63bc 363c b7be 40bb 5cc4 a2bd 4284 2039
00000380: ddda ed3b d855 5abd 8af1 783d 664d c7be
00000390: ea4c ca3d 3162 1d3d 3303 163e 207a 563e
000003a0: 2f1b 4cba c755 ed3d 05ec a13d 3ee5 10bd
000003b0: ad9e bdbc 734d c0bd b307 a3bd a94b 193b
000003c0: b453 babc 6e1d 923e 1b95 6abe 18ea 70bb
000003d0: 84eb 833d bd7e 2bbb bb6c c53d beae acbe
000003e0: 4ae2 e83b ff5e aabc 0fe8 413d a6b6 143e
000003f0: 1e90 90be a7c1 e03d 20a7 0a3e 1eb9 d63d

hidden_layers.0.bias f4 [128]
0.0003949194 0.03599255 -0.07100489 -0.05002767 -0.082687505 -0.10233249 -0.014121642 0.0651624
-0.16682668 -0.018847676 -0.14101711 -0.09607587 -0.10925139 -0.15401883 -0.10077545 -0.049948942
-0.05970881 -0.15216815 -0.10280887 -0.04577494 -0.19127184 0.04766737 0.0815102 -0.06967011
-0.076230295 0.122485064 0.08165859 -0.19938521 -0.11197182 -0.15461618 0.048455432 0.0848105
-0.07505582 0.022555389 -0.010400301 -0.28593755 -0.048205283 0.0025314214 -0.096036814 0.035478614
-0.019750025 0.058182057 0.10796609 -0.0068036555 -0.022610392 -0.20409821 0.031679336 -0.15513787
-0.22713429 0.07558244 -0.024100814 -0.008619003 -0.019699706 0.028899215 -0.029121835 0.014936906
-0.17687124 -0.092082486 -0.00641385 -0.13708928 -0.19112171 -0.024957616 0.039788947 -0.08873171
0.11650976 0.04048465 -0.07545155 -0.11575663 -0.14908662 -0.09895214 -0.0051700105 -0.09118331
0.027832638 -0.14454734 -0.20811032 -0.07117603 0.089632004 -0.14885096 0.01926543 -0.08159455
-0.11362391 -0.021943968 0.0008241513 -0.108046725 -0.11721902 0.16628447 0.0032751116 -0.15934746
-0.0059346985 0.02594171 0.080598384 -0.21090592 -0.13995951 -0.2151647 -0.10154892 0.05421114
-0.10344932 -0.21660975 -0.05361331 0.11803718 -0.1998336 -0.2518935 0.058645733 0.11431441
-0.3081682 -0.12666439 -0.18868883 0.10055636 -0.1990313 -0.11138684 0.09880775 -0.03326407
-0.11363116 -0.14341131 -0.02050737 0.07752916 -0.1317344 0.07513631 -0.031849388 -0.14463462
-0.08602137 0.024000159 -0.0025943783 -0.2342541 -0.11248739 0.02957607 0.055251744 -0.034322985
00000000: 2f0d cf39 ed6c 133d 036b 91bd d0e9 4cbd
00000010: 1158 a9bd b293 d1bd 765e 67bc dd73 853d
00000020: 9dd4 2abe 7166 9abc ca66 10be 6dc3 c4bd
00000030: 31bf dfbd 1db7 1dbe 5c63 cebd 4397 4cbd
00000040: 3a91 74bd f8d1 1bbe 758d d2bd 817e 3bbd
00000050: c4dc 43be dc3e 433d d2ee a63d 34af 8ebd
00000060: a11e 9cbd 73d9 fa3d 9e3c a73d a32b 4cbe
00000070: 7b51 e5bd b453 1ebe 3479 463d 21b1 ad3d
00000080: deb6 99bd 14c6 b83c 0666 2abc 6866 92be
00000090: e772 45bd 34e6 253b f3ae c4bd 0652 113d
000000a0: ceca a1bc 4f50 6e3d 531d dd3d 33f1 debb
000000b0: 6e39 b9bc 1fff 50be 31c2 013d 76dc 1ebe
000000c0: e495 68be f7ca 9a3d 126f c5bc b836 0dbc
000000d0: 4761 a1bc 0cbe ec3c ea90 eebc edb9 743c
000000e0: bc1d 35be be95 bcbd 462b d2bb 2261 0cbe
000000f0: 69b5 43be ea73 ccbc bcf9 223d f9b8 b5bd
00000100: ab9c ee3d 3bd3 253d 5886 9abd d011 edbd
00000110: 2aaa 18be 6ba7 cabd 3169 a9bb 51be babd
00000120: 4601 e43c 3804 14be df1a 55be bdc4 91bd
00000130: fc90 b73d 636c 18be 89d2 9d3c 0b1b a7bd
00000140: a7b3 e8bd d6c3 b3bc dc0b 583a 9a47 ddbd
00000150: 8710 f0bd 7a46 2a3e 41a3 563b fb2b 23be
00000160: dc77 c2bb b683 d43c c410 a53d b9f7 57be
00000170: 8c51 0fbe 2354 5cbe e1f8 cfbd 800c 5e3d
00000180: 3ddd d3bd f2ce 5dbe a199 5bbd 7abd f13d
00000190: 2ea1 4cbe 2ff8 80be 8236 703d ac1d ea3d
000001a0: 39c8 9dbe 4fb4 01be a537 41be 7ef0 cd3d
000001b0: dcce 4bbe c91e e4bd b85b ca3d e83f 08bd
000001c0: 74b7 e8bd 6ada 12be 12ff a7bc 9cc7 9e3d
000001d0: 62e5 06be 11e1 993d 8174 02bd 191b 14be
000001e0: f92b b0bd fb9b c43c 7206 2abb 4fe0 6fbe
000001f0: ca5f e6bd 8449 f23c a74f 623d 4296 0cbd

hidden_layers.1.weight f4 [64, 128]
-0.019810943 -0.0694554 -0.34652358 0.066811115 0.124907054 0.085873775 -0.17788845 -0.117145
0.112078965 -0.016707214 -0.042123187 -0.0072096447 -0.33119518 0.06763681 -0.21374343 0.041599125
-0.33185622 -0.1789674 -0.042202882 0.033129454 0.18858303 0.04472791 0.031736895 -0.15269697
0.00015031577 0.011018982 -0.12492279 -0.24038818 -0.024750127 0.095221505 -0.4201782 0.0420309
-0.16131672 -0.113828585 -0.22267595 -0.046854667 -0.010618905 -0.032948628 -0.29349667 -0.0051187254
-0.059388123 -0.10664958 -0.036815 0.004239485 0.02523899 -0.009802647 -0.04662182 -0.051470324
-0.075211026 0.015642686 -0.13444176 0.045510117 -0.0717256 -0.02839608 -0.27085084 0.07842019
0.08056617 0.08246357 0.1263483 0.06351837 -0.07144371 -0.05029424 -0.25826883 0.07715361
0.055676915 0.061365258 -0.0077933334 -0.5283383 0.0325608 -0.052311245 0.030874847 -0.055650268
-0.23549716 -0.111148335 0.005442766 0.062314846 -0.10315196 -0.07276654 -0.10135542 0.12820917
0.0020609258 -0.1455375 -0.06107521 0.011720819 -0.037209302 0.019466989 -0.44737118 0.05231638
-0.0010174275 -0.018934883 0.008965023 -0.013044571 -0.005024996 -0.012801921 0.0425276 -0.012818002
-0.19875586 0.092340745 -0.1530382 -0.0041464 -0.24276933 0.07703118 -0.06813559 0.05911837
0.039145164 -0.023376117 0.010368263 -0.36136663 0.090999186 -0.021185081 -0.21007459 -0.056696244
0.048608664 -0.269395 -0.024800656 -0.49116135 -0.08813581 0.052616984 -0.006583974 0.0862682
-0.0062853782 -0.11028807 0.006646028 -0.0105206445 -0.31858233 0.051116165 -0.0355995 -0.0673242
-0.16208012 -0.52038455 -0.0028577556 -0.21085474 0.17521176 -0.23990259 -0.0017649507 -0.21949437
0.16457166 -0.27322322 -0.43764588 -0.6459059 0.03629904 0.006690337 0.010222955 -0.1263301
0.006792704 -0.0023937514 0.011840421 0.03622178 0.22705491 0.019431775 -0.1757279 -0.059498206
-0.7006579 -0.64075774 -0.29420277 0.02774972 -0.026390739 -0.12662117 0.011345101 0.02708278
0.0089678615 -0.10761333 0.005760815 -0.08450347 0.0066080764 -0.42478576 -0.015981307 -0.22005813
-0.43519762 -0.2769735 -0.08298889 -0.46916828 -0.012976045 0.03660776 0.08198633 0.16882502
0.0031234236 -0.14665125 -0.03774795 -0.5332688 0.002258124 -0.012005591 0.008104082 -0.274802
0.11051889 0.11105371 -0.7671543 0.015160747 0.1348102 -0.22674623 -0.004738879 -0.3054412
-0.5875833 -0.18449563 0.024889134 0.006762729 0.07650464 0.034575783 -0.012830411 -0.38371813
-0.0022179862 0.015366154 0.004061855 -0.08402901 -0.41012606 0.32405698 -0.0042816806 -0.05349505
-0.48702365 -0.0026336475 0.0068752193 -0.34221074 0.004479537 -0.8598815 -0.02290567 0.014732875
-0.20006546 -0.28862506 -0.23726058 -0.07375834 -0.2523585 -0.08240636 -0.013243735 -0.8263508
-0.009420195 -0.0587418 -0.06293013 -0.21623185 0.010879166 0.013022469 -0.37285972 0.24136023
0.021113452 -0.22253455 0.0078035574 0.031692155 0.0015853073 -0.06723114 0.007840848 -0.16102053
-0.0058340835 -4.344569e-05 -0.12800682 0.001555116 0.007961117 -0.3213956 -0.24455729 0.191188
-0.3455082 -0.2290516 -0.08462497 0.032928277 -0.02645904 -0.12904721 0.05171178 -0.50656456
00000000: 8f4a a2bc a23e 8ebd 8a6b b1be 44d4 883d
00000010: 45cf ff3d 97de af3d 6428 36be b8e9 efbd
00000020: a889 e53d 91dd 88bc 5d89 2cbd e23e ecbb
00000030: 6a92 a9be 2b85 8a3d 8fdf 5abe d863 2a3d
00000040: 0fe9 a9be 3b43 37be eedc 2cbd c0b2 073d
00000050: e91b 413e 9d34 373d 8cfe 013d 985c 1cbe
00000060: 159e 1d39 f688 343c 85d7 ffbd 5228 76be
00000070: c7c0 cabc 7e03 c33d 9921 d7be 9828 2c3d
00000080: 3630 25be f61e e9bd 2a05 64be aeea 3fbd
00000090: eafa 2dbc 24f5 06bd 3245 96be fbba a7bb
000000a0: f640 73bd 186b dabd 53cb 16bd 61eb 8a3b
000000b0: 00c2 ce3c 489b 20bc 86f6 3ebd 8cd2 52bd
000000c0: 3d08 9abd 1725 803c 1aab 09be d168 3a3d
000000d0: dfe4 92bd e59e e8bc f6ac 8abe c49a a03d
000000e0: e0ff a43d a9e2 a83d 7361 013e eb15 823d
000000f0: 1451 92bd 5501 4ebd d03b 84be b602 9e3d
00000100: 7a0d 643d 235a 7b3d 385f ffbb 2e41 07bf
00000110: 795e 053d 5144 56bd 3fed fc3c 89f1 63bd
00000120: 2b26 71be bda1 e3bd 3b59 b23b da3d 7f3d
00000130: 5641 d3bd a006 95bd 6e93 cfbd 4449 033e
00000140: 9910 073b c807 15be 002a 7abd ae08 403c
00000150: c868 18bd 3c79 9f3c d60d e5be b349 563d
00000160: 345b 85ba 541d 9bbc 08e2 123c e5b8 55bc
00000170: b9a8 a4bb 26bf 51bc 6c31 2e3d 9902 52bc
00000180: a886 4bbe 251d bd3d 0cb6 1cbe 86de 87bb
00000190: 8698 78be 86c2 9d3d ac8a 8bbd 1b26 723d
000001a0: ae56 203d 457f bfbc a6df 293c 0c05 b9be
000001b0: c85d ba3d 568c adbc cb1d 57be 523a 68bd
000001c0: e119 473d 24ee 89be bf2a cbbc 8079 fbbe
000001d0: 8c80 b4bd e884 573d 61be d7bb 62ad b03d
000001e0: 93f5 cdbb b6de e1bd ecc6 d93b c85e 2cbc
000001f0: 391d a3be 2f5f 513d c8d0 11bd 45e1 89bd
00000200: 55f8 25be ec37 05bf 2f49 3bbb 4eea 57be
00000210: b66a 333e 06a9 75be eb55 e7ba 22c3 60be
00000220: 7985 283e eae3 8bbe 1f13 e0be 175a 25bf
00000230: 4dae 143d 9d3a db3b 2e7e 273c ae5c 01be
00000240: 5595 de3b 7ce0 1cbb 53fe 413c 4a5d 143d
00000250: 1581 683e 632f 9f3c 04f2 33be 64b4 73bd
00000260: 515e 33bf b308 24bf bfa1 96be 6153 e33c
00000270: 6431 d8bc fba8 01be cde0 393c b5dc dd3c
00000280: f0ed 123c 6164 dcbd 38c5 bc3b 2810 adbd
00000290: 9088 d83b 857d d9be 3beb 82bc eb56 61be
000002a0: 39d2 debe 78cf 8dbe 14f6 a9bd d336 f0be
000002b0: 7a99 54bc 05f2 153d 73e8 a73d 77e0 2c3e
000002c0: 5ab2 4c3b bf2b 16be 989d 1abd 4e84 08bf
000002d0: 09fd 133b 19b3 44bc fcc6 043c d9b2 8cbe
000002e0: ba57 e23d 2170 e33d 3964 44bf c864 783c
000002f0: af0b 0a3e 2a30 68be 9948 9bbb ca62 9cbe
00000300: dc6b 16bf 6cec 3cbe 4ce4 cb3c e299 dd3b
00000310: 77ae 9c3d 569f 0d3d a536 52bc b476 c4be
00000320: a25b 11bb 52c2 7b3c 4f19 853b 6717 acbd
00000330: 0bfc d1be ccea a53e 574d 8cbb a01d 5bbd
00000340: 2a5b f9be 4699 2cbb 8549 e13b 3f36 afbe
00000350: 14c9 923b 3221 5cbf aca4 bbbc 2862 713c
00000360: f6dd 4cbe aac6 93be 70f4 72be 9d0e 97bd
00000370: 2235 81be aac4 a8bd 40fc 58bc ba8b 53bf
00000380: 2957 1abc 3e9b 70bd 83e1 80bd e26b 5dbe
00000390: 883e 323c 325c 553c 78e7 bebe 2327 773e
000003a0: 1ef6 ac3c 19e0 63be fcb4 ff3b a2cf 013d
000003b0: 16ca cf3a 7bb0 89bd e676 003c 91e2 24be
000003c0: d72b bfbb 7439 36b8 3814 03be 09d5 cb3a
000003d0: 586f 023c f78d a4be 3a6d 7abe c9c6 433e
000003e0: 73e6 b0be 818c 6abe db4f adbd cddf 063d
000003f0: a1c0 d8bc f424 04be bbcf 533d 37ae 01bf

hidden_layers.1.bias f4 [64]
0.24888758 0.09949227 0.10616994 0.114396945 0.27002835 0.2149533 0.12806538 0.13794152
0.1831083 0.11735139 0.26635796 0.120934755 0.20898136 0.1292678 0.10021765 0.15653446
0.105870984 0.11785223 0.25359273 0.15739055 -0.13521032 0.23963402 -0.13205871 0.24106722
0.14008689 0.2710623 0.24970716 0.25471905 0.10625945 0.018888429 0.15504895 0.19379276
-0.040755842 0.26103482 0.2384926 0.18268539 -0.15670413 0.15979093 0.12918365 0.17969431
0.15044636 0.18851522 0.10700722 0.245319 0.12572922 0.2369374 0.15875617 0.115242265
0.11135428 0.09892131 0.10905853 0.12229644 0.11757126 0.22922951 0.092722125 0.10466002
0.13441987 0.25279948 0.22920838 0.119642876 0.08936728 0.09607894 0.10844021 0.16557336
00000000: 63dc 7e3e 9ac2 cb3d a06f d93d f248 ea3d
00000010: 2841 8a3e b81c 5c3e 9223 033e 8b40 0d3e
00000020: be80 3b3e ed55 f03d 1260 883e a4ac f73d
00000030: 36ff 553e c75e 043e e93e cd3d 924a 203e
00000040: e3d2 d83d 835c f13d e8d6 813e fd2a 213e
00000050: 9374 0abe 9f62 753e 663a 07be 53da 763e
00000060: f072 0f3e aec8 8a3e 3cb3 7f3e 896a 823e
00000070: 8e9e d93d e8bb 9a3c 27c5 1e3e 9c71 463e
00000080: 99ef 26bd 5ba6 853e 6737 743e e111 3b3e
00000090: 0c77 20be 3ca0 233e b848 043e c901 383e
000000a0: 9c0e 1a3e 220a 413e 9a26 db3d e734 7b3e
000000b0: 29bf 003e b89f 723e fa90 223e 2304 ec3d
000000c0: b60d e43d 4197 ca3d 145a df3d 8e76 fa3d
000000d0: 33c9 f03d 24bb 6a3e 19e5 bd3d fe57 d63d
000000e0: 5da5 093e ef6e 813e 9ab5 6a3e 5307 f53d
000000f0: 3106 b73d 09c5 c43d e715 de3d 108c 293e

output.weight f4 [4, 64]
0.057265643 -0.12782665 0.031450577 0.038219582 0.065172754 0.052614663 0.04874069 0.045940958
0.0334877 0.037572537 0.05564583 0.030020189 0.05103517 0.04323584 0.034625106 0.032182265
-0.117189676 0.049479812 0.08896336 0.04379169 -0.055842042 0.058035422 0.078783795 0.09940245
-0.10237514 0.08753588 0.055368807 0.06647948 0.043933924 -0.07896367 -0.042277627 0.044431932
-0.08564884 0.057776883 0.069758795 -0.13984355 0.01345737 0.037608817 -0.10407386 0.049105655
0.02607749 -0.11481774 -0.111416444 0.082938865 -0.076520085 0.06367904 0.030590832 0.03252881
0.03033335 0.034068864 -0.09605711 0.02892103 -0.11012229 0.052747134 0.030112743 0.036003135
0.040912207 0.057127032 0.057090025 0.033614997 0.027606765 0.033189394 0.019784534 0.039071962
0.058158614 -0.057737898 0.01614591 0.026228696 0.064800955 0.036360186 0.051781967 0.052356165
0.043389905 0.036329772 0.08857186 0.044566147 0.06489327 0.026885323 0.04231491 0.035665214
-0.019111555 0.02893923 0.122283295 0.02055472 -0.06222555 0.058818076 -0.05761493 0.11732453
0.006920496 0.10291676 0.07482041 0.053154618 0.034637246 -0.08949761 -0.0740909 0.029695768
-0.085384935 0.06317321 0.12166145 -0.097032376 -0.0074347826 0.036611438 -0.022521652 0.03314943
0.029922852 -0.07641806 0.0003144764 0.07388667 0.009322908 0.07612141 0.0057062274 0.034076177
0.028167797 0.027353792 0.025943393 0.040838476 -0.010322728 0.056104466 0.024980912 0.03305813
0.05314781 0.0642077 0.06613328 0.047544174 0.02961256 0.03066168 0.014464374 0.040344376
0.007938588 -0.063610286 0.06660454 0.047277313 -0.02682296 0.08491272 0.032826718 0.087453365
0.056522716 0.048363425 0.02309706 0.04475256 0.023040498 0.029930308 0.051668987 0.05699362
-0.06543554 -0.03647643 0.04132551 -0.04584589 0.005781958 -0.009867136 0.000552954 0.077606045
0.07344679 0.059600778 0.00091949245 0.03764255 0.049412213 -0.08506751 -0.29960793 0.06436651
-0.10167 0.0002756464 -0.001833645 -0.028525667 0.047373854 0.04421372 -0.031958304 0.031580683
0.051107984 -0.07964099 -0.04750826 0.08144887 0.030016148 0.017607018 0.041934073 0.042480525
0.048574675 0.050391223 -0.1106296 0.06202889 -0.047532115 0.027592948 0.04482919 0.062189735
0.03613872 -0.015141128 0.03837182 0.066216595 0.032331824 0.02284334 0.05653801 0.021786686
0.027853202 -0.07512585 0.041324526 0.070691004 0.03806254 0.057859126 0.04970738 -0.03306902
0.07460653 0.061941452 0.010782806 0.04615724 0.052505117 0.04370274 0.05292901 0.038813863
-0.06489929 0.048171043 0.037560984 0.046145737 0.09818782 0.022762764 -0.015508075 0.10068706
-0.11948608 0.052224733 0.021470798 0.006143614 0.055852752 -0.17089455 -0.26029417 0.051910672
-0.1564158 0.021162888 0.0069133043 -0.104498856 -0.07259794 0.04838579 -0.03280871 0.03263779
0.0264286 -0.07703236 -0.08157346 0.06483453 0.06076223 0.014186292 0.046765655 0.048901606
0.04797012 0.05168977 0.06429282 0.03825024 -0.046734378 0.0633324 0.046585273 0.044811968
-0.086902246 0.0115645 0.035709616 0.048375312 0.052472334 0.044937305 0.036589947 0.051487487
00000000: 618f 6a3d fde4 02be 52d2 003d 238c 1c3d
00000010: 4b79 853d 7982 573d 51a4 473d 962c 3c3d
00000020: 662a 093d a9e5 193d e2ec 633d e6ec f53c
00000030: 410a 513d 1018 313d 0ed3 0d3d 8dd1 033d
00000040: 2401 f0bd 58ab 4a3d 6c32 b63d ea5e 333d
00000050: a0ba 64bd 8db6 6d3d 6659 a13d 8393 cb3d
00000060: 0faa d1bd 0346 b33d 67ca 623d 6526 883d
00000070: 0ff4 333d b4b7 a1bd 4e2b 2dbd 42fe 353d
00000080: a968 afbd 74a7 6c3d b3dd 8e3d 2633 0fbe
00000090: 4d7c 5c3c b40b 1a3d ad24 d5bd 0323 493d
000000a0: 76a0 d53c 9025 ebbd 4e2e e4bd dadb a93d
000000b0: 90b6 9cbd 286a 823d a099 fa3c ee3c 053d
000000c0: a57d f83c cb8b 0b3d 97b9 c4bd cceb ec3c
000000d0: cc87 e1bd 610d 583d 00af f63c 0678 133d
000000e0: 8f93 273d 09fe 693d 3bd7 693d e1af 093d
000000f0: 9527 e23c 9af1 073d 2d13 a23c ec09 203d
00000100: ba37 6e3d 937e 6cbd 6d44 843c 90dd d63c
00000110: 5db6 843d 6bee 143d 5419 543d 6b73 563d
00000120: 9db9 313d 87ce 143d 2a65 b53d fe8a 363d
00000130: c3e6 843d 9c3e dc3c 6652 2d3d b015 123d
00000140: d68f 9cbc f711 ed3c aa6f fa3d 5f62 a83c
00000150: 38e0 7ebd 39eb 703d a2fd 6bbd d847 f03d
00000160: 54c5 e23b 06c6 d23d 713b 993d a8b8 593d
00000170: c9df 0d3d 864a b7bd f8bc 97bd 8a44 f33c
00000180: 4cde aebd f560 813d a329 f93d e9b8 c6bd
00000190: 7a9f f3bb e0f5 153d 547f b8bc b2c7 073d
000001a0: c520 f53c 1281 9cbd 4fe0 a439 e551 973d
000001b0: 1cbf 183c 8be5 9b3d 4efb ba3b 7693 0b3d
000001c0: 27c0 e63c 0f15 e03c 3d87 d43c 3f46 273d
000001d0: a920 29bc cccd 653d c5a4 cc3c f667 073d
000001e0: 85b1 593d 547f 833d e370 873d aebd 423d
000001f0: 0a96 f23c 342e fb3c fbfb 6c3c 2540 253d
00000200: da10 023c 1c46 82bd f667 883d dba5 413d
00000210: d3bb dbbc b8e6 ad3d 4f75 063d c01a b33d
00000220: 5d84 673d ba18 463d 0c36 bd3c 764e 373d
00000230: 6dbf bc3c 6830 f53c dca2 533d 2472 693d
00000240: 1203 86bd 4f68 15bd f044 293d e6c8 3bbd
00000250: 9476 bd3b c5a9 21bc 1df4 103a ebef 9e3d
00000260: 456b 963d f21f 743d 180a 713a 132f 1a3d
00000270: 7664 4a3d e037 aebd 3666 99be 97d2 833d
00000280: 5c38 d0bd a284 9039 eb56 f0ba a9ae e9bc
00000290: 160b 423d 7219 353d b6e6 02bd bf5a 013d
000002a0: 9b56 513d d11a a3bd 0598 42bd aace a63d
000002b0: 6de4 f53c 983c 903c 10c3 2b3d 0f00 2e3d
000002c0: 3df6 463d 0767 4e3d c691 e2bd 0112 7e3d
000002d0: 09b1 42bd 9b0a e23c d09e 373d aaba 7e3d
000002e0: 3206 143d 7e12 78bc c52b 1d3d 919c 873d
000002f0: 606e 043d f521 bb3c 6694 673d fe79 b23c
00000300: 662c e43c 95db 99bd e843 293d 72c6 903d
00000310: 77e7 1b3d b1fd 6c3d f799 4b3d 6173 07bd
00000320: 4fcb 983d 52b6 7d3d 5eaa 303c 600f 3d3d
00000330: 9b0f 573d a501 333d 17cc 583d 49fb 1e3d
00000340: ebe9 84bd 004f 453d 8cd9 193d 5003 3d3d
00000350: b216 c93d fa78 ba3c 9515 7ebc 0435 ce3d
00000360: 1eb5 f4bd 9ae9 553d 87e3 af3c 5f50 c93b
00000370: dbc5 643d fbfe 2ebe 4745 85be 49a0 543d
00000380: 772b 20be cb5d ad3c 0089 e23b 7f03 d6bd
00000390: 3bae 94bd 2e30 463d 6d62 06bd 34af 053d
000003a0: cb80 d83c 24c3 9dbd fc0f a7bd f7c7 843d
000003b0: d1e1 783d 9f6d 683c 588d 3f3d 0d4d 483d
000003c0: 517c 443d a7b8 533d f4ab 833d 49ac 1c3d
000003d0: 8c6c 3fbd 6bb4 813d 33d0 3e3d c18c 373d
000003e0: cef9 b1bd 0779 3d3c 3f44 123d 3125 463d
000003f0: 3bed 563d 2e10 383d 57df 153d 8be4 523d

output.bias f4 [4]
1.4779944 1.3364862 1.400991 1.4053882
00000000: ec2e bd3f fb11 ab3f ac53 b33f c3e3 b33f
