experiments/navigate_1322_18Oct22082520.pth (torch_old, 54660 bytes, 6 tensors)

hidden_layers.0.weight f4 [128, 37]
-0.09682353 -0.0069643105 -0.16793357 -0.08278313 -0.18567966 0.008749373 -0.12308916 0.12542248
-0.057319533 -0.008673401 -0.077977076 -0.18239978 -0.17856157 -0.1037979 -0.17567772 -0.03259798
-0.043877102 0.0775705 -0.14136916 -0.14196406 -0.010230357 0.09686855 -0.060224976 0.06945606
-0.10741988 -0.047348447 0.022316542 -0.1740616 -0.0576215 -0.12931345 -0.08922614 0.069405116
-0.12893274 -0.113392636 -0.18140139 -0.060383122 0.010478498 0.07288674 0.09314758 0.08738321
0.087783344 -0.0700997 0.10649308 -0.4191275 -0.48646408 -0.35107186 -1.6528032 0.010020169
0.030976946 0.013224267 0.009259986 0.047486864 0.045289636 0.018577602 0.039262645 0.02791091
-0.0043472867 -0.08470305 -0.12782054 -0.07723329 -0.08013343 0.03846657 0.0049116 -0.013766945
-0.022074856 -0.030689394 -0.014366803 0.039709445 0.09177263 0.066875085 0.02913893 -0.111260645
-0.0054772436 -0.0017090867 0.09321187 0.14848511 -0.057762936 -0.034335542 0.0043459083 -0.10438202
-0.28460172 0.13368842 0.11342746 -0.1129097 -0.079627655 0.07066806 -0.1591023 0.05359319
0.20416066 -0.12363292 -0.0914558 0.1467967 0.2431866 0.072242334 -0.26989436 -0.13499328
-0.008540739 0.119619064 -0.0052941414 -0.20273921 0.07973774 0.21186763 -0.09636651 -0.04274496
-0.12816975 -0.21481986 0.029614842 -0.18660612 0.0729724 0.0021772317 -0.044646505 -0.012822609
0.14831862 0.1041391 0.042069476 -0.061189637 -0.083571926 -0.002709629 -0.028917419 0.08086056
0.3598749 -0.12839535 0.06283708 -0.0020443038 -0.08226318 -0.12150535 -0.11529065 -0.10667176
-0.11556287 -0.022356106 0.15954106 -0.05333334 -0.045707136 -0.0011979796 0.08551064 0.15657115
-0.042328868 -0.14773525 0.009338423 0.20597456 0.48853698 -0.017593414 0.011675952 0.058038794
0.21985048 0.2648737 -0.009386662 -0.013723405 -0.14268535 -0.24406086 -0.08663306 -0.31508628
-0.16318305 -0.3062778 0.10045969 0.23421942 0.17536898 -0.4502268 -0.09121123 0.026315883
-0.066659 -0.16303957 -0.027500331 -0.24867418 -0.03131298 0.05185148 -0.38190216 -0.053394906
-0.26903138 0.06649074 0.09083457 -0.006728958 -0.07409374 -0.18609458 -0.08955153 0.28007466
-0.08382422 -0.5149349 -0.013934154 -0.12809174 0.10584746 -0.12689005 -0.040699724 0.058635782
-0.007264355 -0.003230502 0.021124337 -0.013535881 0.03537886 0.0550556 0.21709698 -0.2828892
-0.3197265 -0.32720208 -1.6650946 -0.040413275 -0.02405379 -0.06665133 -0.03459651 -0.023352461
-0.014399235 0.0066526416 0.01722386 0.004481401 -0.066029094 0.09138839 0.02778735 0.09176676
0.15790567 0.06990913 0.012330969 0.026328199 0.08413657 0.013914198 0.11115694 -0.026039165
0.05173505 0.06662427 0.086026266 0.009855561 0.010341037 0.009736669 -0.011411972 0.002346236
-0.030009337 -0.01920324 -0.032089867 -0.08938732 -0.039755702 0.0048934733 0.07142141 0.21102981
0.012037977 0.04726621 0.067403704 0.102701366 0.048384264 -0.05387151 -0.049015537 -0.035911057
-0.022577504 0.052280795 -0.044000644 0.006290183 0.00828618 -0.018034682 0.028918583 -0.09883288
-0.10434199 -0.057764426 -0.053251367 0.06909691 0.23685037 -0.5081845 -0.41516083 -0.38449368
00000000: 6a4b c6bd df34 e4bb c7f6 2bbe 348a a9bd
00000010: cf22 3ebe 8859 0f3c 2b16 fcbd c06e 003e
00000020: e3c7 6abd e11a 0ebc 72b2 9fbd 02c7 3abe
00000030: d8d8 36be fe93 d4bd dce4 33be 7685 05bd
00000040: 7ab8 33bd 48dd 9e3d 14c3 10be 075f 11be
00000050: 3a9d 27bc 0563 c63d 77ae 76bd fb3e 8e3d
00000060: f4fe dbbd 72f0 41bd 2ed1 b63c 343d 32be
00000070: 8604 6cbd bf6a 04be 32bc b6bd 4524 8e3d
00000080: f206 04be 663a e8bd 49c1 39be 4b54 77bd
00000090: 02ae 2b3c a545 953d 29c4 be3d f8f5 b23d
000000a0: c1c7 b33d 6e90 8fbd 0b19 da3d e197 d6be
000000b0: d211 f9be b1bf b3be 0e8f d3bf a32b 243c
000000c0: 5dc3 fd3c 99aa 583c 32b7 173c 9681 423d
000000d0: a081 393d 0e30 983c ded1 203d 6ca5 e43c
000000e0: af73 8ebb cb78 adbd 63e3 02be 7d2c 9ebd
000000f0: ff1c a4bd 1f8f 1d3d 7df1 a03b c18e 61bc
00000100: 54d6 b4bc 5368 fbbc bd62 6bbc 5fa6 223d
00000110: 4af3 bb3d cef5 883d c4b4 ee3c 9fdc e3bd
00000120: 737a b3bb 6f03 e0ba dde5 be3d 7b0c 183e
00000130: d498 6cbd 6da3 0cbd 1f68 8e3b 3ec6 d5bd
00000140: 51b7 91be 9ee5 083e a84c e83d 333d e7bd
00000150: d313 a3bd 6aba 903d b7eb 22be 8884 5b3d
00000160: 7e0f 513e 4233 fdbd 2e4d bbbd e051 163e
00000170: e805 793e caf3 933d 982f 8abe ae3b 0abe
00000180: 75ee 0bbc d7fa f43d 7a7a adbb de9a 4fbe
00000190: 8a4d a33d d4f3 583e ce5b c5bd 5715 2fbd
000001a0: ee3e 03be bdf9 5bbe d39a f23c ad15 3fbe
000001b0: 8e72 953d e3af 0e3b 41df 36bd ec15 52bc
000001c0: d6e0 173e e146 d53d 0b51 2c3d fca1 7abd
000001d0: c227 abbd 0894 31bb 39e4 ecbc 399a a53d
000001e0: 8641 b83e 127a 03be bab0 803d baf9 05bb
000001f0: 9979 a8bd ccd7 f8bd 811d ecbd b976 dabd
00000200: 3aac ecbd 2724 b7bc bb5e 233e 0f74 5abd
00000210: 6837 3bbd 8605 9dba 3420 af3d 3054 203e
00000220: 0961 2dbd e947 17be 2f00 193c ffea 523e
00000230: 8521 fa3e 1020 90bc 7e4c 3f3c 16ba 6d3d
00000240: 7c20 613e 879d 873e 84ca 19bc 22d8 60bc
00000250: 1c1c 12be 17eb 79be ac6c b1bd fd52 a1be
00000260: 7519 27be 72d0 9cbe cfbd cd3d 37d7 6f3e
00000270: ed93 333e 2184 e6be f4cc babd 6894 d73c
00000280: 8484 88bd d8f3 26be 6048 e1bc 72a4 7ebe
00000290: 0a42 00bd 3862 543d ae88 c3be 9eb4 5abd
000002a0: 7bbe 89be 4c2c 883d 7a07 ba3d 977e dcbb
000002b0: 75be 97bd 948f 3ebe cb66 b7bd f265 8f3e
000002c0: 08ac abbd c6d2 03bf 144c 64bc 7b2a 03be
000002d0: 8ec6 d83d 77ef 01be c1b4 26bd 132c 703d
000002e0: d409 eebb d4b6 53bb f20c ad3c 9ac5 5dbc
000002f0: 6ce9 103d fb81 613d ac4e 5e3e dad6 90be
00000300: 31b3 a3be 0887 a7be d221 d5bf 6488 25bd
00000310: 740c c5bc 7e80 88bd 12b5 0dbd a94d bfbc
00000320: c5ea 6bbc 67fe d93b 0d19 8d3c b7d8 923b
00000330: 433a 87bd d629 bb3d 4ca2 e33c 36f0 bb3d
00000340: 06b2 213e 852c 8f3d d507 4a3c 3cae d73c
00000350: cb4f ac3d 60f8 633c 40a6 e33d 1650 d5bc
00000360: 22e8 533d 4e72 883d 8a2e b03d 3879 213c
00000370: 746d 293c 8d86 1f3c 48f9 3abc 4fc3 193b
00000380: 24d6 f5bc 1d50 9dbc aa70 03bd b310 b7bd
00000390: e0d6 22bd 6e59 a03b 6345 923d 3318 583e
000003a0: ef3a 453c 379a 413d f40a 8a3d 1855 d23d
000003b0: 942e 463d 5fa8 5cbd 84c4 48bd 7917 13bd
000003c0: 75f4 b8bc 6324 563d 053a 34bd e11d ce3b
000003d0: c2c2 073c 78bd 93bc aae6 ec3c e568 cabd
000003e0: 41b1 d5bd 649a 6cbd 1b1e 5abd ae82 8d3d
000003f0: e788 723e 6118 02bf f68f d4be 5bdc c4be

hidden_layers.0.bias f4 [128]
-0.103782184 0.045296192 -0.15617985 -0.15726288 -0.09621247 -0.065013714 0.07130242 0.020459974
-0.15046181 -0.0037501336 -0.14260715 -0.11378498 -0.16816513 -0.088081695 -0.13898022 0.009601432
-0.05332936 -0.030111732 -0.15387757 -0.09767193 -0.18757427 -0.02544885 0.020968491 -0.08636403
-0.055732917 0.0059058676 0.066388525 -0.14865203 -0.10745104 -0.15747494 0.008362349 0.029115807
-0.099419065 -0.13828342 -0.08641238 -0.21461535 -0.11781707 -0.009204876 -0.10076549 -0.059367303
-0.026323726 0.02866719 0.15705042 -0.017305916 -0.082790576 -0.14173828 0.08176499 -0.1968287
-0.25506628 0.017496092 0.011078674 -0.108460195 -0.014953013 0.019631606 -0.031044733 -0.060356054
-0.18325923 -0.06323202 0.01373857 -0.08768085 -0.19334696 -0.025012756 0.017627554 -0.14288788
0.036142584 0.06533333 -0.06859361 -0.13088615 -0.24815989 -0.092630886 -0.03238373 -0.12269998
-0.034287438 -0.13003765 -0.107156366 -0.12726797 0.0112163 -0.1706971 0.04523681 0.06347534
-0.0837162 -0.0053189346 0.0006828438 -0.12515281 -0.10303909 0.02666345 0.027264252 -0.08981919
-0.004293279 -0.013751277 0.10030375 -0.073785506 -0.15337197 -0.260296 -0.10943905 0.04217385
-0.110103205 -0.30728966 -0.14428508 -0.00230034 -0.12129776 -0.266407 -0.00448129 0.07251965
-0.22041023 -0.17039162 -0.030889465 0.14616078 -0.2526386 -0.14570098 -0.0070139007 -0.06551565
-0.12137525 -0.051848937 -0.00793334 0.042083766 0.024992764 0.011486249 -0.03092171 -0.09020252
-0.08686167 0.06517352 -0.135589 -0.28068706 -0.10649232 0.034493368 0.1644325 -0.13827574
00000000: c18b d4bd 8088 393d 9ced 1fbe 8509 21be
00000010: 0b0b c5bd e925 85bd 0107 923d ad9b a73c
00000020: a912 1abe cdc4 75bb 9c07 12be 1908 e9bd
00000030: 7b33 2cbe 2d64 b4bd d550 0ebe 534f 1d3c
00000040: e36f 5abd e1ac f6bc 1592 1dbe 3908 c8bd
00000050: 7813 40be 1b7a d0bc 1dc6 ab3c a0df b0bd
00000060: 3348 64bd 0286 c13b b5f6 873d 3d38 18be
00000070: 4a0f dcbd 1c41 21be 3c02 093c 4684 ee3c
00000080: 399c cbbd 2b9a 0dbe f9f8 b0bd 20c4 5bbe
00000090: 134a f1bd 0cd0 16bc 235e cebd 212b 73bd
000000a0: dba4 d7bc 74d7 ea3c d3d1 203e 23c5 8dbc
000000b0: 1b8e a9bd d723 11be 6774 a73d 768d 49be
000000c0: 0c98 82be f753 8f3c 5483 353c 6120 debd
000000d0: 7bfd 74bc 76d2 a03c 8651 febc e937 77bd
000000e0: 4fa8 3bbe ca7f 81bd bd17 613c 0492 b3bd
000000f0: bffc 45be 8de7 ccbc a967 903c 3351 12be
00000100: 3f0a 143d 7bcd 853d ce7a 8cbd 0507 06be
00000110: a01d 7ebe 43b5 bdbd cda4 04bd 214a fbbd
00000120: fc70 0cbd 9728 05be cc74 dbbd 8952 02be
00000130: 92c4 373c 38cb 2ebe 3c4a 393d 5cff 813d
00000140: 6673 abbd 754a aebb df00 333a 0f28 00be
00000150: 2906 d3bd 4f6d da3c 4859 df3c 20f3 b7bd
00000160: a2ae 8cbb 094d 61bc 0d6c cd3d db1c 97bd
00000170: 8b0d 1dbe 8445 85be 9521 e0bd 7dbe 2c3d
00000180: ca7d e1bd 1255 9dbe 78bf 13be 4dc1 16bb
00000190: f66a f8bd 8066 88be c9d7 92bb 2f85 943d
000001a0: 38b3 61be 247b 2ebe e70b fdbc 2cab 153e
000001b0: d959 81be a332 15be ddd4 e5bb 122d 86bd
000001c0: 9693 f8bd 8d5f 54bd d7fa 01bc 0760 2c3d
000001d0: a0bd cc3c d230 3c3c 874f fdbc 19bc b8bd
000001e0: 88e4 b1bd b279 853d d8d7 0abe 37b6 8fbe
000001f0: a518 dabd eb48 0d3d fe60 283e 2898 0dbe

hidden_layers.1.weight f4 [64, 128]
-0.07380976 -0.009852525 0.046515483 0.12151809 0.10394287 -0.011168861 -0.07860493 -0.03845632
0.020809602 0.026404047 0.039907247 0.077843726 -0.2828882 -0.07862807 0.031227391 -0.08642504
-0.05303815 0.00395632 -0.17354779 -0.060487088 -0.0033574663 0.0865154 0.046266 -0.09314671
0.1057909 0.13419373 -0.06556044 -0.02057197 -0.024600793 0.087056 -0.3395778 -0.017494367
-0.3052067 -0.066092275 -0.46636352 -0.111897804 -0.046155937 -0.025132107 0.05444382 -0.052039936
-0.11551169 -0.27880928 0.018161532 0.053847287 -0.16961089 -0.03624408 -0.0624127 -0.0773577
-0.15752462 -0.038535822 -0.097174704 -0.097919725 -0.2359658 -0.04810618 0.023181776 -0.06687306
0.11293783 -0.2104001 -0.018009746 -0.027806988 -0.09726283 -0.10585338 -0.031089514 -0.24505219
-0.07910623 0.062354248 0.058298614 -0.11774636 -0.163995 0.056192037 0.12319617 -0.19745532
-0.12523022 -0.1459267 0.02195438 -0.13132599 -0.30023766 -0.13210027 -0.001663751 -0.010241589
0.028279617 -0.2249465 -0.3263733 0.05306606 -0.08431717 -0.28208867 -0.2766856 -0.1319168
-0.05239846 0.07718328 0.105766065 -0.076287635 -0.079993285 -0.10559319 0.08551339 0.053347856
-0.26710978 0.044076275 -0.020232806 -0.09718692 0.038100217 -0.20944178 -0.1416769 -0.03279141
-0.08006069 0.023846382 0.008892364 -0.016512502 -0.27253327 -0.04203687 -0.17147446 0.0360367
-0.012270488 0.045804776 0.003101843 -0.18341425 0.05380035 0.018053036 -0.01066841 -0.24083717
0.061979532 -0.05874212 0.06251771 -0.02827496 -0.05164244 0.010347103 -0.02835591 -0.13863608
0.020082742 0.04247533 0.03656258 -0.0909286 -0.12245307 0.045382615 0.123155124 -0.014112329
0.05748943 0.036102697 0.04467588 0.052221835 -0.23983084 0.10290379 -0.033818446 -0.1543325
-0.07630794 0.000879018 -0.11846537 -0.12816924 -0.18554194 -0.035344034 -0.031844523 0.0855698
0.013682008 0.07699441 0.043494795 0.100894764 0.0022274333 -0.014144008 -0.2950938 -0.21535343
-0.021863054 -0.039969537 -0.00033202485 -0.0063333306 0.03862819 0.04798841 -0.016299883 -0.0028523558
-0.011649851 -0.060745247 0.029889436 0.029914673 -0.1489251 -0.20582208 -0.007294969 0.13650304
-0.19565055 0.090107314 0.059081823 -0.10143488 -0.09794628 0.033597983 -0.16057214 -0.07770531
-0.13932267 -0.0333256 0.06129675 -0.08947767 -0.1603126 -0.11780047 -0.21156676 -0.06973852
-0.23336813 0.1946881 0.061295334 -0.049190026 -0.05704849 0.042265296 0.02231667 -0.021721637
-0.14700183 -0.22631486 0.034497093 0.19536868 -0.07782761 -0.088534705 0.025602626 0.012654837
0.012978293 -0.00611028 -0.009793017 0.03334728 0.031778485 -0.29370093 -0.12632932 -0.024844632
0.040192816 0.05543853 0.061125938 -0.06197221 -0.0021526993 -0.13954921 -0.0854423 0.08225243
-0.057519365 -0.026639393 -0.09241126 -0.17277582 0.04552388 -0.10025833 -0.07688519 0.1005668
0.013317507 0.030491782 0.07878652 -0.017364914 -0.25566486 -0.09078009 -0.09135555 -0.16342016
-0.03205372 0.09956894 -0.062002864 -0.1614197 0.0324196 0.12658897 0.072611004 -0.2110995
0.117169775 0.04604241 0.05271071 -0.04691865 0.03587919 0.024978185 -0.09018638 -0.03314024
00000000: 9229 97bd 7c6c 21bc 0587 3e3d 7ade f83d
00000010: 00e0 d43d 99fd 36bc 9ffb a0bd 6084 1dbd
00000020: e678 aa3c 4d4d d83c c875 233d 886c 9f3d
00000030: b9d6 90be c107 a1bd 96d0 ff3c 9dff b0bd
00000040: 883e 59bd 05a4 813b 83b6 31be 4fc1 77bd
00000050: f008 5cbb fc2e b13d 6b81 3d3d b4c3 bebd
00000060: e6a8 d83d 156a 093e 8d44 86bd 8c86 a8bc
00000070: 9a87 c9bc 6b4a b23d 24dd adbe 5950 8fbc
00000080: 0d44 9cbe 635b 87bd 33c7 eebe ad2a e5bd
00000090: 020e 3dbd d9e1 cdbc 7c00 5f3d d427 55bd
000000a0: 6591 ecbd 17c0 8ebe 7ec7 943c f98e 5c3d
000000b0: 7aae 2dbe ac74 14bd 76a4 7fbd b76d 9ebd
000000c0: 224e 21be bdd7 1dbd 8803 c7bd 238a c8bd
000000d0: 05a1 71be fc0a 45bd b5e7 bd3c bef4 88bd
000000e0: f34b e73d 2073 57be 2d89 93bc 7bcb e3bc
000000f0: bc31 c7bd a8c9 d8bd 70af febc f6ee 7abe
00000100: 7202 a2bd 2b67 7f3d 87ca 6e3d 0125 f1bd
00000110: 4eee 27be 9f29 663d 464e fc3d ba31 4abe
00000120: 5a3c 00be cf6d 15be acd9 b33c 527a 06be
00000130: c0b8 99be 4b45 07be 3812 daba 56cc 27bc
00000140: a8aa e73c 6058 66be 671a a7be cc5b 593d
00000150: 7bae acbd ed6d 90be bca9 8dbe 3315 07be
00000160: c59f 56bd 4412 9e3d e19b d83d b13c 9cbd
00000170: 85d3 a3bd 3e41 d8bd a521 af3d 4883 5a3d
00000180: 9dc2 88be 5389 343d 45bf a5bc f009 c7bd
00000190: f90e 1c3d e877 56be c013 11be 4950 06bd
000001a0: dcf6 a3bd 7d59 c33c 47b1 113c 3a45 87bc
000001b0: 7b89 8bbe da2e 2cbd 0097 2fbe 389b 133d
000001c0: 280a 49bc ca9d 3b3d 4a48 4b3b f2d0 3bbe
000001d0: c15d 5c3d f6e3 933c 8eca 2ebc 059e 76be
000001e0: 40de 7d3d 949b 70bd 4909 803d e4a0 e7bc
000001f0: 0687 53bd e586 293c a74a e8bc 9ef6 0dbe
00000200: 9084 a43c 9dfa 2d3d a5c2 153d c638 babd
00000210: adc8 fabd 1fe3 393d c138 fc3d 6637 67bc
00000220: 097a 6b3d 6ce0 133d 0efe 363d 90e6 553d
00000230: 3796 75be 39bf d23d 3685 0abd 5709 1ebe
00000240: 5647 9cbd e66d 663a f99d f2bd cc3e 03be
00000250: b5fe 3dbe e8c4 10bd 676f 02bd 383f af3d
00000260: 802a 603c 3faf 9d3d 9927 323d eaa1 ce3d
00000270: 21fa 113b 45bc 67bc 8916 97be 9c85 5cbe
00000280: 261a b3bc 19b7 23bd 9f13 aeb9 d487 cfbb
00000290: 9838 1e3d 7f8f 443d 5587 85bc 97ee 3abb
000002a0: 04df 3ebc 02d0 78bd b1da f43c 9e0f f53c
000002b0: d27f 18be 06c3 52be a30a efbb 74c7 0b3e
000002c0: 9e58 48be 2f8a b83d c8ff 713d 17bd cfbd
000002d0: 0f98 c8bd 0a9e 093d 066d 24be f623 9fbd
000002e0: 9aaa 0ebe 6d80 08bd 4d12 7b3d 1240 b7bd
000002f0: fc28 24be 5f41 f1bd f5a4 58be 12d3 8ebd
00000300: 0ef8 6ebe 515c 473e d110 7b3d 7b7b 49bd
00000310: adab 69bd 601e 2d3d 73d1 b63c 93f1 b1bc
00000320: a687 16be 15bf 67be d34c 0d3d ba0e 483e
00000330: 1564 9fbd af51 b5bd 99bc d13c 3c56 4f3c
00000340: e8a2 543c be38 c8bb e472 20bc 2897 083d
00000350: 282a 023d f85f 96be 795c 01be f886 cbbc
00000360: 39a1 243d 8313 633d 315f 7a3d 92d6 7dbd
00000370: 4d14 0dbb fde5 0ebe 5ffc aebd f673 a83d
00000380: 6d99 6bbd db3a dabc 1d42 bdbd 25ec 30be
00000390: 3f77 3a3d 3d54 cdbd fc75 9dbd f7f5 cd3d
000003a0: ac31 5a3c e7c9 f93c d45a a13d dd40 8ebc
000003b0: 81e6 82be e9ea b9bd 9e18 bbbd 9d57 27be
000003c0: c34a 03bd cdea cb3d b7f6 7dbd 354b 25be
000003d0: 6aca 043d 8aa0 013e 14b5 943d 782a 58be
000003e0: b5f6 ef3d f796 3c3d 2fe7 573d c52d 40bd
000003f0: 0ff6 123d 0d9f cc3c a3b3 b8bd 0fbe 07bd

hidden_layers.1.bias f4 [64]
0.25300202 0.22115336 0.19064723 0.21065728 0.25612372 -0.1214382 0.12611498 0.09773277
0.08233701 0.08530264 0.23472033 0.11704249 0.21500157 0.11380263 0.10473567 0.10776854
-0.052239038 0.19290319 -0.14564122 0.20687492 0.1112596 0.21804786 0.23688905 0.20789158
0.12551124 0.207798 0.2140732 0.2397332 0.24510211 0.17244916 0.10333435 0.22769181
-0.13806543 0.26040378 0.2502813 0.10032262 0.15704218 0.2103881 0.10198893 0.16998687
0.2183425 0.10558899 0.19295831 0.24100694 0.17020752 0.15887934 0.23568478 0.13243634
0.13300288 -0.16245267 0.10623679 0.118687734 -0.14484899 0.15918 0.23382023 0.1485985
0.1977332 0.23182054 0.25748688 0.19310091 0.0971883 0.106864884 0.110559046 0.12368007
00000000: 7b89 813e 0776 623e 0739 433e 8bb6 573e
00000010: a622 833e 97b4 f8bd 4924 013e 1e28 c83d
00000020: 4ea0 a83d 27b3 ae3d 875a 703e f9b3 ef3d
00000030: 5f29 5c3e 5a11 e93d a87f d63d c1b5 dc3d
00000040: 9af8 55bd 6a88 453e f922 15be 05d7 533e
00000050: 13dc e33d f047 5f3e 0b93 723e 88e1 543e
00000060: 0586 003e 00c9 543e 0136 5b3e 9f7c 753e
00000070: 0cfc 7a3e 8396 303e f6a0 d33d 0b28 693e
00000080: 0661 0dbe a553 853e df24 803e f275 cd3d
00000090: aacf 203e fa6f 573e 92df d03d 0a11 2e3e
000000a0: 2d95 5f3e 0a3f d83d dd96 453e 86ca 763e
000000b0: e14a 2e3e 44b1 223e 5a57 713e 649d 073e
000000c0: e831 083e fe59 26be ad92 d93d 8e12 f33d
000000d0: 4b53 14be 1500 233e 926e 6f3e 352a 183e
000000e0: 927a 4a3e 5d62 6d3e 52d5 833e 3fbc 453e
000000f0: a90a c73d fadb da3d c86c e23d fa4b fd3d

output.weight f4 [4, 64]
0.062475253 0.0524615 -0.06596082 0.09283715 0.049134728 -0.042279944 0.02507428 -0.09566967
0.03242674 -0.049692087 0.07145645 0.039960578 0.06760529 0.03169657 0.032632027 -0.06892716
-0.23681779 0.057213917 0.005520445 0.06285725 -0.0556372 0.09193207 0.07901654 0.07600497
-0.07857491 0.041894086 0.048003975 0.051454976 0.055562366 0.047107697 -0.10100197 0.06196788
0.06042575 0.06877714 0.06368817 -0.080348216 -0.11510692 0.0411018 -0.06995057 0.035242233
0.056688424 -0.10264839 0.04786029 0.060691047 0.0456114 0.043964155 0.06273197 0.033922296
0.04808222 -0.001920992 -0.074385576 0.039997805 -0.09440076 0.05387951 0.057869047 0.049620703
0.06083481 0.027306532 0.0624192 0.045121744 0.04172354 0.036932744 0.030044677 0.033611506
0.06616413 0.05939507 -0.07049413 0.105764054 0.04009757 -0.0023914946 0.047001075 -0.02683011
0.019147119 0.007144874 0.076978184 0.035550755 0.07937466 0.03155588 0.049464136 0.0154177
-0.04527712 0.06331885 0.053341962 0.048009545 0.018020228 0.10616701 0.079707414 0.08679974
-0.041037675 0.05632973 0.046792366 0.08401847 0.049849607 0.03972945 -0.00011780883 0.04108706
0.0012871285 0.065815814 0.06259634 -0.0033665027 -0.052586503 0.046972543 0.013608499 0.0524564
0.04331787 -0.00053756725 0.046495818 0.040286522 0.018388094 0.04749474 0.07858029 0.026834361
0.022824576 -0.017043753 -0.016922016 0.048642978 -0.05843489 0.03765204 0.058945764 0.030830925
0.063533165 0.03230566 0.06938422 0.050490227 0.019472647 0.023920234 0.035829637 0.03974898
0.033598848 0.05011154 -0.07117236 0.097811334 -0.0039687394 0.051999133 0.06803223 -0.040138833
0.05890694 -0.024323884 0.004889461 0.06276323 0.0056423014 0.04792148 0.06356351 -0.032052133
-0.0814887 0.013320423 0.069126286 -0.017192481 -0.06170116 0.100964546 0.028044548 0.04877356
-0.04843115 0.052152418 0.035069667 -0.016292749 0.06450066 -0.041366328 -0.053846378 -0.0055103586
0.010122151 0.015379667 -0.030811142 -0.053298954 -0.05769749 0.049581714 0.01378027 0.05112005
0.08452516 -0.05609094 -0.014047902 0.02474794 0.05476489 0.07363752 0.004923711 0.06461816
0.05844505 0.069728166 0.08448528 0.050172396 -0.019412663 -0.013491964 0.061712343 0.04783818
0.06203863 0.05382462 0.0007960036 0.049902834 0.06309366 0.06899178 0.060975008 0.06957682
0.03105714 0.03102024 -0.08720108 0.108565494 0.008253511 0.0075719035 0.074201584 -0.06044514
0.07136229 -0.0036272546 -0.0036177202 0.04853487 0.027952015 0.062040884 0.052321125 -0.03254498
-0.1828182 0.028113395 -0.0059796358 0.028963083 0.07044892 0.06790567 0.016108926 0.054384485
-0.05718384 0.06264416 0.003334355 0.01695315 0.072160736 0.06923563 -0.037332732 0.028827565
-0.02547342 -0.027872931 0.005159123 0.023054289 -0.06398506 0.021301577 -0.04261461 0.049094826
0.07852896 -0.05999593 0.07389615 0.030968498 -0.008766596 -0.15202954 0.017996993 0.06903385
0.06758603 0.07107394 -0.068310484 0.083266065 0.06871818 0.04502048 0.037207544 0.068358205
0.09472909 0.060152173 0.028540125 -0.00039149646 0.030493435 0.07915346 0.061517544 0.0629603
00000000: 0de6 7f3d dfe1 563d 7716 87bd 6721 be3d
00000010: 7f41 493d bc2d 2dbd 9468 cd3c 76ee c3bd
00000020: e7d1 043d ee89 4bbd c257 923d b4ad 233d
00000030: a474 8a3d 43d4 013d 29a9 053d af29 8dbd
00000040: 5d80 72be 2459 6a3d d9e4 b43b 4dbb 803d
00000050: d5e3 63bd e246 bc3d 6cd3 a13d 7ea8 9b3d
00000060: e2eb a0bd 2299 2b3d d19f 443d 74c2 523d
00000070: 5d95 633d 00f4 403d 1fda cebd 08d2 7d3d
00000080: fe80 773d 07db 8c3d f16e 823d 9b8d a4bd
00000090: 2dbd ebbd 5c5a 283d 3f42 8fbd 295a 103d
000000a0: 1f32 683d 5239 d2bd 2709 443d 2d97 783d
000000b0: 05d3 3a3d c213 343d 9e79 803d 1bf2 0a3d
000000c0: ddf1 443d ccc9 fbba 7757 98bd bdd4 233d
000000d0: 3055 c1bd c3b0 5c3d 1808 6d3d 143f 4b3d
000000e0: ec2d 793d f3b1 df3c 46ab 7f3d 94d1 383d
000000f0: 4de6 2a3d ca46 173d 4120 f63c 38ac 093d
00000100: 0f81 873d 3f48 733d 3a5f 90bd d39a d83d
00000110: 593d 243d 9fba 1cbb 3384 403d d2ca dbbc
00000120: 6bda 9c3c 8c1f ea3b bda6 9d3d ab9d 113d
00000130: 2f8f a23d bd40 013d e89a 4a3d 859a 7c3c
00000140: 8074 39bd 50ad 813d 1a7d 5a3d a8a5 443d
00000150: 289f 933c 176e d93d a43d a33d 10c4 b13d
00000160: 1f17 28bd 01ba 663d 5aa9 3f3d e011 ac3d
00000170: 1a2f 4c3d 59bb 223d 2210 f7b8 e84a 283d
00000180: deb4 a83a 71ca 863d 8332 803d 8ba0 5cbb
00000190: f264 57bd 4866 403d 2ff6 5e3c 86dc 563d
000001a0: 146e 313d 87eb 0cba 6672 3e3d 7b03 253d
000001b0: a1a2 963c d889 423d b4ee a03d bcd3 db3c
000001c0: 9bfa ba3c 579f 8bbc 0aa0 8abc dc3d 473d
000001d0: 6c59 6fbd 0739 1a3d 1d71 713d 2391 fc3c
000001e0: ad1d 823d f152 043d 5019 8e3d d7ce 4e3d
000001f0: 1a85 9f3c 5ef4 c33c 19c2 123d d4cf 223d
00000200: f29e 093d c241 4d3d d0c2 91bd 4f51 c83d
00000210: 330c 82bb 0bfd 543d 7b54 8b3d 9e68 24bd
00000220: 6748 713d e242 c7bc c637 a03b 028a 803d
00000230: 0ee3 b83b 5049 443d 962d 823d 1949 03bd
00000240: 8ce3 a6bd e73d 5a3c 1592 8d3d 3fd7 8cbc
00000250: 5bba 7cbd 80c6 ce3d aebd e53c c9c6 473d
00000260: be5f 46bd c69d 553d 36a5 0f3d 5f78 85bc
00000270: ec18 843d bd6f 29bd 058e 5cbd 3d90 b4bb
00000280: 61d7 253c 00fb 7b3c a667 fcbc 0150 5abd
00000290: 3454 6cbd 3216 4b3d a4c6 613c 4263 513d
000002a0: 871b ad3d 9dbf 65bd 2c29 66bc 31bc ca3c
000002b0: 2651 603d 45cf 963d 1557 a13b 8756 843d
000002c0: 1464 6f3d a4cd 8e3d 9e06 ad3d 9281 4d3d
000002d0: 4e07 9fbc 660d 5dbc 15c6 7c3d f8f1 433d
000002e0: 381c 7e3d 3477 5c3d e6aa 503a ea66 4c3d
000002f0: 4037 813d 904b 8d3d eec0 793d 4b7e 8e3d
00000300: 8b6b fe3c 291e fe3c 7b96 b2bd 9657 de3d
00000310: bc39 073c bb1d f83b 00f7 973d 5395 77bd
00000320: 6426 923d 3cb7 6dbb 4617 6dbb 80cc 463d
00000330: a0fb e43c 951e 7e3d ad4e 563d e34d 05bd
00000340: b234 3bbe 104e e63c d2f0 c3bb fd43 ed3c
00000350: 8647 903d 2112 8b3d def6 833c 44c2 5e3d
00000360: 9a39 6abd 954b 803d 3285 5a3b 55e1 8a3c
00000370: 02c9 933d 69cb 8d3d 35ea 18bd c927 ec3c
00000380: a2ad d0bc c655 e4bc dc0d a93b 59dc bc3c
00000390: 990a 83bd a580 ae3c a88c 2ebd a817 493d
000003a0: cbd3 a03d 4bbe 75bd dd56 973d a6b1 fd3c
000003b0: c5a1 0fbc a2ad 1bbe 6e6e 933c 9f61 8d3d
000003c0: 8b6a 8a3d 378f 913d 5ee6 8bbd 6687 aa3d
000003d0: 1ebc 8c3d 6567 383d f066 183d 63ff 8b3d
000003e0: 5301 c23d 2062 763d fbcc e93c c441 cdb9
000003f0: 5ecd f93c 361b a23d d2f9 7b3d 54f1 803d

output.bias f4 [4]
1.3035282 1.1432656 1.2166636 1.2250658
00000000: 03da a63f 8756 923f a2bb 9b3f f5ce 9c3f
