experiments/navigate_1443_18Oct22075906.pth (torch_old, 54660 bytes, 6 tensors)

hidden_layers.0.weight f4 [128, 37]
00000000: 9a1f 4b3e b57c bdbe 9c48 bfbe 6b7f b6be
00000010: 03c4 8abf 6962 943b 5114 513b 65f3 f53d
00000020: f9d7 103e 5d1d 373e 479c 37bd c15c 9dbd
00000030: 3881 c6bd 2828 cfbd 3d67 803c e6f2 133d
00000040: 2b6d 703d ef72 203d 5384 e2bd 3f3c 05be
00000050: 383b be3d 5b68 823d 097e c23d 9942 4b3d
00000060: d0bb 493c 15d8 2e3b b90c 073c 8ad2 d33c
00000070: ab42 babb 6849 053d 77e0 cebb 500f 253d
00000080: 761a 62bc 79a3 173d 848a 00bd 7970 dbbc
00000090: 36ec 8e3b 1062 8e3d fc39 d63d 8fc9 ae3d
000000a0: b787 c93d 08c4 693c 50f6 de3d 1445 07bf
000000b0: c3e8 cabe 81ef f4be 6493 bcbf 9e88 393c
000000c0: 2f2f 0dbb 8843 f83c 74ca be3c 3845 803d
000000d0: 43f2 f23c 606a c93c 365c 863d 73f9 923d
000000e0: 67cf 4a3d b341 abbd c00f b2bd f5c0 9bbd
000000f0: 5d51 8ebd b9cb 4e3d 7e7c 18bd e5be aebc
00000100: 8526 e7bc a39b b93c 7c6d c83d 1d9a 3e3d
00000110: 9e08 a63d 3ee7 de3d 644b d03d b743 073d
00000120: a19c a13a 4ccf a43a 36c2 bd3d 7c4a fe3d
00000130: a76b 063d 61fc a83d f8a5 cc3b 15c2 d4be
00000140: 38e3 333e 17c7 5b3e dedb 703e ad1f 84be
00000150: 2926 a0bc d239 a9bc c381 3c3d 2b87 d9bb
00000160: bed9 47bd 9d99 9abd ba5f a43d d4b5 623d
00000170: 8d41 fa3d 9c11 bf3d 3ab7 14bf 1690 eb3d
00000180: a2bb 533d 9370 353d 4deb 8abe b4e6 0abc
00000190: 1c82 5c3d d5ce 683d c494 473d 0bf0 0c3e
000001a0: 8345 4bbe b884 2d3c 595f bfbc e379 8cbc
000001b0: 5ae9 033e 6315 7c3b d228 67bc 3816 a23e
000001c0: 0319 aabe 8b97 62be c429 54be 4851 93bf
000001d0: e774 05bd 0431 163c e3f7 123d 694a ba3d
000001e0: 631b 0b3e 68a9 2dbd af8b 293d 5540 d0bd
000001f0: a6fe 053b 9c9c dfbd 422d aebc 272d a63c
00000200: a748 c6bd 2bcb 38be 7801 bfbe f68d cf3c
00000210: 55b9 0fbd 2037 fbbb f189 a73d d8cd 873d
00000220: df3e e9bc 818d 053d 8dd0 db3c 628d 0a3e
00000230: 1220 1a3e 3c74 8f3d 979f da3d 4bc6 5f3d
00000240: e4fa 103d c5c7 013b 3998 763c ae98 ad3b
00000250: 360c 72be cf83 36bb 3b53 4cbe f83b 7cbe
00000260: d535 aabe b7b1 41be cc47 0b3d 2365 473c
00000270: 1ca8 33be bac5 53bf 6980 8dbd 1c5c 3fbe
00000280: 5a94 09bd 789a 80be 9734 bcbd 1fa8 fbbe
00000290: 858d ca3b f502 823d 5c7d 43be c839 1cbf
000002a0: dc92 27be 0a97 b6bd 531b 883d fd5f 5cbe
000002b0: 8c03 4b3d d4aa 65be fb13 40be b856 583e
000002c0: a169 6fbd d8fd 8abf 652e 9abd 7bf2 a6be
000002d0: 4449 d93d 9f3f 91be e583 fabd 7db2 113e
000002e0: cf32 1d3d aa57 1fbc 399f 14bd ec35 33bc
000002f0: b7a8 a5bc caee c73d f493 653e 9d07 dcbd
00000300: 9b6f 75be 4534 88be 675b d1bf 055a adbc
00000310: 865e 79bd 2881 4cbd 3852 fabd 0c69 b6bc
00000320: 7e39 dcbc 2733 c6ba b82a 8b3c 921e 193b
00000330: 56ba 0fbc e8c1 ff3d afdf 9e3d 8602 d33d
00000340: d745 5e3d 4a73 c53c b201 f53a a45a 213c
00000350: a7a4 65bc d9ba bd3c ff47 803d a103 883d
00000360: 2aa1 f3bd 1fca 12be 699c b33d b104 30bf
00000370: f87a d53c 24c8 053a f840 7fbd a626 03bd
00000380: 4828 573c 2c0f 9bbd 5b4f 6a3d 58d8 dfbe
00000390: 1465 c43d 6ed2 333d 14d7 263e 86ce 473e
000003a0: 96a9 2c3c d964 de3d dd6f 6e3d ec77 35bd
000003b0: 5084 2dbd 08e4 9fbd d118 e6bd 9af0 8a3b
000003c0: be31 7fbd bfc5 8a3e ce9e 69be 364a 62bc
000003d0: e237 5a3d 57d3 32bb 2cac bf3d fdde 9fbe
000003e0: fad6 8bbc 6b44 99bc 48f5 ae3c b631 123e
000003f0: 3179 95be c5de e03d d2e3 f13d b973 e53d
0.19836274 -0.37009206 -0.37360084 -0.35644087 -1.0841068 0.004528333 0.0031902979 0.120093144
0.14144887 0.17882295 -0.044826772 -0.07683707 -0.09692615 -0.10115081 0.015674228 0.036120318
0.05869786 0.03917211 -0.11060395 -0.13011263 0.09288639 0.063675605 0.094966955 0.04962406
0.012312844 0.0026679088 0.008242779 0.025857229 -0.005684217 0.03254071 -0.0063133794 0.040297806
-0.013800254 0.037021134 -0.0313821 -0.02678703 0.0043616546 0.06952298 0.104602784 0.08534538
0.09840339 0.014267929 0.10886824 -0.5283978 -0.39630708 -0.47838977 -1.473248 0.011324076
-0.0021543016 0.030305639 0.023289897 0.062632024 0.029656535 0.024586856 0.065605566 0.07176485
0.0495142 -0.083621405 -0.0869441 -0.07605163 -0.069491126 0.050487254 -0.0372281 -0.02133126
-0.02821661 0.022657221 0.097865075 0.046533693 0.08107112 0.1088395 0.101706296 0.033023562
0.0012330004 0.0012573986 0.092655584 0.124165505 0.03281751 0.082512625 0.006245371 -0.41554323
0.17567146 0.21462665 0.23521373 -0.25805417 -0.019549446 -0.020657454 0.046022188 -0.0066384277
-0.04879164 -0.07548831 0.08026071 0.055349186 0.12219534 0.093295306 -0.5809208 0.115020916
0.051692612 0.044296812 -0.27132645 -0.0084778555 0.05383502 0.056837875 0.04872586 0.13763444
-0.19850735 0.010590725 -0.023360895 -0.017147964 0.12881985 0.0038464896 -0.014108853 0.31657577
-0.33222207 -0.22128122 -0.20719057 -1.150918 -0.03258219 0.00916696 0.035880934 0.09096224
0.13584666 -0.042397887 0.04139298 -0.1016852 0.0020445972 -0.10918543 -0.021261815 0.020285202
-0.09681826 -0.18046252 -0.37305808 0.025336247 -0.035088856 -0.0076664835 0.08180607 0.066310585
-0.028472362 0.03260565 0.026832843 0.13530496 0.15051296 0.07004592 0.106749706 0.054632466
0.035395518 0.001980291 0.015050941 0.005297742 -0.2363747 -0.002784956 -0.19953625 -0.24632251
-0.33244196 -0.18915449 0.034004018 0.012170109 -0.17544597 -0.8272358 -0.06909258 -0.1868748
-0.033588745 -0.2511785 -0.09189718 -0.49151704 0.006181421 0.0634822 -0.1909079 -0.6102567
-0.16364616 -0.08915527 0.06645837 -0.21520992 0.04956393 -0.22428447 -0.18757622 0.2112683
-0.058450345 -1.0858717 -0.0752838 -0.32606873 0.106096774 -0.28368852 -0.12232188 0.14228244
0.038378533 -0.009725491 -0.03628466 -0.010938149 -0.020222051 0.09762342 0.22419721 -0.107436396
-0.23968355 -0.26602378 -1.6356019 -0.021161089 -0.06088116 -0.04992786 -0.12222713 -0.022266887
-0.026882883 -0.0015121446 0.016988143 0.0023364169 -0.008772453 0.124881566 0.07757508 0.10303216
0.054265823 0.024102826 0.0018692522 0.009848271 -0.014016307 0.023160385 0.06263732 0.06641317
-0.11895974 -0.14334916 0.08770067 -0.6875716 0.026059613 0.00051033706 -0.06231782 -0.03201928
0.013132162 -0.07571253 0.057204586 -0.43719745 0.095895916 0.043901853 0.16292983 0.19512376
0.010538479 0.10859079 0.05821215 -0.04430382 -0.04236251 -0.078071654 -0.11235202 0.0042401077
-0.062303297 0.27103993 -0.22814485 -0.013811639 0.05327595 -0.0027286613 0.09359011 -0.31224814
-0.017070282 -0.018709382 0.021357194 0.14276776 -0.29194024 0.1097999 0.118110314 0.11203713

hidden_layers.0.bias f4 [128]
00000000: ac12 f23b c613 1c3d a06f 94bd a7b2 30bd
00000010: a83c abbd 7f5b cfbd 2504 dabc 7ca2 673d
00000020: 174d 31be 17c7 91bc 4379 15be 0095 cabd
00000030: d2fc d4bd 6e49 1dbe 428d cbbd a92d 2ebd
00000040: 0157 61bd e7ca 15be c28d c0bd 42c2 14bd
00000050: d398 3dbe 0201 4b3d c2ea b63d f16e 94bd
00000060: 4e5a 97bd 2c12 f93d 85fb 933d 8e9a 3dbe
00000070: 9e29 efbd 2828 2abe a2c0 8d3d 60f6 a83d
00000080: 6782 9bbd e06b 853c edea 89bc 6866 92be
00000090: 7401 51bd b194 873b ce7d cebd 6e12 0c3d
000000a0: f2a5 abbc ac50 5d3d 6bd4 de3d 1830 46b9
000000b0: 33a6 ddbc 643e 5bbe 6378 183d 1f05 0bbe
000000c0: 4ebe 69be 1863 953d b988 e4bc bd4c 17bc
000000d0: 506b 0abd 9349 a13c fba9 f2bc 69bc 0c3c
000000e0: 1b5f 32be fb21 d1bd 565d b9ba bbcd 04be
000000f0: 121c 44be 0a68 f8bc be78 353d 78ba bbbd
00000100: ae7e e93d f28d 393d 3ff2 84bd 5d06 e5bd
00000110: 4ec5 24be f6ca e4bd 30cd d9ba 8b88 b1bd
00000120: c47e 113d 7b99 1bbe 80e4 4bbe 66e6 96bd
00000130: 5bb2 bc3d 3e0f 1fbe 3649 863c 0b1b a7bd
00000140: c75f fabd 95f2 a4bc c792 32bc 927c d5bd
00000150: 6973 e8bd 51b3 1e3e 6c70 213a 5880 30be
00000160: 780f 80bc 8c74 dd3c 39a2 ac3d 377a 36be
00000170: 77cb 0dbe 2354 5cbe af81 a1bd 1a6b 753d
00000180: 5196 d2bd d3d0 56be b3d2 38bd 576e ed3d
00000190: 62d3 4cbe 6000 83be 3454 593d 3528 fb3d
000001a0: 39c8 9dbe 1246 0bbe 8ab7 40be 9dab b33d
000001b0: 5fc9 48be c91e e4bd 50a0 c53d 8540 14bd
000001c0: 2a11 f3bd 1cfb 13be f29a 88bc b2cd 883d
000001d0: 53d8 06be 0442 9c3d 3bef c2bc 05fd 0cbe
000001e0: 2653 bebd 8a58 e73c 8dec afbb 6c92 7bbe
000001f0: 4adf f6bd 60da b63c 5878 8c3d 899c 3dbd
0.00738748 0.038104795 -0.07247853 -0.043139126 -0.08361179 -0.10124873 -0.026613304 0.05655144
-0.17314564 -0.017795129 -0.14597039 -0.09891701 -0.10399784 -0.15360042 -0.09939052 -0.042524014
-0.055014614 -0.14628182 -0.09402038 -0.03631807 -0.18515329 0.049561508 0.08931495 -0.07247723
-0.07390271 0.12161669 0.07225708 -0.18515989 -0.1167786 -0.16616881 0.069215074 0.08250117
-0.07593232 0.01628679 -0.016835654 -0.28593755 -0.051026776 0.0041375984 -0.10082589 0.034197263
-0.020953152 0.054032013 0.10880359 -0.00018900668 -0.027056789 -0.21410519 0.037224185 -0.13576172
-0.22826502 0.07294291 -0.027897226 -0.009234604 -0.033793747 0.019688403 -0.029622069 0.008589842
-0.17419092 -0.102115594 -0.0014142196 -0.12969105 -0.19151333 -0.030323047 0.0443046 -0.091664255
0.11401115 0.045301385 -0.06491517 -0.11182854 -0.16090891 -0.11171524 -0.0016616937 -0.08668622
0.035521284 -0.15195267 -0.19911385 -0.07368164 0.09213706 -0.15533158 0.016392332 -0.08159455
-0.12225299 -0.020135203 -0.010899252 -0.104241505 -0.11350138 0.15498091 0.0006158415 -0.1723646
-0.015632376 0.027033113 0.08429379 -0.17820059 -0.13847147 -0.2151647 -0.07886063 0.059916593
-0.10282577 -0.20978098 -0.045122813 0.11593311 -0.20002511 -0.25586224 0.053058818 0.12263528
-0.3081682 -0.13600948 -0.18820015 0.08772967 -0.19608067 -0.11138684 0.09649718 -0.036194343
-0.11868508 -0.1445126 -0.016675446 0.06679858 -0.13168459 0.07629779 -0.023795715 -0.13768394
-0.09293203 0.02824046 -0.005368775 -0.24567574 -0.12054308 0.022320926 0.06858891 -0.04629186

hidden_layers.1.weight f4 [64, 128]
00000000: 6850 10bd 31cd 7bbd 106f bcbe 0d9a 8f3d
00000010: 1c95 103e 2c6e c33d dc0a 1abe 5bd8 1fbe
00000020: 3381 d13d d580 d8bc 457c 8cbd 97f5 23bb
00000030: 5d68 bcbe 2710 823d 172c 79be 2faa 853d
00000040: 508f b7be 4cb8 66be bd82 18ba a1d9 9b3d
00000050: 23f6 5a3e 4386 2c3d 279d c33c 7ab1 1ebe
00000060: 839b 45bb c5a8 1d3d adf4 08be 042b 5fbe
00000070: c775 c3bc 80dd a43d f8c2 e4be 58e7 7f3d
00000080: 702f 12be 2863 c1bd 3186 56be aeea 3fbd
00000090: dc53 bcbc 76c2 5abd eaf5 a4be 9041 c53a
000000a0: febd 5dbd e9ce 9dbd 979d 26bd e421 9a3c
000000b0: 47ca f33c 62ba 21bc 672c 8bbd ff1f 72bd
000000c0: 32f6 6fbd 06d8 5a3c 0c0f d7bd a21f 9f3d
000000d0: 704f 92bd 0687 7c39 f55b 9bbe a210 bb3d
000000e0: 83a5 d13d 34f0 a83d b70e 0c3e 5c93 723d
000000f0: ca21 bebd 1fb2 0bbd 39e6 85be d177 8a3d
00000100: a5e4 823d 7211 bd3d 9425 8dbc 8ff4 0ebf
00000110: eecd 723d ac0b 1ebd ddf9 2e3d 44c9 3abd
00000120: a98b 7bbe 165f f6bd 5e2f 9ebc c2db 863d
00000130: 568e ffbd 71e9 9ebd d564 c4bd 4449 033e
00000140: f924 c3bc c9c0 34be 88a9 85bd 02c4 f43c
00000150: 8004 e4bc 8b78 473c 8d57 ecbe b12b 513d
00000160: 268b efba 756b 11bd d8f2 7d3c e5b8 55bc
00000170: e78e 1bbc 26bf 51bc 1286 493d 0447 92bc
00000180: 8268 7cbe df47 c93d 90b2 1abe 95cc 02bd
00000190: 7c4a 67be 9dc9 973d 0d79 2bbd 7fa4 123d
000001a0: ae56 203d 4309 03bd 14a0 9dbc 29a4 b5be
000001b0: 95b5 af3d 568c adbc 836b 46be e498 32bd
000001c0: 5a8a 5f3d b002 97be e258 7ebc 86a0 02bf
000001d0: e5df 04be c840 353d 4e13 dfbb 4f28 b13d
000001e0: 847c 44bc 96b0 c9bd 92dc e73c c730 ebbb
000001f0: 8d11 a1be 0445 843d c3ab 99bc 111f c7bd
00000200: ea1b 26be 9bbd 15bf 6d4c e03a 52f9 51be
00000210: 54eb 513e d5b5 83be 970a 903c 1c50 87be
00000220: 05ea 2b3e 40c6 74be 7af7 f8be d47c 34bf
00000230: 3e24 123d e88b 803a 3d2e ae3b 232c 03be
00000240: 82e2 39bc fa22 80ba 2079 203c 4f5e 383d
00000250: 8aa7 4e3e 7c1b fc3c f6a7 39be dc3f 60bd
00000260: 140e 40bf e79e 33bf cb1e 9abe c9c0 93ba
00000270: eae1 0abd f7b4 11be b461 173c 2795 963c
00000280: 7aad 7bbb 5923 2dbe aca4 2abc 2810 adbd
00000290: c1cf 59bc a52f e4be 2e38 2ebb 6864 73be
000002a0: 6d2d e9be cce0 80be 87f2 9bbd b389 06bf
000002b0: 06e7 d9bb cf9d 283d 0ae5 ac3d e253 233e
000002c0: f87a b5ba e94d 33be cc06 9dbb 03d5 0ebf
000002d0: 963c cf3c 7dfc 09bd 201c a03b 4ed9 96be
000002e0: 3bda ef3d be40 083e 6853 4ebf d7f3 703c
000002f0: c01d 0f3e c038 7bbe 43b6 91bc eacd a8be
00000300: 659a 1dbf 8d02 68be dec4 18bc 5be2 693c
00000310: d094 a83d dc6d 28bd 2422 b2bc 5b39 bcbe
00000320: b0d9 a1ba dc01 9f3c 32bd 2dbc 7218 04be
00000330: f845 dcbe de31 9c3e f2e5 ed3b a01d 5bbd
00000340: 8cc2 eebe 5d6b 8eba 25aa 82bc 43f1 b8be
00000350: 358a 5b3b 4bec 5cbf b222 dbba 45f2 0e3c
00000360: 1ba7 7dbe d712 a1be dc43 8fbe fac7 b5bd
00000370: b3f7 83be aac4 a8bd 5e17 6fbc 2331 5abf
00000380: ae0f a03b 2db0 d9bc 01ff 82bd 581a 6dbe
00000390: 5bef 98bc 65de ed3c 98a0 c0be aef0 803e
000003a0: 1ef6 ac3c e249 66be c866 5e3c 8649 b03c
000003b0: bace 693c 7bb0 89bd 9f6f 203c 3d9d 10be
000003c0: 9bda e4bb b717 4fbb ce06 ccbd 7c18 eb3b
000003d0: d4f8 d93b b7db b8be ff33 91be 91d1 4b3e
000003e0: 43f5 c1be 2e08 71be e8ff 02be 3bcd 0f3d
000003f0: bd94 24bc 1faf 14be c5f4 263d 4af4 15bf
-0.03523293 -0.061474983 -0.36803484 0.07011805 0.1411938 0.09542498 -0.15043205 -0.15609877
0.10229721 -0.02642862 -0.0685964 -0.002501821 -0.36798373 0.06350737 -0.24333225 0.065266006
-0.35851526 -0.22531241 -0.00058178214 0.07609869 0.21382956 0.04212023 0.023878647 -0.1549739
-0.0030152507 0.03849103 -0.13374586 -0.21793753 -0.023859872 0.0805006 -0.4468 0.062476486
-0.14275908 -0.09442741 -0.20949627 -0.046854667 -0.022989206 -0.05340811 -0.32218868 0.0015049446
-0.05413627 -0.077054806 -0.040677633 0.018814988 0.02975954 -0.009871097 -0.067955784 -0.059112545
-0.0585844 0.013357168 -0.10500917 0.07769705 -0.07144058 0.00024082893 -0.30343595 0.09134032
0.10236647 0.0824894 0.13677488 0.059222564 -0.092837885 -0.034105416 -0.26152208 0.067611344
0.06391267 0.09231843 -0.017229833 -0.55841917 0.05927842 -0.03858535 0.042718757 -0.045602098
-0.24564995 -0.12029855 -0.019309696 0.06584884 -0.1247832 -0.07759369 -0.09589545 0.12820917
-0.02382134 -0.17651667 -0.06526476 0.02987862 -0.027834177 0.012174736 -0.46160546 0.051067058
-0.0018275722 -0.03550287 0.015499793 -0.013044571 -0.00949452 -0.012801921 0.049200125 -0.017856129
-0.24649242 0.098281614 -0.15107179 -0.031933386 -0.22587007 0.074115016 -0.04186349 0.035801407
0.039145164 -0.031991255 -0.01924137 -0.35476807 0.08579556 -0.021185081 -0.1937695 -0.04360284
0.0545753 -0.29494238 -0.015524121 -0.5102619 -0.12976034 0.044251233 -0.006807721 0.086502664
-0.011992577 -0.09848134 0.028303418 -0.0071774456 -0.31458703 0.06458476 -0.01875866 -0.09722722
-0.16221586 -0.5849244 0.001711262 -0.20505264 0.20499927 -0.25724664 0.017583175 -0.26428306
0.1678849 -0.23903751 -0.4862631 -0.7050297 0.035679094 0.000980732 0.0053155706 -0.12809806
-0.011345508 -0.0009776049 0.009794503 0.045011815 0.20181099 0.030774824 -0.18130478 -0.0547484
-0.7502148 -0.7016434 -0.30101618 -0.0011272664 -0.033906855 -0.14229189 0.009239603 0.018381668
-0.003840296 -0.16908015 -0.010415237 -0.08450347 -0.013294161 -0.445676 -0.0026583779 -0.2376877
-0.4554247 -0.25171506 -0.07614618 -0.5255386 -0.0066498546 0.041166123 0.08442123 0.15949968
-0.0013845852 -0.17510189 -0.00479207 -0.5579378 0.025297444 -0.033688057 0.0048861653 -0.29462665
0.11711546 0.13305947 -0.8059602 0.014706573 0.13976192 -0.24533367 -0.017787104 -0.329696
-0.6156371 -0.22657223 -0.009324281 0.014275159 0.08231509 -0.041120395 -0.021744795 -0.3676251
-0.0012348201 0.019410066 -0.01060419 -0.1289995 -0.43022132 0.30506796 0.0072600776 -0.05349505
-0.46632802 -0.0010865737 -0.015950272 -0.36121568 0.0033499126 -0.86298054 -0.0016718714 0.008724754
-0.24770777 -0.31459686 -0.2798146 -0.08876033 -0.25774917 -0.08240636 -0.0145929735 -0.85231227
0.0048846817 -0.026573265 -0.063962944 -0.2315458 -0.018668821 0.02903671 -0.37622523 0.25183624
0.021113452 -0.22489122 0.01357431 0.021519434 0.014270479 -0.06723114 0.009792238 -0.14122482
-0.0069840676 -0.0031599829 -0.099622354 0.0071745496 0.006651977 -0.3610513 -0.28359982 0.19904162
-0.37882432 -0.23538277 -0.12792933 0.035107832 -0.010045228 -0.14519928 0.040760774 -0.5857588

hidden_layers.1.bias f4 [64]
00000000: a566 863e 94fe d73d 0a88 bf3d d5c0 fb3d
00000010: 967c 8b3e 3ce7 5f3e d91b ee3d 18a8 043e
00000020: 735c 2f3e 3924 013e 0f9d 8c3e e691 013e
00000030: 01ac 5c3e 28aa 043e 16a5 d83d 1fec 1f3e
00000040: b567 d83d 2e04 e03d 531c 7a3e f278 2c3e
00000050: 9374 0abe a79d 773e 663a 07be 565b 823e
00000060: d9c4 053e 6570 8d3e 899c 753e 4c59 823e
00000070: d071 dc3d 5c9a aa3d cd63 1c3e 9297 393e
00000080: 67a3 44bd 3c90 883e 24e2 773e 3c3c 503e
00000090: 0c77 20be 88d4 203e b317 0b3e 2bbe 453e
000000a0: 7d06 383e d09f 2c3e f42d 023e c3dd 783e
000000b0: 9f74 093e 5f65 7e3e 16ab 1b3e 4c6d e43d
000000c0: ee95 e03d 865f d93d c24a fe3d 5cc1 ff3d
000000d0: e9ae ef3d 3a19 743e d48c c73d d51b dc3d
000000e0: bfad 0b3e e6a9 7f3e a4df 703e 523c e53d
000000f0: c088 bd3d d08b c93d d0b5 dc3d 6900 333e
0.26250187 0.10546604 0.09352119 0.12292639 0.2724349 0.21865553 0.11626405 0.12954748
0.1712511 0.12611474 0.27463576 0.12653312 0.2154999 0.12955534 0.10578363 0.15617417
0.105666555 0.10938297 0.24424867 0.16843012 -0.13521032 0.24181233 -0.13205871 0.2546031
0.13063373 0.27624813 0.23985495 0.25458753 0.107638955 0.08330223 0.15272446 0.18124226
-0.048007395 0.26672542 0.2420736 0.20335478 -0.15670413 0.15706074 0.1358326 0.19310825
0.17971225 0.16857839 0.12712842 0.24303345 0.13423394 0.24843358 0.15201983 0.11153659
0.10966097 0.10613923 0.12416603 0.12488052 0.11703283 0.23837748 0.09743658 0.10747496
0.13640498 0.24967155 0.23522812 0.11193146 0.092545986 0.0984112 0.107768655 0.17480625

output.weight f4 [4, 64]
00000000: feb2 953d f099 07be dc6e 133d daaf 263d
00000010: 98d1 7d3d f7b2 1e3d 5e18 f63c fe78 e23c
00000020: caed 103d 159f d03c 8122 823d b2a3 ed3c
00000030: 9af6 613d 0b49 133d 93ef f93c 2877 013d
00000040: 8785 e3bd baf4 0f3d 1ad2 a23d b3e0 463d
00000050: a0ba 64bd 03ab 573d 6659 a13d 5fa8 ea3d
00000060: 4b7e c3bd 4377 af3d e993 5b3d f5c2 823d
00000070: a776 073d 284d b0bd fb70 4cbd 19b5 203d
00000080: e683 a7bd b304 823d e461 a43d a2fa 07be
00000090: 4d7c 5c3c bc53 243d 9fde cdbd 0859 373d
000000a0: 82e8 153d b701 c7bd 87f7 f4bd e708 913d
000000b0: 0911 a3bd 7444 8d3d 8024 fa3c a04a f73c
000000c0: 2906 123d 5983 053d bab0 c3bd 73b9 0d3d
000000d0: a41b e8bd ee07 7a3d 5d86 033d 4255 fb3c
000000e0: fc82 2d3d b373 673d 231f 523d 3224 e43c
000000f0: 6804 f23c d5a2 193d 1cae 173d 5417 273d
00000100: 061d 813d 451b 36bc a3b3 3b3c 7aef 233d
00000110: 333d 893d 906c 2e3d cc6d 1c3d c172 ef3c
00000120: 0cc2 133d 8eab 1a3d ae89 583d e196 393d
00000130: 1a05 813d 08c2 263d 53f4 253d bd93 9e3c
00000140: b823 22bd 3f21 113d 5ae5 d13d 5351 063d
00000150: 38e0 7ebd 0b4e 773d a2fd 6bbd fdd1 0a3e
00000160: dc2c 683b e6a8 b73d f2c2 2a3d ab12 7d3d
00000170: 1aa4 053d aae7 dbbd 35f5 40bd c342 ac3c
00000180: 50dc f0bd bb2f 2f3d feac c63d 11b0 bfbd
00000190: 7a9f f3bb 4010 ee3c 8b2d 02bd 1d53 153d
000001a0: 781b 0c3d bd6e 93bd b440 48bc b482 a13d
000001b0: 66ea 1b3c fb94 a63d 911d eb3c 8cae 143d
000001c0: ff9f 163d 95f6 133d 5be1 0d3d 9c1b b13c
000001d0: 8784 5dbc 0100 123d 8e3d 063d e15d 393d
000001e0: 3781 2c3d 939b 5d3d 517b 823d 16bb 223d
000001f0: 95a7 103d 0c52 f43c eabd a43c c6a7 433d
00000200: 06e7 34bc cabd 99bd 7b76 823d 1ab1 583d
00000210: 3c5b 9bbc 78df 7c3d 9f25 2b3d 65e1 963d
00000220: 526f 5c3d bfcb 2d3d 7a70 9f3c d5c0 653d
00000230: dfc4 8b3c 7edf 333d 31f6 453d fe0d 4b3d
00000240: 76b8 8cbd af02 71bd e77c 503d 8a5a 12bd
00000250: 9476 bd3b 3c99 973a 1df4 103a cda0 543d
00000260: 94b6 7a3d 19de 0f3d 0399 493c c633 923b
00000270: 4940 3d3d 97df 5bbd 1391 9fbe 7c26 5d3d
00000280: d0ea a9bd 7c1e 91bb 39e8 e83c e604 49bd
00000290: 160b 423d da2f 7c3d a0af 43bd 8815 143d
000002a0: 82f4 8c3d 00a5 6fbd 805f 6fbd e454 af3d
000002b0: 5514 3d3d 1a7d 813c c7be 663d 29c5 293d
000002c0: da58 793d b038 273d 4da9 e3bd 1f22 393d
000002d0: 7a8c 4fbd 0223 333d 151d 833d 6ba4 693d
000002e0: 7d7a 3c3d 0c24 a3bc b9b9 bd3c b6f5 723d
000002f0: 4328 253d 2119 403d bbf4 753d 5799 dd3c
00000300: 3ab5 c93c 2a21 90bd 4bfb 393d 6ca2 443d
00000310: 66eb cd3c 98d3 9f3d d267 5e3d 1ce0 5ebc
00000320: 3a44 803d e97f 8c3d 6a97 553c 6356 2b3d
00000330: db06 573d 0640 c13c c9d1 383d 8433 1d3d
00000340: 5539 8fbd b020 863d db0b 413d 4fbb 573d
00000350: b216 c93d e076 6b3c 9515 7ebc 32c0 b93d
00000360: baed e7bd 8353 2d3d 603c f63b bfb1 9d3c
00000370: 0175 723d 8465 20be fcaa 88be 5ffe 4d3d
00000380: 29d7 14be 0501 023c 85f7 183c 2afa 54bd
00000390: 3bae 94bd 2902 e63c d0ec 26bd 1330 553d
000003a0: c71e 0c3d f36a 5cbd caa7 a4bd 0f99 453d
000003b0: a3f4 903d f218 9b3c 75dc 083d ecd1 483d
000003c0: f48d 803d 586b 173d 94eb 963d 0034 1a3d
000003d0: a817 56bd bb71 433d f1b3 683d 80a0 753d
000003e0: 170f 9ebd 237b b63c 13f1 033d 5a23 513d
000003f0: 0fa0 493d 0a1f 473d 14db 3d3d a55d 473d
0.07309531 -0.13242316 0.035994396 0.04069505 0.061967462 0.038744893 0.030040916 0.027645584
0.035383023 0.025466481 0.06354237 0.02900872 0.05516682 0.03595833 0.030509746 0.031607777
-0.11109453 0.0351455 0.0795023 0.048554134 -0.055842042 0.052653324 0.078783795 0.114578955
-0.09545573 0.08567669 0.053607855 0.06384841 0.03307214 -0.086084664 -0.049912434 0.03923521
-0.081794545 0.063485526 0.08026484 -0.13279203 0.01345737 0.040118918 -0.10052227 0.04476264
0.03659869 -0.09717124 -0.119612746 0.07081776 -0.079622336 0.06897822 0.030534983 0.030186951
0.035650406 0.032595966 -0.09555192 0.034600686 -0.11333397 0.06104272 0.03211056 0.030680303
0.042361245 0.056506824 0.051299226 0.02784929 0.029543117 0.037508804 0.037031278 0.04079373
0.06304364 -0.0111149 0.011456403 0.040023305 0.06701126 0.042584002 0.038190648 0.029229524
0.03607373 0.037761264 0.052865677 0.045309905 0.06299801 0.040712386 0.04051621 0.019357556
-0.039584845 0.035432097 0.102488235 0.0327924 -0.06222555 0.060377162 -0.05761493 0.13556667
0.003542713 0.08967762 0.04168982 0.06178538 0.032627203 -0.10737546 -0.047108848 0.021027928
-0.11760771 0.04277013 0.097009644 -0.09359754 -0.0074347826 0.029060483 -0.031781714 0.036456216
0.034205884 -0.07198856 -0.012222458 0.07886258 0.009516334 0.081338845 0.028700622 0.036299273
0.036773678 0.03612383 0.034638744 0.02161961 -0.0135203665 0.035644535 0.032773547 0.045255546
0.042115416 0.054103445 0.06371177 0.0397292 0.03531607 0.02982428 0.02011009 0.047767423
-0.011041408 -0.075069025 0.063702546 0.052903272 -0.018964402 0.061736554 0.041783925 0.07367209
0.0538171 0.042430636 0.019462813 0.056092102 0.017061649 0.04391431 0.04833049 0.04957389
-0.06871121 -0.05884045 0.050900366 -0.035730876 0.005781958 0.0011566053 0.000552954 0.051911164
0.061209276 0.03512392 0.012304547 0.0044617383 0.046203885 -0.05368003 -0.3116537 0.05399178
-0.0829674 -0.004428683 0.028431045 -0.049076937 0.047373854 0.061569072 -0.04777491 0.036153346
0.06882574 -0.058506966 -0.058440685 0.085611135 0.04616197 0.015806723 0.056334283 0.041447792
0.06087575 0.040825546 -0.11116276 0.045198556 -0.05067108 0.043734558 0.06402031 0.057041567
0.04601525 -0.01991465 0.023159849 0.05931636 0.0403216 0.046898965 0.060047846 0.027050657
0.024622548 -0.070375755 0.045405667 0.04800646 0.02513666 0.0780403 0.05429823 -0.0136032365
0.06263013 0.068603344 0.013036588 0.04183043 0.052496772 0.023590099 0.04512194 0.038379207
-0.06993357 0.065492034 0.047130447 0.052668866 0.09818782 0.014371604 -0.015508075 0.090698615
-0.113246396 0.04231597 0.0075145215 0.019249795 0.059193615 -0.15663725 -0.2669295 0.050291415
-0.14535202 0.007934813 0.009336357 -0.051996388 -0.07259794 0.028077202 -0.040753186 0.0520478
0.03420904 -0.053812932 -0.08039816 0.04824167 0.07077911 0.018932793 0.03341337 0.049028322
0.062770754 0.036967605 0.07369152 0.037647247 -0.052268654 0.047715884 0.05681223 0.059967518
-0.07717722 0.022275513 0.03221233 0.051059105 0.04922491 0.048613586 0.046351507 0.04867329

output.bias f4 [4]
00000000: 0f33 c73f 6aec b33f b02a bc3f 8dc6 bd3f
1.5562457 1.4056523 1.4700527 1.4826218
