experiments/navigate_1379_18Oct22075810.pth (torch_old, 54660 bytes, 6 tensors)

hidden_layers.0.weight f4 [128, 37]
000000 81 c2 48 3e 3d a2 c5 be 66 ba be be 6d f2 bd be
       0.19605447 -0.3860034 -0.37251586 -0.3709902
000010 1e 20 86 bf 73 e2 92 3b 65 56 96 3c 3b c0 d6 3d
       -1.0478551 0.0044825613 0.018351743 0.10485884
000020 cc bd 0c 3e 73 ac 3a 3e 76 af 46 bd b5 7e ad bd
       0.13744277 0.18229847 -0.048507176 -0.08471433
000030 6c b0 c4 bd 18 41 bc bd bd 6c 42 3c 88 cd 44 3d
       -0.09603962 -0.09192103 0.011866746 0.048047572
000040 ac c1 aa 3d f0 91 5a bc a5 b8 fb bd cf 4c 29 be
       0.08337721 -0.013340458 -0.122910775 -0.16533206
000050 d1 97 c2 3d be 63 6c 3d 26 d7 ba 3d b5 89 49 3d
       0.09501613 0.05771231 0.091230676 0.049203593
000060 71 84 f7 3c 2f 81 fd 3b 0a 6b 7a 3c 33 cf c4 3c
       0.03021452 0.007736347 0.015284309 0.024024582
000070 a6 5c fc bc 2c 46 c1 3c 24 d8 fa 38 28 2e 1f 3d
       -0.030805897 0.02359303 0.00011961188 0.038862377
000080 c2 38 d5 bc 2b 41 19 3d fc 1a 1e bd 4c 7a 83 bc
       -0.02602804 0.037415665 -0.038599953 -0.016049527
000090 a8 a6 27 3c 61 da 74 3d 6b f4 b8 3d 1b 62 dc 3d
       0.010232605 0.059778575 0.09030994 0.107609
0000a0 74 ec a2 3d 3f 63 a2 3c f8 4c d3 3d 14 45 07 bf
       0.07955256 0.019822715 0.10317415 -0.5283978
0000b0 c3 e8 ca be 81 ef f4 be a0 44 ba bf 81 45 07 3c
       -0.39630708 -0.47838977 -1.4552193 0.008256317
0000c0 5d d6 4e bb 36 1c 54 3c 16 aa ec 3c 86 ee 6b 3d
       -0.0031560876 0.012946179 0.028889697 0.05760052
0000d0 3a 13 8b 3c 64 59 a9 3c 98 f2 6e 3d 61 ce ad 3d
       0.016976941 0.020672508 0.058336824 0.08486629
0000e0 f5 67 21 3d 5e 2f d0 bd 7d bc ba bd 2f 2d 88 bd
       0.03940578 -0.101652846 -0.091179825 -0.06649243
0000f0 4c 67 8d bd d0 90 59 3d 2a 11 4c bd 87 90 cd bc
       -0.06904468 0.05311662 -0.049821056 -0.02509333
000100 4b f4 69 bc 9f d5 af 3b 6c 1a b0 3d 62 83 16 3d
       -0.014279435 0.005366042 0.085987896 0.03674639
000110 7b 30 b9 3d 0e 33 bd 3d 86 d1 da 3d 82 3a 69 3c
       0.0904245 0.092382535 0.10684495 0.014235141
000120 0f a8 2a 3c bd 7a e3 bb d4 ac 9e 3d ce 84 b4 3d
       0.010416045 -0.006942122 0.07747808 0.08814393
000130 2b f4 b9 3d 9d 50 a7 3d a8 e4 e4 bc a7 04 d3 be
       0.090797745 0.08169673 -0.027941063 -0.41214487
000140 25 92 2e 3e a0 c2 66 3e 58 3e 6d 3e 55 eb 7a be
       0.17047937 0.22535181 0.23168314 -0.24503835
000150 fd c4 5e bc 75 e1 92 bb 44 7d ba 3c ac fb ce bb
       -0.01359677 -0.004482443 0.02276481 -0.0063166227
000160 e6 5c 0e 39 8d b9 9c bd e5 ac 85 3d 3d d7 a7 3d
       0.00013576783 -0.076525785 0.06527118 0.0819535
000170 71 29 f7 3d 8e d3 b8 3d d6 5b 11 bf 8a 76 fb 3d
       0.12068451 0.09024726 -0.56780756 0.12278469
000180 e4 9a 54 3d c4 db e6 3c 1d a1 69 be ad 85 36 bc
       0.051905528 0.028180964 -0.22815366 -0.011140269
000190 98 de 1a 3d d4 44 b8 3d b4 99 4b 3d 28 33 dd 3d
       0.03780994 0.08997503 0.04970713 0.10800773
0001a0 5f e8 4c be ea 30 a1 ba ee 40 5d bc 64 f9 ae 3a
       -0.20010518 -0.0012297903 -0.01350425 0.0013349471
0001b0 c1 cc f5 3d 6d 36 e7 3c fd 1e 63 bc 86 24 9d 3e
       0.12001944 0.028224194 -0.013862369 0.30691928
0001c0 c8 ea ab be 90 2c 53 be 56 3a 32 be ce c8 8c bf
       -0.3357756 -0.20622468 -0.17405066 -1.0998781
0001d0 a5 40 32 bd 44 04 8b 3c f0 f0 fc 3c c9 69 d1 3d
       -0.04351868 0.016969807 0.030876607 0.10225255
0001e0 37 cd 04 3e 19 c8 1a bd c7 74 e0 3c d5 a1 a5 bd
       0.12968908 -0.037788484 0.027399434 -0.08087508
0001f0 66 de 1b bc df b9 f0 bd d7 c9 94 bc cc ca 22 3d
       -0.009513473 -0.11754202 -0.018162651 0.039744183
000200 5e 35 e3 bd 6b c6 5b be 46 92 c6 be 1b 18 f4 3c
       -0.11094163 -0.21462409 -0.38783473 0.02979665
000210 bd 13 4a bd 70 1c 84 bb 5a b2 c2 3d c3 ed 91 3d
       -0.04933523 -0.0040317103 0.09506674 0.071254276
000220 a3 5b 4c bd 52 70 1b 3d 1a 56 22 3d d6 31 1c 3e
       -0.04989208 0.037948914 0.039632894 0.15253386
000230 f8 bc 08 3e 27 f7 9f 3d ca 30 f2 3d 98 91 d2 3c
       0.13353336 0.078108124 0.11825712 0.02570419
000240 73 56 30 3d 33 d1 79 ba 6f 1d 5c 3c 34 5c 03 3c
       0.043051194 -0.00095297693 0.013434752 0.008017588
000250 34 6a 7e be 97 1b 93 bc b9 57 2d be a8 d4 77 be
       -0.24845201 -0.017957492 -0.16927995 -0.24202216
000260 2a ce ae be 01 ba 33 be b7 97 8e 3b e3 89 6a 3c
       -0.34141666 -0.17551424 0.004351582 0.014315101
000270 63 a0 20 be ef 25 4e bf c9 c5 92 bd 78 58 0f be
       -0.15686183 -0.8052663 -0.07166631 -0.13998592
000280 56 85 32 bd 89 6f 87 be d6 92 9b bd 1f a8 fb be
       -0.04358419 -0.26452282 -0.07596366 -0.49151704
000290 b9 0f 02 bd 8b 56 ae 3d 5d 91 46 be ef 04 1c bf
       -0.031753276 0.085126005 -0.19391389 -0.6094503
0002a0 24 92 21 be 81 fa 43 bd ba bd 3c 3d 40 98 4e be
       -0.15778404 -0.04784632 0.046079375 -0.20175266
0002b0 0d 87 6f 3d d4 aa 65 be 35 27 50 be 40 2c 5d 3e
       0.058478404 -0.22428447 -0.20327456 0.21598911
0002c0 77 17 8d bd 62 6d 84 bf f3 32 90 bd cf f1 a7 be
       -0.06889241 -1.0345881 -0.07040968 -0.32801673
0002d0 54 bb e6 3d 0c 14 8e be ce 63 f3 bd 09 57 05 3e
       0.11266199 -0.2774967 -0.118842706 0.13021483
0002e0 4c 54 21 3d 62 d6 f3 bb 98 8f 44 bd 9f 0b ac bb
       0.039387032 -0.007441328 -0.047988504 -0.005250409
0002f0 7b c7 19 3c 66 bd cd 3d 3f aa 6f 3e 9d 07 dc bd
       0.009385939 0.100458905 0.23404787 -0.107436396
000300 9b 6f 75 be fb 75 82 be 99 75 ca bf c4 fa da bc
       -0.23968355 -0.25480637 -1.5817138 -0.026730902
000310 96 c6 2e bd 92 de 5e bd e2 0c db bd 34 49 09 bd
       -0.042669855 -0.05441148 -0.106958166 -0.033517078
000320 24 7e ab bc f2 01 59 3c 09 35 cb 3c b9 51 83 bc
       -0.020934172 0.013245093 0.024805563 -0.01603018
000330 16 92 84 3b 79 df 12 3e b5 1f 90 3d 3b c8 c4 3d
       0.004045735 0.1434306 0.07037298 0.096085034
000340 93 26 6f 3d b7 a6 9c 3c 07 2c cf 3b db f8 bc 3c
       0.058386397 0.019122465 0.006322387 0.023067882
000350 b2 3b 33 3c 30 44 12 bc e7 a4 aa 3d e9 7b 94 3d
       0.010939525 -0.00892739 0.08332234 0.072501965
000360 4c 8d eb bd 91 7a 0d be cf b8 d1 3d 41 1b 32 bf
       -0.115015596 -0.13816287 0.102403276 -0.69572836
000370 f1 ec a1 ba 86 d2 f4 3a ca 1c 94 bd cf 53 d9 bb
       -0.0012353939 0.0018678464 -0.072320536 -0.006632305
000380 55 00 fc 3b 94 48 3a bd 15 84 61 3d e1 84 c4 be
       0.0076904693 -0.045479372 0.055057604 -0.3838263
000390 c8 d4 c2 3d f9 08 0c 3d 07 75 24 3e 27 f7 55 3e
       0.09513241 0.034188244 0.16060267 0.20895062
0003a0 c4 ed f8 bb 54 f9 f4 3d e0 57 af 3d 52 60 36 bd
       -0.0075967032 0.11961618 0.08561683 -0.044525452
0003b0 58 06 58 bc 79 f9 bd bd d6 a1 ab bd 28 8a de 3b
       -0.013185106 -0.09276099 -0.08380477 0.006791372
0003c0 9e 35 ae bc f8 9a 93 3e a4 41 60 be 0a a3 47 bc
       -0.021265801 0.2882917 -0.2190004 -0.012184868
0003d0 7b f2 8c 3d f2 a0 b6 3b 5c a8 bd 3d 11 40 a9 be
       0.06882187 0.0055733854 0.092606276 -0.3305669
0003e0 7c 59 b3 bb af f2 25 bc 09 92 58 3d ce d4 10 3e
       -0.005473314 -0.010128661 0.052873645 0.14143679
0003f0 60 8f 97 be 47 12 eb 3d 89 07 0f 3e 7a 28 ef 3d
       -0.29601574 0.114780955 0.13967718 0.11677642

hidden_layers.0.bias f4 [128]
000000 e5 47 8d 3b 17 c2 04 3d ff 35 93 bd b5 06 3d bd
       0.004311549 0.03241166 -0.07188033 -0.046148974
000010 8f b4 a2 bd 34 86 ba bd 62 50 5a bc 6d c2 74 3d
       -0.07944595 -0.091076285 -0.013324829 0.05975573
000020 e9 5a 32 be 68 fa 86 bc c0 e7 12 be 95 16 cd bd
       -0.17417492 -0.016476825 -0.14346218 -0.10014073
000030 36 ac db bd 8a 86 17 be cd 04 d2 bd 59 04 4c bd
       -0.10726206 -0.14797416 -0.10254822 -0.049808834
000040 89 e5 63 bd 94 cd 18 be 19 df d4 bd f0 10 24 bd
       -0.055638824 -0.14922172 -0.10394115 -0.040055215
000050 75 e0 4d be 20 cc 2f 3d 2f 1a aa 3d d2 c8 a6 bd
       -0.20105155 0.04291928 0.083057754 -0.08143772
000060 ed 0e 9d bd 7f 4b f7 3d 94 5f 9b 3d 04 0d 47 be
       -0.076688625 0.120749466 0.075865895 -0.19438559
000070 37 05 e3 bd 47 d1 1f be a5 10 60 3d 42 29 c6 3d
       -0.11084979 -0.15607177 0.054703373 0.09675838
000080 ce be 99 bd 83 3a d7 3c 0d df 24 bc 68 66 92 be
       -0.07507096 0.026273018 -0.010062945 -0.28593755
000090 92 4b 5d bd 51 89 7e 3b 52 f2 b8 bd e9 b4 05 3d
       -0.054027148 0.0038839171 -0.09030594 0.032643232
0000a0 6d 9f 8c bc 62 8b 73 3d f6 6f e7 3d a9 af ea ba
       -0.017165864 0.059459098 0.11300652 -0.0017905134
0000b0 28 34 d8 bc 8c 9d 43 be 56 fe e7 3c 2f 24 1d be
       -0.026392058 -0.19103068 0.028319519 -0.15345834
0000c0 da ba 6d be 26 5b a1 3d 90 95 8a bc 46 37 02 bb
       -0.2321581 0.07878713 -0.01691702 -0.0019869371
0000d0 a8 b1 a7 bc c5 5b e4 3c 73 90 01 bd 78 4e 93 3c
       -0.020470455 0.02787579 -0.031631898 0.017981753
0000e0 a7 68 39 be 6e 7d ba bd bb 15 6f 3b 8d 5c 07 be
       -0.18106328 -0.09105955 0.0036481458 -0.13218899
0000f0 fc a8 4b be 3d f5 b1 bc 88 f4 26 3d 18 fb ae bd
       -0.19888681 -0.021723384 0.040760547 -0.08543986
000100 3e 4e e8 3d f8 da 52 3d ae c9 88 bd 76 ad ee bd
       0.113430485 0.051478356 -0.06679092 -0.11654179
000110 1a 17 20 be a4 2c e1 bd 43 d4 da 3b 0a 77 b0 bd
       -0.15633813 -0.10994843 0.0066781356 -0.08616455
000120 64 e7 15 3d 0e 46 2a be 3d a6 51 be 59 97 93 bd
       0.036597624 -0.16628286 -0.20473571 -0.07206602
000130 5a 8d bd 3d 93 68 1f be 47 a1 b0 3c 0b 1b a7 bd
       0.09255476 -0.15567236 0.021561278 -0.08159455
000140 d6 1d e6 bd 66 e6 bf bc f6 50 f0 b9 46 f0 df bd
       -0.112361595 -0.023425292 -0.00045836688 -0.109345004
000150 1b a7 01 be 1c 73 29 3e c6 f4 59 3a 9a 03 24 be
       -0.12661402 0.16547817 0.0008314367 -0.16016999
000160 45 14 02 bc 38 fe aa 3c f6 58 ae 3d b9 f7 57 be
       -0.007939403 0.020873174 0.08513062 -0.21090592
000170 e1 00 17 be 23 54 5c be 43 2b de bd 3f 48 6c 3d
       -0.14746429 -0.2151647 -0.10848095 0.057686087
000180 d6 ab d2 bd 9c 7a 5d be 64 49 88 bd 2e 1e ef 3d
       -0.10286681 -0.21628803 -0.06654623 0.11675678
000190 06 5b 4b be f7 98 75 be 79 20 82 3d b5 24 d8 3d
       -0.19858941 -0.23984133 0.0635385 0.10553876
0001a0 39 c8 9d be cb 58 01 be 81 92 43 be 3e 90 cb 3d
       -0.3081682 -0.12631528 -0.19098856 0.099396214
0001b0 7e aa 4c be c9 1e e4 bd fe 9c cf 3d a0 97 2b bd
       -0.19986913 -0.11138684 0.10137366 -0.041892648
0001c0 77 d3 e0 bd cc c3 0d be 5b 2f 83 bc 1b 66 9c 3d
       -0.10977834 -0.13844222 -0.016013792 0.076366626
0001d0 68 2f 08 be b5 0b 9a 3d 28 ac d9 bc a0 35 11 be
       -0.13299334 0.07521764 -0.026571348 -0.14180613
0001e0 2b 75 a3 bd 7b 0b e2 3c 64 66 0c bc 43 e1 73 be
       -0.079813324 0.027593365 -0.008569334 -0.238164
0001f0 db 12 fa bd d1 c3 bf 3c b3 7f 5b 3d ef 58 1b bd
       -0.12210628 0.023408802 0.05358858 -0.03792661

hidden_layers.1.weight f4 [64, 128]
000000 8e 65 47 bc 07 60 91 bd 5a f5 b1 be 81 8d 8d 3d
       -0.012170209 -0.07098394 -0.347575 0.06911755
000010 a6 c7 01 3e d9 8b c8 3d ba f6 41 be f3 8c d8 bd
       0.12673816 0.09792299 -0.18941775 -0.10573759
000020 92 07 de 3d 68 e7 7e bc da 72 3d bd 1a 50 6b bb
       0.10841288 -0.015558101 -0.04625211 -0.0035905899
000030 bf 49 ad be a2 75 8a 3d c9 d0 53 be 07 65 15 3d
       -0.33845326 0.06760718 -0.20685114 0.0364733
000040 00 04 a7 be 6f dc 42 be 10 c6 55 bd 5a a9 0f 3d
       -0.3262024 -0.19029401 -0.05219084 0.035073616
000050 40 d6 34 3e 83 76 30 3d 5b e2 db 3c de 4b 16 be
       0.17659855 0.04308177 0.026841333 -0.14677379
000060 53 d3 87 ba e1 69 92 3c 49 dc 00 be 20 d4 75 be
       -0.0010362662 0.017872753 -0.12584032 -0.240067
000070 43 01 d9 bc d8 5e bd 3d 90 53 d6 be 45 bd 37 3d
       -0.02648986 0.09246606 -0.41860628 0.044858236
000080 1d 6d 26 be 6d 83 e3 bd 6f c4 62 be ae ea 3f bd
       -0.16252561 -0.11109052 -0.22145246 -0.046854667
000090 fe 60 55 ba c9 56 e4 bc 7d 5a 91 be 69 c1 30 bc
       -0.0008139758 -0.027873414 -0.2838935 -0.0107883
0000a0 d6 6b 60 bd 00 63 ea bd 14 8e 1a bd fb 26 89 3a
       -0.05479034 -0.11444664 -0.037733153 0.0010463888
0000b0 c9 5e e9 3c 34 66 3a 39 86 f6 3e bd 99 11 57 bd
       0.02848758 0.00017776416 -0.04662182 -0.052507017
0000c0 89 c2 71 bd b5 59 0f 3c 7e c3 0c be f9 07 35 3d
       -0.059023414 0.008749415 -0.1374645 0.044197056
0000d0 46 da 82 bd 24 9a e2 bc ef 17 85 be cc 32 95 3d
       -0.063892886 -0.02766139 -0.25994822 0.07285079
0000e0 e0 ff a4 3d 9b 2c 8f 3d f7 56 05 3e 0f 0e 6e 3d
       0.08056617 0.0699093 0.13021456 0.058118876
0000f0 68 98 9a bd b2 d6 53 bd 31 00 83 be f4 db 91 3d
       -0.075486004 -0.05171842 -0.25586084 0.07122031
000100 dd 76 70 3d 2e 45 68 3d 27 15 ce bb 03 62 07 bf
       0.058707107 0.0567066 -0.0062891426 -0.5288393
000110 ad 8a 08 3d 6c 58 6d bd 6d 11 1d 3d cc 1a 8d bd
       0.033335377 -0.057945654 0.038346697 -0.06889877
000120 6e 68 62 be ea 6f d9 bd 63 7f 98 3b 1b 2f 68 3d
       -0.2211015 -0.10617049 0.0046538576 0.05668555
000130 a1 7c e4 bd a0 06 95 bd bf 5f d7 bd 44 49 03 3e
       -0.111565836 -0.07276654 -0.10516309 0.12820917
000140 81 e1 e2 ba 59 36 13 be c7 73 76 bd 85 fd 8b 3c
       -0.0017309637 -0.143762 -0.060169008 0.017088661
000150 af 5c 12 bd 99 7d 9d 3c 74 1d e6 be 2f 1f 56 3d
       -0.03573292 0.019224929 -0.44944346 0.052275833
000160 77 28 32 bb 8f a9 96 bc 01 29 04 3c e5 b8 55 bc
       -0.0027184763 -0.018391399 0.008066417 -0.013044571
000170 0b 43 de 3b 26 bf 51 bc ac 0c 2e 3d fb e5 9b bc
       0.0067828945 -0.012801921 0.042492554 -0.019030562
000180 8d c1 45 be 79 41 c6 3d 08 fa 21 be 84 d9 7b ba
       -0.19312115 0.09680457 -0.15818036 -0.00096073025
000190 e4 22 7a be bc 76 95 3d 3f 8b 87 bd cb 0d 5e 3d
       -0.24427372 0.072980374 -0.06618356 0.054212373
0001a0 ae 56 20 3d e3 3c 9b bc a6 df 29 3c 6c 32 b9 be
       0.039145164 -0.018949931 0.010368263 -0.3617128
0001b0 50 0a bb 3d 56 8c ad bc 7b 38 58 be 57 c4 42 bd
       0.09132826 -0.021185081 -0.21115296 -0.047550526
0001c0 7b 08 4a 3d 9b d6 8f be e0 4c a9 bc ec e4 f5 be
       0.049324494 -0.28093418 -0.02066654 -0.48026216
0001d0 f6 c2 a4 bd 18 6d 48 3d 60 5f 99 bc 62 ad b0 3d
       -0.08044998 0.048932165 -0.018722236 0.0862682
0001e0 e5 2f 6d bc f5 e3 dd bd 37 b7 72 3b c8 5e 2c bc
       -0.014476751 -0.10834495 0.0037035474 -0.0105206445
0001f0 47 4c 9e be 18 87 43 3d 22 b6 f0 bc 44 4a 89 bd
       -0.3091757 0.047736257 -0.029383723 -0.06703618
000200 23 6c 26 be 78 22 01 bf dc 89 9b 3b 71 34 56 be
       -0.16252188 -0.5044322 0.0047466587 -0.20918442
000210 9c cc 37 3e 25 ac 75 be 6f e2 20 3b 09 66 49 be
       0.17949146 -0.23991449 0.0024549027 -0.1966783
000220 d4 ff 2e 3e 3d c2 8c be 4f 5e dd be be f3 21 bf
       0.17089778 -0.27491942 -0.43236014 -0.63262546
000230 c1 5b 1d 3d bf 1b 95 3c 03 c1 0b 3c a1 6e f6 bd
       0.03841758 0.018201707 0.008529904 -0.120328195
000240 7e 32 bc 3c d1 20 f2 3a 54 1d 00 3c 88 2b 0c 3d
       0.022973295 0.0018472915 0.007819492 0.034221202
000250 30 f6 5a 3e 72 82 d0 3c 87 80 3b be 8e d8 6c bd
       0.21382976 0.025452826 -0.18310748 -0.05782371
000260 d1 c9 32 bf a2 a4 21 bf 2f 53 92 be d9 f8 f7 3c
       -0.698392 -0.63141835 -0.2857909 0.030270027
000270 83 aa 1f bc 53 bd 09 be 48 69 c9 3c f3 0e 8a 3c
       -0.009745243 -0.13451128 0.024586335 0.016852831
000280 28 5b b1 3c 7d 30 b2 bd 17 58 98 3b 28 10 ad bd
       0.021649912 -0.08700655 0.004649173 -0.08450347
000290 30 e8 19 3c e6 38 d9 be 21 b0 80 bc d4 e4 5c be
       0.009393737 -0.42426223 -0.015708985 -0.21571666
0002a0 ec 63 da be 14 8e 89 be 9d 09 ac bd 95 ee ed be
       -0.4265436 -0.2686621 -0.08400271 -0.46471086
0002b0 da db cb 3a 27 0d 26 3d a6 72 a2 3d 6d 6c 2b 3e
       0.0015553192 0.040539887 0.07932024 0.1674058
0002c0 1d 14 37 3b 73 9e 13 be 2d 94 03 bd 83 74 08 bf
       0.0027935572 -0.14415912 -0.032123733 -0.5330278
0002d0 49 41 c2 3a 00 89 84 bc 81 f3 22 3c fd 8a 87 be
       0.0014820482 -0.016178608 0.009945751 -0.26473227
0002e0 d7 c8 d7 3d 92 ec df 3d fa 50 44 bf 10 e9 61 3c
       0.10536354 0.10933794 -0.7668606 0.013788477
0002f0 60 64 03 3e 40 40 69 be df 96 e9 ba 40 7a 94 be
       0.12831259 -0.22778416 -0.0017821452 -0.2899952
000300 b9 7e 10 bf 5f f9 38 be e9 84 d0 3c b8 65 4a 3c
       -0.56443363 -0.18063878 0.025454002 0.012353353
000310 38 15 86 3d 02 fd 27 3d 75 95 a4 bc 4f 9b c4 be
       0.06547016 0.04101277 -0.020090798 -0.3839974
000320 9f d4 dc 3b 53 51 ef 3c 29 60 cd 3b 10 66 ad bd
       0.0067392136 0.029213583 0.0062675667 -0.084667325
000330 af 3d d3 be 43 b3 a1 3e 68 f0 fa bb a0 1d 5b bd
       -0.41257998 0.31582078 -0.007658053 -0.05349505
000340 54 92 f8 be 1c 7f fe 39 da 07 a4 3c a0 f3 ae be
       -0.4854914 0.0004854136 0.020023275 -0.34170246
000350 73 79 1d 3c d7 ce 5c bf 3c 7c df bc f8 52 67 3c
       0.009611475 -0.8625311 -0.02728092 0.014118902
000360 fc 07 45 be 86 9a 93 be 2c 6d 6f be 9d 0e 97 bd
       -0.19241327 -0.2882883 -0.2338149 -0.07375834
000370 19 64 70 be aa c4 a8 bd 66 f6 ef ba 8f b0 50 bf
       -0.23475684 -0.08240636 -0.0018307685 -0.8151941
000380 60 cc 15 bc d8 40 62 bd 28 6b 6a bd 86 51 5f be
       -0.009142965 -0.05523762 -0.0572311 -0.21808442
000390 20 18 62 3c d7 ea 04 bb 6d 0b be be 36 bb 76 3e
       0.013799697 -0.0020281577 -0.37118092 0.24094853
0003a0 1e f6 ac 3c 21 a1 77 be 5e ea 1d 3c f4 22 f2 3c
       0.021113452 -0.2418256 0.009638397 0.029557683
0003b0 ae 29 e4 3b 7b b0 89 bd d0 28 ef 3b 9b 84 27 be
       0.0069629764 -0.06723114 0.0072985664 -0.16359179
0003c0 7f 20 83 3b ce ad 2d 3b ea 46 f8 bd 1f 82 33 3c
       0.0040016766 0.00265013 -0.12122901 0.010956316
0003d0 ee a2 27 3c 9d 9b a6 be 1c 91 81 be e6 20 40 3e
       0.010231717 -0.325406 -0.25306022 0.1876255
0003e0 2d 54 b0 be b7 01 6c be 4e 3e ad bd 4d 4d 46 3c
       -0.3443922 -0.23047529 -0.08459149 0.012103391
0003f0 37 ea a1 bc 3e 6e e2 bd 2f 91 54 3d 0b 0a fb be
       -0.019765003 -0.11056183 0.05189627 -0.490311

hidden_layers.1.bias f4 [64]
000000 2c 82 7f 3e b8 3b d4 3d 9e 44 ea 3d 38 a8 f6 3d
       0.24952 0.10362953 0.11438869 0.12043804
000010 6a 89 8d 3e 38 65 53 3e 46 12 f1 3d f9 cf 0e 3e
       0.276439 0.2064408 0.117710635 0.13946523
000020 61 7a 3d 3e 2a 83 06 3e 2d e5 86 3e 69 7e f0 3d
       0.18503715 0.13135973 0.26346722 0.11742861
000030 6d d2 5c 3e cd ee 01 3e 73 ac e7 3d 5a 52 19 3e
       0.21564646 0.12688752 0.11312189 0.14972821
000040 3e a7 ea 3d b8 ab e6 3d 76 9f 7e 3e 77 03 24 3e
       0.1145768 0.112632215 0.24865517 0.16016947
000050 93 74 0a be a4 0e 76 3e 66 3a 07 be ff f9 79 3e
       -0.13521032 0.24029022 -0.13205871 0.24411772
000060 75 01 09 3e 94 92 88 3e 03 8f 7d 3e 1f 9d 80 3e
       0.13379462 0.2667433 0.24761586 0.25119874
000070 36 65 d3 3d 90 b0 f7 b9 0d c6 26 3e 95 a5 40 3e
       0.10322039 -0.0004724306 0.16286488 0.18813165
000080 82 1e 2b bd ea d5 88 3e 41 68 74 3e 6b 0d 3a 3e
       -0.04177714 0.26725703 0.23867895 0.18169181
000090 0c 77 20 be 0f ca 28 3e 1d 04 0b 3e d5 02 3a 3e
       -0.15670413 0.16483329 0.13575788 0.18165143
0000a0 98 be 1f 3e 37 f0 46 3e f1 de e4 3d 1b be 79 3e
       0.1560005 0.19427572 0.11175335 0.24388926
0000b0 63 38 00 3e bb 0b 78 3e 93 27 25 3e 70 e2 fa 3d
       0.1252151 0.24223225 0.16128378 0.12250221
0000c0 94 f8 ee 3d c2 1c d7 3d f2 24 ec 3d e5 9b ff 3d
       0.11668506 0.10503532 0.11530484 0.124809064
0000d0 9c 45 f0 3d 18 3e 6b 3e 12 aa c1 3d 5f c4 cd 3d
       0.11732027 0.22972906 0.094562665 0.100472204
0000e0 77 c6 03 3e 43 2c 80 3e 3e a8 6e 3e d1 1f ec 3d
       0.12868677 0.2503377 0.23306367 0.11529506
0000f0 9b 05 bd 3d fc 43 cb 3d c6 1d e7 3d 85 5b 2b 3e
       0.09229585 0.09925076 0.11284976 0.1673413

output.weight f4 [4, 64]
000000 44 48 74 3d 65 93 0a be 3b 61 04 3d b8 6c 24 3d
       0.05963923 -0.13532789 0.03231929 0.040142745
000010 69 80 8f 3d 2f b3 23 3d 52 53 25 3d b1 01 2b 3d
       0.07006914 0.039965805 0.040362664 0.04174966
000020 28 93 00 3d 66 d2 2b 3d 82 3f 71 3d 52 72 c2 3c
       0.03139034 0.0419487 0.058898456 0.023736153
000030 fd 04 7a 3d 00 dc 32 3d 6e 8c 24 3d 3a ce f6 3c
       0.061039913 0.04366684 0.040172987 0.030127633
000040 21 40 02 be ca 0c 34 3d 18 fb b9 3d 5d 1f 29 3d
       -0.12719776 0.04395751 0.090810955 0.041289676
000050 a0 ba 64 bd ef ea 69 3d 66 59 a1 3d 37 de d9 3d
       -0.055842042 0.057108816 0.078783795 0.10638087
000060 6c bc c1 bd 09 d2 b4 3d 8d 3c 5d 3d 0b 9e 87 3d
       -0.09459767 0.088291235 0.054012824 0.06621941
000070 8d 22 2b 3d 28 dc ac bd d3 34 2f bd dc ec 2f 3d
       0.041780997 -0.08440429 -0.042774986 0.042950496
000080 45 ae bd bd bf b7 8c 3d de e4 97 3d bd eb 0a be
       -0.09261755 0.06870984 0.074167 -0.1356649
000090 4d 7c 5c 3c 57 9c 13 3d 54 1b e1 bd 11 9f 44 3d
       0.01345737 0.03603777 -0.109915406 0.04800326
0000a0 41 f3 0d 3d b9 a9 f4 bd ec 13 f2 bd 5b ba 9e 3d
       0.034655813 -0.119464345 -0.11820206 0.07750388
0000b0 50 98 95 bd a5 dd 8f 3d 5a 85 16 3d 51 f8 2a 3d
       -0.07304442 0.07024697 0.036748268 0.04174072
0000c0 93 f6 19 3d 0b cf 04 3d 9f 80 d4 bd 62 6c 07 3d
       0.037588667 0.032424014 -0.10376095 0.033062346
0000d0 2c df d6 bd c9 86 56 3d 46 d4 12 3d d2 6e 06 3d
       -0.104917854 0.052374635 0.03584697 0.03282053
0000e0 23 a5 29 3d 01 aa 65 3d 1b cd 86 3d ba 84 05 3d
       0.041417252 0.05607033 0.065820895 0.03259728
0000f0 45 e5 0b 3d bb 54 17 3d 17 36 04 3d d5 c6 2f 3d
       0.034154195 0.03694604 0.032278147 0.04291423
000100 93 f5 41 3d 62 b6 64 bd 9a b2 03 3d 06 e5 87 3c
       0.04735334 -0.055837996 0.03215275 0.0165887
000110 d5 21 80 3d 01 5d 2b 3d bb cf 3c 3d d7 12 4c 3d
       0.06256453 0.041836742 0.046096545 0.049822655
000120 1b a2 17 3d ad 14 22 3d 44 50 9d 3d 0a f1 0f 3d
       0.03701983 0.0395705 0.07681325 0.035141982
000130 ae b0 7b 3d 2d b8 03 3d e5 f6 39 3d 8a b9 dd 3c
       0.06144779 0.032158066 0.045401473 0.027066011
000140 40 1a a8 bc 6f 9e 16 3d 05 e5 d6 3d 42 51 c6 3c
       -0.02052033 0.036772188 0.10492901 0.024208669
000150 38 e0 7e bd ec 31 62 3d a2 fd 6b bd af ba d4 3d
       -0.06222555 0.05522339 -0.05761493 0.103871696
000160 05 ef be 3b a9 2b d2 3d 87 33 8a 3d f7 6a 2b 3d
       0.005826833 0.10262234 0.06748109 0.041850056
000170 fb 08 b7 3c 9b 27 b3 bd 3a 83 9a bd ac f7 fb 3c
       0.02234315 -0.087477885 -0.07544561 0.030757748
000180 e8 be b2 bd ed 96 69 3d af cc db 3d ea 09 c3 bd
       -0.08727819 0.0570287 0.107324 -0.09523375
000190 7a 9f f3 bb 26 2a 16 3d 47 bb e3 bc dd 67 a1 3c
       -0.0074347826 0.03666129 -0.027799262 0.019702846
0001a0 87 d3 ab 3c e3 59 97 bd 25 c9 34 bb ac 23 80 3d
       0.020974888 -0.073901914 -0.0027585712 0.06256804
0001b0 1c 70 bb bb 06 5e 93 3d c0 e6 0b 3c 06 f9 20 3d
       -0.0057201516 0.07195668 0.008538902 0.039299987
0001c0 2d ec 80 3c 1a 25 1b 3d 03 bc 10 3d 77 8a 13 3d
       0.015737617 0.03787718 0.035335552 0.036020722
0001d0 fe 07 1a bc d6 4d 4f 3d cc 1b d8 3c 65 f7 17 3d
       -0.00940132 0.05061134 0.026380442 0.03710117
0001e0 11 85 4c 3d ef 28 6e 3d 67 95 72 3d 57 49 08 3d
       0.04993159 0.058144506 0.059224512 0.033273067
0001f0 e6 63 f5 3c 8d 18 f6 3c d3 db 21 3c f0 eb de 3c
       0.029954862 0.030041004 0.00987907 0.027212113
000200 9f 60 93 3b 81 ae 67 bd 94 b9 a0 3d d7 4e 4e 3d
       0.004497602 -0.056562904 0.07847896 0.050368156
000210 ca dd 04 bd 26 ce 92 3d bb 9f 21 3d b9 8e 97 3d
       -0.032438077 0.07168226 0.03945897 0.07400269
000220 03 6b 82 3d e5 9a 4c 3d 27 d8 dc 3c ed 9c 4b 3d
       0.06368067 0.049952406 0.026958538 0.049710203
000230 a0 97 e8 3c bd c0 e6 3c 95 89 59 3d d8 db 42 3d
       0.028392613 0.028168077 0.053109724 0.04757294
000240 5e 69 9d bd 1c 9d cb bc 25 6f 3d 3d 28 e9 28 bd
       -0.07686113 -0.024855189 0.046248574 -0.04123798
000250 94 76 bd 3b 26 48 06 bc 1d f4 10 3a 8f 85 a9 3d
       0.005781958 -0.008195912 0.000552954 0.082774274
000260 9d d4 95 3d 3a 15 84 3d 8b 2a 93 3b 82 50 07 3d
       0.073159434 0.06449361 0.0044911555 0.033035763
000270 01 c8 28 3d 3f 3c 94 bd cb b7 9b be 30 ae 73 3d
       0.041206364 -0.072380535 -0.3041366 0.05949229
000280 75 d0 f1 bd 3b ab 81 ba f6 8a 5d 3b f2 d3 2d bd
       -0.11807338 -0.000989295 0.003380475 -0.042438455
000290 16 0b 42 3d fe 37 16 3d b9 17 34 bd 5e ae 03 3d
       0.047373854 0.036674492 -0.043967936 0.03214871
0002a0 24 03 61 3d d6 f2 a7 bd ed bf 19 bd d6 05 96 3d
       0.054934636 -0.08200614 -0.03753655 0.07325332
0002b0 4a 99 03 3d 36 09 e5 3b f0 db 3e 3d ef 34 03 3d
       0.03212861 0.0069896234 0.046596467 0.032032903
0002c0 b1 96 43 3d f1 ec 55 3d 10 a3 e0 bd 5c 1c 99 3d
       0.047751132 0.052227918 -0.10968602 0.07476112
0002d0 40 b4 50 bd 09 fd bf 3c fe c4 3e 3d a2 97 74 3d
       -0.05095315 0.023436086 0.046574585 0.05971492
0002e0 a0 d7 1e 3d d7 d0 c7 bb b7 cf 2a 3d 82 2d 7d 3d
       0.038779855 -0.0060978937 0.041702 0.061810978
0002f0 bb 51 07 3d f7 78 f9 3c 51 8b 4e 3d ff b1 d0 3c
       0.03303693 0.030453188 0.05042583 0.0254755
000300 fa 09 ef 3c 86 ed 96 bd b4 fa 40 3d 58 e9 78 3d
       0.029179562 -0.07369523 0.04711409 0.06076941
000310 75 2b 1b 3d ac 5a 7a 3d 68 f9 32 3d 4b 73 3e bd
       0.03788324 0.061121628 0.043694884 -0.04649667
000320 b4 33 96 3d b1 13 95 3d 13 0e 40 3c 24 e8 4d 3d
       0.0733408 0.072791465 0.011722106 0.050270215
000330 91 12 33 3d 4e ef 0a 3d 5d 4d 3c 3d e3 0f 16 3d
       0.04371888 0.033919625 0.045972217 0.036636245
000340 fa e7 4f bd 92 12 44 3d 5c 8c 32 3d d3 6a 4a 3d
       -0.05075834 0.047869273 0.04359089 0.04941828
000350 b2 16 c9 3d f7 ad fa 3c 95 15 7e bc 9b 73 d8 3d
       0.09818782 0.030600531 -0.015508075 0.10568925
000360 5d 6b ff bd 1b 9e 4c 3d 50 53 d2 3c 73 f2 ea 39
       -0.1247165 0.04995547 0.025674492 0.00044812597
000370 23 2a 69 3d 94 fb 20 be b6 cf 86 be aa 81 68 3d
       0.05692495 -0.1572097 -0.26330346 0.056764282
000380 1e b4 1b be 1f 73 8c 3c 12 25 62 3c 2a bb cb bd
       -0.15205428 0.017144738 0.013802784 -0.09947808
000390 3b ae 94 bd ba 90 23 3d 1b 61 32 bd af bf bf 3c
       -0.07259794 0.039932944 -0.04354964 0.023406832
0003a0 ad 91 de 3c 47 df 93 bd c0 c1 9f bd 55 c3 a6 3d
       0.027169073 -0.07220321 -0.07800627 0.081427254
0003b0 ca 34 7c 3d 9e 83 aa 3c db 29 28 3d 1f 5b 53 3d
       0.06157378 0.020814713 0.04105554 0.05160057
0003c0 b1 68 65 3d e4 40 4b 3d b9 64 88 3d fc a8 08 3d
       0.056008045 0.04962243 0.06659836 0.03336428
0003d0 7b 4e 35 bd 2e b6 6b 3d eb 80 11 3d d8 ad 46 3d
       -0.044264298 0.057546787 0.035523336 0.048505634
0003e0 20 38 b4 bd b3 9e 17 3c 31 15 fa 3c 55 f7 2a 3d
       -0.087997675 0.009254145 0.030527683 0.04173978
0003f0 91 0e 48 3d 7d 3a 3f 3d c6 6e 15 3d 51 35 21 3d
       0.048842017 0.04668664 0.036482595 0.039357487

output.bias f4 [4]
000000 12 5f bc 3f 07 94 a8 3f b2 4c b1 3f 8f 1c b3 3f
       1.4716513 1.3170174 1.385153 1.399309
