experiments/navigate_1368_18Oct22082648.pth (torch_old, 54660 bytes, 6 tensors)

hidden_layers.0.weight f4 [128, 37]
-0.09682353 -0.0069643105 -0.16793357 -0.08278313 -0.18567966 0.008749373 -0.12308916 0.12542248
-0.057319533 -0.008673401 -0.077977076 -0.18239978 -0.17856157 -0.1037979 -0.17567772 -0.03259798
-0.043877102 0.0775705 -0.14136916 -0.14196406 -0.010230357 0.09686855 -0.060224976 0.06945606
-0.10741988 -0.047348447 0.022316542 -0.1740616 -0.0576215 -0.12931345 -0.08922614 0.069405116
-0.12893274 -0.113392636 -0.18140139 -0.060383122 0.010478498 0.041077886 0.11179642 0.10849767
0.03651327 -0.048673917 0.090728745 -0.4191275 -0.48646408 -0.35107186 -1.7516778 -0.00055555796
-0.0005222837 0.006066783 0.047850095 0.0241842 0.03209775 0.012985148 0.037176773 0.021317715
-0.007772163 -0.06517822 -0.13608986 -0.1193521 -0.09001736 0.034809478 -0.033426758 0.011167928
0.013132579 -0.033049818 0.007952305 0.039198503 0.08322053 0.03893055 0.017676862 -0.0915755
0.002836872 0.003801228 0.077880174 0.18282722 -0.07108271 -0.04886243 0.006337526 -0.109450154
-0.30029872 0.1285881 0.13166009 -0.12889518 -0.098724976 0.052535623 -0.10847647 0.070494846
0.18578222 -0.10410267 -0.17436966 0.17696935 0.20810916 0.0695177 -0.2151578 -0.10583743
0.0061417436 0.041217595 0.018644387 -0.2488832 0.10058298 0.2313305 -0.111982144 -0.064367235
-0.14213252 -0.20970349 0.034978162 -0.16953939 0.097716086 -0.01495973 -0.02188245 -0.033455417
0.15023413 0.10047042 0.04801804 -0.07411996 -0.09065593 -0.006291282 0.018116675 0.03297179
0.3661066 -0.12497893 0.081958756 -0.028983625 -0.09234596 -0.115841486 -0.12485763 -0.0995004
-0.13545997 0.0036914544 0.13741165 -0.06582259 -0.013862307 -0.021922803 0.06361319 0.1860965
-0.051142816 -0.12998265 0.0017452938 0.19449647 0.48897868 -0.01652969 0.0033161587 0.041195385
0.23664792 0.28049237 -0.011409639 -0.010448663 -0.14452606 -0.24456397 -0.08970741 -0.32669938
-0.16830944 -0.31776768 0.06603489 0.24138859 0.1552984 -0.51305693 -0.09238271 0.025748268
-0.084734954 -0.14107724 -0.010512383 -0.28491372 -0.0051746257 0.05587614 -0.3809861 -0.047201946
-0.26255068 0.05085772 0.09221972 0.0021875256 -0.05090079 -0.21862511 -0.08955153 0.2788022
-0.06496422 -0.54627115 -0.024139743 -0.13061161 0.10553998 -0.121250235 -0.08076573 0.06389643
0.01542404 0.024925241 0.0044813296 -0.011714895 0.0052651376 0.040934645 0.21141948 -0.2828892
-0.3197265 -0.37445915 -1.7114984 -0.047561817 -0.034359753 -0.06393462 -0.017957984 -0.020878898
0.015312623 0.020354312 -0.019545346 -0.0019741454 -0.052562546 0.097071305 0.033394177 0.09307686
0.13738896 0.06655999 -0.011819111 0.036432277 0.07475267 0.08182717 0.08855862 -0.013307889
0.06776234 0.044025373 0.063837945 0.04506462 0.009004704 0.004657205 -0.05636693 0.027931903
-0.03977077 -0.023461744 -0.024930255 -0.10413459 -0.051514704 0.01077973 0.07896582 0.22119491
0.007450764 0.061657168 0.05777573 0.06768185 0.07517164 -0.09801405 -0.046267796 -0.02541782
-0.0046339794 0.054384924 -0.049120337 -0.008238043 0.0063140863 -0.026527897 0.050584093 -0.097099304
-0.12817477 -0.06267904 -0.043530334 0.05731462 0.22226162 -0.5081845 -0.41516083 -0.39207613
00000000: 6a4b c6bd df34 e4bb c7f6 2bbe 348a a9bd
00000010: cf22 3ebe 8859 0f3c 2b16 fcbd c06e 003e
00000020: e3c7 6abd e11a 0ebc 72b2 9fbd 02c7 3abe
00000030: d8d8 36be fe93 d4bd dce4 33be 7685 05bd
00000040: 7ab8 33bd 48dd 9e3d 14c3 10be 075f 11be
00000050: 3a9d 27bc 0563 c63d 77ae 76bd fb3e 8e3d
00000060: f4fe dbbd 72f0 41bd 2ed1 b63c 343d 32be
00000070: 8604 6cbd bf6a 04be 32bc b6bd 4524 8e3d
00000080: f206 04be 663a e8bd 49c1 39be 4b54 77bd
00000090: 02ae 2b3c 4941 283d 85f5 e43d 0734 de3d
000000a0: f08e 153d 4d5e 47bd fecf b93d e197 d6be
000000b0: d211 f9be b1bf b3be fa36 e0bf dda2 11ba
000000c0: dee9 08ba ddcb c63b 76fe 433d f21d c63c
000000d0: ee78 033d a8bf 543c ac46 183d 7da2 ae3c
000000e0: a1ad febb 297c 85bd 245b 0bbe e06e f4bd
000000f0: 065b b8bd 6294 0e3d 7fea 08bd aff9 363c
00000100: 072a 573c 3f5f 07bd 624a 023c 9c8e 203d
00000110: 866f aa3d a475 1f3d 11cf 903c f08b bbbd
00000120: d0ea 393b 061e 793b a47f 9f3d 0f37 3b3e
00000130: d093 91bd f923 48bd 05ab cf3b 6727 e0bd
00000140: c1c0 99be 99ac 033e e7d1 063e 19fd 03be
00000150: 5230 cabd 982f 573d e928 debd 9a5f 903d
00000160: b23d 3e3e c833 d5bd f68d 32be 7437 353e
00000170: 911a 553e 4c5f 8e3d 5452 5cbe 4bc1 d8bd
00000180: ae40 c93b c8d3 283d 1dbc 983c 3ddb 7ebe
00000190: 73fe cd3d e7e1 6c3e e556 e5bd f8d2 83bd
000001a0: 308b 11be 83bc 56be 4345 0f3d bc9b 2dbe
000001b0: 5f1f c83d a819 75bc d342 b3bc 8c08 09bd
000001c0: fad6 193e 70c3 cd3d 90ae 443d 35cc 97bd
000001d0: d1a9 b9bd 1927 cebb 6c69 943c 6d0d 073d
000001e0: 5372 bb3e f4f4 ffbd fed9 a73d 116f edbc
000001f0: e11f bdbd 4d3e edbd 5bb5 ffbd dec6 cbbd
00000200: 05b6 0abe 54ec 713b a4b5 0c3e fecd 86bd
00000210: bb1e 63bc 7397 b3bc a247 823d 1590 3e3e
00000220: 217b 51bd 2c1a 05be 58c2 e43a 152a 473e
00000230: 6a5b fa3e 4669 87bc e953 593b 7ebc 283d
00000240: d553 723e b29c 8f3e 7fef 3abc de30 2bbc
00000250: a4fe 13be fa6e 7abe 85b8 b7bd 2445 a7be
00000260: 4f59 2cbe 72b2 a2be 4d3d 873d 922e 773e
00000270: 8b06 1f3e b357 03bf 2533 bdbd 08ee d23c
00000280: 8589 adbd 8d76 10be 213c 2cbc 36e0 91be
00000290: e88f a9bb 61de 643d 9c10 c3be d456 41bd
000002a0: 0b6d 86be 2f50 503d b1dd bc3d 975c 0f3b
000002b0: 597d 50bd 43df 5fbe cb66 b7bd 29bf 8e3e
000002c0: f60b 85bd 6dd8 0bbf b6c0 c5bc 0dbf 05be
000002d0: 5825 d83d 0b52 f8bd 8168 a5bd 22dc 823d
000002e0: 1db5 7c3c 0530 cc3c 1ed8 923b d5ef 3fbc
000002f0: 2d87 ac3b 16ab 273d 597e 583e dad6 90be
00000300: 31b3 a3be 1cb9 bfbe 6112 dbbf 2ed0 42bd
00000310: d0bc 0cbd 27f0 82bd 9f1c 93bc 390a abbc
00000320: cce1 7a3c 16be a63c 901d a0bc aa60 01bb
00000330: d34b 57bd 52cd c63d 55c8 083d 159f be3d
00000340: b1af 0c3e 9b50 883d f2a4 41bc 033a 153d
00000350: ee17 993d 0195 a73d 395e b53d 5509 5abc
00000360: fbc6 8a3d f353 343d 78bd 823d ae95 383d
00000370: 7788 133c 789b 983b 03e1 66bd 72d1 e43c
00000380: ade6 22bd d832 c0bc 893a ccbc 8444 d5bd
00000390: 1501 53bd 779d 303c d5b8 a13d eb80 623e
000003a0: 8a25 f43b 3a8c 7c3d 3ea6 6c3d c89c 8a3d
000003b0: 97f3 993d 97bb c8bd 4d83 3dbd 0839 d0bc
000003c0: a3d8 97bb bac2 5e3d 6832 49bd dbf8 06bc
000003d0: 65e6 ce3b 0851 d9bc 4431 4f3d 00dc c6bd
000003e0: 3f40 03be de5d 80bd dd4c 32bd bcc2 6a3d
000003f0: 8d98 633e 6118 02bf f68f d4be 34be c8be

hidden_layers.0.bias f4 [128]
-0.103782184 0.029532291 -0.15912528 -0.16014375 -0.103898555 -0.07247404 0.05657889 0.020498091
-0.15167058 -0.010307798 -0.15186504 -0.11351707 -0.16445805 -0.08666561 -0.12671329 0.005831011
-0.056107946 -0.034927335 -0.14421843 -0.08092746 -0.18992752 -0.02544885 0.04315144 -0.066096485
-0.04846926 0.0063329223 0.07253113 -0.16535966 -0.11770548 -0.16181372 0.00948907 0.024525061
-0.091428556 -0.13828342 -0.06423972 -0.2183227 -0.14969328 -0.0095257545 -0.10076549 -0.07096496
-0.035665806 0.031493038 0.15353845 -0.020184929 -0.08297029 -0.16372466 0.080860086 -0.1968287
-0.2532573 0.006756593 0.0029242092 -0.097512715 -0.007402658 0.0049749915 -0.05292399 -0.0658403
-0.16592355 -0.068338715 0.007877744 -0.07539899 -0.2074057 -0.037721522 0.004977697 -0.15399055
0.01772271 0.08163177 -0.08335345 -0.12267277 -0.261392 -0.09304113 -0.03732427 -0.11410801
-0.018919263 -0.1399531 -0.118527494 -0.12714857 0.011891532 -0.16496296 0.0524466 0.06140244
-0.08676713 -0.004795066 0.006266371 -0.12161931 -0.11619119 0.032886576 0.023201356 -0.08948552
-0.0073500476 -0.025261011 0.0922027 -0.07618788 -0.15702613 -0.2867649 -0.10943905 0.050735135
-0.1068642 -0.30728966 -0.1548494 0.015531767 -0.12318986 -0.2667499 0.0071093827 0.06721135
-0.22327873 -0.16403295 -0.042549137 0.1587223 -0.26322496 -0.15710852 -0.0037773051 -0.057178102
-0.11854917 -0.05745703 -0.017508343 0.044344734 0.02513921 0.03042389 -0.036980562 -0.103851296
-0.0988634 0.05194692 -0.135589 -0.30878046 -0.10339892 0.0315695 0.16623616 -0.12801126
00000000: c18b d4bd b4ed f13c bdf1 22be b9fc 23be
00000010: c4c8 d4bd 456d 94bd 44bf 673d 9deb a73c
00000020: 884f 1bbe 0ae2 28bc 8282 1bbe a37b e8bd
00000030: b167 28be bd7d b1bd 21c1 01be 1112 bf3b
00000040: 72d1 65bd f70f 0fbd ffad 13be 4cbd a5bd
00000050: 5c7c 42be 1b7a d0bc 90bf 303d 985d 87bd
00000060: b487 46bd 6784 cf3b 338b 943d 0b54 29be
00000070: 920f f1bd 7fb2 25be 0b78 1b3c c8e8 c83c
00000080: e53e bbbd 2b9a 0dbe 1d90 83bd fc8f 5fbe
00000090: 3249 19be e911 1cbc 235e cebd 1456 91bd
000000a0: 4f16 12bd d8fe 003d 2f39 1d3e dd5a a5bc
000000b0: 54ec a9bd 70a7 27be f999 a53d 768d 49be
000000c0: f1aa 81be 6966 dd3b 17a4 3f3b bfb4 c7bd
000000d0: ff91 f2bb 4105 a33b d3c6 58bd 47d7 86bd
000000e0: dde7 29be 2bf5 8bbd a711 013c c96a 9abd
000000f0: 2962 54be e281 1abd f31b a33b b3af 1dbe
00000100: 372f 913c 8f2e a73d 37b5 aabd dc3b fbbd
00000110: 2cd5 85be 598c bebd 55e1 18bd 76b1 e9bd
00000120: 92fc 9abc de4f 0fbe 8bbe f2bd 3c33 02be
00000130: b3d4 423c 0dec 28be 3fd2 563d 2081 7b3d
00000140: f7b2 b1bd ee1f 9dbb 2156 cd3b 8b13 f9bd
00000150: a6f5 edbd 13b4 063d c510 be3c 2f44 b7bd
00000160: abd8 f0bb 2ef0 cebc c5d4 bc3d 6408 9cbd
00000170: 75cb 20be d9d2 92be 9521 e0bd a5cf 4f3d
00000180: 9edb dabd 1255 9dbe d790 1ebe f478 7e3c
00000190: f74a fcbd 7193 88be d3f5 e83b 1ba6 893d
000001a0: 2ea3 64be 41f8 27be 0148 2ebd 1988 223e
000001b0: 6cc5 86be 0ee1 20be aa8c 77bb 9633 6abd
000001c0: e8c9 f2bd 1058 6bbd a86d 8fbc d3a2 353d
000001d0: bff0 cd3c 863b f93c ee78 17bd fdaf d4bd
000001e0: e578 cabd 4bc6 543d d8d7 0abe 7918 9ebe
000001f0: d0c2 d3bd 054f 013d d039 2a3e 6215 03be

hidden_layers.1.weight f4 [64, 128]
-0.07380976 -0.032354534 0.012756788 0.13508043 0.105848104 -0.0030788446 -0.057161633 -0.04075431
0.043553695 0.0075817844 0.050361324 0.09194255 -0.3076605 -0.070944935 0.055272117 -0.053728703
-0.09765268 0.02677239 -0.24674037 -0.054747775 0.0066216313 0.0865154 0.046191897 -0.094721876
0.09248776 0.09115606 -0.07167679 -0.027353039 -0.01606299 0.09431104 -0.3295646 -0.052821197
-0.330564 -0.066092275 -0.49144354 -0.16364476 -0.03831334 -0.014408177 0.05444382 0.0042823115
-0.10141267 -0.2561077 0.052296907 0.02007965 -0.109783456 -0.036345523 -0.04707668 -0.0773577
-0.06713675 -0.055307582 -0.08046826 -0.09847667 -0.19455312 -0.03454829 -0.013366481 -0.12545432
0.101367794 -0.23455559 -0.011857394 -0.043504015 -0.15219297 -0.10061208 -0.020034533 -0.26483035
-0.105867974 0.026532913 0.023139918 -0.0948514 -0.163995 0.05231316 0.14674084 -0.18226005
-0.110678285 -0.115865774 0.04253234 -0.16357045 -0.31537068 -0.11656426 0.009482359 -0.026445402
0.041261707 -0.26533502 -0.35535464 0.05979678 -0.09987806 -0.30824524 -0.25670913 -0.1267539
-0.027660474 0.07957043 0.10437859 -0.09519589 -0.11122166 -0.10559319 0.08551339 0.045125823
-0.28769898 0.044076275 -0.029818391 -0.11922205 0.055733856 -0.23317516 -0.09255218 -0.0034013009
-0.07289748 0.015371624 0.018077988 -0.0062851263 -0.26560682 -0.04674696 -0.15681109 0.016377587
-0.01604793 0.05579964 -0.03325877 -0.19896178 0.056754664 0.044469073 0.0035982528 -0.28417155
0.05687516 -0.0384122 0.06251771 -0.02827496 -0.008188047 -0.00909996 -0.029584011 -0.20559277
0.020082742 0.02505753 0.057278737 -0.06899928 -0.13877203 0.03366829 0.13156977 0.005837794
0.04665104 0.031250242 0.012178419 0.04837753 -0.28910258 0.111260824 -0.030574717 -0.12458134
-0.1008014 0.0062133344 -0.13546889 -0.14441696 -0.21891417 -0.035344034 -0.014660293 0.072567284
0.013365964 0.09104312 0.021253975 0.10591356 -0.009752819 0.004378292 -0.29623523 -0.22713073
-0.039590392 -0.039969537 0.010110299 0.032759406 0.035514094 0.039960742 -0.016299883 0.017328763
-0.010423819 -0.08825304 0.03668544 0.02564967 -0.1369526 -0.21357495 -0.037545763 0.13650304
-0.16128051 0.08715014 0.046909466 -0.13511884 -0.058953445 0.018276116 -0.1333673 -0.06996651
-0.071993746 -0.012147126 0.057693955 -0.10942493 -0.18358052 -0.117903195 -0.1772864 -0.025796957
-0.27808306 0.18047436 0.034025967 -0.09531185 -0.05704849 0.029868549 0.018101534 -0.01839536
-0.16749741 -0.23247603 0.026482128 0.20047492 -0.047813095 -0.063550435 -0.0070404275 0.005583271
0.03556677 -0.023498159 -0.02550031 0.041842718 0.025947835 -0.3208613 -0.166555 -0.01681806
0.03861513 0.033492763 0.034057174 -0.07937842 0.018384337 -0.13954921 -0.0854423 0.07277192
-0.056176405 -0.026639393 -0.1273204 -0.21475476 0.035204448 -0.13468812 -0.02932202 0.13113558
0.03438866 0.055639535 0.049157757 -0.017466571 -0.25268614 -0.09078009 -0.12699696 -0.111641474
-0.031256083 0.045532126 -0.113210484 -0.14770213 0.030995434 0.18369947 0.031218162 -0.22539325
0.10325307 0.009224298 0.05271071 -0.04691865 0.05083522 0.006724753 -0.05264388 -0.06343421
00000000: 9229 97bd 3086 04bd d901 513c 8652 0a3e
00000010: e4c6 d83d 71c6 49bb 5122 6abd feed 26bd
00000020: 5c65 323d 9e70 f83b ad47 4e3d 604c bc3d
00000030: ad85 9dbe 944b 91bd 0465 623d a112 5cbd
00000040: 21fe c7bd c551 db3c 82a9 7cbe 343f 60bd
00000050: 45fa d83b fc2e b13d b733 3d3d 8bfd c1bd
00000060: 396a bd3d 07b0 ba3d 48cb 92bd 7b13 e0bc
00000070: 8896 83bc 2626 c13d b1bc a8be 0a5b 58bd
00000080: af3f a9be 635b 87bd 7d9e fbbe 7e92 27be
00000090: 73ee 1cbd 4610 6cbc 7c00 5f3d a252 8c3b
000000a0: 72b1 cfbd 8c20 83be 4835 563d 147e a43c
000000b0: 26d6 e0bd 0bdf 14bd 7ad3 40bd b76d 9ebd
000000c0: fe7e 89bd 348a 62bd 8bcc a4bd 23ae c9bd
000000d0: ef38 47be 8282 0dbd 16ff 5abc 1977 00be
000000e0: eb99 cf3d 572f 70be 8445 42bc 4431 32bd
000000f0: 79d8 1bbe b50d cebd 761f a4bc d897 87be
00000100: 4fd1 d8bd 8d5b d93c ed8f bd3c 7341 c2bd
00000110: 4eee 27be 5346 563d 3b43 163e 61a2 3abe
00000120: 4cab e2bd 094b edbd 6436 2e3d 037f 27be
00000130: 4478 a1be 3eb9 eebd e55b 1b3c 07a4 d8bc
00000140: 0902 293d fed9 87be 0bf1 b5be 78ed 743d
00000150: de8c ccbd 52d2 9dbe 616f 83be c6cb 01be
00000160: 3898 e2bc d2f5 a23d 71c4 d53d 10f6 c2bd
00000170: 2fc8 e3bd 3e41 d8bd a521 af3d dbd5 383d
00000180: 484d 93be 5389 343d b345 f4bc b12a f4bd
00000190: 2f49 643d 78c5 6ebe ff8b bdbd 5ce8 5ebb
000001a0: 464b 95bd 44d9 7b3c 4a18 943c 76f3 cdbb
000001b0: 9efd 87be be79 3fbd 1693 20be 4a2a 863c
000001c0: f376 83bc 2a8e 643d 593a 08bd a3bc 4bbe
000001d0: 9477 683d 3425 363d aad0 6b3b ef7e 91be
000001e0: eef5 683d 1c56 1dbd 4909 803d e4a0 e7bc
000001f0: 2927 06bc 0018 15bc 2b5a f2bc e986 52be
00000200: 9084 a43c 7345 cd3c 1c9d 6a3d 7f4f 8dbd
00000210: 411a 0ebe c3e7 093d 3aba 063e f74a bf3b
00000220: 2915 3f3d 4100 003d fe87 473c 8427 463d
00000230: 4105 94be b7dc e33d d477 fabc 8024 ffbd
00000240: f770 cebd 3a99 cb3b 5bb8 0abe 0ae2 13be
00000250: 092b 60be e8c4 10bd ba31 70bc 289e 943d
00000260: ebfc 5a3c d174 ba3d d11c ae3c 35e9 d83d
00000270: 4aca 1fbc c677 8f3b 25ac 97be f594 68be
00000280: 8929 22bd 19b7 23bd aba5 253c ba2e 063d
00000290: 3a77 113d e0ad 233d 5587 85bc 0df5 8d3c
000002a0: aac8 2abc 03be b4bd 7943 163d 421f d23c
000002b0: 4d3d 0cbe 64b3 5abe 96c9 19bd 74c7 0b3e
000002c0: b826 25be c67b b23d 2424 403d 985c 0abe
000002d0: 2b79 71bd cbb7 953c 7091 08be 9a4a 8fbd
000002e0: 7571 93bd bd04 47bc 7f50 6c3d 2d1a e0bd
000002f0: 88fc 3bbe 3b77 f1bd 918a 35be 2454 d3bc
00000300: e760 8ebe 45ce 383e d05e 0b3d dc32 c3bd
00000310: adab 69bd e3ae f43c ab49 943c deb1 96bc
00000320: 7184 2bbe 320e 6ebe 0cf1 d83c 4c49 4d3e
00000330: aad7 43bd bb26 82bd 63b3 e6bb dff3 b63b
00000340: 76ae 113d 367f c0bc 07e6 d0bc 4563 2b3d
00000350: 8e90 d43c ef47 a4be 658d 2abe 07c6 89bc
00000360: e62a 1e3d b52f 093d 897f 0b3d 2791 a2bd
00000370: c09a 963c fde5 0ebe 5ffc aebd 7209 953d
00000380: 3b19 66bd db3a dabc 4760 02be ace8 5bbe
00000390: 8a32 103d afeb 09be bc34 f0bc 6848 063e
000003a0: 20db 0c3d 48e6 633d a559 493d 0e16 8fbc
000003b0: 1460 81be e9ea b9bd 7e0b 02be 49a4 e4bd
000003c0: 6106 00bd e57f 3a3d e6da e7bd 3a3f 17be
000003d0: 23ea fd3c b71b 3c3e 3bbd ff3c 7dcd 66be
000003e0: 5876 d33d 8321 173c 2fe7 573d c52d 40bd
000003f0: 9738 503d 515b dc3b 1ca1 57bd cce9 81bd

hidden_layers.1.bias f4 [64]
0.26087117 0.21882263 0.17175825 0.21413471 0.26726058 -0.1214382 0.12234323 0.08858488
0.085275844 0.09940612 0.23809469 0.11292668 0.2342078 0.09756791 0.11690771 0.10203935
-0.035953537 0.20093986 -0.14564122 0.22414684 0.117224604 0.2192114 0.23785852 0.22569306
0.17057227 0.2164745 0.22163811 0.23288879 0.25277632 0.17674747 0.096501835 0.2410117
-0.13806543 0.26032013 0.24389572 0.103460506 0.16991387 0.20359124 0.11185284 0.16481769
0.222095 0.092555135 0.200149 0.24413776 0.19458362 0.16872805 0.24488246 0.12633432
0.117280364 -0.16245267 0.104557335 0.107034005 -0.14484899 0.17411865 0.25248912 0.1669685
0.20442009 0.22005269 0.25579357 0.20619723 0.10280521 0.10014007 0.11274264 0.11849197
00000000: e890 853e 0a13 603e 65e1 2f3e 2146 5b3e
00000010: 61d6 883e 97b4 f8bd 168f fa3d fd6b b53d
00000020: 1aa5 ae3d 7095 cb3d 18cf 733e 1a46 e73d
00000030: 2bd4 6f3e afd1 c73d 4f6d ef3d 02fa d03d
00000040: 0444 13bd 2ec3 4d3e f922 15be c086 653e
00000050: 7413 f03d f478 603e 2f91 733e 151c 673e
00000060: 7faa 2e3e 7eab 5d3e 1af5 623e 667a 6e3e
00000070: e66b 813e 4afd 343e c1a2 c53d c5cb 763e
00000080: 0661 0dbe ae48 853e cdbf 793e 1ae3 d33d
00000090: e7fd 2d3e 397a 503e 1a13 e53d f8c5 283e
000000a0: df6c 633e 8c8d bd3d dcf3 4c3e 40ff 793e
000000b0: ee40 473e 0cc7 2c3e 78c2 7a3e c95d 013e
000000c0: b030 f03d fe59 26be 2822 d63d a534 db3d
000000d0: 4b53 14be 294c 323e 4146 813e caf9 2a3e
000000e0: 8053 513e 7e55 613e 60f7 823e 5e25 533e
000000f0: 8a8b d23d 3d16 cd3d 9de5 e63d ebab f23d

output.weight f4 [4, 64]
0.062856965 0.04394838 -0.07028749 0.087812416 0.05512431 -0.042279944 0.032409884 -0.090755224
0.031596668 -0.060968217 0.06278968 0.032922536 0.07016361 0.033653956 0.038933054 -0.067430355
-0.23516345 0.06709105 0.005520445 0.06378492 -0.07041823 0.09007604 0.080462724 0.08209952
-0.06393762 0.04417619 0.04705594 0.050281588 0.05706662 0.03386234 -0.09905075 0.059616514
0.06042575 0.05604981 0.050335176 -0.08790041 -0.11304983 0.037346732 -0.081927866 0.04078223
0.05943634 -0.098635815 0.044396218 0.062225323 0.04317086 0.03859532 0.06559312 0.029429037
0.03753281 -0.001920992 -0.070196874 0.03927043 -0.09440076 0.046058062 0.059369907 0.043213647
0.06481007 0.032888476 0.048528533 0.04338816 0.03767794 0.033479474 0.03029009 0.036239844
0.039624214 0.04003654 -0.0046829535 0.09780257 0.05438828 -0.0023914946 0.045530386 -0.023520987
0.021373698 0.006732703 0.059097357 0.034860685 0.08859382 0.049903963 0.022591006 0.010040513
-0.023733078 0.06380014 0.053341962 0.047793888 0.027392808 0.11797315 0.090044975 0.068923265
-0.035773575 0.042483468 0.05866521 0.071379766 0.07749152 0.040481675 0.005363951 0.053430673
0.0012871285 0.049756385 0.057320543 0.02522346 -0.032812875 0.07220315 -0.0056001893 0.040166594
0.04300685 0.014898165 0.053347096 0.07066698 0.054408744 0.048767116 0.07640975 0.027709765
0.031950977 -0.017043753 -0.008360238 0.052648123 -0.05843489 0.041322056 0.050477188 0.034072522
0.08637929 0.033099636 0.059679057 0.04706304 0.024677958 0.04278214 0.026253598 0.035201997
0.033829015 0.040413693 -0.02406564 0.114983685 0.023422087 0.051999133 0.062222295 -0.05354567
0.06654906 -0.018815128 -0.014649653 0.06912904 0.011955447 0.08427815 0.06892008 -0.037819486
-0.12362669 -0.0080335215 0.069126286 0.0003830964 -0.069727466 0.109799735 0.007913748 0.029116113
-0.03560699 0.040682312 0.0444557 -0.015063812 0.050920635 -0.038138337 -0.05497958 0.04392889
0.010122151 0.013103862 0.00250924 -0.050695445 -0.03913444 0.04371979 0.03025603 0.057295136
0.07997919 -0.059840802 -0.027782692 -0.015588964 0.055499926 0.07796159 0.009120412 0.06256363
0.080063894 0.069728166 0.070969045 0.07044119 -0.019412663 -0.002737963 0.060377687 0.06400643
0.07795878 0.039999705 0.00052752875 0.03727855 0.052591555 0.04344186 0.036543507 0.04278699
0.010988958 0.030812494 -0.056917857 0.09571983 -0.0042416235 0.0075719035 0.056950737 -0.040516324
0.068630606 -0.018661058 0.0037555848 0.07011982 0.020568885 0.06474612 0.050783902 -0.023742616
-0.09954221 0.03998262 -0.0059796358 0.021566203 0.068831265 0.10361865 0.015394205 0.0781346
-0.033221878 0.05784431 0.013473423 0.017975112 0.038766604 0.080966204 -0.03345562 0.018473733
-0.02547342 0.018472906 0.008452933 0.031786215 -0.045778368 0.029681435 -0.041007884 0.047129516
0.09997411 -0.046383217 0.054731384 0.0104754 -0.0029207645 -0.15150498 0.031308997 0.055871237
0.055661295 0.07107394 -0.07703346 0.061873965 0.06871818 0.045419205 0.03821628 0.056781203
0.09741312 0.049900774 0.016139755 0.012526328 0.05344329 0.07232083 0.055195604 0.059512805
00000000: 27bb 803d 3703 343d e3f2 8fbd ffd6 b33d
00000010: 07ca 613d bc2d 2dbd 3ac0 043d e0dd b9bd
00000020: 826b 013d cfb9 79bd e097 803d c8d9 063d
00000030: f0b1 8f3d bbd8 093d 4478 1f3d ed18 8abd
00000040: b0ce 70be 0867 893d d9e4 b43b aba1 823d
00000050: 6f37 90bd c979 b83d a4c9 a43d cb23 a83d
00000060: baf1 82bd 18f2 343d bbbd 403d 11f4 4d3d
00000070: b0be 693d 3db3 0a3d 1fdb cabd 7230 743d
00000080: fe80 773d 7c94 653d 422c 4e3d 2105 b4bd
00000090: ab86 e7bd e3f8 183d ccc9 a7bd 450b 273d
000000a0: 8573 733d 9301 cabd cfd8 353d fbdf 7e3d
000000b0: edd3 303d 2016 1e3d b055 863d 2a15 f13c
000000c0: 01bc 193d ccc9 fbba 61c3 8fbd 08da 203d
000000d0: 3055 c1bd 61a7 3c3d dc2d 733d cb00 313d
000000e0: 24bb 843d 11b6 063d dbc5 463d c9b7 313d
000000f0: 2f54 1a3d c621 093d ec22 f83c 3b70 143d
00000100: 004d 223d 5bfd 233d 7673 99bb b74c c83d
00000110: 3fc6 5e3d 9fba 1cbb 127e 3a3d 16af c0bc
00000120: e517 af3c 029e dc3b 1210 723d 14ca 0e3d
00000130: ad70 b53d 1968 4c3d c610 b93c f780 243c
00000140: df6b c2bc a6a9 823d 1a7d 5a3d 86c3 433d
00000150: e266 e03c e89b f13d 8069 b83d a427 8d3d
00000160: 5087 12bd 2503 2e3d ee4a 703d 8e2f 923d
00000170: e0b3 9e3d 1dd0 253d 15c4 af3b 1fda 5a3d
00000180: deb4 a83a 5acd 4b3d f2c8 6a3d 6ea1 ce3c
00000190: cb66 06bd 3fdf 933d cb81 b7bb ba85 243d
000001a0: f327 303d 6f17 743c 7c82 5a3d dab9 903d
000001b0: b4db 5e3d 07c0 473d b77c 9c3d 97ff e23c
000001c0: 07df 023d 579f 8bbc 61f9 08bc 8fa5 573d
000001d0: 6c59 6fbd 5141 293d 2bc1 4e3d a18f 0b3d
000001e0: a0e7 b03d 7c93 073d 0772 743d 2dc5 403d
000001f0: 6e29 ca3c 533c 2f3d c911 d73c f82f 103d
00000200: 4b90 0a3d d488 253d 4e25 c5bc 917c eb3d
00000210: addf bf3c 0bfd 543d cedc 7e3d b452 5bbd
00000220: e04a 883d 2f22 9abc 1905 70bc 8793 8d3d
00000230: c7e0 433c 069a ac3d f925 8d3d 9be8 1abd
00000240: fd2f fdbd 089f 03bc 1592 8d3d 54da c839
00000250: 46cd 8ebd afde e03d aaa8 013c ea84 ee3c
00000260: a3d8 11bd 7fa2 263d 2e17 363d 35ce 76bc
00000270: 2892 503d f236 1cbd 4532 61bd c8ee 333d
00000280: 61d7 253c 95b1 563c 1072 243b 07a6 4fbd
00000290: 6f4b 20bd 8613 333d 7edb f73c 4eae 6a3d
000002a0: 21cc a33d a11b 75bd 8798 e3bc db68 7fbc
000002b0: e453 633d 53aa 9f3d c86d 153c 5c21 803d
000002c0: 8af8 a33d a4cd 8e3d 3858 913d 7843 903d
000002d0: 4e07 9fbc 666f 33bb 984e 773d ce15 833d
000002e0: daa8 9f3d bbd6 233d db49 0a3a 65b1 183d
000002f0: 3e6a 573d 17f0 313d a5ae 153d 6941 2f3d
00000300: 080b 343c 7c6a fc3c b322 69bd c208 c43d
00000310: 51fd 8abb bb1d f83b 2d45 693d 72f4 25bd
00000320: 348e 8c3d 13df 98bc 4220 763b fb9a 8f3d
00000330: 1480 a83c 9d99 843d c802 503d e07f c2bc
00000340: c9dc cbbd d1c4 233d d2f0 c3bb 9bab b03c
00000350: 68f7 8c3d 0436 d43d fa37 7c3c 0805 a03d
00000360: aa13 08bd 28ee 6c3d a2bf 5c3c 8b40 933c
00000370: bbc9 1e3d 9cd1 a53d c308 09bd 3a56 973c
00000380: a2ad d0bc 7e54 973c 2c7e 0a3c 4332 023d
00000390: 1982 3bbd 7b26 f33c e2f7 27bd e10a 413d
000003a0: 3abf cc3d 54fc 3dbd 042e 603d 03a1 2b3c
000003b0: 4c6a 3fbb 1f24 1bbe dd3d 003d 3dd9 643d
000003c0: 19fd 633d 378f 913d b8c3 9dbd 8e6f 7d3d
000003d0: 1ebc 8c3d 7d09 3a3d ad88 1c3d 6893 683d
000003e0: 8880 c73d c164 4c3d 8537 843c 3a3b 4d3c
000003f0: 5ae7 5a3d f11c 943d c914 623d b3c3 733d

output.bias f4 [4]
1.4535984 1.27302 1.3607498 1.3559333
00000000: 830f ba3f 52f2 a23f 0d2d ae3f 398f ad3f
