experiments/navigate_1334_18Oct22075735.pth (torch_old, 54660 bytes, 6 tensors)

hidden_layers.0.weight f4 [128, 37]
0.19089022 -0.3982689 -0.36342975 -0.3912539 -1.0097784 -0.0045966273 0.023306917 0.1108839
0.12685809 0.21217898 -0.06019143 -0.08161076 -0.119472906 -0.06219818 0.020393768 0.034805525
0.08137334 0.0051457225 -0.1259679 -0.17529587 0.08894382 0.06297385 0.07513658 0.051641483
0.025511751 0.00035426454 0.026669227 0.010692997 -0.025268018 0.018120678 -0.023823451 0.055878516
-0.018500762 0.028786637 -0.014597151 0.006135587 0.0053748717 0.07878481 0.08666953 0.0915275
0.089983895 0.012803793 0.10823679 -0.5283978 -0.39630708 -0.4519654 -1.4347517 0.0061230757
0.0013501432 0.007882756 0.047355447 0.07555821 0.03264602 0.015115984 0.058421873 0.07910491
0.056165464 -0.10172679 -0.07478831 -0.07772342 -0.06512471 0.05893805 -0.04805513 -0.021270497
-0.00784602 -0.0013028772 0.103920944 0.050309766 0.0757867 0.09574296 0.11029939 -0.0055267387
0.024196072 -0.0036531435 0.060325783 0.11423253 0.115872815 0.074932076 -0.027492449 -0.40812474
0.19054142 0.21643303 0.2554572 -0.2352516 0.0064441804 -0.00030270964 0.034537107 -0.007733954
-0.004585331 -0.076872215 0.097481854 0.08215086 0.11536047 0.107134916 -0.57791 0.12513031
0.07658194 0.030133227 -0.22928002 0.004313356 0.07159156 0.063946195 0.05365671 0.11610743
-0.17577386 -0.007938757 0.004656183 -0.01454218 0.07880248 0.022614844 -0.007873351 0.30004025
-0.30379018 -0.20296039 -0.165931 -1.0870056 -0.059224598 0.016939586 0.05339725 0.10852326
0.12511146 -0.04161444 0.028176269 -0.07530887 -0.016379615 -0.11457545 -0.022303125 0.054470573
-0.10618774 -0.23102969 -0.4009211 0.014329969 -0.04195577 -0.009485964 0.110560566 0.0559961
-0.047632877 0.042771265 0.04196244 0.13583188 0.1222014 0.0647364 0.0959187 0.065350525
0.033572935 -0.009700213 0.029469064 0.008573542 -0.23230134 -0.03821434 -0.14347373 -0.2504011
-0.34906262 -0.18356209 -0.004266581 0.033819392 -0.15975182 -0.79560286 -0.05697051 -0.110359564
-0.060846787 -0.25105074 -0.062419463 -0.47564244 -0.08247629 0.11947132 -0.2160936 -0.6270754
-0.17510249 -0.020049306 0.054038055 -0.17096382 0.061349142 -0.20021822 -0.20327456 0.22764003
-0.07866763 -1.0056964 -0.074298635 -0.32275105 0.12619804 -0.26256275 -0.12328514 0.14145578
0.0413662 -0.0057265367 -0.050287735 -0.040648963 0.028337331 0.0720865 0.22081022 -0.107436396
-0.23968355 -0.20848118 -1.5752778 -0.026271652 -0.048423816 -0.07715077 -0.101417765 -0.029178541
-0.013901891 -0.0042132344 0.0036983283 -0.014897313 -0.022526242 0.117352456 0.06617433 0.12436988
0.051076975 0.026443409 -0.0002076096 0.0058429358 -0.00039315817 0.0051040226 0.07853804 0.058703642
-0.17074972 -0.11594004 0.10456956 -0.69649076 -0.0015775764 -0.002394432 -0.06332756 -0.017242864
-0.015431945 -0.027827095 0.039903317 -0.40679514 0.096918456 0.037647165 0.16370726 0.21590306
-0.024141196 0.13219263 0.07658374 -0.06921957 -0.00698908 -0.0905575 -0.077819556 -0.0128821125
-0.025182446 0.28089833 -0.21096136 0.0035973922 0.026059559 0.013416743 0.0944758 -0.31646472
-0.016286539 -0.019885147 0.053169623 0.114990994 -0.30280104 0.11093592 0.14156906 0.11004217
00000000: ba78 433e e7e9 cbbe 7713 babe 6e52 c8be
00000010: 6b40 81bf 4e9f 96bb 26ee be3c 1917 e33d
00000020: 16e7 013e 7245 593e 4a8b 76bd 8b23 a7bd
00000030: 36ae f4bd 85c3 7ebd d510 a73c 3d90 0e3d
00000040: 11a7 a63d 739d a83b bbfd 00be c380 33be
00000050: 2d28 b63d 6ff8 803d 35e1 993d 0586 533d
00000060: 05fe d03c 95bc b939 6c79 da3c ae31 2f3c
00000070: e0fe cebc d171 943c 6629 c3bc dfe0 643d
00000080: e98e 97bc f4d1 eb3c e428 6fbc 090d c93b
00000090: b11f b03b ee59 a13d cb7f b13d c572 bb3d
000000a0: 7a49 b83d 00c7 513c 40ab dd3d 1445 07bf
000000b0: c3e8 cabe 0268 e7be f2a5 b7bf 15a4 c83b
000000c0: 4af7 b03a ad26 013c c9f7 413d 43be 9a3d
000000d0: d5b7 053d 08a9 773c c64b 6f3d c101 a23d
000000e0: c20d 663d 2356 d0bd 9d2a 99bd 752d 9fbd
000000f0: 1b60 85bd 0669 713d 75d5 44bd 773f aebc
00000100: 988c 00bc 4ec5 aaba 81d4 d43d 9d11 4e3d
00000110: 0f36 9b3d e314 c43d a6e4 e13d a519 b5bb
00000120: d736 c63c 9469 6fbb 2b18 773d bff2 e93d
00000130: ba4e ed3d fd75 993d d837 e1bc baf5 d0be
00000140: 4a1d 433e 9fa0 5d3e 49cb 823e cce5 70be
00000150: b429 d33b 00b5 9eb9 c876 0d3d 1c6d fdbb
00000160: 8b40 96bb 2e6f 9dbd 91a4 c73d b63e a83d
00000170: 1c42 ec3d 8d69 db3d e9f1 13bf 2922 003e
00000180: fed6 9c3d f5d9 f63c 62c8 6abe 0d57 8d3b
00000190: 999e 923d 39f6 823d 23c7 5b3d bbc9 ed3d
000001a0: 10fe 33be 8f11 02bc e592 983b 5342 6ebc
000001b0: 3263 a13d c442 b93c 3aff 00bc e09e 993e
000001c0: 638a 9bbe d9d4 4fbe d1e9 29be 0023 8bbf
000001d0: 7e95 72bd e3c4 8a3c 13b7 5a3d 7141 de3d
000001e0: 381d 003e e773 2abd ebd1 e63c 893b 9abd
000001f0: 8b2e 86bc 89a6 eabd 0bb5 b6bc 891c 5f3d
00000200: f578 d9bd 0c93 6cbe 8845 cdbe 3fc8 6a3c
00000210: d0d9 2bbd 046b 1bbc 946d e23d 2b5c 653d
00000220: b11a 43bd ec30 2f3d cfe0 2b3d 8317 0b3e
00000230: ba44 fa3d 8594 843d 0671 c43d 7fd6 853d
00000240: c683 093d a4ed 1ebc 1b69 f13c 0b78 0c3c
00000250: 67e0 6dbe a486 1cbd c7ea 12be 9334 80be
00000260: 56b8 b2be b3f7 3bbe adce 8bbb 3486 0a3d
00000270: fb95 23be a1ac 4bbf e959 69bd 3204 e2bd
00000280: 7b3a 79bd b989 80be 8dab 7fbd 6887 f3be
00000290: 54e9 a8bd 61ad f43d a447 5dbe 0388 20bf
000002a0: 114e 33be 713e a4bc 0257 5d3d 2411 2fbe
000002b0: 3d49 7b3d 0106 4dbe 3527 50be 781a 693e
000002c0: 7f1c a1bd a9ba 80bf e229 98bd a03f a5be
000002d0: 0f3a 013e a06e 86be eb7c fcbd c9d9 103e
000002e0: 9b6f 293d aca5 bbbb 83fa 4dbd 877f 26bd
000002f0: b123 e83c 16a2 933d 131c 623e 9d07 dcbd
00000300: 9b6f 75be 177c 55be b4a2 c9bf a637 d7bc
00000310: 0d58 46bd 3901 9ebd 1eb4 cfbd d607 efbc
00000320: c2c4 63bc 2c0f 8abb a75f 723b dc13 74bc
00000330: f488 b8bc 7c56 f03d 6886 873d a3b5 fe3d
00000340: 1736 513d d99f d83c c7b1 59b9 1976 bf3b
00000350: cc20 ceb9 a53f a73b 8dd8 a03d 3b73 703d
00000360: 04d9 2ebe f971 edbd 9128 d63d 384d 32bf
00000370: aec6 ceba e7eb 1cbb e1b1 81bd e840 8dbc
00000380: 45d6 7cbc a6f5 e3bc a971 233d 7447 d0be
00000390: 2f7d c63d ea33 1a3d e0a2 273e b115 5d3e
000003a0: c2c3 c5bc 815d 073e f0d7 9c3d fdc2 8dbd
000003b0: a704 e5bb 3676 b9bd dc5f 9fbd 7f0f 53bc
000003c0: 6b4b cebc e8d1 8f3e 4106 58be 3ac2 6b3b
000003d0: db7a d53c e6d1 5b3c 877c c13d aa07 a2be
000003e0: 596b 85bc 2de6 a2bc 64c8 593d 6680 eb3d
000003f0: bd08 9bbe 5f32 e33d 7bf7 103e ca5d e13d

hidden_layers.0.bias f4 [128]
-0.0023215327 0.03777285 -0.055347335 -0.04890716 -0.06593032 -0.10208723 -0.019137466 0.060327813
-0.16846997 -0.022951644 -0.13585065 -0.09090945 -0.10233789 -0.14803618 -0.11279153 -0.05204739
-0.07489792 -0.14589147 -0.10915136 -0.03631206 -0.18542866 0.04894496 0.087367 -0.0801763
-0.068710424 0.13257976 0.08275074 -0.19928974 -0.10722024 -0.15952529 0.04987641 0.09016047
-0.07095037 0.015342616 -0.017711528 -0.28593755 -0.05838741 0.004034257 -0.079089165 0.03589792
-0.018527074 0.05472585 0.11670085 -0.00078288023 -0.026465852 -0.19448239 0.011529678 -0.14194568
-0.22829972 0.07705164 -0.014634658 -0.005673526 -0.029760623 0.026891079 -0.037158363 0.014682388
-0.1555454 -0.079310626 -0.003656697 -0.12820858 -0.19892612 -0.028733615 0.039177597 -0.08902593
0.1247188 0.05035347 -0.07014549 -0.11374189 -0.17416535 -0.12372404 1.5730526e-05 -0.0823909
0.024329662 -0.17118175 -0.20653196 -0.07369073 0.09815718 -0.14787929 0.0175292 -0.08159455
-0.10895553 -0.034201775 -0.00783293 -0.11037306 -0.14427413 0.16423039 0.0022019732 -0.15435049
-0.004220092 0.021642296 0.08773691 -0.21226104 -0.14273067 -0.2151647 -0.08449604 0.057193756
-0.09822392 -0.2069209 -0.061157264 0.11407943 -0.21288835 -0.26567084 0.06665635 0.121887535
-0.3081682 -0.14095679 -0.17912462 0.091919474 -0.2018172 -0.11138684 0.09956765 -0.03597015
-0.13081162 -0.14742957 -0.010261106 0.0813509 -0.13821311 0.08259668 -0.032867566 -0.11920879
-0.08278108 0.023428805 -0.0060976725 -0.22735888 -0.115689784 0.025201077 0.064267755 -0.041795976
00000000: db24 18bb b4b7 1a3d e3b3 62bd e052 48bd
00000010: 7a06 87bd 1c13 d1bd 2dc6 9cbc 4c1a 773d
00000020: 6483 2cbe 1605 bcbc 6f1c 0bbe bc2e babd
00000030: 8796 d1bd cc96 17be 3fff e6bd a52f 55bd
00000040: 1564 99bd 9364 15be c08a dfbd f4bb 14bd
00000050: 03e1 3dbe 837a 483d 78ed b23d 7933 a4bd
00000060: 0db8 8cbd fdc2 073e 3879 a93d 9c12 4cbe
00000070: 4996 dbbd 995a 23be 354b 4c3d 0da6 b83d
00000080: 6d4e 91bd 985f 7b3c c417 91bc 6866 92be
00000090: a327 6fbd cd31 843b 80f9 a1bd b309 133d
000000a0: 17c6 97bc 3628 603d db00 ef3d 343a 4dba
000000b0: eace d8bc 6426 47be f9e6 3c3c 355a 11be
000000c0: 67c7 69be 40cd 9d3d 34c6 6fbc fce8 b9bb
000000d0: 8dcc f3bc ae4a dc3c 5e33 18bd 668e 703c
000000e0: 4b47 1fbe 9c6d a2bd 32a5 6fbb 1c49 03be
000000f0: 4ab3 4bbe c262 ebbc b078 203d 3a53 b6bd
00000100: 926c ff3d 713f 4e3d 70a8 8fbd 82f1 e8bd
00000110: 6758 32be 0863 fdbd 0cf5 8337 8fbc a8bd
00000120: 004f c73c 454a 2fbe 1d7d 53be 2aeb 96bd
00000130: a206 c93d ab6d 17be 6699 8f3c 0b1b a7bd
00000140: 1424 dfbd 2917 0cbd b155 00bc 450b e2bd
00000150: 99bc 13be 032c 283e fb4e 103b 0e0e 1ebe
00000160: b348 8abb 2f4b b13c 69af b33d f55a 59be
00000170: fd27 12be 2354 5cbe 430c adbd 0044 6a3d
00000180: 9f29 c9bd 13e3 53be 0a80 7abd 7aa2 e93d
00000190: 67ff 59be 0206 88be 2083 883d 2ca0 f93d
000001a0: 39c8 9dbe fa56 10be 726c 37be 4740 bc3d
000001b0: 2ba9 4ebe c91e e4bd 20ea cb3d 7055 13bd
000001c0: 7bf3 05be c7f7 16be 331e 28bc 4d9b a63d
000001d0: bd87 0dbe 7328 a93d 24a0 06bd bd23 f4bd
000001e0: 2089 a9bd c4ed bf3c fcce c7bb c4d0 68be
000001f0: c4ee ecbd 7d72 ce3c d09e 833d 4232 2bbd

hidden_layers.1.weight f4 [64, 128]
-0.001167606 -0.08300739 -0.32545346 0.06867309 0.11371808 0.07808568 -0.1956505 -0.099850945
0.12964696 -0.017376408 -0.05577433 -0.008667993 -0.3026401 0.041823212 -0.22632748 0.05448596
-0.31582382 -0.1852676 -0.055843767 0.017601836 0.13352226 0.04899087 0.01948969 -0.16369687
-0.012239662 0.030100847 -0.14971651 -0.2423793 -0.030183345 0.09338268 -0.41708606 0.0132196145
-0.17759185 -0.09186323 -0.23169489 -0.046854667 0.013090337 -0.035671726 -0.2905288 -0.013263858
-0.07277158 -0.13274108 -0.05104608 -0.006085592 0.034150865 -0.022727689 -0.038723722 -0.054065842
-0.048317637 0.00874354 -0.1367552 0.0483186 -0.0726757 -0.040036745 -0.26006144 0.07286663
0.06292134 0.066619255 0.11282305 0.052651253 -0.055375215 -0.04254053 -0.23060156 0.0556674
0.045281354 0.0467544 -0.005139201 -0.5556542 0.026342474 -0.043010086 0.03519408 -0.06606142
-0.21714975 -0.093794405 -0.0063498933 0.042488165 -0.11365212 -0.11311544 -0.09614407 0.12820917
0.00077296793 -0.15040256 -0.07314315 0.005038182 -0.038869027 0.01791758 -0.45319453 0.05182544
-0.0037132725 -0.033355333 -0.014606037 -0.013044571 -0.0032155314 -0.012801921 0.0457055 0.009397486
-0.20124696 0.095030956 -0.14430298 -0.015257974 -0.22649102 0.06769253 -0.07511593 0.06207786
0.039145164 -0.030805662 -0.01853235 -0.37583122 0.09561051 -0.021185081 -0.21843955 -0.054113112
0.03128704 -0.2714175 -0.022854926 -0.5059186 -0.08000899 0.06396991 -0.034024365 0.08969728
-0.00995465 -0.104038015 0.018413307 0.009212319 -0.29073715 0.055815086 -0.032710355 -0.08920153
-0.14758314 -0.49380836 -0.0009349889 -0.19432424 0.17604369 -0.22668722 0.005567004 -0.18948592
0.19200242 -0.2695853 -0.4167284 -0.57409126 0.041909188 0.023255643 -0.0019355697 -0.09412859
0.018349465 0.0019817445 0.0032878176 0.035565607 0.22245735 0.048239898 -0.19162872 -0.041763652
-0.67945033 -0.61496246 -0.27606085 0.015703406 -0.032836173 -0.12859647 0.009973393 0.010346683
0.008998879 -0.08638743 0.0024070397 -0.08450347 -0.012194951 -0.39751863 -0.01647151 -0.22436424
-0.40966764 -0.24120837 -0.072364196 -0.44202727 -0.0064564995 0.015425971 0.07065966 0.168886
0.0038965794 -0.1456795 -0.0110589955 -0.49645326 0.002911317 0.0060323705 -0.0018280052 -0.22594747
0.11249771 0.123763815 -0.73172694 0.002468178 0.12517487 -0.22091109 -0.002942708 -0.2747229
-0.55536515 -0.16393031 0.017499886 -0.0035553882 0.046117734 -0.0015029183 -0.01077308 -0.3834973
-0.0005871074 0.015500436 0.009372385 -0.08634574 -0.40133113 0.3043642 -0.005634611 -0.05349505
-0.45699543 -0.0064044925 0.015412854 -0.29201895 -0.005219951 -0.8570555 -0.02082388 0.015166081
-0.17479551 -0.26766983 -0.21629357 -0.07375834 -0.24390395 -0.08240636 -0.0018589704 -0.7701069
-0.010689524 -0.059057806 -0.074998766 -0.2173709 0.007955506 -0.005456224 -0.32895842 0.25533336
0.021113452 -0.24330921 0.024474582 0.011968824 0.0018469184 -0.06723114 -0.008111237 -0.16310424
0.008038511 0.005898455 -0.104970165 -0.0039696526 -0.010251257 -0.31462967 -0.23678602 0.17794938
-0.33910358 -0.24629872 -0.09568355 0.030649174 -0.018128717 -0.110444896 0.033045758 -0.47213885
00000000: 5b0a 99ba c7ff a9bd d6a1 a6be 7aa4 8c3d
00000010: 06e5 e83d 63eb 9f3d 9b58 48be a77e ccbd
00000020: 2cc2 043e f858 8ebc a073 64bd 3304 0ebc
00000030: a5f3 9abe d14e 2b3d 64c2 67be ac2c 5f3d
00000040: a9b3 a1be cab6 3dbe 6fbc 64bd ba31 903c
00000050: 0fba 083e a7aa 483d d8a8 9f3c 27a0 27be
00000060: dd88 48bc 0d96 f63c 494f 19be 4732 78be
00000070: 1043 f7bc 6b3f bf3d 4e8c d5be 1597 583c
00000080: a3da 35be ca22 bcbd 6d41 6dbe aeea 3fbd
00000090: da78 563c 841c 12bd 31c0 94be a750 59bc
000000a0: 4409 95bd 47ed 07be b215 51bd a569 c7bb
000000b0: c7e1 0b3d 6b2f babc c49c 1ebd 2574 5dbd
000000c0: b7e8 45bd 1141 0f3c 8e09 0cbe b9e9 453d
000000d0: ffd6 94bd 92fd 23bd c626 85be 1a3b 953d
000000e0: e7dc 803d ad6f 883d c50f e73d d7a8 573d
000000f0: 1fd1 62bd fb3e 2ebd d122 6cbe 8003 643d
00000100: f178 393d 8b81 3f3d be66 a8bb 5b3f 0ebf
00000110: 2ccc d73c 582b 30bd ab27 103d 364b 87bd
00000120: 815c 5ebe 4817 c0bd c412 d0bb 1208 2e3d
00000130: 71c2 e8bd 11a9 e7bd 2fe7 c4bd 4449 033e
00000140: 00a1 4a3a 2103 1abe 13cc 95bd 5517 a53b
00000150: 2135 1fbd e4c7 923c 1d09 e8be ea46 543d
00000160: 605a 73bb 9a9f 08bd 294e 6fbc e5b8 55bc
00000170: aabb 52bb 26bf 51bc b135 3b3d eaf7 193c
00000180: af13 4ebe 979f c23d 29c4 13be 95fc 79bc
00000190: 43ed 67be 62a2 8a3d 61d6 99bd 5b45 7e3d
000001a0: ae56 203d 285c fcbc 28d1 97bc f36c c0be
000001b0: 71cf c33d 568c adbc 9eae 5fbe b6a5 5dbd
000001c0: d726 003d 3cf7 8abe 413a bbbc e283 01bf
000001d0: c1db a3bd a802 833d 225d 0bbd 35b3 b73d
000001e0: d418 23bc e211 d5bd 81d7 963c 44ef 163c
000001f0: 80db 94be 5c9e 643d 4bfb 05bd 4baf b6bd
00000200: 0920 17be 73d4 fcbe 0b1a 75ba effc 46be
00000210: cc44 343e b220 68be 6a6b b63b 9908 42be
00000220: 489c 443e 1607 8abe 6d5d d5be a5f7 12bf
00000230: f8a8 2b3d 9e82 be3c f1b2 fdba 7dc6 c0bd
00000240: 9e51 963c 28e0 013b 6d78 573b 3ead 113d
00000250: dccb 633e 3397 453d 523a 44be 5d10 2bbd
00000260: 75f0 2dbf 2e6e 1dbf d957 8dbe 6ea4 803c
00000270: 397f 06bd cbae 03be 7167 233c 2285 293c
00000280: 0970 133c e5eb b0bd 6dbf 1d3b 2810 adbd
00000290: 55cd 47bc 9087 cbbe 43ef 86bc bdbf 65be
000002a0: f5bf d1be 54ff 76be ae33 94bd 6651 e2be
000002b0: 0b91 d3bb 36bd 7c3c 03b6 903d 74f0 2c3e
000002c0: c15d 7f3b 022d 15be ca30 35bc 1f2f febe
000002d0: cbcb 3e3b 31ab c53b ad99 efba c65e 67be
000002e0: 3365 e63d e277 fd3d 7552 3bbf 28c1 213b
000002f0: d72d 003e 8436 62be 73da 40bb 7ba8 8cbe
00000300: 692c 0ebf 59dd 27be ec5b 8f3c 8401 69bb
00000310: f3e5 3c3d 92fd c4ba 9381 30bc c259 c4be
00000320: 1ce8 19ba 8af5 7d3c a28e 193c 09d6 b0bd
00000330: 467b cdbe a0d5 9b3e 8ba2 b8bb a01d 5bbd
00000340: 4efb e9be c7dc d1bb 3286 7c3c 8283 95be
00000350: 1f0c abbb fd67 5bbf d796 aabc 277b 783c
00000360: 98fd 32be 050c 89be 107c 5dbe 9d0e 97bd
00000370: f5c1 79be aac4 a8bd b2a8 f3ba ba25 45bf
00000380: 1d23 2fbc 99e6 71bd f498 99bd 7a96 5ebe
00000390: d057 023c 20ca b2bb 3d6d a8be 0ebb 823e
000003a0: 1ef6 ac3c 0d26 79be eb7e c83c e318 443c
000003b0: 4c14 f23a 7bb0 89bd fee4 04bc cc04 27be
000003c0: f5b3 033c d447 c13b 99fa d6bd dc13 82bb
000003d0: e3f4 27bc 2417 a1be 0978 72be 5d38 363e
000003e0: fc9e adbe bb35 7cbe bdf5 c3bd fa13 fb3c
000003f0: ad82 94bc ef30 e2bd fd5a 073d 2fbc f1be

hidden_layers.1.bias f4 [64]
0.23658165 0.09664349 0.10701157 0.112542555 0.2627131 0.20281199 0.12057027 0.13815497
0.17860039 0.113906 0.25670585 0.122540675 0.19938089 0.1208994 0.09003227 0.14927551
0.11319151 0.10686202 0.24305439 0.1454292 -0.13521032 0.23895553 -0.13205871 0.2480264
0.14041835 0.25840804 0.23571716 0.24767491 0.09755968 0.031413052 0.16865356 0.18253702
-0.044890717 0.26364866 0.23786882 0.15571268 -0.15670413 0.16475514 0.13102049 0.1755016
0.14733307 0.19729324 0.10774818 0.23955078 0.117792875 0.23057619 0.15457095 0.09696341
0.102000736 0.09812072 0.10787962 0.12422032 0.12575477 0.22492854 0.096771255 0.09487953
0.14146727 0.25152457 0.21729049 0.10429862 0.09238032 0.10748289 0.12270762 0.15176803
00000000: 7642 723e 06ed c53d e228 db3d b67c e63d
00000010: 5582 863e f2ad 4f3e 8ced f63d 7f78 0d3e
00000020: 05e3 363e 8d47 e93d f36e 833e 9bf6 fa3d
00000030: 812a 4c3e 1b9a f73d d762 b83d aedb 183e
00000040: f3d0 e73d 7ada da3d 40e3 783e 64eb 143e
00000050: 9374 0abe c2b0 743e 663a 07be a2fa 7d3e
00000060: d4c9 0f3e 0f4e 843e d75f 713e 7e9e 7d3e
00000070: 5fcd c73d f9aa 003d 85b3 2c3e fcea 3a3e
00000080: 54df 37bd f5fc 863e e293 733e 2573 1f3e
00000090: 0c77 20be 92b5 283e 3c2a 063e b1b6 333e
000000a0: 7bde 163e 3d07 4a3e 14ab dc3d cd4c 753e
000000b0: 643d f13d 2a1c 6c3e d947 1e3e c194 c63d
000000c0: c3e5 d03d 84f3 c83d fdef dc3d 3967 fe3d
000000d0: dcc5 003e ab53 663e 0230 c63d 3350 c23d
000000e0: ccdc 103e d4c7 803e 6681 5e3e 849a d53d
000000f0: e531 bd3d fd1f dc3d 224e fb3d 1469 1b3e

output.weight f4 [4, 64]
0.053409968 -0.13247016 0.04189487 0.03307704 0.060741946 0.046498064 0.033709735 0.036978267
0.035665255 0.029039513 0.061298653 0.030281428 0.054926816 0.03255065 0.024571177 0.028610334
-0.13069904 0.037128687 0.091971435 0.040580478 -0.055842042 0.05554967 0.078783795 0.106880836
-0.10766023 0.08071069 0.04426947 0.06925486 0.040904637 -0.10138291 -0.04256963 0.03938527
-0.11038937 0.07720622 0.0849141 -0.1302456 0.01345737 0.042976804 -0.11327863 0.0492384
0.042863563 -0.14237186 -0.11451519 0.076368056 -0.070475206 0.06434296 0.033989552 0.023997216
0.041387722 0.041767787 -0.101208225 0.029929698 -0.114200994 0.060956035 0.035881843 0.028764188
0.04365785 0.06239586 0.056120664 0.028419573 0.033445254 0.046016816 0.035604298 0.042790856
0.057142485 -0.057152882 0.01917517 0.03044289 0.06369296 0.051527705 0.027630119 0.049284164
0.03860711 0.02351811 0.07784415 0.020501452 0.07348231 0.03248733 0.031028453 0.03769823
-0.040653992 0.039285176 0.09168856 0.040153284 -0.06222555 0.0735537 -0.05761493 0.14554913
-0.0072157034 0.11928725 0.08089148 0.0505245 0.03362224 -0.11020582 -0.052490115 0.04948223
-0.1214826 0.050675016 0.10005609 -0.1170995 -0.0074347826 0.026336392 -0.0068418854 0.030644976
0.026010921 -0.09871315 -0.0126546435 0.07019812 0.019140813 0.06538011 0.03193439 0.039440595
0.017292704 0.026221236 0.020882258 0.02839554 -0.005543525 0.045204762 0.033603024 0.035027966
0.036314916 0.06889933 0.05311132 0.029630823 0.035292875 0.031011492 0.02218169 0.025225783
0.020777894 -0.049610518 0.06386703 0.060977787 -0.010536131 0.06268883 0.053818848 0.07007078
0.070720516 0.07257384 0.014508135 0.05562757 0.023265453 0.04088225 0.04854472 0.047640603
-0.07911472 -0.02866959 0.058600683 -0.027492022 0.005781958 0.019800223 0.000552954 0.11030994
0.07392096 0.063252926 0.010790836 0.026721364 0.049630385 -0.04752013 -0.29791787 0.052047513
-0.13439609 0.021574186 0.021252299 -0.0403606 0.047373854 0.043257907 -0.045113463 0.030804573
0.053934094 -0.09808742 -0.06092585 0.07021933 0.044541325 0.023358071 0.03882659 0.0581267
0.042942937 0.05967267 -0.10184459 0.07289807 -0.05745165 0.048353255 0.06270555 0.061640996
0.060743853 0.009943778 0.027203398 0.05624325 0.042532407 0.039978903 0.053966865 0.019989973
0.016188199 -0.07353752 0.05100191 0.05672774 0.03071746 0.06874688 0.047257066 -0.052529007
0.05253204 0.05972306 0.033658184 0.053669002 0.038916238 0.034345463 0.04681523 0.05253424
-0.0613845 0.061046142 0.04504964 0.04858229 0.09818782 0.01614068 -0.015508075 0.08106277
-0.122102536 0.07577599 0.015943017 0.0052698427 0.05780322 -0.17519003 -0.27942353 0.05097213
-0.1359958 0.020353448 0.028556796 -0.090478 -0.07259794 0.025571216 -0.051775426 0.026735276
0.021744778 -0.0805249 -0.075496905 0.08349119 0.068661794 0.044722416 0.03392225 0.056204163
0.04957379 0.047926944 0.06947927 0.047923233 -0.048347004 0.04011758 0.039224327 0.044177286
-0.08394041 -0.0023092055 0.028473428 0.05835149 0.048180595 0.04693649 0.039326783 0.037465625
00000000: 69c4 5a3d 42a6 07be f599 2b3d ca7b 073d
00000010: 8ccc 783d c174 3e3d 3813 0a3d 8676 173d
00000020: bb15 123d 46e4 ed3c 4c14 7b3d c210 f83c
00000030: f1fa 603d d553 053d 7e49 c93c 3860 ea3c
00000040: f8d5 05be 4014 183d 855b bc3d b737 263d
00000050: a0ba 64bd 0d88 633d 6659 a13d 57e4 da3d
00000060: f77c dcbd a54b a53d e753 353d 7ed5 8d3d
00000070: 9f8b 273d d8a1 cfbd 7e5d 2ebd 7352 213d
00000080: d213 e2bd 4b1e 9e3d 72e7 ad3d 1a5f 05be
00000090: 4d7c 5c3c 7208 303d a0fe e7bd 34ae 493d
000000a0: b491 2f3d eec9 11be f186 eabd db66 9c3d
000000b0: 4e55 90bd 3ec6 833d a138 0b3d cf95 c43c
000000c0: 2c86 293d b314 2b3d 4246 cfbd 202f f53c
000000d0: 36e2 e9bd 09ad 793d d7f8 123d e0a2 eb3c
000000e0: 93d2 323d cd92 7f3d c8de 653d 2ad0 e83c
000000f0: e4fd 083d 217c 3c3d d0d5 113d 7745 2f3d
00000100: 3d0e 6a3d 2419 6abd 3f15 9d3c 5e63 f93c
00000110: 7471 823d b70e 533d 8f58 e23c 31de 493d
00000120: 7d22 1e3d 0da9 c03c c16c 9f3d a9f2 a73c
00000130: e57d 963d 6f11 053d 622f fe3c 7669 1a3d
00000140: cd84 26bd 7ee9 203d 36c7 bb3d c577 243d
00000150: 38e0 7ebd 52a3 963d a2fd 6bbd d50a 153e
00000160: b571 ecbb e04c f43d 6faa a53d c7f2 4e3d
00000170: 79b7 093d 97b3 e1bd e0ff 56bd e1ad 4a3d
00000180: dfcb f8bd 9b90 4f3d 35ea cc3d ddd1 efbd
00000190: 7a9f f3bb 6bbf d73c e531 e0bb 2c0b fb3c
000001a0: db14 d53c 1f2a cabd 6c55 4fbc 08c4 8f3d
000001b0: 32cd 9c3c 02e6 853d a3cd 023d 768c 213d
000001c0: 6ea9 8d3c ebcd d63c 4511 ab3c c39d e83c
000001d0: 75a6 b5bb a128 393d 53a3 093d 7c79 0f3d
000001e0: f3be 143d 181b 8d3d 418b 593d 57bc f23c
000001f0: 438f 103d d00b fe3c 60b6 b53c 4da6 ce3c
00000200: 6736 aa3c 6634 4bbd b8cc 823d d8c3 793d
00000210: bd9f 2cbc 0063 803d 2771 5c3d 4581 8f3d
00000220: ebd5 903d 98a1 943d 87b3 6d3c bcd9 633d
00000230: 3197 be3c 2574 273d d4d6 463d cb22 433d
00000240: e606 a2bd 7ddc eabc 4507 703d f336 e1bc
00000250: 9476 bd3b 1434 a23c 1df4 103a 2eea e13d
00000260: df63 973d c08a 813d 0ccc 303c c3e6 da3c
00000270: 3b49 4b3d 78a4 42bd b188 98be c62f 553d
00000280: 219f 09be 59bc b03c 4d19 ae3c 2851 25bd
00000290: 160b 423d 342f 313d e5c8 38bd df59 fc3c
000002a0: ffe9 5c3d 0fe2 c8bd 628d 79bd 27cf 8f3d
000002b0: f770 363d 6d59 bf3c a108 1f3d 4316 6e3d
000002c0: efe4 2f3d 546b 743d e593 d0bd 954b 953d
000002d0: 6c52 6bbd 100e 463d c46b 803d 457b 7c3d
000002e0: 8cce 783d 3aeb 223c a9d9 de3c 525f 663d
000002f0: 7636 2e3d ebc0 233d 5c0c 5d3d 03c2 a33c
00000300: 1d9d 843c d79a 96bd 61e7 503d 595b 683d
00000310: 2fa3 fb3c 2acb 8c3d a090 413d a828 57bd
00000320: d62b 573d 2ba0 743d 2add 093d 07d4 5b3d
00000330: a266 1f3d d4ad 0c3d 54c1 3f3d 252e 573d
00000340: 506e 7bbd 850b 7a3d f985 383d 39fe 463d
00000350: b216 c93d 7639 843c 9515 7ebc 3d04 a63d
00000360: e510 fabd 7130 9b3d ee9a 823c a5ae ac3b
00000370: 12c3 6c3d 0465 33be 9a10 8fbe 27c8 503d
00000380: 7c42 0bbe 46bc a63c f1ef e93c 884c b9bd
00000390: 3bae 94bd ba7a d13c 7812 54bd f003 db3c
000003a0: 1b22 b23c 3dea a4bd 1f9e 9abd 6efd aa3d
000003b0: 8e9e 8c3d da2e 373d 0ff2 0a3d 5636 663d
000003c0: e30d 4b3d 0b4f 443d 264b 8e3d 274b 443d
000003d0: 8207 46bd 5552 243d b0a9 203d 3ef3 343d
000003e0: f3e8 abbd 0a56 17bb 1b41 e93c f901 6f3d
000003f0: 0459 453d 7a40 403d 1f15 213d 8e75 193d

output.bias f4 [4]
1.4139084 1.2783468 1.3309091 1.3363404
00000000: f3fa b43f dea0 a33f 3b5b aa3f 340d ab3f
