experiments/navigate_1363_18Oct22075756.pth (torch_old, 54660 bytes, 6 tensors)

hidden_layers.0.weight f4 [128, 37]
000000 7d 23 45 3e f4 34 ca be cf c6 be be 95 c2 c0 be
       0.19251819 -0.39493525 -0.37261054 -0.37648454
000010 51 2f 82 bf 24 81 66 bc ad b5 9b 3c 0f 2f f6 3d
       -1.017069 -0.014068875 0.019007528 0.120206945
000020 50 af 12 3e 49 b1 4c 3e 3d 13 72 bd 98 2a a4 bd
       0.14324689 0.19989504 -0.05910038 -0.080159366
000030 2d 5c e6 bd b2 9c 90 bd 09 be 83 3c 2a 64 30 3d
       -0.1124805 -0.07061137 0.016081827 0.043064274
000040 e0 9d 9a 3d 99 a2 3e bb da dc f7 bd 9f a0 23 be
       0.075496435 -0.0029088615 -0.12102671 -0.15979241
000050 0b 3d 91 3d 11 db 90 3d 76 d9 b4 3d 34 b7 65 3d
       0.07091721 0.070730336 0.0883054 0.05608292
000060 ad a7 12 3d 52 05 5a 3a 96 92 90 3c be b3 d6 3c
       0.03580444 0.0008316833 0.017648023 0.026208755
000070 b6 3a 0c bd ec c8 ea 3c c9 f3 14 bd f2 df 5b 3d
       -0.03423568 0.02866026 -0.036365304 0.053680368
000080 34 42 8b bc 83 bf 67 3d e4 26 bc bc d9 13 67 bc
       -0.016999342 0.056579124 -0.022967763 -0.014103853
000090 ec 6a 68 3b 94 4f a4 3d e3 dc b3 3d ae bc dc 3d
       0.003546412 0.08022991 0.08782365 0.10778175
0000a0 56 3c 99 3d e9 d2 f4 3c c3 57 e2 3d 14 45 07 bf
       0.07482211 0.029885726 0.110518955 -0.5283978
0000b0 c3 e8 ca be 81 ef f4 be c5 69 b8 bf 9b cc b8 3c
       -0.39630708 -0.47838977 -1.4407278 0.022558501
0000c0 be c8 76 3c 8c 44 aa b9 17 9e aa 3c fa 70 9f 3d
       0.015062509 -0.00032475998 0.020827336 0.077852204
0000d0 b6 84 0f 3d 82 13 bf 3b 2a f8 84 3d db 4a ad 3d
       0.035038672 0.005831183 0.06492646 0.08461543
0000e0 d5 07 64 3d 7f fa b4 bd e7 4d a6 bd d4 64 9e bd
       0.05567153 -0.08836841 -0.081203274 -0.07734075
0000f0 ac 68 8b bd a8 07 6f 3d d3 33 33 bd 8d e7 0f bd
       -0.06807074 0.05835691 -0.043750595 -0.035132933
000100 03 74 2c 3b ce 05 a8 3b 96 21 cf 3d 47 cb 55 3d
       0.0026314266 0.005127645 0.10113828 0.052195814
000110 aa 32 9d 3d 8c 4c bd 3d eb 00 f2 3d d5 9f 16 bb
       0.07675679 0.09243116 0.11816581 -0.002298345
000120 0d ce 92 3c 95 c7 92 ba e8 5d 90 3d db bb d1 3d
       0.017920518 -0.0011198396 0.07049161 0.10240909
000130 10 a3 cb 3d 6f b2 aa 3d dd 6d e5 bc 9d 3d cf be
       0.09943211 0.08334815 -0.028006488 -0.40476695
000140 0e 99 36 3e 23 5c 5e 3e d8 da 82 3e 76 ad 76 be
       0.17831823 0.21714835 0.2555759 -0.24089608
000150 ad ed 90 bc 16 8d 78 3b 7d 88 1b 3d 1e 22 88 bc
       -0.017691458 0.003792589 0.037971962 -0.01661783
000160 b6 62 49 3b 9c f7 91 bd b8 ad 9f 3d 3e 12 99 3d
       0.0030729002 -0.07127306 0.07796806 0.074741825
000170 26 ee 05 3e bb f0 ba 3d 8b 9d 11 bf 51 c4 03 3e
       0.13079128 0.09127947 -0.56881016 0.12867858
000180 66 c4 7b 3d ee 07 df 3c d5 fa 6b be be 6b 70 bb
       0.061466597 0.02722546 -0.23044904 -0.0036685313
000190 12 8b 5d 3d 16 5c a4 3d e7 c4 58 3d 8d f0 f2 3d
       0.054087706 0.080253765 0.052922156 0.11862288
0001a0 35 aa 3f be 0c e8 0d 3b c6 dc 80 bc 1e ed 62 bb
       -0.18717273 0.0021653203 -0.015730273 -0.0034626196
0001b0 2d fa db 3d e9 eb 88 3c ba 2b fb bb d2 13 9b 3e
       0.107410766 0.016714053 -0.0076651247 0.3028856
0001c0 b7 b6 a8 be e2 4d 51 be 04 26 22 be 5c 74 8c bf
       -0.329519 -0.20439866 -0.15834814 -1.097301
0001d0 a8 a4 5a bd 67 b1 42 3c 11 6f 42 3d bf f9 f2 3d
       -0.053379685 0.011883116 0.047469202 0.118640415
0001e0 a5 ac fc 3d 41 c4 06 bd 17 e5 06 3d 7c 63 b1 bd
       0.12337617 -0.032902006 0.03293332 -0.08661553
0001f0 4b 89 5d bc 61 69 fe bd 1d 3a 7f bc dc b8 2b 3d
       -0.013521503 -0.12422443 -0.01557782 0.041924343
000200 6d 24 e1 bd ac 49 62 be 5d 00 cf be e5 21 8b 3c
       -0.10993276 -0.22098416 -0.40429965 0.016983936
000210 13 00 53 bd 07 8e 10 3c bf 9f d8 3d 27 37 5b 3d
       -0.051513743 0.008822924 0.10577344 0.053519394
000220 a0 f3 49 bd 8e 80 cc 3c 07 e1 86 3d f3 19 0f 3e
       -0.049304605 0.024963643 0.06585889 0.13974743
000230 74 63 04 3e 22 55 97 3d 99 4a c8 3d fb 02 51 3d
       0.12928563 0.07389285 0.097798534 0.051028233
000240 11 2a 49 3d 28 76 0a bc 01 c9 61 3c 9e 57 ac 3b
       0.049112383 -0.008451022 0.013780833 0.005259468
000250 5b f2 6a be e3 20 8f bc e0 ac 20 be c3 4f 80 be
       -0.22944014 -0.017471736 -0.15690947 -0.25060853
000260 9a c9 ab be f6 26 36 be 7d 08 c8 b9 c3 53 f6 3c
       -0.33552247 -0.177883 -0.00038153297 0.030069238
000270 8d 79 1a be 67 86 4e bf 34 68 91 bd 15 57 05 be
       -0.1508543 -0.8067383 -0.07099953 -0.130215
000280 94 31 16 bd 32 ee 78 be 12 ee 9d bd 1f a8 fb be
       -0.036668375 -0.24309614 -0.07711424 -0.49151704
000290 f0 04 4b bd 2f 09 df 3d e6 60 4e be b4 75 1e bf
       -0.049565256 0.108904235 -0.20154151 -0.6189835
0002a0 3c 60 22 be 8f e0 2d bd 02 72 81 3d 44 dd 42 be
       -0.15857023 -0.042450484 0.063205734 -0.19029719
0002b0 8d 22 5e 3d d4 aa 65 be 35 27 50 be ad d1 6c 3e
       0.05423217 -0.22428447 -0.20327456 0.2312686
0002c0 89 0d 8d bd 90 5f 83 bf 7b de 87 bd 70 8a a2 be
       -0.06887347 -1.0263538 -0.06634232 -0.31746244
0002d0 c9 4f fd 3d a0 6e 86 be f5 93 f9 bd c8 ea 0a 3e
       0.123687334 -0.26256275 -0.12186424 0.13566124
0002e0 a6 20 51 3d 33 85 48 bb c8 49 22 bd a1 c8 0d bd
       0.051056527 -0.003059697 -0.039621145 -0.034615163
0002f0 39 0f 0f 3c b2 a7 b9 3d 34 95 65 3e 9d 07 dc bd
       0.008731657 0.090651885 0.22420198 -0.107436396
000300 9b 6f 75 be da 61 66 be 46 63 c9 bf 06 40 00 bd
       -0.23968355 -0.22498265 -1.5733421 -0.031311058
000310 73 e8 43 bd 0d 8e 62 bd 05 d5 e9 bd 71 b9 b2 bc
       -0.047829103 -0.05531125 -0.114175834 -0.021816941
000320 47 1f d2 bc a8 44 b5 3b a6 4e 8f 3c 58 ce 22 bc
       -0.02564968 0.005531866 0.017493557 -0.0099368915
000330 6f d3 c9 bb ce 2a 02 3e 55 f0 92 3d 84 3c d4 3d
       -0.006159238 0.12711641 0.07174746 0.10363105
000340 d5 9c 71 3d 24 97 23 3d 74 08 a0 3b 07 4c ac 3a
       0.058987457 0.03993906 0.00488382 0.0013145217
000350 b4 9e 5b ba 9b f3 f6 3b 14 e8 97 3d 9e d8 81 3d
       -0.00083778356 0.0075363643 0.07417312 0.063401446
000360 2d d3 1a be 8e 68 00 be d7 03 cf 3d 43 f4 30 bf
       -0.1511962 -0.12539884 0.10108154 -0.69122714
000370 36 e7 cd 3b 96 06 4c 3a c0 50 a6 bd d5 19 ee 3b
       0.006283666 0.0007782964 -0.081208706 0.007266263
000380 17 fc 9c 3a 99 a9 36 bd 08 74 64 3d 43 51 c7 be
       0.0011976984 -0.044595335 0.05577472 -0.38929185
000390 07 44 c1 3d 7a da 19 3d 4c 60 28 3e d2 17 52 3e
       0.09436803 0.03756187 0.16442984 0.20516899
0003a0 c5 73 81 bb 7d 65 ed 3d 5e 91 af 3d 1b 74 1c bd
       -0.0039505684 0.11591623 0.085726485 -0.038196664
0003b0 ae 66 a3 bc 32 93 df bd c1 a3 72 bd 56 b0 21 3a
       -0.019946422 -0.10916747 -0.0592382 0.00061679387
0003c0 05 67 de bc db 3e 94 3e 8b 4e 57 be 16 b3 14 bc
       -0.027148733 0.28954205 -0.21026056 -0.009075901
0003d0 a4 74 6e 3d 17 9f df 3b a0 fa b0 3d 6b 89 a7 be
       0.058216706 0.006824385 0.08641553 -0.3272203
0003e0 ca dc ec bb f9 0c 2b bc 8e 3e 55 3d 2c ff 04 3e
       -0.0072284685 -0.010440105 0.05206161 0.12987965
0003f0 38 75 9b be ca 02 ec 3d fe e7 1a 3e d0 03 d9 3d
       -0.30362868 0.115239695 0.1512756 0.1059643

hidden_layers.0.bias f4 [128]
000000 d3 df a9 39 b0 d6 22 3d b4 ba 7f bd 4e f9 38 bd
       0.00032400954 0.039755523 -0.062433913 -0.04515963
000010 de 87 83 bd 8c 56 cb bd 5c 2c 60 bc c8 16 7e 3d
       -0.06422399 -0.09928617 -0.013682451 0.062033445
000020 64 9b 35 be 3b 58 7f bc 07 4d 0f be f8 bb c2 bd
       -0.17735058 -0.015585001 -0.13994227 -0.095085084
000030 b1 ba bd bd 84 f2 16 be c3 02 d2 bd 91 40 4b bd
       -0.09264124 -0.1474095 -0.10254433 -0.049622122
000040 bb 10 81 bd f6 bc 19 be b7 5d d0 bd 21 12 21 bd
       -0.06302019 -0.15013489 -0.10174125 -0.03932393
000050 bf e4 54 be c3 99 3c 3d 2e 83 b2 3d 4f de 97 bd
       -0.20790385 0.046045076 0.08716427 -0.07415449
000060 c3 d1 98 bd af 29 02 3e d5 8e a4 3d 74 bf 43 be
       -0.07461884 0.12711214 0.080350555 -0.19116002
000070 f7 c5 dd bd b5 c0 1d be 7c 66 72 3d 05 c1 b6 3d
       -0.108287744 -0.15405543 0.059179768 0.08923534
000080 ce a2 8f bd a8 65 cb 3c d9 c4 34 bc 68 66 92 be
       -0.070134744 0.024828747 -0.01103326 -0.28593755
000090 f7 14 77 bd a0 f7 9d 3b b9 74 ae bd f4 0d 0f 3d
       -0.060322728 0.004820779 -0.08518357 0.034925416
0000a0 29 a1 0f bc 77 23 65 3d 01 5f ef 3d e5 17 bc bb
       -0.008766451 0.055942025 0.116880424 -0.005740153
0000b0 9d c3 ab bc 88 8c 45 be 24 a3 b3 3c cf 2a 13 be
       -0.0209673 -0.1929189 0.021928377 -0.14371799
0000c0 fa 99 73 be 40 53 a8 3d 49 5b 75 bc f7 95 82 bb
       -0.23789206 0.08219004 -0.014975377 -0.0039851624
0000d0 31 06 99 bc b7 dd b4 3c f4 b4 fa bc b4 68 98 3c
       -0.01867971 0.022078378 -0.030603863 0.018604614
0000e0 0d 99 35 be 4f a9 b0 bd d4 43 0a b9 c1 b1 00 be
       -0.17734165 -0.08626043 -0.00013185974 -0.12567808
0000f0 f7 13 42 be 9f 05 fd bc 82 da 2b 3d f2 90 af bd
       -0.18952928 -0.03088647 0.041956432 -0.08572568
000100 0c 88 f4 3d b9 fe 3f 3d ac b9 83 bd 81 e1 ec bd
       0.119400114 0.04687378 -0.064318985 -0.11566449
000110 c1 73 0d be 99 b4 e3 bd 7d 73 fd bb 3f 43 a9 bd
       -0.13813688 -0.11118431 -0.0077347145 -0.08264779
000120 6e d9 12 3d a0 62 32 be 55 02 50 be fb f4 8c bd
       0.03585189 -0.17420435 -0.2031339 -0.06882664
000130 c1 ad c7 3d 26 7c 20 be e7 06 79 3c 0b 1b a7 bd
       0.09749938 -0.15672359 0.0151994 -0.08159455
000140 a6 2a e0 bd 30 b4 df bc 3c 5c 2a bc ee 50 d6 bd
       -0.109456345 -0.0273076 -0.010397967 -0.10464655
000150 ff 6e 08 be 37 59 2d 3e 45 cd 68 3b 97 d2 24 be
       -0.13323592 0.16928564 0.003552274 -0.16095959
000160 b9 00 35 bb 1c 7e b3 3c 6f c6 a3 3d f5 5a 59 be
       -0.002761884 0.02191072 0.079968326 -0.21226104
000170 92 65 14 be 23 54 5c be 69 f8 b5 bd 1e 42 6a 3d
       -0.14491871 -0.2151647 -0.08885271 0.05719196
000180 e8 d3 d0 bd a4 63 58 be 43 c4 6d bd 33 e7 fc 3d
       -0.10196668 -0.2113176 -0.058048498 0.12348785
000190 a0 ac 52 be cc 88 87 be 72 db 7b 3d de 7a ec 3d
       -0.20573664 -0.26471555 0.061488576 0.115468726
0001a0 39 c8 9d be d7 8a 05 be 53 c3 39 be 9f 4c cd 3d
       -0.3081682 -0.13041244 -0.18140917 0.1002438
0001b0 93 1a 48 be c9 1e e4 bd b4 71 be 3d 9e 15 32 bd
       -0.19541387 -0.11138684 0.09299031 -0.043477647
0001c0 7c 88 f4 bd df da 14 be 4e c7 be bc 8b c2 94 3d
       -0.11940095 -0.14536618 -0.023288395 0.072636686
0001d0 23 90 0b be 09 eb 95 3d 06 0c f9 bc 26 d4 fa bd
       -0.13629203 0.0732022 -0.030401241 -0.12247495
0001e0 a4 ea 9e bd cb 29 c8 3c 7a 86 c8 bb 4a c8 79 be
       -0.07759598 0.024433991 -0.0061195465 -0.2439281
0001f0 b1 74 df bd c5 ec b6 3c cb 0c 8f 3d 9f 2b 20 bd
       -0.10910929 0.022329697 0.06984862 -0.0391041

hidden_layers.1.weight f4 [64, 128]
000000 81 f0 c0 bc 6d bf 95 bd b2 e3 ab be 5c e1 81 3d
       -0.023552181 -0.07311902 -0.33572155 0.06341812
000010 ba 6c d9 3d 6e 2a a8 3d da 87 3b be 82 ba b1 bd
       0.10616441 0.08211218 -0.18313542 -0.08678152
000020 39 1b 05 3e a0 d2 8b bb 9d c1 31 bd 8a 8a 60 bc
       0.12998666 -0.004267052 -0.043397535 -0.013704905
000030 9f 40 ae be 32 16 63 3d 79 09 4d be 94 e2 35 3d
       -0.34033677 0.05544109 -0.20023145 0.044405535
000040 b6 32 a7 be 6f dc 42 be 6c 69 69 bd 17 a5 d2 3c
       -0.32655877 -0.19029401 -0.056985304 0.025713487
000050 c7 b4 1f 3e 03 c4 30 3d 32 45 c9 3c 15 b7 12 be
       0.15596305 0.04315568 0.024569128 -0.14327653
000060 fe cb 0f bc a0 7d 92 3c 93 ac 05 be 33 1b 80 be
       -0.008776663 0.017882168 -0.13054113 -0.2502075
000070 11 54 d5 bc 86 f8 ba 3d a4 2f d6 be 90 31 af 3c
       -0.026041063 0.09129433 -0.41833222 0.021385938
000080 c4 16 35 be 09 89 c4 bd 85 85 64 be ae ea 3f bd
       -0.17684466 -0.0959645 -0.22316559 -0.046854667
000090 06 aa 61 3b 1c e8 f5 bc 04 db 92 be 72 81 3c bc
       0.0034433617 -0.030017905 -0.2868272 -0.011505472
0000a0 d8 a5 83 bd 0f 8d f6 bd cc a9 13 bd 39 11 c2 3b
       -0.064281166 -0.120386235 -0.036050603 0.0059224633
0000b0 d2 81 e5 3c 89 39 89 bc 73 f5 21 bd 46 8b 8d bd
       0.028016005 -0.016751068 -0.03954072 -0.0691133
0000c0 ca fa 83 bd 4a c9 d5 3b 47 eb 07 be 51 61 51 3d
       -0.064443186 0.0065242397 -0.13273345 0.0511182
0000d0 7d 48 9d bd 1f 50 0c bd 2e ca 89 be 17 e1 a7 3d
       -0.07679842 -0.034256097 -0.26912063 0.08197229
0000e0 0b e2 9a 3d 9b 2c 8f 3d f2 70 e7 3d 78 fb 77 3d
       0.075626455 0.0699093 0.113008395 0.060542554
0000f0 f9 d1 a7 bd 38 fd fe bc a4 f7 81 be 13 0a 90 3d
       -0.08194346 -0.031126603 -0.25384247 0.070331715
000100 0a db 5e 3d 20 01 51 3d 9b 0f 33 bb 7d 50 08 bf
       0.05440811 0.051026464 -0.0027322534 -0.53247815
000110 97 b4 b8 3c 0c 33 2e bd 4f ca eb 3c 73 f7 82 bd
       0.02254705 -0.04252915 0.028782992 -0.063948534
000120 ae 96 75 be 28 d4 ba bd dc 29 10 3c 31 3e 68 3d
       -0.23983261 -0.09122497 0.008799043 0.056699935
000130 78 02 dc bd 0b 2b c4 bd c9 b4 d3 bd 44 49 03 3e
       -0.107426584 -0.09578522 -0.103372164 0.12820917
000140 91 58 24 ba 0e 88 1c be 40 e4 80 bd 45 01 80 3c
       -0.0006269301 -0.15286276 -0.06293535 0.015625605
000150 99 6a fe bc f7 f4 c8 3c b7 25 e6 be e8 bc 53 3d
       -0.03105669 0.02453087 -0.4495065 0.051693827
000160 10 73 c4 3b d1 da a4 bc 53 22 12 bc e5 b8 55 bc
       0.005995162 -0.020123871 -0.008919316 -0.013044571
000170 c4 56 b1 3b 26 bf 51 bc 0a 8f 08 3d c2 8b 51 bc
       0.0054119546 -0.012801921 0.033339538 -0.0127896685
000180 0a 73 46 be 36 1b c1 3d 30 6f 1f be 96 8a 1c bc
       -0.19379821 0.09429018 -0.15569758 -0.009554526
000190 cd dd 75 be 12 9b 7b 3d 4d 18 5f bd f9 44 84 3d
       -0.24010392 0.061427183 -0.054466534 0.06458468
0001a0 ae 56 20 3d 01 73 ce bc 82 41 2d 3c d1 84 b8 be
       0.039145164 -0.025201323 0.0105747 -0.3603883
0001b0 63 db bc 3d 56 8c ad bc 9f 16 5d be 1c f8 64 bd
       0.09221532 -0.021185081 -0.2159066 -0.055900678
0001c0 a1 9f 06 3d cd c3 8e be 18 83 c5 bc 80 c7 fa be
       0.032867078 -0.2788376 -0.024110362 -0.4898033
0001d0 a8 5e b5 bd 20 21 58 3d eb 19 d7 bc 62 ad b0 3d
       -0.08855945 0.052765965 -0.026257476 0.0862682
0001e0 5a a4 20 bc 60 0c d1 bd 23 79 c9 3b 26 92 7c 3b
       -0.0098048095 -0.102074385 0.006148474 0.003853926
0001f0 4b b5 9f be b6 44 71 3d 5b 69 c2 bc e5 3a 8c bd
       -0.31193003 0.05890342 -0.023731878 -0.06847171
000200 5a f5 2f be 61 a5 01 bf c8 30 d1 ba 22 71 45 be
       -0.17183438 -0.50642973 -0.0015959973 -0.19281438
000210 12 4f 38 3e ca 9f 76 be 49 17 31 ba a0 4e 47 be
       0.17998913 -0.24084392 -0.0006755484 -0.19463587
000220 a9 0c 42 3e b0 45 86 be 13 ad d6 be 5f 05 1d bf
       0.18950142 -0.26225042 -0.4192892 -0.6133632
000230 70 f6 1d 3d d2 1d 74 3c c5 94 bb 3b e2 18 f9 bd
       0.0385651 0.014899688 0.005724522 -0.12162949
000240 0d 6e b0 3c 9c cb a5 3a 83 38 43 3b 78 c6 22 3d
       0.021536851 0.0012649181 0.0029788322 0.039740056
000250 65 0a 46 3e d4 87 ed 3c a0 71 3e be 84 d3 63 bd
       0.19339903 0.028995432 -0.18598032 -0.05562164
000260 b9 45 32 bf ea 6f 1b bf a6 08 97 be 27 42 e4 3c
       -0.6963764 -0.6071764 -0.29498786 0.027863575
000270 04 28 93 bc 1b fb 06 be fe d1 9d 3c 36 2f 7f 3c
       -0.017963417 -0.13181727 0.019265171 0.015575221
000280 dc f9 66 3c 04 10 b9 bd bd f8 f9 ba 28 10 ad bd
       0.014097657 -0.09036258 -0.0019071322 -0.08450347
000290 42 e7 ff 3b fc c6 d7 be a5 0c 7e bc 04 6d 64 be
       0.0078095505 -0.42144 -0.015505944 -0.22307211
0002a0 bf 97 df be 32 c0 7e be 1e 37 b9 bd 21 cd e6 be
       -0.4367046 -0.24878004 -0.09043716 -0.45078376
0002b0 af df 96 bc 0f 35 c1 3c 0e 7d a4 3d 80 fa 22 3e
       -0.018417208 0.02358487 0.08031665 0.1591587
0002c0 93 26 0b 3a 83 b4 1c be df 05 c2 bc 38 c4 03 bf
       0.0005308177 -0.15303235 -0.02368444 -0.5147128
0002d0 8c ac 1e bc 16 65 47 bc 4c d6 1c 3c 85 f1 80 be
       -0.009684693 -0.012170097 0.009572577 -0.25184265
0002e0 18 ef c8 3d 49 39 e6 3d 33 74 41 bf fb a6 33 3c
       0.098112285 0.11241395 -0.7556793 0.010965104
0002f0 13 59 0a 3e 0d eb 65 be f5 fb 59 bb 40 7a 94 be
       0.13510542 -0.22452946 -0.003326175 -0.2899952
000300 3c 56 11 bf ee 52 2a be 06 db 97 3c 60 ee c8 ba
       -0.5677221 -0.16633198 0.018537056 -0.001532983
000310 8b af 80 3d 55 69 bc ba 84 8b be bc 57 e9 c8 be
       0.06283482 -0.0014374653 -0.023259886 -0.39240524
000320 e4 8d b6 39 fd c0 c1 3c bf 1d 55 3c 9d cc 96 bd
       0.00034819462 0.023651594 0.01300758 -0.07363246
000330 f9 6e cf be 0a 31 98 3e c5 df ad bb a0 1d 5b bd
       -0.40514353 0.29724914 -0.0053062164 -0.05349505
000340 6f 6a f4 be 49 24 87 3a 5e e2 91 3c 4f 50 a4 be
       -0.47737452 0.0010310496 0.017808136 -0.3209252
000350 0a 07 68 3c 0c 2a 5c bf c4 45 ea bc 9d 08 85 3c
       0.0141618345 -0.8600166 -0.02859772 0.016239459
000360 e5 54 43 be 3e a6 98 be 48 52 64 be 9d 0e 97 bd
       -0.19075353 -0.29814333 -0.22297013 -0.07375834
000370 89 cc 64 be aa c4 a8 bd 0a ee 48 3c 13 a0 47 bf
       -0.22343649 -0.08240636 0.012263784 -0.7797863
000380 a1 48 05 bc 29 6d 68 bd 7d ff 96 bd 5a 34 5e be
       -0.008134992 -0.05674473 -0.07372949 -0.21699658
000390 03 c5 0c 3c 8b 0e 1e bb f6 82 b3 be 01 01 79 3e
       0.008591893 -0.0024117555 -0.35060853 0.24316789
0003a0 1e f6 ac 3c b9 55 81 be 6d 4e 86 3c 2b 1c ec 3c
       0.021113452 -0.25260714 0.016394818 0.028822025
0003b0 83 8f b4 3c 7b b0 89 bd 1e bc b8 ba de 80 2c be
       0.022041088 -0.06723114 -0.0014094149 -0.16846034
0003c0 15 50 61 3b 6e 65 45 3b 93 c8 cd bd 6b 24 4b 3b
       0.0034380008 0.0030120271 -0.10048022 0.0030997049
0003d0 8a a5 54 3b da c0 a2 be 89 23 77 be 40 9a 36 3e
       0.0032447302 -0.3178776 -0.2413465 0.17832279
0003e0 e9 17 ad be f6 82 64 be c1 0a 95 bd 2d 50 0a 3c
       -0.33807305 -0.22315583 -0.07277442 0.008441967
0003f0 a4 91 05 bd 1d 0c e2 bd 9e a6 46 3d 25 42 fb be
       -0.032609597 -0.11037467 0.048498742 -0.49073902

hidden_layers.1.bias f4 [64]
000000 14 73 79 3e be 23 c4 3d 92 82 d8 3d fa 24 e5 3d
       0.24360305 0.0957713 0.10571779 0.11188693
000010 cf ac 88 3e 20 e8 4f 3e 30 93 f2 3d 8b 57 0e 3e
       0.26694342 0.20303392 0.1184448 0.13900582
000020 d4 41 34 3e 53 db f2 3d f6 95 84 3e 14 49 f6 3d
       0.17603236 0.11858239 0.2589566 0.12025657
000030 b2 05 4f 3e f4 c8 f7 3d 04 cc d1 3d fe ff 1b 3e
       0.20217016 0.12098876 0.10243991 0.15234372
000040 60 4d e7 3d 4e cb ec 3d b7 5f 81 3e e1 f3 1b 3e
       0.11294055 0.11562215 0.25268337 0.15229751
000050 93 74 0a be ec 8b 7d 3e 66 3a 07 be 99 21 7a 3e
       -0.13521032 0.24760407 -0.13205871 0.24426879
000060 80 2f 08 3e 64 63 88 3e 2a ca 7e 3e 66 98 7e 3e
       0.1329937 0.2663833 0.24881807 0.24862823
000070 87 91 cf 3d 2a 46 21 3c d8 09 1b 3e 6b 50 3b 3e
       0.10135179 0.009843389 0.15140474 0.18292396
000080 8e cc 44 bd 5e bc 87 3e b7 19 78 3e a7 a0 2a 3e
       -0.04804664 0.265109 0.2422856 0.16662847
000090 0c 77 20 be 86 40 27 3e 68 8e 0a 3e cf 14 39 3e
       -0.15670413 0.16333207 0.13530886 0.18074344
0000a0 67 56 18 3e d9 ef 42 3e 5c f5 e3 3d 89 87 6b 3e
       0.1487671 0.19036807 0.11130783 0.23000921
0000b0 68 25 04 3e 72 d6 6a 3e c4 a0 1e 3e 91 88 ed 3d
       0.12904894 0.22933367 0.15491015 0.115983136
0000c0 fa b3 e2 3d b3 30 cc 3d 95 00 eb 3d fc db 04 3e
       0.11069484 0.09970226 0.114747204 0.12974542
0000d0 2f 60 fc 3d 56 9a 6a 3e 8a 8d c2 3d 7d 02 c9 3d
       0.12323033 0.22910437 0.09499653 0.09814928
0000e0 83 ec 07 3e a2 32 80 3e 9b 83 61 3e c3 09 dc 3d
       0.13273816 0.2503863 0.2202286 0.107440494
0000f0 80 b4 bf 3d af e6 df 3d 49 70 ec 3d 01 c6 1e 3e
       0.093605995 0.10932671 0.11544854 0.1550522

output.weight f4 [4, 64]
000000 fe 20 57 3d fc 8f 04 be 22 13 0b 3d be f2 2d 3d
       0.0525217 -0.1294555 0.033953793 0.042467825
000010 67 ea 83 3d 4a 5e 22 3d e9 17 24 3d d8 89 10 3d
       0.06441193 0.039640702 0.040061865 0.035287708
000020 d0 2f 07 3d 8d d0 13 3d c6 8c 71 3d fd 8a f5 3c
       0.033004582 0.03608756 0.058972143 0.029973501
000030 ad 86 68 3d b8 28 28 3d 7b 1a 02 3d ab ef 07 3d
       0.05676906 0.041054457 0.031763535 0.03318755
000040 a4 b5 fd bd c9 71 22 3d 90 8e c3 3d ad ce 23 3d
       -0.12388161 0.039659295 0.09548676 0.039992023
000050 a0 ba 64 bd 53 55 85 3d 66 59 a1 3d 03 0d dd 3d
       -0.055842042 0.06510415 0.078783795 0.107934974
000060 56 e9 c5 bd a0 4b b9 3d ae 15 69 3d 78 77 87 3d
       -0.09663646 0.090476274 0.05690544 0.06614584
000070 74 ec 21 3d f6 3e b7 bd a0 35 22 bd b4 2a 29 3d
       0.03953214 -0.08947556 -0.039601922 0.04130049
000080 d7 fa b3 bd 1d 5f 8c 3d e6 31 a0 3d 7b 11 0d be
       -0.08788078 0.06854079 0.07822017 -0.137762
000090 4d 7c 5c 3c 52 76 1e 3d f6 34 ec bd 28 72 53 3d
       0.01345737 0.038687058 -0.11533539 0.05162254
0000a0 66 e2 31 3d 32 0e 08 be 6d 43 f8 bd 63 66 90 3d
       0.0434288 -0.13286665 -0.121222354 0.07050779
0000b0 23 80 92 bd 2d b8 6c 3d d6 fc 04 3d 61 27 09 3d
       -0.071533464 0.05779283 0.032467686 0.03348482
0000c0 f5 16 17 3d 3c f3 06 3d 0d 13 e4 bd 37 69 f4 3c
       0.036887128 0.03294681 -0.11136446 0.029835327
0000d0 bb c8 de bd fd 31 65 3d 24 f5 20 3d 5f 68 19 3d
       -0.1087813 0.055955876 0.039296284 0.03745305
0000e0 b7 1c 27 3d 19 95 7c 3d 44 c0 53 3d 1d ba 0c 3d
       0.04079887 0.061665628 0.05169703 0.03435718
0000f0 8e ed 07 3d 02 99 22 3d 22 a5 09 3d 65 1c 0f 3d
       0.033185534 0.0396967 0.03360475 0.03493919
000100 b4 f9 3d 3d cb 75 68 bd 23 23 2a 3d 2a 9b a1 3c
       0.046380714 -0.05675296 0.041537415 0.019727308
000110 64 0a 72 3d c1 a4 17 3d f7 ff fd 3c 5f a9 87 3d
       0.05909194 0.037022356 0.031005843 0.06624102
000120 dd 14 0c 3d 43 ec b8 3c 16 63 ad 3d 9b 66 25 3d
       0.034199584 0.022573596 0.08466165 0.040381055
000130 b0 a5 75 3d 9d 9d 13 3d ca e8 2f 3d c4 ba c5 3c
       0.059972465 0.036038984 0.042946614 0.024136908
000140 55 61 17 bd 11 d8 31 3d d7 04 bc 3d cb bd f7 3c
       -0.036958057 0.043418948 0.091806106 0.030241868
000150 38 e0 7e bd 60 80 8c 3d a2 fd 6b bd 17 f8 e9 3d
       -0.06222555 0.06860423 -0.05761493 0.114242725
000160 59 3c 85 3b bf b1 d3 3d a3 ff 96 3d d3 47 44 3d
       0.004066032 0.10336637 0.073729776 0.04792006
000170 2f ba e4 3c 6c f8 dd bd fb e2 5d bd bb 21 0a 3d
       0.02792081 -0.10838398 -0.054171544 0.033723574
000180 4e 3b d3 bd b5 16 8d 3d 08 e8 f1 3d f8 a8 c3 bd
       -0.10314046 0.06889097 0.118118346 -0.095537126
000190 7a 9f f3 bb 04 70 29 3d 59 d4 8b bc 42 f7 bb 3c
       -0.0074347826 0.041366592 -0.017069029 0.02294505
0001a0 1d e9 e4 3c 0c 4e a6 bd 5b d1 81 bc 53 9c 6d 3d
       0.027943188 -0.08120355 -0.015846899 0.05801041
0001b0 08 1b 51 3b b9 45 90 3d d4 2a b4 3c 89 d9 3b 3d
       0.003190698 0.070445485 0.021993078 0.045861755
0001c0 d9 36 c7 3c 50 9e 28 3d db a7 0c 3d ee 0b 02 3d
       0.024318146 0.041166604 0.034339767 0.03174966
0001d0 3b 92 bc bb d5 a1 67 3d 05 5b 17 3d bb ca 27 3d
       -0.0057547367 0.05655082 0.036952037 0.040964823
0001e0 76 50 61 3d 65 46 91 3d da b0 78 3d 6f 55 f8 3c
       0.055008374 0.07093505 0.060715534 0.030314175
0001f0 dd 97 11 3d 47 81 17 3d 42 bb 83 3c c0 8f 96 3c
       0.03554522 0.036988523 0.016080502 0.018379092
000200 fb 34 2e 3c ea 1b 3c bd 0b 75 6b 3d da 5e 27 3d
       0.010632749 -0.04592506 0.057484668 0.040861942
000210 32 48 cc bc 91 dc 87 3d 91 4f 32 3d 3b c0 8b 3d
       -0.02493677 0.066338666 0.04353291 0.068237744
000220 08 f4 57 3d d2 be 81 3d 34 d6 4a 3c 39 57 31 3d
       0.05272296 0.06335224 0.012380172 0.043296073
000230 9e 3d d4 3c c3 e5 2a 3d e8 12 57 3d 2c bc 3f 3d
       0.025908288 0.041723024 0.052508265 0.046810314
000240 5f 5a 9c bd e0 0c c4 bc 92 54 81 3d c3 b5 02 bd
       -0.076344244 -0.02393192 0.06314959 -0.031911623
000250 94 76 bd 3b 29 2c 3b 3b 1d f4 10 3a cd f5 ba 3d
       0.005781958 0.0028560257 0.000552954 0.09128914
000260 15 a2 a9 3d 96 63 8e 3d eb 03 87 3c d8 d4 8e 3c
       0.08282868 0.06952588 0.01648136 0.017435476
000270 c0 24 40 3d 54 4a 92 bd 48 29 97 be 6e 00 50 3d
       0.046910048 -0.07143083 -0.29523683 0.05078166
000280 cb f8 fa bd a1 c8 d8 3a 5c f8 2d bb 80 52 13 bd
       -0.12254485 0.0016539284 -0.0026545739 -0.03596735
000290 16 0b 42 3d 8c 31 03 3d 01 42 61 bd b2 15 e8 3c
       0.047373854 0.032029673 -0.054994587 0.028330658
0002a0 8a 05 50 3d 31 4f ba bd c1 7a 5a bd b0 5d 9e 3d
       0.050786532 -0.09097136 -0.053339723 0.07732713
0002b0 a9 f3 32 3d 87 6b 84 3c 92 34 2a 3d d8 0e 2d 3d
       0.043689404 0.016164554 0.04155404 0.042250484
0002c0 e6 36 0f 3d 5e 52 5d 3d fc 97 dd bd d3 c1 91 3d
       0.034964465 0.05403363 -0.10820004 0.07117047
0002d0 11 ba 67 bd b3 4e 1c 3d 06 8a 49 3d f0 c2 47 3d
       -0.05657393 0.03816099 0.049203895 0.04876989
0002e0 e7 fa 39 3d 8e f5 82 3a 69 3c 29 3d bc fd 6a 3d
       0.045405295 0.0009991394 0.041317377 0.057370886
0002f0 06 cf 0d 3d ab a1 1e 3d 58 9c 43 3d 4f 8b 01 3d
       0.03462126 0.038728397 0.047756523 0.031626996
000300 d5 f9 e1 3c a3 f0 97 bd 3b d2 3b 3d 1d 70 7d 3d
       0.02758495 -0.07418945 0.04585479 0.061874498
000310 d5 91 13 3d 60 f7 87 3d 9c 28 2f 3d 72 0e 5d bd
       0.03602775 0.0663898 0.042763337 -0.053968854
000320 b2 5a 82 3d c0 32 78 3d d8 e1 84 3c 95 c4 48 3d
       0.06364955 0.060595274 0.016220972 0.0490156
000330 fa 10 09 3d d4 f6 ea 3c c2 6c 56 3d cd 44 50 3d
       0.033463456 0.02868215 0.052349813 0.050846864
000340 bf 40 66 bd 4f ef 85 3d 55 e9 f8 3c ab 38 6c 3d
       -0.05621409 0.06539785 0.030384699 0.05767123
000350 b2 16 c9 3d 4e c6 ef 3c 95 15 7e bc a0 99 d1 3d
       0.09818782 0.029269364 -0.015508075 0.1023438
000360 1e 0a 01 be 9b 87 82 3d e1 0d e6 3c 2e 1e 90 b9
       -0.12601516 0.06373521 0.02808279 -0.00027488306
000370 83 49 87 3d 8b dd 20 be 22 dc 84 be 22 5a 77 3d
       0.06605818 -0.15709512 -0.25949198 0.06038869
000380 c1 e8 14 be a8 f6 30 b9 bb 03 c6 3c 8c 70 b2 bd
       -0.14541914 -0.00016876555 0.0241717 -0.08712873
000390 3b ae 94 bd 02 0d 1e 3d 12 6f 1d bd 49 10 05 3d
       -0.07259794 0.038586624 -0.038436003 0.032486234
0003a0 e5 d2 bd 3c 2c 24 a7 bd f3 9a 97 bd 81 d2 9a 3d
       0.023171851 -0.08161196 -0.07402601 0.07559682
0003b0 cb 1f 8d 3d 68 72 b8 3c a5 f9 f3 3c ec 0c 7b 3d
       0.0689083 0.02251549 0.029782126 0.06129162
0003c0 ab 73 39 3d 4b 0b 6c 3d 12 da 7e 3d 37 fc 40 3d
       0.045276325 0.057627957 0.062219687 0.04711553
0003d0 91 1a 4e bd 35 34 4e 3d 88 41 fe 3c 3c 95 4d 3d
       -0.050318304 0.050342757 0.031037107 0.05019115
0003e0 c4 df b4 bd ce 6a 2b 3b 76 e7 28 3d 58 9e 57 3d
       -0.088317424 0.002615619 0.041236363 0.052641243
0003f0 20 08 5b 3d 7c 3a 77 3d ac 92 24 3d f6 39 3e 3d
       0.053474545 0.06035851 0.04017894 0.046441995

output.bias f4 [4]
000000 51 7e b9 3f a3 d6 a6 3f 2a 53 ae 3f 92 da af 3f
       1.4491674 1.3034252 1.361913 1.3738577
