experiments/navigate_132_18Oct22075723.pth (torch_old, 54660 bytes, 6 tensors)

hidden_layers.0.weight f4 [128, 37]
0.19178832 -0.37351355 -0.35783416 -0.3887072 -1.0005313 -0.0033061027 0.01860887 0.11154578
0.13466908 0.20989181 -0.06037821 -0.07160078 -0.11990824 -0.074744396 0.028871715 0.044148978
0.07800302 -0.005348279 -0.12589897 -0.17415395 0.10135256 0.055035252 0.07939996 0.044782534
0.028309068 0.0032358773 0.02429786 0.010091101 -0.018453855 0.016675493 -0.02401756 0.05932302
-0.028386874 0.04573064 -0.018035429 0.011903734 0.007943175 0.077044815 0.084855475 0.09224543
0.09736801 0.0032852918 0.11115408 -0.5283978 -0.39630708 -0.4519654 -1.4320945 0.0052737305
-0.010265915 0.02128774 0.051402517 0.07436819 0.038077332 0.016756242 0.04968671 0.08704542
0.05044969 -0.09311551 -0.079903215 -0.07283047 -0.0665344 0.059966516 -0.036973514 -0.02670895
-0.0080017755 -0.00821265 0.10709242 0.06525424 0.07302856 0.08526802 0.10062261 -0.0026448502
0.016151384 0.0021283033 0.049544275 0.10199862 0.116214655 0.06881842 -0.038118545 -0.40135786
0.17909116 0.20335157 0.25584668 -0.24400541 0.0067508416 -0.024406262 0.03553794 -0.002967761
-0.015125719 -0.09521211 0.08953092 0.08601561 0.11200241 0.10344383 -0.57791 0.111426316
0.068481185 0.031224776 -0.24048822 -0.0029473593 0.06501298 0.059259094 0.03964246 0.09522148
-0.1904405 -0.017092785 0.006779007 -0.014835676 0.06704406 0.0035449187 -0.01632004 0.29942194
-0.28027022 -0.1730969 -0.17569767 -1.0824004 -0.067104585 0.029569346 0.044562597 0.12041153
0.12806979 -0.055457853 0.04259088 -0.08145941 -0.011022429 -0.10614917 -0.030182078 0.056334548
-0.08345472 -0.2284071 -0.39562815 0.0037049681 -0.04043919 -0.0017862491 0.12063669 0.060815018
-0.05465702 0.042576965 0.056336448 0.13800785 0.118387595 0.05838101 0.11267221 0.057041686
0.036134202 -0.0025627876 0.027409067 0.009162362 -0.23398831 -0.035391737 -0.13967738 -0.25340107
-0.3520202 -0.17617926 -0.0042502712 0.03410991 -0.15723613 -0.7891529 -0.053829502 -0.110488996
-0.052337788 -0.26154095 -0.057828777 -0.47564244 -0.084739044 0.12201936 -0.20767862 -0.622361
-0.1692802 -0.027842136 0.058679078 -0.16549626 0.066149585 -0.20021822 -0.20327456 0.23080513
-0.08096552 -0.9897709 -0.06032891 -0.32297182 0.121985056 -0.2651026 -0.10901409 0.13611923
0.040675487 0.0015206542 -0.04362674 -0.03939994 0.030781535 0.07599523 0.23012671 -0.107436396
-0.23968355 -0.20533422 -1.553997 -0.026309928 -0.04258724 -0.06314608 -0.10484055 -0.022805855
0.0013185155 0.0012229843 -0.007765508 -0.011746293 -0.02199168 0.12447476 0.076877445 0.1337636
0.033572976 0.035183117 0.012661105 0.008052466 -0.0090841465 0.0056612934 0.07788325 0.06404289
-0.1960365 -0.12144549 0.1237317 -0.6951592 -0.0010513864 0.0082581425 -0.06952144 -0.029750085
-0.012500682 -0.007754188 0.035782654 -0.4056941 0.096002616 0.036796857 0.16828057 0.21973616
-0.01962807 0.13734931 0.070826404 -0.085728794 -0.0042988397 -0.09543021 -0.07417601 -0.013636661
-0.018605364 0.28225315 -0.19638562 -0.004550024 0.021536527 0.028375791 0.07818788 -0.32108516
-0.02240283 -0.0066087847 0.05200957 0.112320505 -0.29514864 0.109614156 0.13773178 0.107990384
00000000: 2864 443e 2b3d bfbe 0a36 b7be a104 c7be
00000010: 6911 80bf 33ab 58bb a171 983c 1d72 e43d
00000020: b1e6 093e e1ed 563e 244f 77bd 6ea3 92bd
00000030: 7492 f5bd 9713 99bd 6084 ec3c 8fd5 343d
00000040: 0cc0 9f3d 9e40 afbb a9eb 00be 6a55 32be
00000050: ee91 cf3d a56c 613d 729c a23d e46d 373d
00000060: 6be8 e73c 0311 543b 4e0c c73c 2555 253c
00000070: 8a2c 97bc 0b9b 883c 79c0 c4bc b2fc 723d
00000080: 978b e8bc 0d50 3b3d 09bf 93bc e107 433c
00000090: 1724 023c acc9 9d3d b5c8 ad3d 2ceb bc3d
000000a0: e168 c73d 0d4e 573b c0a4 e33d 1445 07bf
000000b0: c3e8 cabe 0268 e7be df4e b7bf 42cf ac3b
000000c0: 5e32 28bc a063 ae3c 728b 523d 594e 983d
000000d0: faf6 1b3d 6344 893c 4b84 4b3d df44 b23d
000000e0: 56a4 4e3d 58b3 bebd 4ca4 a3bd 2428 95bd
000000f0: 3043 88bd 739f 753d 8a71 17bd bacc dabc
00000100: e119 03bc 5a8e 06bc 4553 db3d 04a4 853d
00000110: ff8f 953d 00a1 ae3d 3a13 ce3d 3955 2dbb
00000120: e84f 843c 017b 0b3b f0ee 4a3d a7e4 d03d
00000130: f301 ee3d acf0 8c3d 3122 1cbd c77e cdbe
00000140: ac63 373e 653b 503e 56fe 823e 8edc 79be
00000150: 2a36 dd3b a4ef c7bc 3b90 113d c47e 42bb
00000160: ddd1 77bc 91fe c2bd fd5b b73d f428 b03d
00000170: 8561 e53d 5cda d33d e9f1 13bf 7b33 e43d
00000180: dd3f 8c3d 1acb ff3c 8b42 76be 7c28 41bb
00000190: 8625 853d aab9 723d 2260 223d 7b03 c33d
000001a0: d602 43be 2b06 8cbc 6f22 de3b 5611 73bc
000001b0: 654e 893d de51 683b 9bb1 85bc d54d 993e
000001c0: 947f 8fbe 5040 31be 17ea 33be 198c 8abf
000001d0: 216e 89bd 6a3b f23c 4587 363d 529a f63d
000001e0: ba24 033e c627 63bd c673 2e3d 31d4 a6bd
000001f0: 6b97 34bc bc64 d9bd 6840 f7bc 0ebf 663d
00000200: 4fea aabd 8de3 69be c68f cabe 0dcf 723b
00000210: 90a3 25bd 9320 eaba 5e10 f73d 2b19 793d
00000220: 0ae0 5fbd 2f65 2e3d 0cc1 663d ee51 0d3e
00000230: 3275 f23d ed20 6f3d b0c0 e63d 8ba4 693d
00000240: 7501 143d 71f4 27bb fb88 e03c bb1d 163c
00000250: a29a 6fbe edf6 10bd 9607 0fbe c9bd 81be
00000260: fe3b b4be 5668 34be dc45 8bbb d5b6 0b3d
00000270: 8202 21be ed05 4abf 537c 5cbd 0e48 e2bd
00000280: 2660 56bd b2e8 85be dedd 6cbd 6887 f3be
00000290: aa8b adbd 49e5 f93d b4a9 54be 0d53 1fbf
000002a0: ca57 2dbe 3115 e4bc 7959 703d da77 29be
000002b0: 6f79 873d 0106 4dbe 3527 50be 2e58 6c3e
000002c0: 40d1 a5bd a061 7dbf 721b 77bd 905c a5be
000002d0: 4dd3 f93d 87bb 87be c742 dfbd d762 0b3e
000002e0: 579b 263d b050 c73a f4b1 32bd d561 21bd
000002f0: 8f29 fc3c 63a3 9b3d 56a6 6b3e 9d07 dcbd
00000300: 9b6f 75be 2243 52be 60e9 c6bf eb87 d7bc
00000310: f56f 2ebd bb52 81bd a4b6 d6bd 58d3 babc
00000320: 0ad2 ac3a 8b4c a03a cd75 febb 8673 40bc
00000330: e527 b4bc 9fec fe3d ec71 9d3d 53f9 083e
00000340: d183 093d 2c1c 103d 8670 4f3c 7eee 033c
00000350: acd5 14bc 5f82 b93b 4181 9f3d eb28 833d
00000360: cbbd 48be 6ab8 f8bd 0c67 fd3d f4f5 31bf
00000370: acce 89ba 294d 073c 4261 8ebd 73b6 f3bc
00000380: a9cf 4cbc d816 febb d590 123d 23b7 cfbe
00000390: 059d c43d 4db8 163d be51 2c3e 8402 613e
000003a0: 0ccb a0bc 4ca5 0c3e 6f0d 913d 9492 afbd
000003b0: 48dd 8cbb ea70 c3bd 98e9 97bd 4d6c 5fbc
000003c0: 476a 98bc 7c83 903e 5019 49be 5e18 95bb
000003d0: 5f6d b03c 5974 e83c f820 a03d 4665 a4be
000003e0: 2486 b7bc 818e d8bb fd07 553d 4b08 e63d
000003f0: b91d 97be 637d e03d 8f09 0d3e 102a dd3d

hidden_layers.0.bias f4 [128]
-0.00068986905 0.040689986 -0.07001512 -0.046340648 -0.062823646 -0.09263225 -0.018983318 0.0575191
-0.16201793 -0.017340884 -0.13147613 -0.09286224 -0.11119496 -0.14835297 -0.11097362 -0.044292737
-0.07123172 -0.14682081 -0.10916901 -0.03595143 -0.19243212 0.051186595 0.09163712 -0.070196025
-0.06706041 0.12596549 0.0872113 -0.20635968 -0.112394914 -0.16161886 0.045936275 0.090429954
-0.06653454 0.03000482 -0.014382533 -0.28593755 -0.058831286 0.006589506 -0.07020253 0.03842906
-0.016932126 0.05642653 0.11389543 0.0013137968 -0.023662427 -0.19357032 0.022102764 -0.13940342
-0.2367817 0.08017651 -0.0153781865 -0.007216231 -0.026115187 0.020879166 -0.040137023 0.013576653
-0.16069163 -0.08205154 -0.0026292878 -0.13226642 -0.18853387 -0.03500538 0.035468932 -0.084600836
0.1198369 0.049586356 -0.07094696 -0.11096755 -0.17550118 -0.11990366 0.0026716178 -0.07993668
0.029088417 -0.1676522 -0.19769487 -0.080696404 0.10074599 -0.15875682 0.021629024 -0.08159455
-0.11026042 -0.032634888 -0.009255691 -0.11395153 -0.13950364 0.16646753 0.0034508388 -0.15116577
-0.004214947 0.018087447 0.081090815 -0.21230894 -0.14833522 -0.2151647 -0.0899694 0.04391756
-0.086938806 -0.21602078 -0.059982806 0.11532721 -0.20523785 -0.27112052 0.058879446 0.11925958
-0.3081682 -0.13849445 -0.17479415 0.101817355 -0.20812702 -0.11138684 0.09999515 -0.03419134
-0.12955591 -0.14763433 -0.011508478 0.08640253 -0.13080028 0.0814786 -0.0316292 -0.13253
-0.07888983 0.022413619 -0.012765731 -0.2372095 -0.11662714 0.025425846 0.051887915 -0.041571714
00000000: 54d8 34ba 8baa 263d 1664 8fbd b1cf 3dbd
00000010: afa9 80bd fab5 bdbd e782 9bbc 2699 6b3d
00000020: 07e8 25be 780e 8ebc aea1 06be 8f2e bebd
00000030: 2fba e3bd d7e9 17be 2346 e3bd 4d6c 35bd
00000040: f0e1 91bd 3258 16be 0094 dfbd cf41 13bd
00000050: ed0c 45be 09a9 513d 3eac bb3d efc2 8fbd
00000060: f856 89bd 19fd 003e d79b b23d f44f 53be
00000070: 4e2f e6bd 6a7f 25be ad27 3c3d 5733 b93d
00000080: 4343 88bd abcc f53c b7a4 6bbc 6866 92be
00000090: 13f9 70bd c8ec d73b 58c6 8fbd ca67 1d3d
000000a0: 3eb5 8abc 811f 673d 0242 e93d b533 ac3a
000000b0: b5d7 c1bc 4c37 46be db10 b53c c5bf 0ebe
000000c0: e776 72be 9533 a43d caf4 7bbc 2276 ecbb
000000d0: 84ef d5bc c90a ab3c b866 24bd 9c70 5e3c
000000e0: 598c 24be a30a a8bd 2150 2cbb d970 07be
000000f0: 060f 41be cd61 0fbd df47 113d 3443 adbd
00000100: 0c6d f53d 101b 4b3d a44c 91bd f442 e3bd
00000110: 95b6 33be 0d90 f5bd 4f16 2f3b d8b5 a3bd
00000120: d54a ee3c 05ad 2bbe 8670 4abe 2844 a5bd
00000130: ea53 ce3d 2691 22be 5a2f b13c 0b1b a7bd
00000140: 37d0 e1bd 29ac 05bd 2fa5 17bc 6b5f e9bd
00000150: 0bda 0ebe 7776 2a3e 7827 623b 33cb 1abe
00000160: 8a1d 8abb 202c 943c f112 a63d 8467 59be
00000170: 30e5 17be 2354 5cbe e041 b8bd e6e2 333d
00000180: f90c b2bd 8d34 5dbe 88b0 75bd ac30 ec3d
00000190: df29 52be 4fd0 8abe 932b 713d 5e3e f43d
000001a0: 39c8 9dbe 7dd1 0dbe 3dfd 32be 9e85 d03d
000001b0: 401f 55be c91e e4bd 42ca cc3d 380c 0cbd
000001c0: 4eaa 04be 742d 17be 0e8e 3cbc cff3 b03d
000001d0: 82f0 05be 41de a63d 9f8d 01bd f2b5 07be
000001e0: fe90 a1bd c49c b73c 5b27 51bc 0ce7 72be
000001f0: 36da eebd dd49 d03c 6c88 543d 1a47 2abd

hidden_layers.1.weight f4 [64, 128]
0.02026861 -0.06952773 -0.32266486 0.06374055 0.1041059 0.08426293 -0.17722869 -0.09348716
0.115346886 -0.00475335 -0.033266686 0.0032174436 -0.30989084 0.050396167 -0.21296592 0.044642903
-0.30598274 -0.17514057 -0.06469007 0.0223027 0.11253561 0.051185757 0.025139404 -0.16230884
-0.0056503406 0.02560497 -0.15304197 -0.24273859 -0.016028674 0.10925826 -0.40816584 0.023768878
-0.17577907 -0.0853852 -0.22865985 -0.046854667 0.030338248 -0.030476512 -0.29331172 -0.015708793
-0.06966414 -0.13539805 -0.04877476 -0.0005344875 0.03549672 -0.027339796 -0.038723722 -0.058697592
-0.033980433 0.016709685 -0.13104443 0.046766117 -0.07283893 -0.025913661 -0.2588382 0.074761204
0.057768315 0.06495129 0.12122363 0.056779876 -0.05842242 -0.037640322 -0.21469748 0.0639113
0.047826145 0.045159336 -0.015017087 -0.54826975 0.026376925 -0.034632757 0.03338436 -0.043520834
-0.20070319 -0.08397713 0.0059970687 0.046430107 -0.114479 -0.11458788 -0.094670705 0.12820917
0.013890153 -0.1344293 -0.0669271 0.015344146 -0.043317143 0.02430986 -0.43611804 0.05402308
0.012108838 -0.0042725718 -0.0066197915 -0.013044571 0.0015889666 -0.012801921 0.066026516 0.011363854
-0.2037316 0.1008848 -0.13876869 -0.015017463 -0.23172443 0.06467347 -0.07227029 0.06652466
0.039145164 -0.020546492 -0.019386265 -0.37583122 0.09873981 -0.021185081 -0.1994541 -0.044918172
0.03694094 -0.25872177 -0.01313813 -0.50558764 -0.075557075 0.070576645 -0.016719477 0.08969728
-0.0030300396 -0.09808349 0.02931453 0.00767532 -0.29091626 0.06942607 -0.024592426 -0.06727029
-0.14658995 -0.47931504 -0.0031645647 -0.20977223 0.17635067 -0.22641799 -0.0025919294 -0.1987458
0.20021372 -0.2736073 -0.41247526 -0.56504416 0.03885517 0.019653983 0.0025138657 -0.06452855
0.016074078 0.016616493 -0.0013758463 0.02967005 0.23060109 0.044808127 -0.20231655 -0.052162547
-0.6539278 -0.60561305 -0.27617377 0.014307043 -0.033485767 -0.12859647 0.010767826 0.005754329
0.006413997 -0.08987001 -0.002975672 -0.08450347 0.0019933537 -0.39355257 -0.01636119 -0.21873714
-0.40779686 -0.2382938 -0.0703682 -0.43790817 -0.01026323 0.017473137 0.071260884 0.1754659
-0.0019882678 -0.14049667 -0.011964142 -0.4959148 0.004795778 0.00060913444 0.003360563 -0.21709755
0.1180439 0.1424263 -0.7272991 0.008877179 0.13857177 -0.21866694 -0.004463782 -0.26373053
-0.5511711 -0.15206358 0.020039579 -0.0059157037 0.047602523 -0.0016085838 -0.008604702 -0.37754038
-0.0023562685 0.018826026 0.011756346 -0.083514534 -0.3933305 0.31187114 0.0010006711 -0.05349505
-0.4510679 -0.008044854 0.017629543 -0.29051432 -0.006018875 -0.85899496 -0.029415883 0.017213712
-0.16694058 -0.25564966 -0.20738913 -0.072949685 -0.23988989 -0.08240636 0.0007282963 -0.76226985
-0.026743215 -0.066588655 -0.07273646 -0.19763106 0.0010054803 -0.0020735909 -0.32440016 0.27853087
0.021113452 -0.24266663 0.02419443 0.01063639 0.0036805426 -0.06723114 -0.00640863 -0.17965238
0.0071521318 0.0055323523 -0.10012305 -0.0064423596 -0.0135338465 -0.31536406 -0.2314892 0.15150131
-0.32656044 -0.23267955 -0.08919387 0.032964446 -0.010148575 -0.10321579 0.03155692 -0.46591362
00000000: 5b0a a63c 8e64 8ebd 5434 a5be 688a 823d
00000010: 7935 d53d 0b92 ac3d 707b 35be 3276 bfbd
00000020: fd3a ec3d fdc1 9bbb a642 08bd bfdb 523b
00000030: 03aa 9ebe 366c 4e3d bd13 5abe 7adb 363d
00000040: c5a9 9cbe 0d58 33be 3a7c 84bd 27b4 b63c
00000050: 1279 e63d 28a8 513d 27f1 cd3c 4a34 26be
00000060: 7e26 b9bb 84c1 d13c 09b7 1cbe 7790 78be
00000070: 914e 83bc cbc2 df3d 1dfb d0be f3b6 c23c
00000080: 6eff 33be 70de aebd cf25 6abe aeea 3fbd
00000090: eb87 f83c e1a9 f9bc f42c 96be baaf 80bc
000000a0: 13ac 8ebd c9a5 0abe 0bc8 47bd d91c 0cba
000000b0: 0265 113d b5f7 dfbc c49c 1ebd e36c 70bd
000000c0: 112f 0bbd c0e2 883c 8330 06be d48d 3f3d
000000d0: 942c 95bd e348 d4bc 7186 84be 671c 993d
000000e0: 789e 6c3d 2f05 853d 1844 f83d 0492 683d
000000f0: 594c 6fbd bd2c 1abd a8d9 5bbe ede3 823d
00000100: 59e5 433d fff8 383d 3a0a 76bc 685b 0cbf
00000110: 6c14 d83c 14db 0dbd 0abe 083d e742 32bd
00000120: 2385 4dbe 34fc abbd 0f83 c43b 7f2d 3e3d
00000130: f773 eabd 0dad eabd b7e2 c1bd 4449 033e
00000140: 8693 633c d6a7 09be 1311 89bd 0366 7b3c
00000150: 516d 31bd 7925 c73c dd4a dfbe 4e47 5d3d
00000160: 2664 463c ee00 8cbb d6ea d8bb e5b8 55bc
00000170: df44 d03a 26bf 51bc e938 873d 752f 3a3c
00000180: 049f 50be b19c ce3d 6119 0ebe ce0b 76bc
00000190: 2b49 6dbe 8673 843d 7202 94bd 153e 883d
000001a0: ae56 203d 1e51 a8bc f2cf 9ebc f36c c0be
000001b0: 1938 ca3d 568c adbc b23d 4cbe 1efc 37bd
000001c0: 624f 173d 2e77 84be 5041 57bc 316e 01bf
000001d0: abbd 9abd 7d8a 903d 49f7 88bc 35b3 b73d
000001e0: a193 46bb ffdf c8bd 0625 f03c 4081 fb3b
000001f0: faf2 94be 412f 8e3d 0e76 c9bc 01c5 89bd
00000200: ad1b 16be c868 f5be 9664 4fbb 88ce 56be
00000210: 4595 343e 1eda 67be 5cdd 29bb 0584 4bbe
00000220: d304 4d3e 4216 8cbe f52f d3be bca6 10bf
00000230: 9926 1f3d 6401 a13c abbf 243b 8b27 84bd
00000240: c9ad 833c 501f 883c be55 b4ba 9b0e f33c
00000250: b122 6c3e ba88 373d 122c 4fbe 65a8 55bd
00000260: d067 27bf 7509 1bbf a666 8dbe 1668 6a3c
00000270: 5f28 09bd cbae 03be 896b 303c cf8e bc3b
00000280: 822c d23b c50d b8bd 7e03 43bb 2810 adbd
00000290: eda2 023b b97f c9be e707 86bc a1fc 5fbe
000002a0: c0ca d0be 4a03 74be 341d 90bd 8035 e0be
000002b0: 1b27 28bc d323 8f3c 3af1 913d 55ad 333e
000002c0: 994d 02bb 5cde 0fbe 4005 44bc 8be8 fdbe
000002d0: e725 9d3b 52ae 1f3a e43c 5c3b d24e 5ebe
000002e0: 00c1 f13d 33d8 113e 4630 3abf 9671 113c
000002f0: c2e5 0d3e 3aea 5fbe eb44 92bb b007 87be
00000300: 8d19 0dbf 8eb6 1bbe 0b2a a43c 85d8 c1bb
00000310: ddfa 423d 1ed7 d2ba bcfa 0cbc f94c c1be
00000320: a06b 1abb 0a39 9a3c b09d 403c ab09 abbd
00000330: 9e62 c9be 93ad 9f3e f328 833a a01d 5bbd
00000340: 5ff2 e6be 90ce 03bc d56b 903c 4bbe 94be
00000350: fc39 c5bb 18e7 5bbf 94f9 f0bc c503 8d3c
00000360: 79f2 2abe 83e4 82be d15d 54be a566 95bd
00000370: b2a5 75be aac4 a8bd 23eb 3e3a 1e24 43bf
00000380: 9614 dbbc a25f 88bd daf6 94bd cc5f 4abe
00000390: 52ca 833a 15e5 07bb c717 a6be 999b 8e3e
000003a0: 1ef6 ac3c 9a7d 78be 6633 c63c 4144 2e3c
000003b0: 4235 713b 7bb0 89bd 7cff d1bb cbf6 37be
000003c0: 6e5c ea3b bc48 b53b 500d cdbd 6e1a d3bb
000003d0: 11bd 5dbc 6677 a1be 810b 6dbe 2923 1b3e
000003e0: ee32 a7be 8c43 6ebe 47ab b6bd ba05 073d
000003f0: 3546 26bc cd62 d3bd d441 013d 3b8c eebe

hidden_layers.1.bias f4 [64]
0.25684065 0.101855874 0.10118985 0.10394843 0.26031494 0.1921006 0.117797285 0.13704978
0.17409809 0.120422326 0.26345542 0.12107256 0.19949737 0.12893187 0.093997024 0.15411685
0.11328635 0.10601899 0.23614526 0.1496824 -0.13521032 0.23492372 -0.13205871 0.24171227
0.1405046 0.25322157 0.23614946 0.24105911 0.09899746 0.019945854 0.1545014 0.18429062
-0.061374556 0.25654244 0.23105282 0.16143367 -0.15670413 0.1577701 0.13422371 0.1714855
0.14702748 0.19175042 0.1059974 0.23243517 0.11568304 0.229944 0.16187412 0.10652043
0.110054225 0.095597744 0.108739786 0.13192494 0.120669454 0.2183434 0.09842281 0.10472775
0.13230047 0.24781112 0.2240224 0.10680478 0.09661614 0.096758984 0.121614575 0.1447154
00000000: 9e80 833e d099 d03d a03c cf3d eae2 d43d
00000010: 0048 853e 05b6 443e b43f f13d c756 0c3e
00000020: c546 323e fb9f f63d a1e3 863e e4f4 f73d
00000030: 0a49 4c3e b706 043e 8381 c03d cfd0 1d3e
00000040: ad02 e83d 7c20 d93d 10d0 713e 5846 193e
00000050: 9374 0abe d88f 703e 663a 07be 6c83 773e
00000060: 70e0 0f3e 42a6 813e 2ad1 713e 33d8 763e
00000070: 2ebf ca3d 7d65 a33c 9d35 1e3e aeb6 3c3e
00000080: e363 7bbd 8859 833e 1c99 6c3e de4e 253e
00000090: 0c77 20be 7c8e 213e f171 093e e599 2f3e
000000a0: 5f8e 163e 395a 443e 2a15 d93d 7c03 6e3e
000000b0: 3beb ec3d 7176 6b3e 54c2 253e 6227 da3d
000000c0: 1c64 e13d c0c8 c33d f7b2 de3d 5517 073e
000000d0: 8c21 f73d 6a95 5f3e e691 c93d 817b d63d
000000e0: c679 073e 33c2 7d3e 2166 653e 77bc da3d
000000f0: afde c53d 9329 c63d 1011 f93d 4630 143e

output.weight f4 [4, 64]
0.06875139 -0.13937913 0.03777563 0.025661197 0.0643596 0.043468237 0.038827974 0.039404213
0.03621668 0.038224053 0.07232478 0.033666287 0.059878916 0.04274587 0.029917493 0.0381341
-0.13332279 0.033539847 0.08661297 0.04669421 -0.055842042 0.053582545 0.078783795 0.103417866
-0.10840356 0.08191815 0.046512052 0.063186035 0.037241668 -0.10612078 -0.03533405 0.038377535
-0.105844095 0.071459495 0.082280524 -0.13743608 0.01345737 0.03696569 -0.11814039 0.043648977
0.0389668 -0.13627754 -0.1185095 0.07046193 -0.08121281 0.0646387 0.04124842 0.03498828
0.038625047 0.03847962 -0.107528254 0.037403647 -0.12128751 0.05415374 0.03775141 0.03681868
0.036969617 0.06029254 0.06275818 0.039747667 0.041115567 0.035334244 0.037142854 0.04053555
0.061209228 -0.068222135 0.013711607 0.03148011 0.060908515 0.047818843 0.024186913 0.051960275
0.04130234 0.021573575 0.08102954 0.02382701 0.06724599 0.032602683 0.022670412 0.03608614
-0.034519516 0.030975843 0.09901894 0.046730947 -0.06222555 0.0754189 -0.05761493 0.13923648
-0.0055202628 0.113365196 0.0655115 0.04025285 0.027282016 -0.10597983 -0.06646953 0.05088942
-0.123368256 0.06452405 0.100731865 -0.11688577 -0.0074347826 0.029122435 -0.026384208 0.035701122
0.022730915 -0.10229861 -0.0110241175 0.07978955 0.03148144 0.07330855 0.03495676 0.044472557
0.014547754 0.014704988 0.011250961 0.045773655 -0.006576337 0.046485912 0.040605202 0.028299704
0.027843982 0.07250634 0.057141434 0.026293803 0.028068148 0.027225634 0.032665882 0.021372456
0.004086238 -0.044824522 0.048074484 0.044598475 -0.030968409 0.055099122 0.043197047 0.05950242
0.051101096 0.070632584 0.00884113 0.04801673 0.02641543 0.049390856 0.03987337 0.045966398
-0.06204116 -0.029615978 0.06298242 -0.041642707 0.005781958 0.007043954 0.000552954 0.094874404
0.08600985 0.057218347 0.00789096 0.023794854 0.040309336 -0.03747578 -0.28839138 0.04452529
-0.12287983 0.0145425685 0.0037834726 -0.046702716 0.047373854 0.051953547 -0.051282752 0.022496704
0.060147133 -0.10874706 -0.052119307 0.055563398 0.039346326 0.021202385 0.041027237 0.05448938
0.04752509 0.055807967 -0.11005928 0.06507171 -0.037890363 0.043191794 0.062006004 0.05524367
0.049212832 -0.0030519518 0.016479345 0.05766746 0.038933355 0.042547118 0.05101097 0.012227739
0.014640585 -0.07639716 0.04893564 0.054927204 0.038954075 0.06648821 0.048860893 -0.061096333
0.056485295 0.059143715 0.032895066 0.04921347 0.038827278 0.028130783 0.0549019 0.053953785
-0.0651476 0.061576683 0.047205705 0.051718585 0.09818782 0.010533009 -0.015508075 0.08796517
-0.12615883 0.07085716 0.02942993 0.00036738894 0.06846704 -0.16149347 -0.2653314 0.045827735
-0.12901272 0.018764643 0.030248722 -0.10102877 -0.07259794 0.023633584 -0.05761462 0.031084668
0.008758947 -0.08753642 -0.071818344 0.07564105 0.06224033 0.042307798 0.035817944 0.06720784
0.04734778 0.04576153 0.061785143 0.054468673 -0.038870264 0.039501138 0.042820755 0.043445136
-0.07157468 -0.005038625 0.027516944 0.058621094 0.041315727 0.054813586 0.045126136 0.034200713
00000000: 87cd 8c3d 67b9 0ebe 9eba 1a3d 6e37 d23c
00000010: f7ce 833d c00b 323d 150a 1f3d 5066 213d
00000020: f157 143d d390 1c3d 041f 943d a9e5 093d
00000030: 9843 753d 4b16 2f3d 8815 f53c 8132 1c3d
00000040: c585 08be 1461 093d 2462 b13d 6e42 3f3d
00000050: a0ba 64bd 5f79 5b3d 6659 a13d bfcc d33d
00000060: b002 debd b4c4 a73d 6c83 3e3d ae67 813d
00000070: b88a 183d da55 d9bd 70ba 10bd c331 1d3d
00000080: cac4 d8bd 5b59 923d b182 a83d 0bbc 0cbe
00000090: 4d7c 5c3c 5669 173d 97f3 f1bd 45c9 323d
000000a0: a79b 1f3d 578c 0bbe 1cb5 f2bd 584e 903d
000000b0: e752 a6bd 4b61 843d 1af4 283d df4f 0f3d
000000c0: 4c35 1e3d ce9c 1d3d c637 dcbd 9134 193d
000000d0: 9665 f8bd 50d0 5d3d 39a1 1a3d 2fcf 163d
000000e0: 746d 173d 4ff5 763d 5c87 803d 73ce 223d
000000f0: cc68 283d a4ba 103d 1b23 183d 9b08 263d
00000100: 87b6 7a3d 0cb8 8bbd a6a6 603c 4af1 003d
00000110: 357b 793d b1dd 433d a223 c63c 4cd4 543d
00000120: a42c 293d 11bb b03c d1f2 a53d dd30 c33c
00000130: 44b8 893d 648a 053d 4db7 b93c 0fcf 133d
00000140: 5664 0dbd 0dc1 fd3c 71ca ca3d f368 3f3d
00000150: 38e0 7ebd 3975 9a3d a2fd 6bbd 0294 0e3e
00000160: 52e3 b4bb 032c e83d e52a 863d 2ce0 243d
00000170: 897e df3c f40b d9bd 2d21 88bd 6d71 503d
00000180: 7fa8 fcbd 2f25 843d 824c ce3d ce61 efbd
00000190: 7a9f f3bb 2c92 ee3c b223 d8bc 573b 123d
000001a0: 2f36 ba3c ef81 d1bd 809e 34bc b468 a33d
000001b0: aff2 003d cb22 963d d22e 0f3d db28 363d
000001c0: b459 6e3c 31ed 703c f355 383c 287d 3b3d
000001d0: 507e d7bb 0368 3e3d a451 263d c8d4 e73c
000001e0: 1019 e43c 347e 943d 230d 6a3d 1a66 d73c
000001f0: 2cef e53c 4b08 df3c a9cc 053d 4a15 af3c
00000200: d9e5 853b eb99 37bd c0e9 443d e4ac 363d
00000210: 76b1 fdbc 9eaf 613d 63ef 303d cfb8 733d
00000220: 624f 513d d1a7 903d 63da 103c 31ad 443d
00000230: 2c65 d83c 114e 4a3d 4252 233d 4347 3c3d
00000240: df1e 7ebd 359d f2bc edfc 803d 8b91 2abd
00000250: 9476 bd3b f8d0 e63b 1df4 103a 834d c23d
00000260: ef25 b03d c95d 6a3d 1649 013c 6ded c23c
00000270: 671b 253d 3480 19bd 09a8 93be 2760 363d
00000280: 6ca8 fbbd f443 6e3c 23f4 773b 594b 3fbd
00000290: 160b 423d 3ecd 543d dd0d 52bd 024b b83c
000002a0: d75c 763d c7b6 debd 0e7b 55bd 7296 633d
000002b0: 9d29 213d a0b0 ad3c 2d0c 283d 4230 5f3d
000002c0: aba9 423d e596 643d c366 e1bd 5144 853d
000002d0: ed32 1bbd e1e9 303d 02fa 7d3d 3047 623d
000002e0: 6593 493d 4103 48bb b1ff 863c b734 6c3d
000002f0: 9578 1f3d e345 2e3d e1f0 503d db56 483c
00000300: 10df 6f3c 1d76 9cbd bd70 483d 59fb 603d
00000310: 4f8e 1f3d f82a 883d 5c22 483d 2640 7abd
00000320: 205d 673d ae40 723d fabc 063d 1094 493d
00000330: 5a09 1f3d 8772 e63c d1e0 603d a5fe 5c3d
00000340: 1b6c 85bd d537 7c3d c55a 413d ded6 533d
00000350: b216 c93d a492 2c3c 9515 7ebc 1527 b43d
00000360: c82f 01be 8f1d 913d 0917 f13c 1c9e c039
00000370: 7338 8c3d 8b5e 25be 84d9 87be ddb5 3b3d
00000380: e91b 04be 4fb8 993c 2bcc f73c 2ce8 cebd
00000390: 3bae 94bd 389b c13c 4ffd 6bbd 46a5 fe3c
000003a0: b081 0f3c 4b46 b3bd 7f15 93bd b2e9 9a3d
000003b0: b7ef 7e3d f14a 2d3d d6b5 123d 44a4 893d
000003c0: bfef 413d 7170 3b3d 6b12 7d3d 8b1a 5f3d
000003d0: 6d36 1fbd f2cb 213d d164 2f3d 87f3 313d
000003e0: bf95 92bd 0d1b a5bb 376b e13c ac1c 703d
000003f0: ae3a 293d 3684 603d 2fd6 383d 0c16 0c3d

output.bias f4 [4]
1.402438 1.2576346 1.3143523 1.3187913
00000000: 1783 b33f 2cfa a03f b23c a83f 27ce a83f
