experiments/navigate_1407_18Oct22075815.pth (torch_old, 54660 bytes, 6 tensors)

hidden_layers.0.weight f4 [128, 37]
0.18956637 -0.38170603 -0.37251586 -0.3709902 -1.0522417 0.0011936845 0.01713303 0.09585694
0.13822308 0.17608516 -0.04564434 -0.087630585 -0.0972973 -0.10801172 0.01201998 0.036368575
0.08709368 -0.014287307 -0.11518969 -0.16724856 0.08909933 0.055240326 0.08701222 0.05140569
0.021118606 0.0044664307 0.02086236 0.004154495 -0.025395345 0.020297885 0.0039774054 0.029758714
-0.03205004 0.03436225 -0.049047805 -0.013832854 0.008352061 0.06290136 0.09197042 0.10640874
0.08191357 0.022956878 0.106088445 -0.5283978 -0.39630708 -0.47838977 -1.4547085 0.013369792
-0.0051964247 0.013166359 0.03149565 0.06016239 0.020488814 0.01630625 0.066861026 0.08063315
0.044165384 -0.09979277 -0.0899174 -0.064034805 -0.06979496 0.05698786 -0.04957837 -0.024800956
-0.01313531 0.011667393 0.09203862 0.03358829 0.09696041 0.09589368 0.109899156 0.0147814695
0.008749363 -0.0036082186 0.08788183 0.09183909 0.08382358 0.07693728 -0.0203381 -0.41214487
0.16384704 0.2308901 0.23974374 -0.25230986 -0.010165309 -0.009345314 0.030297797 -0.0077123223
-0.0023641754 -0.072668605 0.064784296 0.075366944 0.12814069 0.088571995 -0.5809208 0.12326494
0.05337761 0.030233743 -0.23569247 -0.01596352 0.03845729 0.096619666 0.05596061 0.10783674
-0.19791523 0.0058184303 -0.015423209 -0.017321683 0.12165579 0.022585135 -0.015283587 0.2976302
-0.34255517 -0.20623119 -0.17604601 -1.1156286 -0.04445752 0.010658264 0.019361839 0.09687758
0.11810513 -0.045028728 0.024893051 -0.08037854 -0.021743491 -0.113883555 -0.02695864 0.02830996
-0.11090633 -0.20379747 -0.40138635 0.027218662 -0.05154012 -0.015903587 0.09290766 0.06011365
-0.050875574 0.036538713 0.021491835 0.15001059 0.123949185 0.07898008 0.11143347 0.018147869
0.02790369 -0.0057229474 0.013316176 0.0036612025 -0.24780454 -0.018801138 -0.16900274 -0.24314816
-0.34279272 -0.17532212 0.004351582 0.014489336 -0.15868749 -0.8083079 -0.06747737 -0.14026757
-0.047176596 -0.26425087 -0.077319406 -0.49151704 -0.0329212 0.08524626 -0.19391389 -0.6108187
-0.15829626 -0.055306368 0.05076196 -0.20175253 0.056818385 -0.22428447 -0.20327456 0.21570423
-0.06889241 -1.0415345 -0.06686147 -0.32323262 0.110169366 -0.2775229 -0.11817125 0.13532111
0.036110435 -0.014662539 -0.051573776 -0.012113789 0.0026563683 0.09273191 0.2220563 -0.107436396
-0.23968355 -0.25480726 -1.5996373 -0.034361895 -0.05018377 -0.061305374 -0.10641632 -0.034167666
-0.025096474 0.014771024 0.009804735 -0.02865621 0.0017824637 0.12665498 0.06949187 0.09837833
0.059998114 0.01796382 0.005783168 0.003389683 -0.0017103708 -0.016071431 0.06567065 0.0648022
-0.11500406 -0.13360846 0.084362976 -0.70369697 0.0046388027 -0.0039526415 -0.08123542 0.0058039296
0.003700889 -0.04895244 0.0620058 -0.38902643 0.10054515 0.03463061 0.15260455 0.21164922
0.0034111824 0.11501717 0.08024868 -0.036178544 -0.022144316 -0.093588926 -0.07609085 0.0022216202
-0.027976876 0.2872757 -0.22777365 -0.0044282135 0.066538565 0.00080510095 0.0981663 -0.33772993
0.010547473 -0.023708876 0.049071822 0.14874622 -0.2786883 0.10636141 0.13665406 0.10748402
00000000: b01d 423e f96e c3be 66ba bebe 6df2 bdbe
00000010: dbaf 86bf 6875 9c3a 915a 8c3c a550 c43d
00000020: 5a8a 0d3e ab4f 343e 8ff5 3abd aa77 b3bd
00000030: cf43 c7bd 4035 ddbd 73ef 443c 37f7 143d
00000040: 2c5e b23d 4f15 6abc 92e8 ebbd 3543 2bbe
00000050: b679 b63d ae43 623d 7633 b23d c68e 523d
00000060: ed00 ad3c 235b 923b 8ae7 aa3c 6e22 883b
00000070: e609 d0bc c047 a63c e554 823b 8cc8 f33c
00000080: e746 03bd 6ebf 0c3d 5ae6 48bd 32a3 62bc
00000090: 15d7 083c 6ed2 803d fd5a bc3d d3ec d93d
000000a0: 4dc2 a73d 1010 bc3c e644 d93d 1445 07bf
000000b0: c3e8 cabe 81ef f4be e333 babf f90c 5b3c
000000c0: c546 aabb b6b7 573c 9501 013d d76c 763d
000000d0: 28d8 a73c af94 853c 6fee 883d fe22 a53d
000000e0: c3e6 343d 2760 ccbd 9d26 b8bd ae24 83bd
000000f0: a9f0 8ebd 1a6c 693d b012 4bbd 602b cbbc
00000100: 7c35 57bc 9828 3f3c be7e bc3d e093 093d
00000110: 2e93 c63d e863 c43d cf12 e13d fa2d 723c
00000120: 7d59 0f3c dd77 6cbb 64fb b33d 2216 bc3d
00000130: b2ab ab3d 4b91 9d3d 169c a6bc a704 d3be
00000140: 85c7 273e 746e 6c3e 627f 753e c22e 81be
00000150: 658c 26bc 171d 19bc 1633 f83c a6b7 fcbb
00000160: 48f0 1abb 47d3 94bd a1ad 843d fc59 9a3d
00000170: 5037 033e 3c65 b53d 3ab7 14bf 5472 fc3d
00000180: 7ba2 5a3d c1ac f73c 5e59 71be eec5 82bc
00000190: 6485 1d3d 88e0 c53d f436 653d 82d9 dc3d
000001a0: 4aaa 4abe 88a8 be3b a1b1 7cbc 34e6 8dbc
000001b0: ac26 f93d 7604 b93c 0368 7abc fc62 983e
000001c0: 6463 afbe 452e 53be 6845 34be ebcc 8ebf
000001d0: 1719 36bd 00a0 2e3c b89c 9e3c c167 c63d
000001e0: 1ae1 f13d 0b70 38bd 83ec cb3c 819d a4bd
000001f0: 681f b2bc c83b e9bd 5ed8 dcbc 4aea e73c
00000200: dc22 e3bd 49b0 50be 8382 cdbe acf9 de3c
00000210: bc1b 53bd 3d48 82bc 5f46 be3d bb39 763d
00000220: e862 50bd 9ea9 153d a50f b03c 609c 193e
00000230: 12d9 fd3d 4fc0 a13d 3b37 e43d d7aa 943c
00000240: 4796 e43c 9087 bbbb 172c 5a3c c9f0 6f3b
00000250: 79c0 7dbe d804 9abc 0e0f 2dbe d5fb 78be
00000260: 8782 afbe a487 33be b797 8e3b ae64 6d3c
00000270: f97e 22be 44ed 4ebf 9331 8abd 4da2 0fbe
00000280: 3f3c 41bd e44b 87be a359 9ebd 1fa8 fbbe
00000290: 61d8 06bd 9795 ae3d 5d91 46be 9d5e 1cbf
000002a0: 6a18 22be ee88 62bd c6eb 4f3d 3798 4ebe
000002b0: 65ba 683d d4aa 65be 3527 50be 92e1 5c3e
000002c0: 7717 8dbd 0151 85bf abee 88bd bf7e a5be
000002d0: 7aa0 e13d 7b17 8ebe c503 f2bd 9e91 0a3e
000002e0: 89e8 133d 253b 70bc 063f 53bd ea78 46bc
000002f0: 7716 2e3b 3aea bd3d ba62 633e 9d07 dcbd
00000300: 9b6f 75be 1976 82be eac0 ccbf 0fbf 0cbd
00000310: 7f8d 4dbd 581b 7bbd cdf0 d9bd 65f3 0bbd
00000320: 1f97 cdbc 2a02 723c 0aa4 203c 6ec0 eabc
00000330: 8fa1 e93a d8b1 013e c151 8e3d 947a c93d
00000340: 95c0 753d dc28 933c bb80 bd3b 7225 5e3b
00000350: 852e e0ba 3ca8 83bc 557e 863d 04b7 843d
00000360: 4087 ebbd a8d0 08be 7fc6 ac3d 7c25 34bf
00000370: 1901 983b 2985 81bb c25e a6bd e42e be3b
00000380: 9d8a 723b 5b82 48bd cbf9 7d3d 792e c7be
00000390: 9eea cd3d d4d8 0d3d 5e44 1c3e 93ba 583e
000003a0: 258e 5f3b 1f8e eb3d 6c59 a43d f42f 14bd
000003b0: ff67 b5bc 8dab bfbd 85d5 9bbd 9a98 113b
000003c0: c32f e5bc cd15 933e 7f3d 69be 8c1a 91bb
000003d0: 5f45 883d 690d 533a 6a0b c93d f0ea acbe
000003e0: 4fcf 2c3c 1e39 c2bc 89ff 483d ee50 183e
000003f0: 3cb0 8ebe 03d4 d93d 0bef 0b3e 9520 dc3d

hidden_layers.0.bias f4 [128]
-0.0021265747 0.03532549 -0.07051813 -0.05571213 -0.07973043 -0.103057265 -0.012645086 0.062049
-0.16610523 -0.02178495 -0.14242437 -0.095903255 -0.10910808 -0.15079814 -0.10314074 -0.050883647
-0.061581213 -0.14388032 -0.10275239 -0.04612794 -0.19149873 0.048565947 0.08117373 -0.07806468
-0.07782441 0.124254815 0.077559575 -0.19883366 -0.113094084 -0.15574785 0.05341093 0.089885406
-0.07699732 0.020521918 -0.012449882 -0.28593755 -0.049217947 0.0028692 -0.0945996 0.0328203
-0.020239301 0.059630543 0.114226386 -0.006775258 -0.019888207 -0.19975133 0.029802162 -0.15295097
-0.23525931 0.076718956 -0.023748687 -0.0067487 -0.021049792 0.030395787 -0.03424107 0.016084611
-0.1765687 -0.08833134 -0.004049321 -0.13872914 -0.18377483 -0.022460178 0.04393573 -0.08652402
0.11776217 0.040459782 -0.07628775 -0.11639063 -0.14860433 -0.106094845 -0.01242263 -0.09198306
0.02828159 -0.14796914 -0.20797117 -0.07216798 0.09037083 -0.14848348 0.021750238 -0.08159455
-0.112439744 -0.023940181 0.0032224245 -0.11295566 -0.1246079 0.16518061 0.0028704228 -0.15891851
-0.005991737 0.023082834 0.08168747 -0.21090592 -0.14510901 -0.2151647 -0.100351684 0.059783623
-0.0972741 -0.2162333 -0.05852822 0.113605924 -0.2002462 -0.24864158 0.058941588 0.10795024
-0.3081682 -0.13162993 -0.19071648 0.103351645 -0.1969527 -0.11138684 0.0977123 -0.036152944
-0.1137491 -0.14316498 -0.02262425 0.0813207 -0.13423255 0.07734806 -0.031068033 -0.14470786
-0.08419296 0.01838529 -0.0061050938 -0.23405747 -0.112291574 0.026341228 0.052412853 -0.036207654
00000000: 015e 0bbb 76b1 103d cf6b 90bd 6732 64bd
00000010: b549 a3bd b00f d3bd 562d 4fbc 1827 7e3d
00000020: 7d17 2abe 5a76 b2bc b2d7 11be ed68 c4bd
00000030: 0f74 dfbd d46a 1abe 743b d3bd 5f6b 50bd
00000040: 953c 7cbd 5d55 13be d86f d2bd a7f0 3cbd
00000050: 3e18 44be 16ed 463d 6a3e a63d 60e0 9fbd
00000060: 6762 9fbd 4f79 fe3d 8ed7 9e3d 0d9b 4bbe
00000070: df9d e7bd 5d7c 1fbe 6bc5 5a3d d715 b83d
00000080: c5b0 9dbd 951d a83c 97fa 4bbc 6866 92be
00000090: c298 49bd 3009 3c3b 6fbd c1bd 946e 063d
000000a0: e4cc a5bc 283f 743d 86ef e93d fc02 debb
000000b0: 98ec a2bc 9d8b 4cbe aa23 f43c 2e9f 1cbe
000000c0: d1e7 70be d41e 9d3d 9b8c c2bc 3324 ddbb
000000d0: 9d70 acbc 9600 f93c 5d40 0cbd e0c3 833c
000000e0: 6dce 34be 10e7 b4bd 2bb0 84bb 030f 0ebe
000000f0: 782f 3cbe 68fe b7bc f4f5 333d 8133 b1bd
00000100: 4b2d f13d 28b9 253d c03c 9cbd 365e eebd
00000110: bc2b 18be 4148 d9bd 4988 4bbc 9d61 bcbd
00000120: cbae e73c 3985 17be 65f6 54be cecc 93bd
00000130: 5714 b93d 0e0c 18be 8e2d b23c 0b1b a7bd
00000140: cf46 e6bd 331e c4bc 502f 533b 4c55 e7bd
00000150: 6d32 ffbd 1b25 293e b41d 3c3b 89bb 22be
00000160: 5556 c4bb 3618 bd3c c34b a73d b9f7 57be
00000170: 7597 14be 2354 5cbe 2f85 cdbd acdf 743d
00000180: a537 c7bd 436c 5dbe 49bb 6fbd 39aa e83d
00000190: 570d 4dbe e69b 7ebe bc6c 713d 0415 dd3d
000001a0: 39c8 9dbe ffc9 06be 2e4b 43be 07aa d33d
000001b0: f8ad 49be c91e e4bd 631d c83d 1c15 14bd
000001c0: 4af5 e8bd d799 12be 7e56 b9bc 788b a63d
000001d0: 4274 09be a968 9e3d 6382 febc 4c2e 14be
000001e0: 5c6d acbd bf9c 963c 3d0d c8bb c3ac 6fbe
000001f0: 20f9 e5bd 8fc9 d73c dcae 563d 7a4e 14bd

hidden_layers.1.weight f4 [64, 128]
-0.02418742 -0.068277575 -0.34652352 0.06565776 0.124907054 0.09070641 -0.1759321 -0.113004774
0.10929812 -0.0176803 -0.042376094 -0.006146303 -0.33119518 0.06546819 -0.21476324 0.037138782
-0.3291339 -0.17873174 -0.044735987 0.033756208 0.18542652 0.04081685 0.031500135 -0.15235609
-0.004669413 0.010568636 -0.119796835 -0.24038818 -0.02270683 0.09263556 -0.4200376 0.04552242
-0.16248578 -0.11643074 -0.22736625 -0.046854667 -0.00097062846 -0.033354267 -0.29349667 -0.007842057
-0.052607387 -0.1061953 -0.033942584 0.0052122707 0.02336312 -0.008916975 -0.04662182 -0.052367352
-0.06686041 0.015804367 -0.1349057 0.044527195 -0.066366374 -0.029408788 -0.2664652 0.08191061
0.08056617 0.0699093 0.12764998 0.06265263 -0.07536484 -0.053938188 -0.25910726 0.07405168
0.054641403 0.06211576 -0.0077933334 -0.5283383 0.0325608 -0.053197443 0.0366011 -0.057487655
-0.23508032 -0.11192486 0.0033560484 0.06333598 -0.10310568 -0.07276654 -0.10289184 0.12820917
0.0031975005 -0.14007838 -0.06426903 0.012308903 -0.033146776 0.01898473 -0.44743624 0.05231638
-0.0053838533 -0.02398132 0.010125934 -0.013044571 0.00068859605 -0.012801921 0.0425276 -0.017145805
-0.19954914 0.09235764 -0.15457773 -0.0051794196 -0.24276933 0.07956568 -0.06795163 0.057694945
0.039145164 -0.024068467 0.010368263 -0.36214465 0.08876663 -0.021185081 -0.20821051 -0.05304487
0.052791018 -0.27205148 -0.02485428 -0.49110594 -0.08152215 0.056270413 -0.009934503 0.0862682
-0.0067396266 -0.10908665 0.0029261457 -0.0105206445 -0.31878757 0.047762126 -0.035541452 -0.059301052
-0.1651351 -0.5100727 -0.0007459386 -0.20590198 0.17626387 -0.23990259 -0.0037924107 -0.21106458
0.16539887 -0.27328363 -0.43602526 -0.6451683 0.03553225 0.008385106 0.010608887 -0.12638691
0.008029554 0.0013488093 0.01247857 0.035096925 0.22763418 0.024609054 -0.18033034 -0.06282342
-0.70065516 -0.63873744 -0.29638603 0.029015614 -0.025544297 -0.13402627 0.016791852 0.03646192
0.009473083 -0.102753274 0.0029296104 -0.08450347 0.00546589 -0.42523226 -0.01627909 -0.21936567
-0.4342416 -0.280613 -0.0829419 -0.46810168 -0.012715969 0.03660776 0.08309639 0.16879721
0.0041897977 -0.14324775 -0.038113054 -0.5332688 0.00204443 -0.015929775 0.00565497 -0.2702254
0.11097983 0.11194952 -0.7671543 0.013867482 0.13817646 -0.22783853 -0.0069843326 -0.3054412
-0.5813985 -0.18684262 0.025478575 0.01071553 0.07555632 0.035497062 -0.013166609 -0.3835174
-0.0037389733 0.019810025 0.0027689864 -0.084667325 -0.41181752 0.32517165 -0.0028144782 -0.05349505
-0.48565215 -0.0039949543 0.007932482 -0.34221074 0.0044025695 -0.86100113 -0.022882327 0.016433744
-0.1964192 -0.28975284 -0.23820345 -0.07375834 -0.25398964 -0.08240636 -0.011264196 -0.8296274
-0.008675472 -0.057751067 -0.05692488 -0.21852615 0.012878363 0.011752031 -0.3739732 0.24131027
0.021113452 -0.22288786 0.0077235913 0.033912446 0.0016771742 -0.06723114 0.0033542977 -0.16782948
-0.0073978463 -0.0023214382 -0.12691607 0.0019713284 0.004972979 -0.32457256 -0.24455735 0.19118814
-0.34555045 -0.22821224 -0.08462497 0.034811925 -0.02891886 -0.12808089 0.05234512 -0.5089463
00000000: b224 c6bc 1dd5 8bbd 886b b1be 9377 863d
00000010: 45cf ff3d 48c4 b93d 8b27 34be 0c6f e7bd
00000020: b1d7 df3d 47d6 90bc 8e92 2dbd ed66 c9bb
00000030: 6a92 a9be 3014 863d e5ea 5bbe d61e 183d
00000040: 3d84 a8be 7405 37be 153d 37bd f343 0a3d
00000050: 73e0 3d3e 922f 273d 4906 013d 3c03 1cbe
00000060: e001 99bb 1228 2d3c 0b58 f5bd 5228 76be
00000070: ad03 babc b6b7 bd3d 2b0f d7be b875 3a3d
00000080: ac62 26be 3d73 eebd b3d2 68be aeea 3fbd
00000090: c671 7eba 7c9e 08bd 3245 96be f97b 00bc
000000a0: d87a 57bd ec7c d9bd 6107 0bbd b2cb aa3b
000000b0: 0464 bf3c 8118 12bc 86f6 3ebd 267f 56bd
000000c0: 1cee 88bd 2978 813c b824 0abe 2662 363d
000000d0: 18eb 87bd b3ea f0bc 206e 88be c0c0 a73d
000000e0: e0ff a43d 9b2c 8f3d adb6 023e 0650 803d
000000f0: e258 9abd 4aee 5cbd b5a9 84be 68a8 973d
00000100: aacf 5f3d 186d 7e3d 385f ffbb 2e41 07bf
00000110: 795e 053d 90e5 59bd 09eb 153d 2d78 6bbd
00000120: e5b8 70be dc38 e5bd 26f1 5b3b 4bb6 813d
00000130: 1229 d3bd a006 95bd f5b8 d2bd 4449 033e
00000140: 288d 513b b570 0fbe 7b9f 83bd 48ab 493c
00000150: eac4 07bd dd85 9b3c 5d16 e5be b349 563d
00000160: 096b b0bb 7974 c4bc 3fe7 253c e5b8 55bc
00000170: e682 343a 26bf 51bc 6c31 2e3d 5c75 8cbc
00000180: 9c56 4cbe 0126 bd3d a049 1ebe 1fb8 a9bb
00000190: 8698 78be 55f3 a23d 392a 8bbd 8951 6c3d
000001a0: ae56 203d 3c2b c5bc a6df 293c 066b b9be
000001b0: 47cb b53d 568c adbc 2335 55be 9445 59bd
000001c0: 653b 583d 554a 8bbe 349b cbbc 3d72 fbbe
000001d0: 16f5 a6bd ce7b 663d 53c4 22bc 62ad b03d
000001e0: 16d8 dcbb d268 dfbd 94c4 3f3b c85e 2cbc
000001f0: 2038 a3be 38a2 433d ea93 11bd a9e5 72bd
00000200: 2d19 29be 2094 02bf 188b 43ba f8d7 52be
00000210: 847e 343e 06a9 75be 188a 78bb 5021 58be
00000220: 525e 293e d5eb 8bbe b43e dfbe c029 25bf
00000230: 448a 113d af61 093c e6d0 2d3c 926b 01be
00000240: 648e 033c 88ca b03a eb72 4c3c cbc1 0f3d
00000250: ef18 693e ed98 c93c 84a8 38be 91a9 80bd
00000260: 235e 33bf 4c84 23bf e9bf 97be 27b2 ed3c
00000270: 4642 d1bc 2f3e 09be 118f 893c 1859 153d
00000280: fd34 1b3c 4f70 d2bd b5fe 3f3b 2810 adbd
00000290: 351b b33b 0bb8 d9be ba5b 85bc 65a1 60be
000002a0: ea54 debe 82ac 8fbe 71dd a9bd 06ab efbe
000002b0: a456 50bc 05f2 153d 712e aa3d 2dd9 2c3e
000002c0: 924a 893b 8aaf 12be 6f1c 1cbd 4e84 08bf
000002d0: d8fb 053b 297f 82bc 544d b93b fc5a 8abe
000002e0: 6549 e33d ca45 e53d 3964 44bf 6f34 633c
000002f0: 217e 0d3e 814e 69be d4dc e4bb ca62 9cbe
00000300: 88d6 14bf ac53 3fbe 72b8 d03c 3190 2f3c
00000310: 46bd 9a3d 5e65 113d c3b8 57bc 655c c4be
00000320: 9009 75bb a248 a23c e277 353b 1066 adbd
00000330: bfd9 d2be e67c a63e 1c73 38bb a01d 5bbd
00000340: 66a7 f8be 1be8 82bb 3ef7 013c 3f36 afbe
00000350: 6e43 903b 926a 5cbf b873 bbbc 0fa0 863c
00000360: 1d22 49be 7c5a 94be 9beb 73be 9d0e 97bd
00000370: ee0a 82be aac4 a8bd 768d 38bc 7662 54bf
00000380: 9123 0ebc 628c 6cbd 102a 69bd 52c5 5fbe
00000390: c5ff 523c 978b 403c 6a79 bfbe 0a1a 773e
000003a0: 1ef6 ac3c b73c 64be 2e16 fd3b c7e7 0a3d
000003b0: a1d4 db3a 7bb0 89bd c7d3 5b3b 7edb 2bbe
000003c0: a269 f2bb 4523 18bb 49f6 01be 6731 013b
000003d0: 5ff4 a23b 602e a6be 3e6d 7abe d3c6 433e
000003e0: fdeb b0be 78b0 69be db4f adbd f396 0e3d
000003f0: 3fe7 ecbc a327 03be d667 563d 4e4a 02bf

hidden_layers.1.bias f4 [64]
0.24889976 0.09804973 0.107924804 0.11642155 0.27111775 0.2126208 0.12792204 0.14202264
0.1849119 0.12322407 0.26441762 0.12077092 0.2076213 0.12972128 0.10256929 0.15618724
0.109259814 0.11764333 0.25041768 0.1624348 -0.13521032 0.24014783 -0.13205871 0.24412301
0.1403097 0.2740816 0.2477499 0.25562158 0.104683615 0.020593747 0.15685695 0.18883021
-0.037709508 0.26667875 0.23808366 0.17711261 -0.15670413 0.15723088 0.13012813 0.18502209
0.1482951 0.19337584 0.11038164 0.24541149 0.1230422 0.23911205 0.16210054 0.11644194
0.112291545 0.10103955 0.11396338 0.12354116 0.11879579 0.23117884 0.09505461 0.10159196
0.13802062 0.24718387 0.23441362 0.12354426 0.08859432 0.09871419 0.10784513 0.16414012
00000000: 94df 7e3e 4cce c83d ae07 dd3d 6c6e ee3d
00000010: f2cf 8a3e 44b9 593e fffd 023e 626e 113e
00000020: 8c59 3d3e e75c fc3d bf61 873e be56 f73d
00000030: ae9a 543e a8d5 043e d90f d23d 8cef 1f3e
00000040: 9cc3 df3d fcee f03d bf36 803e 4f55 263e
00000050: 9374 0abe 50e9 753e 663a 07be 62fb 793e
00000060: 59ad 0f3e 6c54 8c3e 26b2 7d3e d5e0 823e
00000070: 5d64 d63d 38b4 a83c 1c9f 203e b55c 413e
00000080: 4975 1abd 1e8a 883e 34cc 733e 025d 353e
00000090: 0c77 20be 2201 213e 4f40 053e 6e76 3d3e
000000a0: acda 173e 5104 463e c50f e23d 264d 7b3e
000000b0: 8dfd fb3d cad9 743e affd 253e 1d79 ee3d
000000c0: 1cf9 e53d d3ed ce3d a265 e93d 2603 fd3d
000000d0: 354b f33d 25ba 6c3e feab c23d 720f d03d
000000e0: 4755 0d3e c51d 7d3e 200a 703e c604 fd3d
000000f0: f070 b53d aa2a ca3d e8dd dc3d 5914 283e

output.weight f4 [4, 64]
0.057694618 -0.12570457 0.029982876 0.03646832 0.064492874 0.0465307 0.045375742 0.049164552
0.032884665 0.04191441 0.0528729 0.02714429 0.050386474 0.04678827 0.032842692 0.030296508
-0.11980402 0.04862364 0.0885109 0.048580166 -0.055842042 0.05754065 0.078783795 0.10144553
-0.104366384 0.09282276 0.054006364 0.06773185 0.04521074 -0.07789605 -0.035937328 0.03965463
-0.08187517 0.064011544 0.071136184 -0.13462117 0.01345737 0.03826718 -0.10598584 0.052367527
0.02759851 -0.11651478 -0.11511566 0.07934143 -0.07790382 0.06574516 0.028244918 0.03297288
0.031687327 0.034603566 -0.09608434 0.03086668 -0.109029494 0.05630948 0.032794043 0.03278065
0.045354452 0.0520901 0.061733425 0.036046665 0.025980927 0.03664168 0.023321912 0.03765051
0.05286455 -0.058432203 0.015514306 0.024406625 0.06315534 0.037868544 0.052588932 0.052354347
0.040920947 0.033214733 0.08877978 0.039617643 0.06289609 0.025631072 0.04143907 0.032452147
-0.01950399 0.028301273 0.1140482 0.01963875 -0.06222555 0.055617347 -0.05761493 0.11047519
0.006112217 0.09861203 0.07614742 0.04922006 0.030410046 -0.08949761 -0.07177673 0.02688007
-0.085697345 0.060806457 0.11614428 -0.09711844 -0.0074347826 0.03485622 -0.023004271 0.033261027
0.026140776 -0.07794555 0.00013455057 0.066768155 0.0055015865 0.07472669 0.0035001093 0.034301367
0.022972278 0.025724448 0.025083242 0.03632759 -0.010693286 0.054181945 0.021997934 0.03439496
0.053220697 0.060825605 0.06440104 0.04417136 0.025249854 0.027662175 0.0101695005 0.036033846
0.011498394 -0.06566143 0.072650515 0.049115844 -0.030253341 0.078200534 0.03144977 0.07854572
0.059960697 0.049567398 0.027336854 0.04488937 0.024873223 0.032828882 0.050670475 0.054317325
-0.06720557 -0.034033954 0.03928412 -0.040806368 0.005781958 -0.014206893 0.000552954 0.08262671
0.078287035 0.063801095 0.0045066117 0.03534921 0.040437896 -0.084534705 -0.3014155 0.06291413
-0.102298066 -0.0032684745 0.003444335 -0.030772619 0.047373854 0.032705422 -0.031645123 0.030770553
0.050676025 -0.08501418 -0.048894104 0.08136294 0.024982514 0.012695982 0.048637535 0.040074732
0.05162437 0.05393239 -0.11865156 0.06806136 -0.054583512 0.02409168 0.04876241 0.056128986
0.038392227 -0.00893284 0.041744504 0.064582914 0.03472239 0.03045261 0.051864445 0.021555865
0.024805637 -0.076473854 0.045409046 0.06486732 0.03386692 0.05868433 0.047910847 -0.038740456
0.069565535 0.064578466 0.012550257 0.046970267 0.046727404 0.037294786 0.046527784 0.040479276
-0.06159031 0.043251507 0.03421667 0.044665486 0.09818782 0.02315077 -0.015508075 0.10194179
-0.12049994 0.044828236 0.021320937 0.0004901327 0.05430268 -0.1724679 -0.25779754 0.048085447
-0.1548564 0.01903032 0.01105251 -0.10935927 -0.07259794 0.03966487 -0.031220194 0.026030911
0.024601584 -0.08465061 -0.081738435 0.068186015 0.059031647 0.011093205 0.047110796 0.049847055
0.04761801 0.045602582 0.065855734 0.03420807 -0.048065618 0.06023843 0.04540541 0.046668984
-0.09172145 0.008553525 0.030859694 0.05113161 0.048658337 0.04333139 0.039493233 0.050381403
00000000: 3151 6c3d b3b8 00be a69e f53c ce5f 153d
00000010: d714 843d fa96 3e3d eadb 393d c560 493d
00000020: 12b2 063d 72ae 2b3d 4191 583d b45d de3c
00000030: 0c62 4e3d 0fa5 3f3d 0f86 063d 6230 f83c
00000040: cf5b f5bd 9529 473d 3445 b53d fffb 463d
00000050: a0ba 64bd bfaf 6b3d 6659 a13d adc2 cf3d
00000060: 0bbe d5bd dc19 be3d c735 5d3d ffb6 8a3d
00000070: e62e 393d f787 9fbd 0533 13bd e56c 223d
00000080: 2bae a7bd 7c18 833d d9af 913d 22da 09be
00000090: 4d7c 5c3c 0cbe 1c3d 1b0f d9bd 557f 563d
000000a0: 4516 e23c 4d9f eebd c2c1 ebbd c27d a23d
000000b0: 0a8c 9fbd 66a5 863d e361 e73c 920e 073d
000000c0: 92ca 013d 78bc 0d3d dec7 c4bd 1fdc fc3c
000000d0: db4a dfbd c5a4 663d 0c53 063d 0145 063d
000000e0: 97c5 393d 6e5c 553d 30dc 7c3d aba5 133d
000000f0: f4d5 d43c 9615 163d 980d bf3c 6c37 1a3d
00000100: 8088 583d 9b56 6fbd b72f 7e3c 67f0 c73c
00000110: 9657 813d 0c1c 1b3d 7e67 573d 8371 563d
00000120: b99c 273d 2c0c 083d 2cd2 b53d 1c46 223d
00000130: aacf 803d 41f8 d13c 04bc 293d 8bec 043d
00000140: d5c6 9fbc 12d8 e73c 1a92 e93d 72e1 a03c
00000150: 38e0 7ebd 04cf 633d a2fd 6bbd d140 e23d
00000160: fe48 c83b 1bf5 c93d 2ef3 9b3d f99a 493d
00000170: 7d1e f93c 864a b7bd aeff 92bd 9833 dc3c
00000180: 1782 afbd 3110 793d 0ddd ed3d 08e6 c6bd
00000190: 7a9f f3bb 65c5 0e3d 7473 bcbc b73c 083d
000001a0: 2e25 d63c eba1 9fbd 2516 0d39 bebd 883d
000001b0: a746 b43b 4f0a 993d 1762 653b 977f 0c3d
000001c0: 5c30 bc3c 14bc d23c 5f7b cd3c 3dcc 143d
000001d0: e432 2fbc e3ed 5d3d 0335 b43c bbe1 0c3d
000001e0: f2fd 593d 4524 793d b1e4 833d 07ed 343d
000001f0: c8d8 ce3c c99b e23c fa9d 263c 3a98 133d
00000200: c363 3c3c 8079 86bd cbc9 943d b22d 493d
00000210: dbd5 f7bc 9a27 a03d 79d1 003d 94dc a03d
00000220: 5999 753d 2f07 4b3d 8af1 df3c ebdd 373d
00000230: eec2 cb3c 9477 063d d88b 4f3d d87b 5e3d
00000240: 13a3 89bd 3067 0bbd 63e8 203d 9424 27bd
00000250: 9476 bd3b 07c4 68bc 1df4 103a 3138 a93d
00000260: f454 a03d 26aa 823d 33ac 933b 55ca 103d
00000270: 35a2 253d 8820 adbd 2253 9abe 20d9 803d
00000280: a681 d1bd e733 56bb 5aba 613b dc16 fcbc
00000290: 160b 423d 1ff6 053d 519e 01bd 8712 fc3c
000002a0: aa91 4f3d ea1b aebd 2f45 48bd 9da1 a63d
000002b0: 21a8 cc3c cf02 503c 2738 473d 6725 243d
000002c0: 1374 533d 36e8 5c3d 97ff f2bd c163 8b3d
000002d0: f692 5fbd ea5b c53c 18bb 473d 82e7 653d
000002e0: 2b41 1d3d 0c5b 12bc 49fc 2a3d 0c44 843d
000002f0: 1139 0e3d c177 f93c d06f 543d ed95 b03c
00000300: 3135 cb3c 539e 9cbd d6fe 393d 28d9 843d
00000310: 0ab8 0a3d fb5e 703d 2a3e 443d 50ae 1ebd
00000320: 6078 8e3d b741 843d 989f 4d3c e563 403d
00000330: 3c65 3f3d 6bc2 183d eb93 3e3d 99cd 253d
00000340: 1f46 7cbd 7e28 313d c726 0c3d 28f3 363d
00000350: b216 c93d afa6 bd3c 9515 7ebc dbc6 d03d
00000360: acc8 f6bd d09d 373d 3fa9 ae3c 407c 003a
00000370: 7d6c 5e3d 6d9b 30be 0afe 83be 3ff5 443d
00000380: ad92 1ebe 79e5 9b3c 9615 353c c1f7 dfbd
00000390: 3bae 94bd a177 223d 7ec1 ffbc c73e d53c
000003a0: 4389 c93c 4d5d adbd 7b66 a7bd 1ca5 8b3d
000003b0: 2bcb 713d 46c0 353c 40f7 403d 6d2c 4c3d
000003c0: 1a0b 433d c6c9 3a3d 5fdf 863d c31d 0c3d
000003d0: 74e0 44bd 92bc 763d 06fb 393d fa27 3f3d
000003e0: 75d8 bbbd 1624 0c3c 78cd fc3c 616f 513d
000003f0: f74d 473d 417c 313d a8c3 213d bb5c 4e3d

output.bias f4 [4]
1.4779787 1.3306599 1.3920708 1.403157
00000000: 682e bd3f 1053 aa3f 602f b23f a69a b33f
