experiments/navigate_1324_18Oct22073159.pth (torch_old, 54660 bytes, 6 tensors)

hidden_layers.0.weight f4 [128, 37]
000000 9a 6c 59 bc 20 b5 a8 bc 52 1e 2b bc 78 80 1d bd
       -0.013270522 -0.02059418 -0.010444241 -0.038452595
000010 d8 65 10 bd 42 56 43 3b 50 63 5f 3c 32 fa 88 3d
       -0.035253376 0.0029806052 0.013634518 0.06688346
000020 81 e2 4a 3e 26 94 85 3e 80 b1 75 bd a5 b8 9e bc
       0.19812967 0.2608959 -0.05998373 -0.019375155
000030 dd b0 6c bd a2 09 68 bd 58 36 9d bd 04 fa e5 3c
       -0.057785857 -0.05664981 -0.07676381 0.028073318
000040 0b da 4f 3d 1f 1e 81 3c 39 25 48 3d 5d 63 1f 3d
       0.05074505 0.015761433 0.048863623 0.03891312
000050 bc 58 89 3e 6f 1d 09 bf 23 7a d2 be 09 49 a3 be
       0.2682551 -0.5356054 -0.41108808 -0.3189166
000060 d5 55 cb bf e0 69 0f 3c 25 5b 39 3d b5 98 88 3b
       -1.5885569 0.00875327 0.045252938 0.0041685947
000070 34 35 81 3d 5e cc 47 3d 85 0a 78 bd a5 17 db 3d
       0.06308976 0.048778884 -0.060556907 0.10697869
000080 c3 dc d1 3c fb 0e c8 bd c3 25 39 be 3c 28 35 bc
       0.025617963 -0.09768482 -0.18080811 -0.011056956
000090 df cc 19 3a f6 12 99 3d 36 fa c7 be 26 ef 1b 3e
       0.0005867015 0.0747432 -0.39058083 0.15227947
0000a0 e1 38 8f bb c3 1b bd be 7d 34 07 bf c6 2a 78 be
       -0.004370794 -0.36935243 -0.52814466 -0.24235067
0000b0 9b 91 88 3d 15 11 8e be 3c 99 4e bf d0 5b f3 bd
       0.06668397 -0.27747408 -0.8070257 -0.11882746
0000c0 c1 1d 17 be 8f bb d2 3c 59 73 0d be 8c 62 f2 bb
       -0.14757444 0.0257242 -0.13813533 -0.0073970016
0000d0 7d 79 42 3d 20 07 5f be b1 cd 7e bc 09 c5 a0 be
       0.04747914 -0.21780062 -0.01555197 -0.31400326
0000e0 df 54 8e be 14 42 8a be c5 94 3e be 9e 51 1c be
       -0.27799127 -0.2700354 -0.18611439 -0.1526551
0000f0 7e 41 15 be 02 94 4d be d5 fd b8 be 38 3e 49 bd
       -0.14575765 -0.20075992 -0.36131158 -0.049131602
000100 31 21 09 3e c3 9a ba be ea 84 38 bf 44 be 9a bc
       0.13391568 -0.364462 -0.7207781 -0.018889554
000110 44 36 c8 bc df 2c a7 3c c7 4c 8d be b7 45 9e be
       -0.024439938 0.020407138 -0.2759764 -0.30912563
000120 3b 87 eb 3d 2e 4a 17 3d 1c ed c4 3c 42 ff 06 3e
       0.115004025 0.036935978 0.024038844 0.1318331
000130 41 9a c0 3d b2 81 54 3d 57 81 3b 39 c3 f1 f2 be
       0.094044216 0.0518815 0.00017881893 -0.47450075
000140 8a 7a 58 3e 52 77 85 3e fa 73 1b 3d 80 b2 2d bf
       0.21140495 0.26067597 0.0379524 -0.67850494
000150 e3 d9 2a bd ee 6d 85 bc 00 95 f1 3c d4 cb 3f 3a
       -0.0417117 -0.01628777 0.029489994 0.00073164445
000160 a0 36 ee bb 9a 60 32 be a9 7c d4 3d 91 1b 0a 3e
       -0.0072696954 -0.17419663 0.103753395 0.13487078
000170 dc 11 30 bc 1a 96 91 bb 7d d1 f9 bd 72 d8 eb bb
       -0.0107464455 -0.0044429423 -0.1219816 -0.007197433
000180 3d 91 10 3e de a2 0f bd 1e 24 cb bd 49 c5 73 be
       0.14117904 -0.03506743 -0.09918998 -0.23805727
000190 68 82 47 3e d2 d4 56 3e de 6c 51 be 11 23 72 be
       0.1948334 0.20979622 -0.20451686 -0.2364619
0001a0 42 03 34 be a9 5f 1e bd 9b 18 05 3b 7d 9c 4a be
       -0.17579368 -0.038665447 0.0020308855 -0.19786258
0001b0 de d1 85 bd 58 1a 16 ba 16 b2 e6 ba 58 39 11 3d
       -0.065341696 -0.00057259714 -0.0017600681 0.035455078
0001c0 2c 8a b9 3d d6 a3 8e 3d ff 81 e5 3d 44 18 4e bd
       0.09059557 0.06964843 0.112064354 -0.05031611
0001d0 52 11 f3 bd bb 2d a3 3c 86 11 5a 3d 5a fa f6 3d
       -0.11868538 0.019919267 0.053239368 0.120594695
0001e0 19 bf 74 3e c4 8c 2a bb 3a 42 5c bd 25 b5 b1 3c
       0.23901023 -0.0026023844 -0.053774096 0.021692822
0001f0 70 60 5b bd 21 98 37 be 3a 66 7c bd 8c a8 97 bd
       -0.053558767 -0.17929126 -0.06162093 -0.07405195
000200 8e 28 86 bd 43 a4 99 bd 16 17 e6 bc 18 ec 0d 3e
       -0.06550704 -0.075020336 -0.02808718 0.13859594
000210 e8 52 f3 be a9 a0 ac bd 06 45 3d be 5d 1e 50 bf
       -0.4752419 -0.08429081 -0.18483362 -0.8129633
000220 ba cc 92 bb ab 69 be 3c 1d 47 c8 3d 39 63 a2 3d
       -0.0044799717 0.023243746 0.09779189 0.079290815
000230 99 53 10 3e e1 eb cf 3d 01 0a 76 3e d9 c2 41 be
       0.1409439 0.10152412 0.24027254 -0.18921985
000240 5a 14 af bd 25 95 e3 be a7 91 2f 3e 09 a1 fd 3b
       -0.08548804 -0.44449726 0.17145406 0.007740144
000250 85 b2 40 be 2a 8f e5 bd 43 f4 c8 bd 88 e3 af bd
       -0.188181 -0.11208947 -0.09812214 -0.0858832
000260 58 4f c6 3d c6 7d 00 be 2a fd 45 3d fa 6b 34 3e
       0.09683102 -0.12547979 0.04833714 0.17619315
000270 d7 0f 22 3e 63 84 0c 3f 82 d1 01 be 6c e2 26 3d
       0.15826355 0.54889506 -0.12677577 0.040743276
000280 4c 0a 45 bd f2 ae ef bd 4e 00 52 be b9 f9 ac bd
       -0.048105523 -0.1170329 -0.20507929 -0.08446068
000290 47 27 00 be 24 05 54 bd 78 5c c9 bc 53 ee df 3d
       -0.12514983 -0.051762715 -0.024580225 0.109341286
0002a0 b2 3a 6e be 94 20 88 3d 24 43 24 3d 43 50 b4 3d
       -0.23264578 0.06646839 0.040103093 0.08804371
0002b0 bb dc 9b bd 2e 61 1b bd df b8 97 bd 7d 81 bb 3d
       -0.0761046 -0.037934475 -0.07408308 0.09155557
0002c0 52 b8 58 3e 23 74 a0 3e 9b f3 59 bd 6f 82 75 3d
       0.21164063 0.31338605 -0.053210836 0.059938844
0002d0 2f e2 43 3d c8 50 21 3e d6 1b 80 3e 03 2f 63 3b
       0.047823127 0.15753472 0.25021237 0.0034665472
0002e0 f9 a5 16 bc 9c 7c a9 3c 4e a6 e6 bd 2e c6 02 bd
       -0.009194844 0.020689301 -0.11262189 -0.03192728
0002f0 0f 63 09 3d da 6b 5a 3d a7 1f 02 bd c1 7b 11 bd
       0.033541735 0.05332551 -0.031768467 -0.03551841
000300 46 0f d1 3d 70 a8 b1 be b7 98 ce bf 0b d7 5d bc
       0.10207991 -0.3469882 -1.6140355 -0.01354004
000310 fb 1b 10 3d c1 30 56 bd 12 bb b0 be 90 a3 d9 bd
       0.035182934 -0.05229259 -0.34517723 -0.106269
000320 77 01 9c bd 7d f9 0a 3d f7 d1 2b 3d 66 73 0f be
       -0.07617467 0.033929337 0.041948285 -0.14008865
000330 82 7b 1d be f1 31 ca 3d d7 b2 86 3c 5d ea 83 3d
       -0.15379146 0.09872807 0.0164427 0.064411856
000340 1f 6f 3f bc 87 c4 37 be 34 6b ba bd 09 3b 53 3c
       -0.011684208 -0.17946063 -0.091024786 0.012892493
000350 06 5b b4 3d 49 3c 38 be 26 b5 a2 bd b7 ce 01 bd
       0.08806424 -0.17991747 -0.079447076 -0.03169128
000360 eb f3 67 be db 4d 17 bd e2 f4 a0 bd 92 a9 85 bf
       -0.22651641 -0.036939483 -0.07859208 -1.0442374
000370 99 1e 4c be 67 10 83 3d 5d 39 04 bd 8a 72 48 3c
       -0.19933547 0.06399613 -0.03228127 0.0122343395
000380 97 dd 34 3c 66 74 df bd e9 40 f1 bd a7 f1 c4 bd
       0.011039159 -0.10910873 -0.11779959 -0.09616404
000390 71 ba 38 be da 6d 21 3c 3a f6 2e be 95 0b 43 3c
       -0.18039872 0.009852851 -0.17086115 0.011904617
0003a0 6d 33 8e 3d 6f c2 8f 3d 4b 6c b2 3c 8d b3 a6 3c
       0.069434024 0.07019507 0.021780154 0.020349288
0003b0 13 82 14 bd bd 4a 70 be 8d 53 cd bc 4b e7 89 ba
       -0.03625686 -0.2346601 -0.025064254 -0.0010521201
0003c0 8d 38 b3 3d 74 b0 28 3e d7 eb 26 be 45 89 78 3c
       0.087510206 0.16473562 -0.16300903 0.015169446
0003d0 9a e3 cb 3d 3b 5e 85 bc 2c 8e 56 3e b7 3a 10 be
       0.09955521 -0.016280284 0.20952672 -0.14084898
0003e0 94 ab cc bb ad 5c 9b bd 09 1b 0d be 99 d6 8d bc
       -0.0062460396 -0.07586036 -0.13779844 -0.017314242
0003f0 86 91 20 3e e3 29 43 bd 48 91 6f be c7 86 3f be
       0.15680513 -0.04764737 -0.23395264 -0.18703757

hidden_layers.0.bias f4 [128]
000000 70 be 9b bb ee eb 97 bd 8e 0a 71 bd c0 34 9b bd
       -0.0047529265 -0.07418047 -0.058847956 -0.07578421
000010 e8 cb cf bd e8 8b ea bd 9c b7 ac 3b be 5a 98 bd
       -0.10146314 -0.11452466 0.0052709114 -0.07439183
000020 de 9f a0 be 0c a7 9d bc cb ed 29 be 96 12 b4 bd
       -0.3137197 -0.019244693 -0.16594617 -0.087926075
000030 f0 a5 c1 bd fe ed 1c be ed 96 35 be 85 46 87 bd
       -0.09455478 -0.15325162 -0.17733355 -0.066052474
000040 f8 8f 38 bd b1 b0 0c bd cf 9c 3b be 0b a0 ec bd
       -0.045059174 -0.034348194 -0.18321536 -0.11553963
000050 7c d9 f5 bd db 11 50 3d e6 4c 35 3d 9d 67 11 bd
       -0.120043725 0.05079828 0.04426279 -0.035499204
000060 5e f3 7a bd c9 ff fe 3d 9d 21 a8 3d f6 04 59 be
       -0.06126725 0.12451131 0.08209536 -0.21193299
000070 96 3c 03 be 44 04 1b be 39 da 0f bc 95 24 00 bd
       -0.1281608 -0.15138346 -0.008780056 -0.031284887
000080 95 22 23 be a8 5b 34 3c a9 b2 cc bc d0 03 55 be
       -0.15931161 0.011008181 -0.024987536 -0.20802236
000090 a5 f3 a4 bd b2 09 09 3c d2 87 75 3c 39 44 85 bd
       -0.08054284 0.008364128 0.014985995 -0.06507153
0000a0 0d 29 7d bd e0 1c 37 3d 31 46 49 3d 36 05 74 bd
       -0.061806727 0.04470527 0.049139205 -0.059575282
0000b0 da b6 4e bd c0 e6 c3 bd 32 c2 7a 3c b3 71 cb bd
       -0.05046735 -0.095654964 0.015305089 -0.09933796
0000c0 80 8d 44 be c1 78 cd 3d 6f e5 d4 bc 3b 58 ad bc
       -0.19194603 0.100327976 -0.025988309 -0.021160236
0000d0 ec 53 a1 3d 51 cc 15 3d 14 b8 8d bd e8 6f a0 3a
       0.07877335 0.036571804 -0.06919876 0.0012240382
0000e0 85 86 54 be f4 1c 24 be 09 63 b8 3c a2 2d 4b be
       -0.2075444 -0.1602667 0.022508161 -0.19841626
0000f0 7a a4 37 be ca cb db bb f0 d1 b8 3d f0 2e 94 bd
       -0.17933837 -0.006707643 0.090244174 -0.07235515
000100 22 0c 11 3e f2 50 93 3c 39 3e 7c 39 28 d0 f3 bd
       0.14164785 0.017982934 0.00024055773 -0.11904937
000110 64 d5 6b be 8b 9b 56 be 5b 7a 52 bd 6d 2f 2a be
       -0.23030621 -0.20957772 -0.05138622 -0.16619654
000120 09 16 9d 3c 6c fa 30 be b8 bf 4c be 8d 34 8b bd
       0.019175546 -0.17283028 -0.1999501 -0.06797133
000130 2a 7b f4 3d 8d 3c 33 be 76 72 2f bd 72 fa 0e 3c
       0.11937554 -0.17503567 -0.042833768 0.008726703
000140 a8 eb 99 bd 4d b0 f2 3c 46 9e ed bc 77 60 cf bd
       -0.07515651 0.029625082 -0.029006135 -0.10125821
000150 7f 6e e1 bd c2 54 2c 3d 8d 8c cb 3d b2 e4 02 be
       -0.110074036 0.04207302 0.09938917 -0.12782553
000160 9a 92 52 bd 35 23 51 bd e3 e2 80 3d db 26 23 be
       -0.05140934 -0.051058967 0.06293275 -0.15932791
000170 d5 33 0c be 75 9f df bd 1b 21 ac bd 27 b3 66 3d
       -0.13691647 -0.10919086 -0.08404752 0.056323197
000180 11 9c c6 bd b9 b1 3f be c1 ce 3c be 4a 5b 6e 3d
       -0.09697736 -0.1872014 -0.18438245 0.05819253
000190 9e 85 39 be 43 09 8b be a3 9c c2 3c fc ba 92 3d
       -0.18117377 -0.27155504 0.02375633 0.07164571
0001a0 45 5c a1 be 57 2d 36 be 51 ba c8 bd 83 80 3b 3d
       -0.3151571 -0.17790733 -0.09801162 0.045776855
0001b0 53 7d e4 bd 90 a6 e5 bd 95 a6 82 3d 26 53 19 be
       -0.11156716 -0.1121341 0.06379429 -0.14973125
0001c0 56 96 f3 bd 2a ac 32 be 68 fc 0d bd 38 c1 04 3c
       -0.11893909 -0.17448488 -0.03466454 0.008102708
0001d0 53 0f b8 bd 9f b2 8c 3c 19 61 04 bc 62 72 11 be
       -0.08987298 0.017175017 -0.0080797905 -0.1420379
0001e0 c0 94 98 bd 4a d0 97 3c 3b e8 db bd a1 ab 82 be
       -0.07450247 0.018531937 -0.10737654 -0.25521567
0001f0 f9 cb 9f bd 1c 5d bf 3b 78 1d 3b 3d ad f3 48 bd
       -0.078025766 0.005839957 0.0456824 -0.049060512

hidden_layers.1.weight f4 [64, 128]
000000 9c a5 bb 3d e4 77 f9 3c 64 fb 76 bd d1 8d e4 3d
       0.09162447 0.030452676 -0.06029834 0.11159862
000010 6b 12 0a bd 6e 02 82 bc 98 b0 27 3e 20 28 28 37
       -0.03370897 -0.0158703 0.16375959 1.0022923e-05
000020 79 e3 af 3c 4b db 4e 3d 4f 66 0a 3c 5d b5 57 bc
       0.021470772 0.050502103 0.008447244 -0.013165799
000030 49 46 2c 3e 97 fb ac 3c 57 3e e6 3c 91 46 ed 3d
       0.16823687 0.021116061 0.028105898 0.11585725
000040 58 13 87 3d aa 50 9e 3d c5 a0 5d bd c9 03 5a be
       0.065954864 0.07730229 -0.0541084 -0.21290506
000050 70 75 17 3e af 06 16 be e5 2c 7f bd 21 37 38 bd
       0.14790893 -0.14650987 -0.062298674 -0.04497445
000060 c0 5b 04 bd ec 81 30 3c a8 0b 5e 3a 03 82 3c bd
       -0.032314062 0.010773163 0.0008470365 -0.046022426
000070 cd 68 9a bd 15 f4 45 bd a1 8d fe bd 03 7a 14 be
       -0.075395204 -0.048328478 -0.12429357 -0.14499669
000080 cf 04 ca 3b 41 fc f6 3d fb f8 02 bc 21 ca f3 3d
       0.006165124 0.12059832 -0.007993932 0.119037874
000090 a1 d6 81 bc cb 19 e5 bd 57 2c 3d 3d 14 26 93 bd
       -0.015849413 -0.1118656 0.046184864 -0.07184997
0000a0 6c f4 6d 3e 4f f8 09 bd 54 48 1b be d0 fa f5 bd
       0.23237771 -0.03368407 -0.1516431 -0.12010729
0000b0 c0 23 eb 3c 28 28 00 3d 24 9e a0 bc dc e1 12 be
       0.02870357 0.031288296 -0.019606657 -0.14343971
0000c0 c9 bf cd bb cf 8d e7 3c 6d 82 23 3e 5c f1 9e 3d
       -0.006278966 0.028265862 0.15967722 0.077608794
0000d0 f4 6a 38 3d 90 c2 86 bc c2 c2 0a 3b 7d be 9c bb
       0.045023873 -0.016450197 0.0021173214 -0.00478345
0000e0 70 22 4b 3e 48 ce 0e be 17 cf 1c bd af f6 1c 3d
       0.19837356 -0.13945878 -0.038283434 0.038321193
0000f0 e5 ae ab bd f2 19 85 bd 6d 5a b8 bc 17 2d 4b bd
       -0.08382968 -0.06499089 -0.022504056 -0.049603548
000100 c8 f7 2f 3c 99 04 68 3d 31 0d 3a 3e 4a 1f a8 bd
       0.010740228 0.05664501 0.18169095 -0.08209093
000110 d8 35 b1 bc 48 d4 9e bc 41 fa 43 bd 53 8a 58 bc
       -0.02163212 -0.019388333 -0.047846083 -0.013216573
000120 28 d3 47 bd ed 68 f4 bd 74 ca 7d 3c cb 19 53 bd
       -0.04878536 -0.119340755 0.015490163 -0.05153827
000130 41 61 05 bd 97 25 1a bd 9c 77 f7 bd 15 a9 2a 3e
       -0.03256345 -0.037633505 -0.120833606 0.16666062
000140 47 21 19 3d 21 90 ac bc 90 6b 56 bd 85 91 11 3e
       0.03738525 -0.02106482 -0.052348673 0.14215668
000150 90 fc 30 3e 88 25 84 bd 44 41 1d 3e ee d0 e9 bc
       0.17283845 -0.06452471 0.15356928 -0.028542008
000160 20 38 24 be 07 97 b1 bc b6 84 99 3d 2a 8b 16 b9
       -0.16037035 -0.02167846 0.07496016 -0.00014356957
000170 8b d5 22 be 6d 84 a2 be 99 2a a2 3d de 2b 34 bc
       -0.15901773 -0.31741658 0.07918281 -0.010996787
000180 57 dd 0b be 2b 25 92 be 32 90 d7 bd 6a 09 ca 3c
       -0.13658653 -0.28543982 -0.1052555 0.024662692
000190 eb 58 5d 3e de 9c 72 be 11 81 7c bd 90 3b e2 3c
       0.21615951 -0.23692653 -0.061646525 0.027616292
0001a0 03 4c 59 3a 54 e5 0a 3e 23 16 d8 bd 81 71 86 be
       0.00082892197 0.13564044 -0.10551097 -0.26258472
0001b0 93 db 68 3e da f3 97 3d 8f 2a 28 bd d7 87 0b bd
       0.22740011 0.07419558 -0.041056212 -0.034065094
0001c0 d4 a3 d1 ba f0 a7 77 bc 68 20 70 bd c3 f2 3d be
       -0.0015994259 -0.015115723 -0.058624655 -0.18549637
0001d0 28 c2 1e bd 2f 8e 92 bc df 6a 5b bd fc 6d 12 be
       -0.03875938 -0.017890064 -0.053568717 -0.14299768
0001e0 11 8f 09 3e 13 28 b0 bd 44 13 58 3e 19 1e 20 bd
       0.13433482 -0.086013936 0.21101099 -0.039091203
0001f0 1a f6 ea 3c 18 8d 8f ba 4c d3 96 3d 7d ea 15 3d
       0.028681803 -0.0010952083 0.073645204 0.03660058
000200 f6 5b 03 3e 8e b3 6d bd cc 80 95 3c e4 92 f9 3c
       0.12828049 -0.058032565 0.018249892 0.03046555
000210 10 11 79 bd 9d b8 3f bd dd 78 de 3d e3 50 44 be
       -0.060807288 -0.04680692 0.108628966 -0.19171481
000220 0e c5 8c 3d ac 7b cf 3d 5f 27 59 3d 47 e0 05 bd
       0.06873523 0.101310104 0.053016063 -0.03268459
000230 3b 43 db 3d 3b 05 c0 3b 54 78 32 bc 18 e1 f7 3b
       0.107061826 0.0058599985 -0.010892946 0.007564675
000240 15 9f 9b bd ff 48 38 3d 2e 02 e9 bd 7f 45 79 be
       -0.07598702 0.04499149 -0.11377369 -0.24342917
000250 a5 48 1b bd e2 5a e8 bb 97 f3 ac bc c9 70 b6 3d
       -0.037911076 -0.007090912 -0.021112246 0.08908231
000260 28 f0 2c 3c 36 11 9a 3c a4 47 c2 3d aa d8 9f bd
       0.010555305 0.018807035 0.094863206 -0.07804997
000270 80 37 d3 3d 7a fc 14 bd db 5f 03 be 69 d3 1a be
       0.1031332 -0.036373593 -0.12829535 -0.15119709
000280 ac c3 2c be 30 b1 20 3d 39 66 ff 3b 7e bc 02 3e
       -0.16871518 0.03923148 0.0077941683 0.12767217
000290 c0 fc 13 bd dc 33 37 3e 98 49 27 3d a7 04 e7 bc
       -0.036129713 0.17890877 0.04084167 -0.02820046
0002a0 00 40 73 3e ab 2e 34 bc 2f 06 29 bd bd c8 21 bd
       0.23754883 -0.010997455 -0.041265663 -0.03949808
0002b0 41 8b ef 3b ca d6 d9 3c 18 81 4c ba 3a fc 88 3c
       0.0073103015 0.026591677 -0.0007801219 0.016721833
0002c0 b0 9b 3e bc 26 69 a9 3d ad 68 15 3e 02 fd ab 3d
       -0.0116337985 0.082720086 0.14590712 0.08397867
0002d0 19 9b ed 3d e0 e5 86 bd ed 2d 84 bd 38 46 94 3c
       0.11601848 -0.06586814 -0.06454072 0.01809989
0002e0 3d d0 91 bd 6a cf f2 bc c0 b8 b8 3d ad ff 45 be
       -0.071197964 -0.029639918 0.09019613 -0.19335814
0002f0 e2 4d ab bc 52 26 ab bc 42 55 d6 bc af 15 eb 3d
       -0.02091116 -0.020892296 -0.026163701 0.11478745
000300 fc 3f 97 3d 8d e9 f6 3d 53 8d 7f 3e 9c 7d 0b bc
       0.07385251 0.12056265 0.24956255 -0.008513834
000310 d1 0d 78 3d fc 03 7d bd f5 2c 3d bc 12 1a ea bc
       0.06056005 -0.061771378 -0.011546363 -0.028576884
000320 23 fb 15 3b d0 f0 31 be 95 87 dc 3c fb e0 db 3c
       0.0022885285 -0.17377019 0.02692012 0.026840677
000330 04 e8 9e 3d fc 2d cb bd 23 aa 88 bd d4 c3 12 3e
       0.07759097 -0.0992088 -0.06673076 0.14332515
000340 1e fb d1 3c f9 4f 9c bb fa 1d 45 be 3a 83 a1 bd
       0.025632437 -0.0047702757 -0.19249716 -0.078863576
000350 7c af a6 3d 0f 33 ef bc ab f7 cb 3d 74 82 f7 3b
       0.0813894 -0.029199151 0.09959348 0.007553393
000360 93 46 f3 3d 2e 64 2b b9 fe 6f 94 3c 55 00 e4 bd
       0.11878695 -0.0001634515 0.018119808 -0.11132876
000370 22 72 15 be d3 50 3d be 51 01 0e bc e5 09 0e 3d
       -0.1459432 -0.18487863 -0.008667306 0.034677405
000380 da 5c 45 be 74 81 1e be 0c c9 3f bd 89 bb ea 3d
       -0.19273701 -0.1547907 -0.046822593 0.11461551
000390 56 b0 5f 3d 73 6a 88 be 71 e4 22 3e b2 db 50 3d
       0.054611526 -0.26643714 0.15907456 0.050990768
0003a0 44 6f 98 bd 5a 35 f1 3d 55 20 03 3d 2d 23 63 be
       -0.07443097 0.11777754 0.032013256 -0.22181387
0003b0 d2 6b e3 3d 29 00 28 bd 55 d8 97 bc ae 3f 12 3b
       0.111045495 -0.041015778 -0.018535772 0.0022315788
0003c0 a1 39 e2 3c 74 23 3a 3a 78 26 f4 3d eb b8 fc bd
       0.02761537 0.000710062 0.119214 -0.12339958
0003d0 25 f5 c7 bd b6 e2 76 bb 5a 80 c3 3d fc d4 2a be
       -0.097635545 -0.0037671751 0.095459655 -0.1668281
0003e0 2d db ee 3c ec 56 c0 3d 9d 69 3f 3e 11 2f c1 bc
       0.029157246 0.09391579 0.18692632 -0.023582013
0003f0 d9 99 b4 3d 02 64 f5 bd 6e 99 97 bb cc a7 20 3d
       0.088184066 -0.119819656 -0.0046264445 0.039222524

hidden_layers.1.bias f4 [64]
000000 c0 3e 66 3e db b0 43 3e 94 33 0d 3e fd cb 64 3e
       0.22484875 0.19110434 0.13789207 0.2234344
000010 e9 a4 92 3e f9 e4 1f be ab ec 01 3e c9 bf 9e 3d
       0.2864144 -0.1561469 0.12687938 0.07751424
000020 8e ce 23 3e 1f 81 43 3e 9d a4 b7 3c ae 15 08 3e
       0.15996763 0.19092225 0.02241736 0.1328952
000030 08 99 1c be 4c bb 6b 3e 28 d9 09 3e 59 56 e8 bd
       -0.15292752 0.23020667 0.13461745 -0.113445945
000040 6a ea d6 3d 10 7d 65 3e 40 c3 80 3e 2c 41 23 be
       0.1049393 0.22410989 0.25148964 -0.1594283
000050 77 23 0c be e7 47 8c 3e 4c 68 68 3e b5 4a 6b 3e
       -0.13685404 0.27398607 0.22696036 0.22977717
000060 1f c6 65 bd 2f ea 20 3e 6e a4 88 3e 11 7e 53 3e
       -0.056097146 0.15714334 0.2668795 0.2065356
000070 aa 3e 2d 3e d8 cb 88 3c b2 17 80 3e dc a4 87 3e
       0.16918436 0.016698763 0.25018078 0.26492965
000080 f1 fa 00 3e 2e b8 96 3e f0 60 88 3e 0e 95 9d 3d
       0.12595727 0.29437393 0.26636457 0.076944456
000090 c3 99 09 be c2 fc 29 3e 21 40 a5 3d 1d 2d 7c 3e
       -0.13437562 0.16600326 0.08068872 0.24626584
0000a0 ac be 88 3e b5 de 72 3e e2 d0 a3 3c 84 ba 7f 3e
       0.2670797 0.23717768 0.019997064 0.24973494
0000b0 f5 4a 95 3e d0 c7 2e 3e ed bd 87 3e 23 de 62 3e
       0.2915875 0.1706841 0.2651209 0.22155051
0000c0 c1 77 3b 3e f6 5b 88 3d 15 1c 09 3e a3 06 f9 3d
       0.18307401 0.06658165 0.13389619 0.12159469
0000d0 1c a5 26 be df f5 7f 3e ff b0 92 3e 85 26 77 3e
       -0.16273922 0.24996136 0.28650662 0.24135788
0000e0 ad 8d 2a 3e 26 6b 31 3e 01 a3 94 3e fc dd 85 3e
       0.16655608 0.1732603 0.29030612 0.26145923
0000f0 73 80 97 3e 29 35 64 3e b4 44 00 3e bd 15 32 3e
       0.29590186 0.22285904 0.12526208 0.17391105

output.weight f4 [4, 64]
000000 53 73 4d 3d 8a e7 20 3d 38 85 22 3d e0 1a bc 3d
       0.05015881 0.039283313 0.03967783 0.091848135
000010 3a 6f 6f 3d 82 2f 96 bc 85 db 2b 3d 08 6c 82 bd
       0.058455683 -0.0183332 0.041957397 -0.063682616
000020 98 4d 32 3d 67 5b 4f 3d 3f ce 94 3d b1 3d 18 3d
       0.04353103 0.050624277 0.07265901 0.03716821
000030 e5 47 8e 3c eb 0f 2c 3d 10 db 40 3d e5 ae 3b 3d
       0.017368266 0.042007368 0.047083914 0.04582109
000040 1a 57 ce bd e4 07 82 3d 88 1f c9 3d 81 9c b4 3c
       -0.10075207 0.06349161 0.09820467 0.022047283
000050 74 f9 26 bd dc 12 a1 3d de d9 4d 3d 18 0c 5d 3d
       -0.04076524 0.07864925 0.050256602 0.05396661
000060 48 f9 dd bd 71 89 88 bd 1f 1a 61 3d 7e 49 4a 3d
       -0.10838562 -0.0666684 0.05495655 0.049386494
000070 a3 0f 2a 3d 35 42 cf bd ec 16 82 3d 32 91 5e 3d
       0.04151882 -0.1012005 0.06352028 0.054337688
000080 21 6d 42 bd 30 3c 6e 3d b0 df 6e 3d 34 2d 54 bd
       -0.047467355 0.058162868 0.058318794 -0.05180092
000090 8a d3 7e bb 0b 92 0b 3d ed 67 8e bd 26 5b df 3d
       -0.0038883411 0.034074824 -0.06953416 0.10906057
0000a0 87 83 92 3d 6a 3e 5f 3d c2 c3 03 bd e1 9b 9a 3d
       0.07153993 0.054502882 -0.03216911 0.07549263
0000b0 0f 2c 82 3d ce 41 2d 3d ea c5 4f 3d 6c 54 78 3d
       0.0635606 0.042299084 0.050725855 0.060627386
0000c0 9b 35 30 3d 5b 65 3d bd 67 b8 ae bd a8 ea 28 3d
       0.043019872 -0.04623924 -0.08531266 0.04123941
0000d0 b1 6d af bd f2 21 18 3d f0 9b 97 3d 93 91 4f 3d
       -0.08565844 0.037141748 0.074027896 0.05067594
0000e0 08 35 45 3d d5 23 23 3d 99 8d 73 3d 49 9d 65 3d
       0.048146278 0.039829094 0.05946121 0.056058202
0000f0 c5 06 86 3d ad 5e 31 3d 28 10 2e 3d 2e 3a 0c 3d
       0.0654426 0.04330318 0.042495877 0.034235172
000100 10 c4 0d 3d 42 f9 ef 3c fe ac 65 3c a8 40 de 3d
       0.034610808 0.02929366 0.014018295 0.10852176
000110 83 d3 92 3d 1a ca 8b 3c 29 6d 8b 3d c8 a9 96 39
       0.07169249 0.017064143 0.0680793 0.00028736726
000120 21 42 cf 3c f5 ca 73 3d f4 9b bd bd 2f 8f d7 3c
       0.025300087 0.059519727 -0.09258261 0.026313392
000130 a2 56 a2 3d 27 cc 5e 3d 67 36 9c 3d 29 02 8b bd
       0.0792668 0.054393914 0.07627564 -0.067875214
000140 d9 c1 3f bd bc 9e 33 3d 4f 26 8c 3d d3 f2 e4 3c
       -0.046815727 0.043852553 0.06843244 0.027947819
000150 15 f4 59 bd b7 1f 46 3d b3 3d 26 3d 7e c6 54 3d
       -0.05321129 0.04837009 0.040586185 0.05194711
000160 92 e7 80 bd 2b 96 92 bc 3e e0 7f 3d 59 3c 79 3d
       -0.062941685 -0.017893871 0.062469713 0.060848568
000170 28 73 21 3d 4a b4 a4 bd 59 1a 8c 3d 39 2e 41 3d
       0.039416462 -0.080422 0.06840963 0.047163222
000180 46 8f a5 bc ab b4 79 3d 56 af 82 3d 3c ac c7 3c
       -0.02020992 0.060963314 0.06381099 0.02437412
000190 dd 14 6d bd 9f 24 18 3d 1c d9 22 3b c4 05 c2 3d
       -0.057881225 0.0371443 0.0024848646 0.09473756
0001a0 ea 0c 79 3d e3 45 c7 3d b5 c0 d8 3c 82 eb ba 3d
       0.06080333 0.09730127 0.026459077 0.09126951
0001b0 b0 f9 66 3d 38 fd 42 3d e1 cc 84 3d 59 c1 fe 3c
       0.056390464 0.04760477 0.0648439 0.031098055
0001c0 a7 75 26 3d b6 85 20 bc b2 36 b4 bc 10 77 9f 3c
       0.040639546 -0.009797504 -0.021998737 0.019465953
0001d0 84 19 82 bc 35 49 67 3c 5e 47 88 3d 33 70 1e 3d
       -0.015881307 0.014116575 0.06654237 0.03868122
0001e0 33 a8 36 3d 18 96 dc 3c d4 72 81 3d 86 1e 82 3d
       0.044594 0.026927039 0.0632073 0.06353478
0001f0 47 73 65 3d 0e d9 78 3d 6e 3f 62 3d e1 31 ce 3c
       0.05601814 0.060753874 0.055236273 0.025170268
000200 dd ba 58 3d 9a 72 77 3d 27 0a 4d 3d 32 a6 87 3d
       0.05291258 0.060412027 0.05005851 0.06623496
000210 65 fa 81 3d c0 97 63 3d ea 1d 5b 3d 23 f2 08 bd
       0.06346587 0.055564642 0.053495325 -0.033434045
000220 f3 60 34 3d a9 40 82 3d 2e 05 52 be a7 61 43 3d
       0.04403777 0.06359989 -0.20509788 0.04770055
000230 8f eb cc bb 81 20 a8 3d b1 a0 6a 3d fa bf a8 3b
       -0.0062536667 0.08209325 0.057282154 0.0051498385
000240 c7 0c bd bc e5 fc ce 3d 82 21 6a 3d e2 2c 33 bd
       -0.023077382 0.101068296 0.05716086 -0.043743975
000250 47 f8 b9 3c ed ca 1b 3d 19 ce 6b 3d d8 ec 26 3d
       0.022701396 0.038035322 0.057569597 0.040753216
000260 9e 01 50 be 93 b4 62 bd 83 e6 e2 3c ca ae 15 be
       -0.20313117 -0.05534799 0.027697807 -0.14617458
000270 5e d9 86 3d 25 67 55 be 9b af 39 3d 2e 98 3d 3d
       0.06584428 -0.20840128 0.045333486 0.046287708
000280 15 a4 aa bc 6d 5f 05 bd c4 ac 16 3d f4 66 c2 bc
       -0.020830194 -0.03256171 0.036785856 -0.023730733
000290 b6 98 77 3c ec c6 3f 3d 16 f7 14 bd ad ed 06 3e
       0.015112093 0.046820566 -0.036368452 0.13176604
0002a0 21 dd 09 3d d4 b6 64 be 53 80 2d 3d 43 ea 2f 3d
       0.03365815 -0.22335368 0.042358708 0.04294802
0002b0 55 16 84 3c e0 64 47 3d 53 84 a0 3c 37 4e a7 3d
       0.01612393 0.048680186 0.019594347 0.08169215
0002c0 65 a7 9e 3c 77 02 03 be c0 34 5a bd ff 26 5c 3d
       0.01936693 -0.12793909 -0.053272963 0.053748127
0002d0 46 62 28 bd 92 93 14 3b 14 fb 97 3c 39 27 71 3d
       -0.041109346 0.0022670967 0.01855234 0.058875296
0002e0 89 ca 67 3d 6f 8b 30 3d 79 6e e3 3c ed ed a3 3c
       0.056589637 0.043101724 0.027762638 0.020010913
0002f0 0a e1 ee 3c 22 60 23 3d 4a 76 87 3d 9c 38 d5 3c
       0.029160041 0.0398866 0.06614359 0.02602797
000300 ec b4 2f bd 40 ca 3f 3d d7 7a 69 3d d4 ff c1 3d
       -0.04289715 0.04682374 0.057001915 0.094726235
000310 bb bf 39 3c 14 f3 6e 3c 7f d2 91 3d 54 a5 57 bd
       0.011337216 0.0145843215 0.07120227 -0.052647904
000320 09 83 60 3d f9 ed 84 3d ff 60 7d bd e0 16 78 3d
       0.054812465 0.06490702 -0.06186008 0.06056869
000330 15 92 bd bd 55 77 88 3d f0 35 69 3d 59 cb f6 3c
       -0.092563786 0.06663386 0.056936204 0.03012626
000340 47 46 a0 bd b1 a9 ab 3d ae a2 78 3d 75 f8 53 3d
       -0.07825904 0.083819754 0.06070202 0.05175062
000350 31 e8 d5 3d 15 9c fa 3c 0e ea 76 3d fe 11 36 3d
       0.104446776 0.030592004 0.060281806 0.044450752
000360 8d 9e ef bd 63 d6 0a bd fa c3 7c 3d 5a ee 61 3d
       -0.11700163 -0.03389586 0.061710335 0.05515895
000370 ac ec 6e 3d 00 88 91 bd 97 7c da 3c ff 5b 1d 3d
       0.058331177 -0.07106018 0.026670737 0.038417812
000380 93 70 a3 bc 09 45 ad 3c ee 0b 8c 3c 2e dd 1c bd
       -0.01995114 0.021151083 0.017095532 -0.03829687
000390 9f cf bb bd 8a cc 32 3d 8a 28 ee bc 74 27 e8 3d
       -0.0917046 0.043652095 -0.029072065 0.1133565
0003a0 ec 2f 06 3d a3 4f b1 be 12 ea b7 3c b9 ba 8d 3d
       0.032760546 -0.3463107 0.02245048 0.0692038
0003b0 dc be d4 3a 08 09 49 3d 1a 0f 1a 3d 5a e9 8e 3d
       0.0016231197 0.04908088 0.03761206 0.06978102
0003c0 c8 37 71 3d 99 cf 91 3d 0b 26 7b bd c8 14 83 3d
       0.058891088 0.07119674 -0.061315577 0.06400448
0003d0 8c b3 67 3d 07 fd 44 3d 04 1a 45 3d 7b de 7c 3b
       0.056567714 0.04809287 0.048120514 0.0038584757
0003e0 f8 57 33 3d 94 47 32 3d b9 2b 98 3c 50 09 8f 3d
       0.043785065 0.043525293 0.018575536 0.06984198
0003f0 2a 84 91 3c 11 62 7e 3d f4 2e 54 3d 42 7b 40 3d
       0.017763216 0.062105242 0.05180259 0.046992548

output.bias f4 [4]
000000 77 4b aa 3f b0 f2 99 3f 3f eb a2 3f 81 72 a2 3f
       1.330428 1.2027187 1.2728041 1.2691194
