experiments/navigate_1466_18Oct22075927.pth (torch_old, 54660 bytes, 6 tensors)

hidden_layers.0.weight f4 [128, 37]
000000 d6 b7 47 3e a1 0a bc be 85 83 b2 be fa 9e b2 be
       0.19503722 -0.3672686 -0.34865966 -0.34886914
000010 1b 5f 8d bf 20 b6 38 bc 8e 05 6a 3c 04 7c ff 3d
       -1.1044649 -0.011273891 0.014283551 0.12474826
000020 3c c6 16 3e 21 8d 33 3e 37 6b 70 bd c8 34 8d bd
       0.14724058 0.17534305 -0.058695998 -0.06894833
000030 9f e2 e4 bd 61 84 a2 bd 7b e8 e2 3b ee de d6 3c
       -0.11176037 -0.079354055 0.0069246865 0.026229348
000040 fb e1 8d 3d b0 c4 b5 3c 57 06 ab bd 9b 6f 04 be
       0.06927868 0.022188514 -0.083508186 -0.12933199
000050 1a 6f ac 3d 07 d9 7a 3d f0 f2 df 3d ea c3 23 3d
       0.084196284 0.06124213 0.109350085 0.03998176
000060 96 7c f9 ba f7 de e5 3a e5 0d 87 3b 5f d6 ee 3c
       -0.0019034322 0.0017537762 0.0041215294 0.029154954
000070 c8 9a 25 bc c5 72 1a 3d 77 a8 bb bc 42 cf 29 3d
       -0.0101077035 0.03770711 -0.022907479 0.041457422
000080 cf b1 db 3a 7e 75 0d 3d 14 99 29 bd 61 39 b5 bc
       0.0016761365 0.034535877 -0.041405752 -0.022122087
000090 dc 99 43 3c f2 f0 97 3d 12 15 c3 3d 1c 1f da 3d
       0.011938538 0.074190035 0.09525503 0.10650465
0000a0 4a 86 c3 3d 13 65 90 3c 17 e4 e2 3d 14 45 07 bf
       0.09547098 0.017626321 0.11078661 -0.5283978
0000b0 c3 e8 ca be b4 e9 ec be 66 85 bd bf 3d c5 96 3c
       -0.39630708 -0.4627205 -1.4806335 0.018404597
0000c0 f7 57 41 3b 7c f2 0d 3d 5e df 8b 3c d9 c3 9f 3d
       0.0029501894 0.03465508 0.017074283 0.07801027
0000d0 51 13 fb 3c fe d9 9b 3c 83 b4 b4 3d 57 eb 82 3d
       0.03064886 0.019024845 0.088234924 0.06392544
0000e0 96 71 46 3d fe 56 98 bd cf f2 9d bd 1f 65 b5 bd
       0.048448168 -0.074384674 -0.07712328 -0.08857178
0000f0 0d bb 6e bd ee 40 4b 3d 90 ea 9a bc 5d 11 0e bd
       -0.058283854 0.04962247 -0.018910676 -0.034684528
000100 8a 03 ab bc c1 f0 ab 3c 36 03 cd 3d 53 74 4c 3d
       -0.020875711 0.020988824 0.10010378 0.049915623
000110 2e da c4 3d 74 2f d0 3d bd ca df 3d a0 f5 5d 3d
       0.09611927 0.10165301 0.10927341 0.054189324
000120 c9 75 25 3b af 14 65 3a 6a bb d3 3d 8e 35 e8 3d
       0.0025247207 0.0008738739 0.10338481 0.1133834
000130 8d eb 35 3d 01 f9 c4 3d c6 83 c4 3c ea f4 db be
       0.04441409 0.09617806 0.023988616 -0.42960292
000140 9b 4e 25 3e 32 94 71 3e d9 19 84 3e 4c 68 85 be
       0.16143267 0.23591688 0.2580097 -0.26056135
000150 55 b6 39 bc 97 04 2d bc 1f 2d 4e 3d 21 a0 82 bc
       -0.011334975 -0.010560176 0.050336 -0.015945496
000160 4b ef fb bc 87 5f 6d bd 52 54 85 3d ab 43 a1 3d
       -0.030753752 -0.05795243 0.065102234 0.07874235
000170 88 64 ef 3d 36 fc f1 3d c2 58 0f bf 51 0d fc 3d
       0.11689097 0.118156835 -0.5599481 0.123072274
000180 9a dd 71 3d 5e 2f 35 3d a4 af 8a be 1f ce 10 bc
       0.059049226 0.044234626 -0.27087128 -0.008838206
000190 27 2d 2e 3d da 61 bd 3d 42 1f 67 3d 74 64 22 3e
       0.04252353 0.09247179 0.056426294 0.15858632
0001a0 8e 4e 3b be 90 68 35 bb e3 10 7d ba a3 a6 ce bc
       -0.18291685 -0.0027680732 -0.00096537004 -0.025225943
0001b0 7d 88 1c 3e 42 aa ac 3a 55 4b 2b bc 2f 30 a1 3e
       0.15286441 0.0013173299 -0.010454972 0.31482074
0001c0 4a 1a b4 be 59 bc 76 be ae 38 47 be ee 0f 96 bf
       -0.35176307 -0.24095286 -0.19455215 -1.1723611
0001d0 f6 fa 2c bd d7 a7 91 3c 85 7e 05 3d 7b e6 c9 3d
       -0.042231523 0.017780228 0.03259136 0.09858414
0001e0 e3 c0 05 3e 75 24 4b bd 28 4b 39 3d 5c 7f c8 bd
       0.13061862 -0.049595315 0.04523769 -0.09789917
0001f0 ad b4 81 bb da a0 e4 bd 76 9f a6 bc 22 19 b4 3c
       -0.003958306 -0.111634925 -0.020339709 0.02198464
000200 d3 78 c8 bd 1f 01 49 be c2 96 b8 be 87 43 2d 3d
       -0.097886704 -0.19629334 -0.3605252 0.042300727
000210 1d cf 31 bd 55 09 00 bb 01 ed 5b 3d 19 2d 52 3d
       -0.04341041 -0.0019536812 0.05369282 0.05131254
000220 53 5d b8 bc c5 de 80 3c 5a d0 10 3d a4 30 0e 3e
       -0.022505438 0.015731225 0.03535495 0.13885742
000230 8e c3 0c 3e eb 17 ad 3d a1 45 e9 3d c3 09 02 3d
       0.13746473 0.084518276 0.11390234 0.03174759
000240 f5 d9 5c 3c 8d 65 00 3c 5e 58 c6 3c ad 25 32 3c
       0.013479699 0.007836712 0.024212059 0.01087324
000250 67 72 65 be bd 82 86 b9 39 59 55 be 3b 92 7c be
       -0.22406922 -0.0002565588 -0.20834817 -0.24665157
000260 8f bd a2 be b6 09 42 be d7 61 10 3d 1e 33 83 3c
       -0.31785247 -0.18949017 0.035249557 0.016015586
000270 ce 8f 45 be 0d 7e 55 bf dd b7 ae bd 32 7c 42 be
       -0.19293138 -0.83395463 -0.08531163 -0.18992689
000280 b5 b3 e3 bc f7 e8 78 be 94 04 d1 bd 1f a8 fb be
       -0.027795652 -0.24307619 -0.10205951 -0.49151704
000290 bf 76 5f 3c f7 8d 81 3d 9a 35 4b be 90 1b 1a bf
       0.013639151 0.06325906 -0.19844666 -0.6019831
0002a0 c5 56 3b be ec 94 d0 bd ff bf a5 3d 37 16 70 be
       -0.18294819 -0.101846546 0.08093261 -0.23445974
0002b0 79 ef 42 3d d4 aa 65 be 7b 8e 38 be 77 9e 59 3e
       0.04759166 -0.22428447 -0.18023102 0.21251856
0002c0 a1 69 6f bd e3 88 8d bf cb 97 8d bd 09 b0 a8 be
       -0.058450345 -1.10574 -0.06913718 -0.32946804
0002d0 d6 bb db 3d 80 22 97 be 06 7a 13 be bd 3d 0c 3e
       0.10729186 -0.2951851 -0.14402017 0.13695426
0002e0 a0 f1 32 3d 4d 9f eb 39 74 f8 57 bd f5 f7 f0 bc
       0.043687463 0.0004494138 -0.052727178 -0.02941511
0002f0 48 46 3a bc 81 5a 99 3d 2d 30 5d 3e 9d 07 dc bd
       -0.011369295 0.074879654 0.21600409 -0.107436396
000300 9b 6f 75 be 45 34 88 be 9d 0e d5 bf 13 c9 ce bc
       -0.23968355 -0.26602378 -1.6645085 -0.025242364
000310 02 45 38 bd 35 fe ac bd 5e b5 ec bd 28 05 de bc
       -0.044987686 -0.08446924 -0.115580305 -0.027102068
000320 3c 38 f6 bc 80 e8 2d 3c b2 ee 4a bc 02 cc 2a 3c
       -0.030056112 0.010614514 -0.012386011 0.010424616
000330 fb 71 68 3b c9 d9 04 3e c0 2e 9b 3d 52 3f a2 3d
       0.0035468328 0.12973703 0.07577276 0.07922234
000340 64 39 4c 3d 46 ae 4e 3c 24 ee ec bb 25 36 21 3c
       0.04985942 0.012614792 -0.007230537 0.009839569
000350 9d 66 00 bc 86 a7 85 3c 64 03 af 3d f2 be 83 3d
       -0.007836965 0.016315233 0.085455686 0.06432904
000360 6c b4 ee bd 79 10 04 be 9c c6 71 3d c9 67 31 bf
       -0.116555065 -0.12896909 0.0590273 -0.6929899
000370 f4 77 37 3c 3b 9f 9b bb 54 fa 75 bd b2 39 26 bd
       0.011198033 -0.0047492064 -0.060053185 -0.040582366
000380 b1 97 0b 3c b0 38 06 bd d0 66 3c 3d cc 1d e5 be
       0.008520053 -0.032768905 0.045996487 -0.44749296
000390 b3 3b d9 3d ce a6 29 3d 34 41 33 3e 42 f0 52 3e
       0.1060709 0.041418843 0.17505342 0.20599464
0003a0 71 2b 94 3c e1 59 f6 3d 09 cc 3d 3d e1 56 00 bd
       0.01808712 0.12028862 0.04633716 -0.031332854
0003b0 c1 66 15 bd 02 13 8a bd fb 31 f1 bd 92 f4 ae b9
       -0.036474947 -0.06741907 -0.11777111 -0.00033370085
0003c0 f7 b0 1a bd 4f d0 8b 3e 65 83 65 be 0c 2e cd bb
       -0.037766423 0.27307364 -0.22413404 -0.0062615927
0003d0 f4 c7 71 3d eb f3 81 bc 7d cc dc 3d 00 bb 9c be
       0.05902858 -0.01586338 0.107811905 -0.3061142
0003e0 6c 6f 36 bb 34 47 ea bc e6 ac c7 3c b8 46 26 3e
       -0.0027837409 -0.028598405 0.024374437 0.16237915
0003f0 3d bc 97 be d6 c2 fa 3d ac 00 ec 3d bd 03 eb 3d
       -0.29635802 0.12244193 0.11523566 0.114753224

hidden_layers.0.bias f4 [128]
000000 a2 ae cc 3b 04 fd 24 3d 75 dd 7f bd 36 f9 35 bd
       0.006246404 0.040280357 -0.062467057 -0.04442712
000010 7c 29 a8 bd 20 22 e0 bd 9a 18 a2 bc ab 3b 60 3d
       -0.082110375 -0.10944009 -0.019787122 0.054744404
000020 e2 e6 48 be d3 f0 a8 bc 8d a9 17 be 8b c2 cb bd
       -0.19619325 -0.020622646 -0.14810772 -0.099492155
000030 f0 35 e3 bd 6d 9a 17 be 40 76 d3 bd 36 80 5e bd
       -0.11094272 -0.14805003 -0.10325289 -0.05432149
000040 90 73 56 bd bf 24 17 be ab 3d ca bd 60 2a 13 bd
       -0.052356303 -0.14760111 -0.098750435 -0.035929084
000050 b7 d6 43 be 9f d5 33 3d c2 e0 ad 3d e2 c6 a2 bd
       -0.19124876 0.043904897 0.08490135 -0.0794809
000060 9d e2 9e bd b3 73 fb 3d 41 b0 95 3d 34 62 43 be
       -0.07758067 0.12277927 0.073090084 -0.1908043
000070 a4 a3 f1 bd 42 8e 25 be 88 5a 6a 3d 23 c2 9f 3d
       -0.1179879 -0.16167548 0.057215244 0.078007005
000080 fc 43 94 bd de dc 31 3c fc 3f 29 bc 68 66 92 be
       -0.072395295 0.0108558815 -0.0103301965 -0.28593755
000090 ea 6c 6e bd 4e 3e 25 bb ee cf d8 bd 61 1a 1b 3d
       -0.058209337 -0.0025214138 -0.105865344 0.037866954
0000a0 e1 ba ae bc c5 98 6f 3d 82 fa ec 3d 34 8e a7 39
       -0.021329345 0.0584953 0.11571218 0.00031958672
0000b0 e6 bf bf bc f4 bd 53 be 43 11 1d 3d 72 a1 0d be
       -0.023406934 -0.2067793 0.03834654 -0.13831118
0000c0 77 a4 70 be b9 e0 9a 3d 58 8a dc bc 9c c0 f2 bb
       -0.23500238 0.07562394 -0.026921436 -0.0074082147
0000d0 94 8e 1b bd 96 59 ad 3c 18 f6 06 bd 71 b9 93 3c
       -0.03797777 0.021160882 -0.032949537 0.018032761
0000e0 c8 40 2a be 70 a4 c5 bd a2 65 ef 3b 18 2a f2 bd
       -0.16626275 -0.096505046 0.0073058167 -0.11824435
0000f0 95 56 4f be b1 9a b1 bc 5f 56 38 3d 08 a0 c6 bd
       -0.20247872 -0.021680208 0.045004245 -0.09698492
000100 12 e6 e2 3d 79 7c 30 3d 3d 14 a1 bd 50 ce fb bd
       0.11079039 0.043087456 -0.07865188 -0.1229521
000110 ce 46 18 be b6 d7 ea bd 6a d4 b5 bb 99 1e ae bd
       -0.1487076 -0.11466925 -0.0055490034 -0.0850193
000120 54 20 ee 3c 1e d1 1d be 09 fb 4c be 3f 90 a1 bd
       0.02906815 -0.15411803 -0.20017637 -0.07888841
000130 d2 07 b0 3d 93 ce 1e be 44 69 b5 3c 0b 1b a7 bd
       0.085952416 -0.1550849 0.022144921 -0.08159455
000140 d5 ba ee bd da 3a a5 bc 89 ea fe bb 3e 3c e2 bd
       -0.11656729 -0.020169664 -0.0077794236 -0.110466465
000150 6b bf f4 bd d2 2d 20 3e bc c6 c8 bb a2 47 32 be
       -0.119505726 0.15642479 -0.0061272066 -0.17410138
000160 ea 31 d9 bb a3 51 a2 3c ad 88 af 3d 9c d1 44 be
       -0.0066282647 0.019814318 0.08570991 -0.19220585
000170 30 75 12 be 23 54 5c be 8b 83 ca bd ad d9 6f 3d
       -0.14302516 -0.2151647 -0.09888371 0.0585572
000180 13 81 d9 bd 94 62 58 be 77 51 82 bd 5f 87 ea 3d
       -0.10620322 -0.21131355 -0.063631944 0.11451601
000190 05 70 54 be 0a 53 82 be 7e 91 48 3d 4f d3 03 3e
       -0.20745857 -0.2545398 0.048966877 0.12873577
0001a0 39 c8 9d be 80 3c 03 be c1 3e 48 be 4d 40 b4 3d
       -0.3081682 -0.12816048 -0.19555189 0.08801327
0001b0 07 75 49 be c9 1e e4 bd 78 42 cd 3d 33 b3 45 bd
       -0.19673549 -0.11138684 0.100224435 -0.0482666
0001c0 cf 93 e0 bd 52 6d 12 be 16 0b b9 bc 44 29 93 3d
       -0.10965692 -0.14299515 -0.022588294 0.07185605
0001d0 39 c7 01 be 22 3d 9b 3d 5f 32 b0 bc 0d a3 08 be
       -0.12673654 0.075800195 -0.021508394 -0.13343449
0001e0 b6 a7 b9 bd 54 c6 c4 3c b4 69 96 bb 81 38 73 be
       -0.090651914 0.024020351 -0.0045902375 -0.23752023
0001f0 78 ef f8 bd 0e 02 a7 3c bb 92 7c 3d a7 5d 4b bd
       -0.1215505 0.020386722 0.06166337 -0.04964986

hidden_layers.1.weight f4 [64, 128]
000000 94 33 1b bd 00 fd 85 bd 52 43 c1 be 21 57 a5 3d
       -0.037890986 -0.065423965 -0.37746674 0.08073259
000010 2c 74 0c 3e 70 c8 c5 3d fa 29 23 be f4 98 12 be
       0.13716191 0.09657371 -0.15933982 -0.1431616
000020 99 cb be 3d 41 10 2d bc 1b 40 91 bd 04 7b ae 3b
       0.09316177 -0.010562957 -0.07092305 0.005324723
000030 f5 4f c2 be 46 2e 9b 3d 7b 98 7e be 8b 89 46 3d
       -0.37951627 0.07577185 -0.24862854 0.048471015
000040 dc 20 c1 be 4c b8 66 be fc 7c 70 3b 86 69 8b 3d
       -0.37720382 -0.22531241 0.003669559 0.068072364
000050 da 34 51 3e 53 12 1c 3d 41 cf 80 3b 77 22 1e be
       0.20430318 0.038103413 0.0039309566 -0.15442835
000060 58 10 38 bb c1 56 f6 3c 7f da 01 be 34 5e 4c be
       -0.0028085914 0.030070664 -0.12681006 -0.1995781
000070 af d6 47 bc dd fb aa 3d cf 1f ed be d9 26 92 3d
       -0.012197181 0.0834882 -0.4631333 0.07136316
000080 ce 65 0a be bf 3b bb bd 1b 9a 5c be ae ea 3f bd
       -0.13515398 -0.09142255 -0.21543162 -0.046854667
000090 c9 cc 8d bc 54 b0 82 bd d0 50 a4 be 3d a2 4a bc
       -0.017309563 -0.06381288 -0.32092905 -0.012367782
0000a0 a2 9a 7c bd be e0 d4 bd c5 e9 06 bd dd a6 7b 3c
       -0.061670907 -0.10394429 -0.032937784 0.0153596075
0000b0 4e 1f 28 3d c1 43 97 3b 9f 58 88 bd 16 5f 30 bd
       0.04104548 0.004616231 -0.06657528 -0.04305943
0000c0 e8 24 90 bd 23 99 22 bc db 30 d2 bd b0 61 97 3d
       -0.07038289 -0.009924206 -0.10263225 0.07391679
0000d0 1f 1b 8b bd be 6d 0f 3a 73 2f 97 be 98 13 bd 3d
       -0.06792282 0.000547137 -0.29528388 0.09232253
0000e0 6a c0 c0 3d 2c 3a b1 3d e6 dd 13 3e 12 dd 8d 3d
       0.094117 0.086536735 0.14440116 0.069269314
0000f0 87 40 b1 bd 83 44 e2 bc aa 0f 88 be 8f d0 8a 3d
       -0.08654886 -0.02762056 -0.2657445 0.06778061
000100 ef aa 13 3d 50 6f c7 3d 43 4d b1 bc b2 52 0e bf
       0.036051687 0.09738028 -0.021643287 -0.55594933
000110 4b a4 aa 3d 1f 0e 0e bd 27 47 ee 3c 7d 27 2d bd
       0.08332118 -0.034681436 0.029086662 -0.042273987
000120 66 2e 71 be 5a e9 e7 bd 40 17 de bc 23 eb 68 3d
       -0.23552856 -0.11323805 -0.027110696 0.05686487
000130 6a 5e 10 be 9a 28 b3 bd 81 a4 de bd 44 49 03 3e
       -0.14098516 -0.087479785 -0.108712204 0.12820917
000140 81 4f 8a bb 1d cc 39 be 34 38 06 bd 46 7b 25 3d
       -0.0042209034 -0.1814427 -0.032768443 0.040400766
000150 31 1a 46 bc b6 bf 52 3c 76 43 ee be b1 2b 51 3d
       -0.012091205 0.01286309 -0.46535844 0.051067058
000160 8d e9 4a bc a8 e4 fe bc 19 3b 44 3a 05 52 b3 3a
       -0.012384784 -0.031114891 0.0007485613 0.001368106
000170 b7 a0 4e 3c 26 bf 51 bc be b7 4e 3d ee 57 5d bc
       0.01261156 -0.012801921 0.0504682 -0.013509734
000180 9f 76 7f be 79 39 bf 3d 01 6a 2d be 19 2c 07 bd
       -0.24947594 0.09337134 -0.16934969 -0.03300104
000190 76 05 6d be c1 96 8d 3d 73 eb 77 bd 27 5e 1d 3d
       -0.23146614 0.0691352 -0.060527276 0.03841987
0001a0 ae 56 20 3d 53 c6 12 bd 44 cd ac bc 8b 2e b7 be
       0.039145164 -0.035833668 -0.021093972 -0.35777697
0001b0 e1 2f a2 3d 56 8c ad bc 62 83 37 be 8f d4 24 bd
       0.079192884 -0.021185081 -0.17921212 -0.040241774
0001c0 8a 01 71 3d b2 40 88 be f2 11 32 bc 8f 16 08 bf
       0.05883936 -0.2661186 -0.010868536 -0.5315942
0001d0 74 94 00 be bc b8 65 3d 6d 34 59 bc 4f 28 b1 3d
       -0.1255663 0.05608438 -0.013257128 0.086502664
0001e0 05 09 9c bc aa b6 c8 bd 7f 85 75 3c 9a 45 cf ba
       -0.01904727 -0.098004654 0.014985441 -0.001581359
0001f0 08 af 9f be 99 5a 8e 3d 27 6c 80 bc ca 7f be bd
       -0.31188226 0.06950874 -0.015676571 -0.093017176
000200 40 44 28 be 9c 15 1a bf cb c8 80 3c c4 7f 43 be
       -0.16432285 -0.60189223 0.015720746 -0.19091707
000210 bc 4f 57 3e a6 ce 86 be 53 6f f3 3c 03 50 82 be
       0.2102651 -0.26329535 0.02971617 -0.2545167
000220 57 80 2d 3e a7 90 6f be 80 f1 f5 be b0 4f 36 bf
       0.16943489 -0.23395024 -0.48035812 -0.71215343
000230 23 86 02 3d ea 49 8a 3b 61 da 03 bb 53 09 f2 bd
       0.031866204 0.004220237 -0.0020119178 -0.11818185
000240 7f 0f 55 bc 47 a7 f4 3c 2b cd 42 3c 09 6e d0 3c
       -0.013004183 0.02986492 0.011889736 0.025443094
000250 57 32 43 3e cd b9 a2 3c 32 ee 37 be 2e 67 26 bd
       0.19062172 0.019863987 -0.17961958 -0.040625744
000260 5f 91 46 bf 95 5f 39 bf 7f 18 a3 be be e9 7f bb
       -0.7756557 -0.7241147 -0.31854627 -0.0039049233
000270 0d b6 57 bc 90 07 36 be 65 ca 0e 3c ed 5f 05 3c
       -0.013165963 -0.17776322 0.008715247 0.008140546
000280 d4 87 e6 3b df df 24 be fd 76 00 bc 28 10 ad bd
       0.007035235 -0.16101025 -0.007840869 -0.08450347
000290 c1 6f 88 bb 10 94 de be 42 c6 2c bc ca 7a 7e be
       -0.0041637127 -0.43472338 -0.010545315 -0.24851528
0002a0 08 95 ec be 59 1d 84 be 97 af a6 bd 80 9e 03 bf
       -0.46207452 -0.2580364 -0.0813896 -0.51413727
0002b0 22 18 20 bc ff ed 8f 3c 66 f5 81 3d 3f 10 32 3e
       -0.009771379 0.01756954 0.06345634 0.1738901
0002c0 62 bf 5e ba c3 c5 3c be ef 92 59 bc 45 c8 0e bf
       -0.0008497146 -0.18434815 -0.013279661 -0.5577434
0002d0 a1 4b f2 3c d8 07 1b bd 45 64 af 3b 02 f3 a0 be
       0.029577078 -0.037849277 0.005352529 -0.314354
0002e0 2f cb fa 3d a9 5b 0f 3e b3 fa 4e bf 2f 13 fd 3b
       0.122457854 0.1399981 -0.80851287 0.007723234
0002f0 6a ff 22 3e 08 23 85 be 22 b9 f7 bb 2b ed a8 be
       0.15917745 -0.2600329 -0.0075599113 -0.32993445
000300 77 ff 25 bf 55 c0 5c be ae 84 0f bc 75 69 20 3c
       -0.64842933 -0.21557744 -0.008759661 0.009790768
000310 5d 9f 83 3d d8 06 33 bd da 0d 70 bc 9e 50 b8 be
       0.064268805 -0.0437077 -0.01465174 -0.35999006
000320 f2 55 27 b9 55 b2 b2 3c 16 97 a3 3b 17 14 04 be
       -0.00015958378 0.021813551 0.004992376 -0.12898289
000330 44 f6 db be 7b 14 8f 3e 7c bb 92 39 a0 1d 5b bd
       -0.42961323 0.27945313 0.00027986977 -0.05349505
000340 9c b7 f2 be f4 89 a3 3a 7f 9f b4 3b d7 3b ba be
       -0.47405708 0.0012477026 0.0055121775 -0.3637378
000350 bd f3 47 3c b4 f7 5e bf af 70 e6 3b a2 e7 cd ba
       0.012204108 -0.87096715 0.007032476 -0.0015709291
000360 83 f9 7a be 28 7e 9b be 64 da 98 be 6f a8 b9 bd
       -0.24509244 -0.30369687 -0.2985412 -0.09065329
000370 61 5d 7a be aa c4 a8 bd 6d 17 13 bb ac b0 5c bf
       -0.24449684 -0.08240636 -0.0022444383 -0.8620708
000380 87 be 7b 3c 93 08 65 bd 19 6c f8 bc d7 bc 62 be
       0.0153652495 -0.05591638 -0.030324982 -0.22142349
000390 c1 fc b9 bc 3d 1f 15 3d c4 18 cb be 5a 4b 83 3e
       -0.02270353 0.036406744 -0.39667332 0.25643426
0003a0 1e f6 ac 3c 0b 08 65 be 38 65 a7 3c 08 2c 87 3c
       0.021113452 -0.2236635 0.020434007 0.016500488
0003b0 c5 e0 01 bb 7b b0 89 bd 1f ac bb 3b 31 f0 10 be
       -0.001981781 -0.06723114 0.0057273055 -0.14154126
0003c0 9b 4c ba bb 72 4f 14 bc 93 41 fe bd 16 73 f9 3a
       -0.0056854016 -0.009052144 -0.12414851 0.0019031491
0003d0 de ef 53 bc 0f de b7 be 07 aa 9e be dd 5e 49 3e
       -0.012935607 -0.35911605 -0.30989096 0.19665094
0003e0 81 f4 bf be 37 a6 70 be 33 27 f2 bd 85 9b 7f 3c
       -0.3749123 -0.23500906 -0.11823883 0.015601044
0003f0 d8 63 25 bc a4 a9 0f be da 82 6d 3c 6e 1c 14 bf
       -0.010094605 -0.14029557 0.0144965295 -0.5785588

hidden_layers.1.bias f4 [64]
000000 99 5c 85 3e dd 8c d6 3d 35 01 bb 3d 15 8c ef 3d
       0.2604721 0.10476086 0.091310896 0.116966404
000010 30 e5 8e 3e 43 2b 66 3e f1 06 ea 3d 5a 26 11 3e
       0.2790923 0.2247744 0.11427105 0.14174786
000020 b5 55 37 3e b4 36 fd 3d 04 7c 8f 3e e5 9e f6 3d
       0.17903788 0.123639494 0.28024304 0.120420255
000030 0c 98 5f 3e 7e c9 08 3e 60 29 de 3d 06 77 1a 3e
       0.21835345 0.13358113 0.108477354 0.15084466
000040 bf 7b e2 3d 48 cc e7 3d 9d 99 7b 3e 42 e1 19 3e
       0.11058759 0.113182604 0.24570318 0.15027335
000050 93 74 0a be 87 ae 7f 3e 66 3a 07 be 18 bf 7f 3e
       -0.13521032 0.2496892 -0.13205871 0.2497524
000060 57 c8 03 3e d9 fe 8f 3e 37 99 81 3e c5 8a 86 3e
       0.12869392 0.2812412 0.25312206 0.26277748
000070 4b 61 e7 3d be 8d e7 3d 8c 00 16 3e a8 18 3b 3e
       0.11297854 0.11306332 0.14648646 0.18271124
000080 c6 b8 0e bd 0c a2 88 3e 37 38 79 3e 7b 24 5d 3e
       -0.034844182 0.26686132 0.2433785 0.21595947
000090 0c 77 20 be 94 08 21 3e a7 c6 0b 3e b8 b7 55 3e
       -0.15670413 0.15725929 0.13649999 0.20870864
0000a0 77 93 2d 3e 07 c6 1e 3e a7 37 f8 3d 44 0f 83 3e
       0.16950785 0.15505229 0.1211999 0.25597584
0000b0 c0 b1 0d 3e 24 99 71 3e a4 5a 1a 3e 79 b1 f5 3d
       0.13837337 0.23593575 0.15073639 0.11996741
0000c0 8f 76 dc 3d f2 6d f8 3d bd c6 ec 3d ea 5b 01 3e
       0.10764801 0.121303454 0.11561344 0.12632719
0000d0 55 05 f4 3d 59 7f 71 3e 46 41 c2 3d 26 a1 d8 3d
       0.119150795 0.23583736 0.09485106 0.105776116
0000e0 c3 d5 19 3e f5 4a 83 3e f9 14 76 3e 52 7d d9 3d
       0.1502295 0.25643125 0.24031438 0.10619606
0000f0 70 79 da 3d ab 93 d0 3d a4 b7 e0 3d 50 ad 30 3e
       0.106676936 0.101844154 0.10972527 0.17253613

output.weight f4 [4, 64]
000000 71 fb 89 3d 2b 24 02 be 15 36 1a 3d fd 81 fd 3c
       0.06737412 -0.1270911 0.037649233 0.030945772
000010 54 ea 81 3d 8c 4f 41 3d f8 84 1d 3d 0a 74 0c 3d
       0.06343523 0.047195002 0.038456887 0.03429035
000020 68 59 28 3d a5 e4 ed 3c d9 ad 82 3d 68 ca 08 3d
       0.04110089 0.02903969 0.06380815 0.033396155
000030 37 43 4b 3d ee ff 0c 3d c9 50 ec 3c 1a dc f5 3c
       0.049624648 0.03442376 0.028847115 0.03001218
000040 6f cd e8 bd d8 5f 42 3d 4e fc b1 3d f5 4e 27 3d
       -0.11367308 0.047454685 0.086907014 0.040846784
000050 a0 ba 64 bd c2 12 68 3d 66 59 a1 3d 64 e1 e8 3d
       -0.055842042 0.056658514 0.078783795 0.11371115
000060 8f bc ad bd 56 0e be 3d 83 85 76 3d 2e 8b 8e 3d
       -0.0848323 0.09280078 0.06018592 0.0696014
000070 b1 20 09 3d 93 8a c6 bd 2b d4 3e bd 6c 70 1c 3d
       0.033478443 -0.096944 -0.046589058 0.03819315
000080 3e 72 8f bd 45 c8 65 3d 71 48 a1 3d ca 0c e1 bd
       -0.07004212 0.056099195 0.07875145 -0.109887674
000090 4d 7c 5c 3c 3c 76 19 3d 91 bc bb bd 97 73 43 3d
       0.01345737 0.037466273 -0.091668256 0.047717657
0000a0 68 5e 09 3d 98 72 b2 bd cc f2 d7 bd 7c f6 9d 3d
       0.0335373 -0.08713263 -0.10544357 0.07713029
0000b0 8f ff 9f bd 83 d4 63 3d 13 e4 12 3d 39 db 29 3d
       -0.07812416 0.05562259 0.03586204 0.041468833
0000c0 54 eb 0c 3d 26 7b 19 3d a2 58 c9 bd b7 3c 02 3d
       0.034404114 0.03747096 -0.098313585 0.031796183
0000d0 d1 25 e4 bd 0f 61 57 3d 8e 86 14 3d 81 26 ff 3c
       -0.111400254 0.052582797 0.036261134 0.03114629
0000e0 b9 9f 21 3d 76 0c 77 3d 19 42 4f 3d 4a 3a ea 3c
       0.039458964 0.060314618 0.050600145 0.028592248
0000f0 6c b8 0f 3d 0f 5d 02 3d d8 e9 fc 3c da 5c 1d 3d
       0.035087988 0.03182703 0.030873224 0.03841863
000100 3c 71 73 3d 1f 37 0a bd 7b 96 c2 3c f4 04 0c 3d
       0.05943416 -0.033743974 0.023753395 0.03418441
000110 07 0d 88 3d 7e 33 ba 3c c1 0b 1a 3d 34 bd f1 3c
       0.0664311 0.022729632 0.037608866 0.029509164
000120 c7 86 d8 3c e5 ca 3d 3d 46 64 5d 3d 1b 8f 14 3d
       0.026431454 0.046336073 0.054050706 0.03626929
000130 b1 2b 76 3d c8 9b 08 3d af cb e6 3c b4 f6 a7 3b
       0.06010026 0.03335169 0.028173296 0.005125845
000140 e6 f9 40 bd 45 9c 3b 3d e0 3a ce 3d 38 11 49 3d
       -0.04711332 0.045803327 0.10069823 0.049088687
000150 38 e0 7e bd 3c 54 81 3d a2 fd 6b bd 21 7e 0b 3e
       -0.06222555 0.063148946 -0.05761493 0.13622333
000160 40 89 50 bc 54 a0 b6 3d 19 39 36 3d af f9 79 3d
       -0.012728035 0.08917299 0.044488046 0.061029132
000170 9f 26 9f 3c 6b 81 f0 bd 1c 5b e5 bc c4 72 a9 3c
       0.019427596 -0.117434345 -0.027997546 0.020684607
000180 47 a0 e4 bd b3 2b 24 3d 63 22 d2 3d 2e 24 91 bd
       -0.11163383 0.040080737 0.10260465 -0.07086979
000190 7a 9f f3 bb 2c 1f 14 3d c7 b9 f4 ba 73 cf 4f 3d
       -0.0074347826 0.03616254 -0.0018671089 0.05073495
0001a0 f8 ec 1c 3d 34 c7 6b bd 6a 9a 65 bc 4e 60 ad 3d
       0.03831193 -0.05756302 -0.014013866 0.08465634
0001b0 47 c6 46 3c df 8b a6 3d 77 6d ef 3c 42 e0 e3 3c
       0.012132234 0.08132147 0.029227002 0.027816895
0001c0 76 41 e6 3c 3d 63 55 3d ac 3a c1 3c 9a cb d1 3c
       0.028107386 0.052096594 0.023587547 0.02560978
0001d0 ad e3 f8 bc e4 d1 89 3c ff b0 10 3d 18 15 08 3d
       -0.030382002 0.016823716 0.035325047 0.03322324
0001e0 26 c9 52 3d 21 4f 63 3d d4 0c 63 3d 16 43 26 3d
       0.05146136 0.055495385 0.055432156 0.040591322
0001f0 a7 e0 ae 3c f0 fb ed 3c 0a e4 1d 3d 16 19 13 3d
       0.021347357 0.029050797 0.038547553 0.035912596
000200 9e d9 08 bb 46 2c 43 bd 7a 56 7c 3d 7b 48 3e 3d
       -0.0020881663 -0.047649644 0.061605908 0.04645584
000210 0c 3b fc 3a 50 a2 80 3d dd 79 6b 3d 92 02 96 3d
       0.0019243672 0.06280959 0.057489265 0.07324709
000220 e2 74 43 3d 4f 24 13 3d 56 e9 72 3c a6 c2 39 3d
       0.04771889 0.0359233 0.014826139 0.045351647
000230 65 09 e4 3c 37 a0 01 3d 7f 70 5c 3d c2 3c 13 3d
       0.02783651 0.031646933 0.053818222 0.035946615
000240 85 a6 8d bd 02 75 47 bd 69 85 4f 3d 01 cf 84 bc
       -0.06916527 -0.04869557 0.05066434 -0.016211988
000250 94 76 bd 3b 8a fa c8 ba 1d f4 10 3a 01 91 47 3d
       0.005781958 -0.0015333456 0.000552954 0.04872227
000260 53 92 87 3d e5 60 9a 3c ac cc 60 3c 6c f5 c5 3b
       0.06619706 0.018845031 0.013720673 0.0060412195
000270 de 51 33 3d 9b bf 97 bd da 75 9a be 12 1a 6e 3d
       0.043779247 -0.07409593 -0.3016804 0.05813033
000280 73 d5 cb bd 77 ee f5 bb 59 aa c7 3b 64 18 80 bd
       -0.099528216 -0.007505234 0.006093305 -0.06254652
000290 16 0b 42 3d ed 50 92 3d 36 8b 04 bd 58 e3 54 3d
       0.047373854 0.071443416 -0.032359324 0.051974624
0002a0 ef 6b 82 3d 0c 01 77 bd 0b 18 85 bd e9 0d cc 3d
       0.06368243 -0.060303733 -0.064987265 0.09963591
0002b0 a9 6d 63 3d 6d b4 59 3c 7d 29 64 3d 34 1e 09 3d
       0.055524502 0.013287646 0.05570363 0.03347607
0002c0 76 d7 6e 3d b0 a8 4b 3d d3 db d6 bd b8 34 16 3d
       0.05831095 0.04972142 -0.10491147 0.03667137
0002d0 a3 2b 81 bd ff 08 23 3d d8 b8 7a 3d f6 0f 45 3d
       -0.06307151 0.0398035 0.061211437 0.048110925
0002e0 80 75 33 3d cc d7 17 bd 9a 8e 00 3d bc 5b 57 3d
       0.04381323 -0.037071034 0.031385995 0.05257772
0002f0 46 a8 57 3d 22 3f 51 3d 46 49 58 3d 12 bb dc 3c
       0.052650712 0.0510856 0.052804254 0.02694467
000300 eb 03 8f 3c 86 a6 8d bd b5 b1 d8 3c 10 ec 03 3d
       0.017457923 -0.069165275 0.026451925 0.03220755
000310 22 e6 11 3d 2c 09 80 3d e7 54 2e 3d 1b 46 f7 3b
       0.035619862 0.062517494 0.042561438 0.007546199
000320 53 a2 45 3d c7 0b 73 3d 18 8b 8d bb 89 9c 23 3d
       0.048250508 0.059337404 -0.00431956 0.039944205
000330 6e 0f 0f 3d 76 78 1a 3d e5 d1 29 3d d8 c7 3d 3d
       0.034926824 0.037712537 0.041459937 0.046333164
000340 3c 09 77 bd bf bf 6f 3d e3 33 15 3d 67 0a 02 3d
       -0.06031154 0.058532473 0.036426436 0.0317482
000350 b2 16 c9 3d 53 89 a2 ba 95 15 7e bc 94 ef 85 3d
       0.09818782 -0.0012400545 -0.015508075 0.065398365
000360 0e 1c 04 be 6c 99 26 3d 6d 49 c0 ba c6 37 41 3c
       -0.12901327 0.04067366 -0.001467032 0.011793083
000370 e8 02 8b 3d 25 fb 15 be d1 cf 8e be 37 fb 65 3d
       0.06787664 -0.14646585 -0.27892926 0.05614778
000380 bc ba 10 be 6d d5 3d bc 11 4c ee 3b 39 1f 14 bd
       -0.14133734 -0.011586529 0.0072722514 -0.03616259
000390 3b ae 94 bd dd 00 01 3d e1 0c 87 bd 9c e0 4b 3d
       -0.07259794 0.031494964 -0.06594253 0.04977475
0003a0 39 96 6f 3c 91 97 51 bd 25 cb ad bd dd ac 32 3d
       0.014623218 -0.051169936 -0.08486012 0.043621887
0003b0 71 01 7b 3d bd d7 dc 3c a9 e0 fa 3c 8e e0 1c 3d
       0.06128067 0.02695834 0.030624704 0.03830009
0003c0 d7 b1 83 3d 0c 3f 17 3d 15 de 81 3d 13 53 20 3d
       0.06430405 0.03692536 0.06341187 0.039141726
0003d0 8c 80 87 bd 3c ac 61 3d 3b 8a 4e 3d f4 94 5f 3d
       -0.06616315 0.055095896 0.050424796 0.054585412
0003e0 b6 0f a8 bd 75 83 52 3c 94 ef 77 3c fe 73 40 3d
       -0.082061216 0.012848725 0.0151328035 0.04698562
0003f0 2e 02 60 3d 55 84 4a 3d 92 58 2c 3d 1c 76 37 3d
       0.05468958 0.049442608 0.042076655 0.044790372

output.bias f4 [4]
000000 c2 d1 ca 3f 00 b9 b7 3f d9 e5 c0 3f 18 3f c1 3f
       1.5845263 1.4353333 1.5070144 1.509738
