experiments/navigate_1423_18Oct22075827.pth (torch_old, 54660 bytes, 6 tensors)

hidden_layers.0.weight f4 [128, 37]
000000 c0 c2 43 3e 1e ef c2 be 66 ba be be 6d f2 bd be
       0.1911726 -0.38073057 -0.37251586 -0.3709902
000010 e5 94 87 bf 05 40 fd 3a 94 35 44 3c 0c 82 bb 3d
       -1.0592314 0.0019321447 0.011975665 0.09155664
000020 81 4d 21 3e b4 2f 2a 3e fa 71 1b bd e3 34 a6 bd
       0.15752222 0.1661976 -0.037950493 -0.08115556
000030 2c 57 d3 bd f4 9f f3 bd 51 63 6d 3c 4a 41 1e 3d
       -0.10319361 -0.11895743 0.014489011 0.038636483
000040 a5 e0 a1 3d 80 f3 0b bc 0e af e2 bd ec 0a 23 be
       0.07904176 -0.008541942 -0.11068545 -0.15922135
000050 be 59 c4 3d 7b c9 5d 3d 05 88 ca 3d c6 dd ba 3c
       0.095874295 0.054147225 0.09889225 0.022810828
000060 9f bb 95 3c 73 10 23 3b 2a ae 87 3c ba a3 2c 3c
       0.018277941 0.002488163 0.01656254 0.010537082
000070 a0 ee 82 bc 95 d0 98 3c 83 8d f1 b9 4f 34 15 3d
       -0.015982926 0.018654147 -0.00046072536 0.03642684
000080 fa 9b fd bc 2d 7f 0f 3d 3e e9 41 bd ea 43 af bc
       -0.030958164 0.035033394 -0.047341578 -0.021394689
000090 09 48 19 3c b0 06 83 3d 91 a4 b9 3d a6 53 e0 3d
       0.009355553 0.0639776 0.09064592 0.10953455
0000a0 c1 12 b6 3d 29 0c 79 3c f2 19 e2 3d 14 45 07 bf
       0.08890296 0.015200653 0.11040105 -0.5283978
0000b0 c3 e8 ca be 81 ef f4 be 45 4e ba bf 1a 4c 4b 3c
       -0.39630708 -0.47838977 -1.4555136 0.012408281
0000c0 51 97 56 3b f3 ee 42 3c 40 1e 0f 3d 4f be 4e 3d
       0.0032744 0.01189779 0.034940958 0.05047446
0000d0 9d d2 96 3c 7e ba c1 3c 5d 1d a8 3d 84 14 86 3d
       0.018410975 0.023648497 0.082087256 0.06546882
0000e0 29 41 49 3d 31 83 c0 bd 51 cb bf bd 65 0a 83 bd
       0.049134407 -0.09400023 -0.093649514 -0.06398467
0000f0 bb c6 74 bd bf 5b 40 3d 4d a4 5d bd 2c 18 c0 bc
       -0.059759837 0.046962496 -0.054111768 -0.023449026
000100 3e 29 27 bc a8 d0 e9 3c 65 c6 c1 3d 5e 84 15 3d
       -0.010202704 0.028541878 0.09461669 0.03650319
000110 8b 2b d7 3d fb 19 ba 3d 27 56 e8 3d 40 b6 86 3c
       0.10506352 0.09086987 0.11344557 0.016444325
000120 dd c3 8f bb 05 c7 8d ba ee ad bf 3d 0f a3 c7 3d
       -0.0043873624 -0.0010816759 0.09359346 0.09747898
000130 31 5f 9f 3d b6 24 9b 3d c6 53 0d bc 23 9e d3 be
       0.07781828 0.075753614 -0.00862593 -0.41331586
000140 74 88 20 3e 85 dd 7d 3e 2a aa 70 3e b5 d7 81 be
       0.15677053 0.24791534 0.23502412 -0.25359884
000150 17 ce 85 bb a7 74 86 bc 6f 8a 0a 3d de f4 ea 3b
       -0.0040834057 -0.016413046 0.033823427 0.0071703037
000160 b4 12 50 bc 02 c9 80 bd 35 04 89 3d 8b 65 90 3d
       -0.012699772 -0.06288339 0.066902556 0.07050618
000170 af dd f9 3d 02 aa bd 3d 3a b7 14 bf f0 4f df 3d
       0.12200486 0.09260942 -0.5809208 0.10903919
000180 a9 3f 84 3d 3e ce 5a 3d 90 66 80 be 4f 9d 02 bc
       0.06457455 0.053419344 -0.2507825 -0.007972076
000190 c0 66 fc 3c 00 f9 c8 3d 6e d2 6f 3d 8d 67 de 3d
       0.030810714 0.09813118 0.05855029 0.108595945
0001a0 20 63 53 be cc 63 46 b9 30 d6 aa 3b 34 e8 6f 3b
       -0.20643282 -0.00018919929 0.0052135214 0.003660691
0001b0 9d 2a e9 3d d3 13 03 3d 31 62 80 bc 90 a8 99 3e
       0.11385081 0.032001328 -0.015671821 0.30011415
0001c0 4f 99 af be 00 1c 54 be 84 d2 37 be 2f c2 8e bf
       -0.34296653 -0.20713806 -0.17951399 -1.115301
0001d0 64 58 4a bd cb 41 bb 3c c3 6d 87 3c 33 a0 cb 3d
       -0.049400702 0.022858521 0.01653183 0.09942665
0001e0 89 0a fc 3d b4 ea 1b bd 96 b0 00 3d 75 a3 c2 bd
       0.12306697 -0.038065627 0.031418405 -0.09503833
0001f0 78 9c 85 bc e6 4b ef bd dc f0 0a bd 52 26 2f 3d
       -0.016309962 -0.11684398 -0.033921108 0.042761154
000200 bf fe ee bd eb 58 43 be f7 03 c7 be 56 c4 fa 3c
       -0.11669683 -0.19076888 -0.38870212 0.030611198
000210 b1 3d 68 bd 58 c4 30 bc f5 06 bc 3d b7 fa 5c 3d
       -0.05669946 -0.0107889995 0.091810144 0.053950038
000220 94 53 62 bd 57 ea 46 3d 21 f3 e4 3c 9f 77 0e 3e
       -0.055255488 0.048563328 0.027947964 0.1391282
000230 96 1f 09 3e 9d fd 97 3d 3f 3f ed 3d e5 24 89 3c
       0.13390955 0.0742142 0.11584329 0.016741225
000240 78 76 33 3d 95 ae 99 bb 30 e8 bf 3c a7 64 bc 3b
       0.043814152 -0.0046900013 0.023426145 0.0057493034
000250 10 c4 78 be a5 da 95 bc 78 44 2c be cb c2 83 be
       -0.24293542 -0.018292734 -0.16822994 -0.25734553
000260 51 4c ad be 20 48 33 be b7 97 8e 3b 2e 79 6c 3c
       -0.33847287 -0.17507982 0.004351582 0.014433188
000270 e4 7a 22 be e6 39 51 bf 35 75 88 bd ba 45 27 be
       -0.15867192 -0.8172897 -0.066629805 -0.16335192
000280 09 96 07 bd 87 2c 86 be 64 48 b8 bd 1f a8 fb be
       -0.03310207 -0.26205847 -0.089981824 -0.49151704
000290 68 e8 e0 bc 47 da ae 3d 08 83 4e be d8 05 1d bf
       -0.02745457 0.08537727 -0.20167172 -0.6133704
0002a0 3d a9 2d be e3 b0 86 bd 55 57 83 3d 31 b1 4f be
       -0.1695909 -0.06576707 0.06413142 -0.20282437
0002b0 4a 5e 74 3d d4 aa 65 be 35 27 50 be d4 f2 5c 3e
       0.059660234 -0.22428447 -0.20327456 0.21577007
0002c0 77 17 8d bd 65 fd 86 bf 36 c0 8a bd 46 97 ae be
       -0.06889241 -1.054608 -0.067749426 -0.34099787
0002d0 93 14 e9 3d 58 6e 8d be c7 1c f7 bd 63 db 02 3e
       0.11380877 -0.27623248 -0.12066036 0.12779002
0002e0 60 76 0d 3d 92 25 89 bc fa 7d 33 bd 7b 76 0d bc
       0.03453672 -0.016741548 -0.043821312 -0.008634205
0002f0 15 15 0b bc d1 99 c6 3d 36 5e 63 3e 9d 07 dc bd
       -0.008488913 0.09697307 0.22203907 -0.107436396
000300 9b 6f 75 be 19 76 82 be 30 bf cc bf 0b c6 13 bd
       -0.23968355 -0.25480726 -1.5995846 -0.03607754
000310 98 14 40 bd 52 34 75 bd 6b b5 e0 bd a7 73 dd bc
       -0.04689464 -0.05986435 -0.10972103 -0.027032686
000320 a5 5a 2e bd 58 d5 b8 3c 73 36 ef 3c 74 96 cd bc
       -0.042566914 0.022562668 0.029200768 -0.025096156
000330 16 f9 af 3b 31 4e 05 3e 33 3d 86 3d 3b 51 c8 3d
       0.0053702695 0.13018109 0.065546416 0.097811185
000340 1b 9c 77 3d 5d ce cb 3c e9 49 97 bb 3a 11 3c 3c
       0.06045161 0.024878675 -0.004616965 0.0114787165
000350 48 53 54 3c 19 5b 93 bb 01 16 85 3d 33 d5 7b 3d
       0.012959309 -0.0044969437 0.064983375 0.06148262
000360 40 87 eb bd 02 de 04 be 79 d1 c3 3d 78 4a 33 bf
       -0.11500406 -0.12975314 0.09561438 -0.70035505
000370 3b 87 b7 3c 10 08 2e bb 45 1f 9c bd 5e a7 24 bc
       0.02240335 -0.0026555099 -0.07623152 -0.010049669
000380 1c d4 e5 3c 1a c1 5e bd 4b 6d 7f 3d 9c 30 cd be
       0.028055243 -0.054383375 0.06236009 -0.4007615
000390 1a 82 d7 3d 32 64 37 3d 95 19 2a 3e d8 c6 58 3e
       0.10522862 0.044773288 0.16611321 0.21169603
0003a0 58 a5 60 3c e4 1f f9 3d c7 1e 9b 3d 72 e6 1a bd
       0.013711296 0.12164286 0.0757423 -0.037817426
0003b0 d0 a4 6e bc 8d 1b ba bd 73 85 a2 bd 8f ed 9e 3c
       -0.014565662 -0.09087286 -0.0793561 0.019400386
0003c0 e0 fa 2b bd 66 ee 95 3e 61 5e 66 be 8d d8 0a 3b
       -0.0419873 0.29283446 -0.2249694 0.0021186203
0003d0 bb 58 88 3d 94 88 84 3b 7c 5b d9 3d c0 86 a1 be
       0.06657549 0.0040446017 0.106131524 -0.3154812
0003e0 f9 d1 4f ba 91 99 79 bc f7 64 6a 3d f3 32 11 3e
       -0.00079277117 -0.015234367 0.057225194 0.14179592
0003f0 a4 f1 8f be 43 30 f6 3d 7f af 10 3e af ec c9 3d
       -0.28114045 0.12020924 0.14129446 0.09859597

hidden_layers.0.bias f4 [128]
000000 c8 77 03 ba 08 5b 22 3d 80 31 8a bd d5 d9 5c bd
       -0.0005015102 0.039637595 -0.067477226 -0.05391868
000010 2f 26 a3 bd cf 18 d3 bd d9 5c c3 bb 23 17 7f 3d
       -0.07966267 -0.10307466 -0.005961996 0.062277924
000020 9d b5 2a be 5b b0 86 bc 89 c1 0f be db 0d ce bd
       -0.16670842 -0.016441515 -0.14038672 -0.100612365
000030 55 84 d0 bd f5 0f 12 be 31 71 c3 bd 9d de 6f bd
       -0.1018149 -0.142639 -0.09543074 -0.05856191
000040 29 e6 61 bd da 30 1b be 83 01 d1 bd cb cc 1a bd
       -0.05515114 -0.15155354 -0.102053665 -0.037792962
000050 55 1e 40 be e7 05 2c 3d 4d ee a4 3d 82 5d 97 bd
       -0.18761571 0.041997816 0.08053265 -0.07390882
000060 2e 4d a1 bd c7 e8 fb 3d 9e 08 a8 3d 25 c8 42 be
       -0.07876049 0.12300258 0.082047686 -0.19021662
000070 69 55 e0 bd 66 a7 21 be 04 58 56 3d 0a 12 c8 3d
       -0.10953791 -0.15786514 0.052330032 0.09769066
000080 05 e7 8e bd 0f 49 c1 3c f3 89 5f bc 68 66 92 be
       -0.06977657 0.023594407 -0.0136437295 -0.28593755
000090 de 3c 5d bd 59 e0 c6 3b 56 1f bc bd dd 34 23 3d
       -0.054013126 0.006069225 -0.09185664 0.039845336
0000a0 e2 05 71 bc 91 b2 5d 3d e7 51 ef 3d 24 39 99 bb
       -0.014710875 0.054125372 0.116855435 -0.004676001
0000b0 ae c3 b3 bc 00 4c 58 be 68 d6 27 3d 71 24 13 be
       -0.021943893 -0.21122742 0.040975958 -0.1436937
0000c0 02 f5 6b be 5d ac a8 3d f8 a6 a3 bc 31 97 a3 bb
       -0.23042682 0.08236001 -0.019977078 -0.0049923887
0000d0 13 ae 07 bc c5 38 b6 3c 9b 8e 0d bd 2f 90 96 3c
       -0.008281249 0.022243867 -0.034559827 0.018379299
0000e0 59 81 2b be ed 6c ab bd f0 ab 9a ba f1 db 05 be
       -0.16748561 -0.08370385 -0.0011800509 -0.13072182
0000f0 35 a7 30 be 55 44 df bc d4 1f 34 3d 5e 3e ab bd
       -0.17251284 -0.027254263 0.043975666 -0.08361505
000100 eb b0 ea 3d 12 db 3a 3d 31 20 9c bd df ed e6 bd
       0.11459526 0.045619078 -0.076233275 -0.11275839
000110 21 f6 19 be ab 1f cb bd 73 7b 11 bc 9f 9d b2 bd
       -0.15035297 -0.099181496 -0.00887953 -0.0872147
000120 5c c0 10 3d 7b a4 1a be 80 f5 59 be d1 3b 9d bd
       0.0353397 -0.15101807 -0.21285057 -0.07677425
000130 11 1c ae 3d 06 a6 28 be a7 b3 5a 3c 0b 1b a7 bd
       0.08501447 -0.16469583 0.0133484965 -0.08159455
000140 5a d4 db bd 4c 21 e4 bc 1d 5c 87 ba 79 ff e1 bd
       -0.10733862 -0.027847908 -0.0010327135 -0.11035056
000150 af c8 03 be 22 33 27 3e 50 9b 3d 3c 11 e7 22 be
       -0.12869523 0.163281 0.011572674 -0.15908457
000160 7f 9d 36 bc 16 f0 b8 3c 92 59 a0 3d b9 f7 57 be
       -0.011145948 0.02257542 0.07829584 -0.21090592
000170 64 0e 1c be 23 54 5c be 8c 4b bf bd dc 33 67 3d
       -0.15239865 -0.2151647 -0.09340581 0.05644594
000180 32 82 d3 bd b7 89 4e be 33 31 75 bd ce c3 e9 3d
       -0.10327567 -0.20169722 -0.059861373 0.114143
000190 b5 b5 47 be 14 c2 84 be 9a 6b 66 3d 9a 14 03 3e
       -0.1950291 -0.2592932 0.05625496 0.12800828
0001a0 39 c8 9d be 0d 40 06 be 8b 6e 3d be d2 a1 d2 3d
       -0.3081682 -0.13110371 -0.184992 0.10284771
0001b0 e5 2d 4d be c9 1e e4 bd 5f 33 c8 3d 17 f5 1c bd
       -0.20037039 -0.11138684 0.09775423 -0.038319673
0001c0 89 6b ec bd a4 e8 15 be b5 5f 80 bc c9 70 99 3d
       -0.11543948 -0.14639527 -0.015670637 0.07492215
0001d0 12 00 08 be 17 72 97 3d 27 35 99 bc cc a7 0d be
       -0.13281277 0.07394808 -0.018702103 -0.1383354
0001e0 2c 57 b1 bd 05 3b e7 3c e2 82 09 3b 2f 2e 72 be
       -0.08659205 0.028226385 0.0020982553 -0.2365043
0001f0 63 f0 ea bd ef 59 ef 3c 54 13 72 3d 58 29 0b bd
       -0.114716314 0.029217688 0.059100464 -0.033974975

hidden_layers.1.weight f4 [64, 128]
000000 3d ec dd bc 9f 6e 8c bd 41 f4 b7 be c8 73 89 3d
       -0.027090186 -0.06857037 -0.35928538 0.06711537
000010 74 c6 00 3e 4c 6a b8 3d 05 4d 22 be 6d 24 ea bd
       0.12575704 0.090046495 -0.15849693 -0.11432729
000020 1e 48 e1 3d 61 fe 77 bc 0f 90 54 bd c9 13 0b bc
       0.110000834 -0.015136332 -0.051895197 -0.008488604
000030 e3 8d ae be 5b d5 a5 3d 6a 57 64 be dc 72 25 3d
       -0.34092626 0.08097335 -0.22298971 0.04039274
000040 99 6e a3 be 74 d8 39 be 23 aa 09 bd 32 f4 0a 3d
       -0.31920317 -0.18148977 -0.03360952 0.03392429
000050 e8 dc 45 3e a5 35 13 3d 62 47 7b 3c 8d cf 10 be
       0.1932255 0.03593983 0.015336843 -0.14141674
000060 ef 14 19 3b 5a 86 a7 3c 36 3e 0c be fa 7d 67 be
       0.0023358425 0.020449806 -0.13695607 -0.2260665
000070 88 bd 39 bc 54 0c bd 3d 32 20 d6 be c0 51 8f 3d
       -0.011336692 0.09230867 -0.41821438 0.069980145
000080 5d af 21 be 87 90 e6 bd 3a 48 4f be ae ea 3f bd
       -0.15789552 -0.11258035 -0.20242396 -0.046854667
000090 31 57 6c bc 96 d0 f7 bc 88 55 9b be 1a 03 da bb
       -0.014425085 -0.030250829 -0.30338693 -0.0066532018
0000a0 59 7c 84 bd b4 0c df bd 13 a0 d2 bc 2e 4d a7 3b
       -0.0646903 -0.10891095 -0.025711095 0.005105636
0000b0 51 c5 3f 3d ab e1 20 bc 1b 51 33 bd a3 d0 52 bd
       0.046819035 -0.009819428 -0.04377852 -0.051468503
0000c0 79 97 92 bd 5b ef 7f 3c ba e9 09 be 53 a7 57 3d
       -0.07157797 0.015621032 -0.13468066 0.052649807
0000d0 48 49 93 bd 90 af 0a bd 47 7c 89 be dd 08 94 3d
       -0.07191712 -0.033858836 -0.2685263 0.07228253
0000e0 41 5d a9 3d 34 f0 a8 3d 07 16 06 3e f8 c6 97 3d
       0.0826974 0.0824894 0.1309434 0.07410997
0000f0 d1 ae 93 bd e4 4b 2d bd 12 8e 89 be 39 5d a0 3d
       -0.07211078 -0.042308703 -0.26866204 0.07830281
000100 5f 16 40 3d 47 b3 8d 3d 93 06 53 bc e7 6a 08 bf
       0.046896335 0.0691896 -0.012879985 -0.5328812
000110 51 6a 3a 3d 4b 4f 46 bd 01 df 06 3d 0c e7 4a bd
       0.045511547 -0.048415463 0.032927517 -0.04953675
000120 b7 bf 7f be c6 51 09 be f0 a6 93 3c d6 6a 69 3d
       -0.24975477 -0.134101 0.018023938 0.056986652
000130 88 c2 da bd 44 d9 9c bd df c0 e6 bd 44 49 03 3e
       -0.10681635 -0.07658628 -0.11267256 0.12820917
000140 bc 68 96 ba b0 01 0c be f2 15 71 bd 9d 3a 97 3c
       -0.0011475305 -0.13672519 -0.05885882 0.018460566
000150 df 43 0b bd 52 ce 3a 3c c0 d6 e4 be bb 0c 57 3d
       -0.034000274 0.01140173 -0.4469509 0.052502375
000160 b2 a4 37 bc 0a 2f 5d bc ef 9a 03 3b e5 b8 55 bc
       -0.0112087 -0.0134999845 0.0020081361 -0.013044571
000170 fc 4f 41 3b 26 bf 51 bc ea 09 7a 3d d7 73 bb bb
       0.0029497137 -0.012801921 0.06104461 -0.0057205963
000180 35 1c 65 be b8 67 ca 3d 81 38 21 be 5c ad 8f bc
       -0.22374041 0.09883064 -0.15744211 -0.017538719
000190 a4 99 64 be 99 82 93 3d 4c db 81 bd 33 2e 5c 3d
       -0.22324234 0.07202644 -0.06340656 0.053754997
0001a0 ae 56 20 3d d5 03 34 bc 55 6a 2a 3c 9f a7 ba be
       0.039145164 -0.010987242 0.010401328 -0.3645601
0001b0 71 89 c1 3d 56 8c ad bc 28 a8 57 be ac f9 83 bd
       0.09450043 -0.021185081 -0.2106024 -0.064441055
0001c0 8e 78 69 3d e6 f7 88 be d4 51 de bc 2d b5 fa be
       0.056999736 -0.26751631 -0.027138628 -0.4896635
0001d0 36 f7 c0 bd f6 2e 30 3d 6d 79 0f bb 62 ad b0 3d
       -0.09422152 0.043013535 -0.0021892444 0.0862682
0001e0 bc b1 3c bc a3 f4 f2 bd 34 07 80 3c bf 3c ec bb
       -0.011516985 -0.11863067 0.015628435 -0.00720939
0001f0 3a 59 a8 be 76 60 4f 3d 76 21 f3 bc 7c a9 a1 bd
       -0.32880574 0.0506291 -0.029679041 -0.07893655
000200 15 6a 22 be 23 a3 09 bf b6 2a 50 3c 37 2b 5b be
       -0.1586078 -0.5376455 0.012705496 -0.21403204
000210 de 9d 4a 3e 06 a9 75 be 43 96 29 3c e9 5f 61 be
       0.19786784 -0.23990259 0.010350767 -0.22009243
000220 52 4e 33 3e 21 9c 86 be c0 c9 e4 be 95 de 27 bf
       0.17510346 -0.26290992 -0.44685173 -0.6557401
000230 fa 5d 64 3d eb 06 db 3b 2c c6 c0 3b 35 77 06 be
       0.055753686 0.0066841743 0.005882999 -0.13131411
000240 c0 af a8 3a c9 38 3f 39 e6 e8 b5 3b e3 15 15 3d
       0.001286976 0.00018236334 0.0055514453 0.036397826
000250 d6 96 64 3e 53 dc eb 3c a8 b1 3b be 28 ad 55 bd
       0.22323164 0.028791582 -0.18329489 -0.052167088
000260 b9 09 34 bf ef 6c 26 bf 7f 16 90 be 2e d1 b1 3c
       -0.70327336 -0.6500997 -0.28142163 0.02170619
000270 bf d7 ea bc 92 3c 05 be b7 70 40 3c b7 5e f9 3c
       -0.028667329 -0.13011387 0.011745623 0.030440671
000280 51 c9 98 3c 6a 7f d5 bd ff e9 12 3c 28 10 ad bd
       0.018650683 -0.10424693 0.008966922 -0.08450347
000290 6d ec c7 3a ce c5 d6 be 23 b2 6f bc ee 5d 67 be
       0.0015252955 -0.41947788 -0.014629873 -0.22594425
0002a0 50 7f de be 61 98 8b be ae e9 a6 bd 1b 96 fa be
       -0.43456507 -0.27264693 -0.081500396 -0.48942646
0002b0 e9 a0 fc bb 36 8f 17 3d 5b 5c c1 3d bf 90 38 3e
       -0.0077096117 0.03700181 0.094414435 0.18023966
0002c0 52 80 04 3c 36 19 16 be 32 ef 06 bd 46 bf 09 bf
       0.008087235 -0.14658055 -0.03294296 -0.53807485
0002d0 16 4f ba bb 5e 43 9d bb a7 f9 d4 3a cc 73 8d be
       -0.0056856973 -0.0047992906 0.0016248719 -0.27627409
0002e0 ca 1f 05 3e 73 68 08 3e 19 6f 47 bf e7 d6 ad 3b
       0.13000408 0.13321094 -0.77903897 0.0053051594
0002f0 72 b8 26 3e 36 17 6a be 61 f1 23 ba 3e 51 9e be
       0.16281298 -0.22860417 -0.0006253925 -0.30921358
000300 e5 61 19 bf 9a 37 4b be fd c2 d5 3c fa 09 1d 3c
       -0.59915 -0.19845429 0.026093954 0.009584898
000310 60 2f a3 3d c2 62 4f 3c 06 ac 31 bc a3 94 bb be
       0.079680204 0.012657823 -0.010844236 -0.36636838
000320 0a cb 55 3a b0 26 7a 3c 4b 37 a5 3b b6 11 ac bd
       0.00081555604 0.015268013 0.005041992 -0.084018156
000330 2f dc cb be 3b 94 9f 3e b2 16 26 ba a0 1d 5b bd
       -0.39816424 0.31167778 -0.00063357793 -0.05349505
000340 1c a1 f7 be 00 7a 8d bb cb dd ba 3b f1 2d ad be
       -0.48365104 -0.004317522 0.0057027093 -0.33824113
000350 55 6b 3f 3b 3d d7 5d bf 59 9d 42 bc 05 bf 83 3b
       0.0029208262 -0.8665655 -0.011878335 0.004020574
000360 31 95 59 be c7 e0 91 be 0d eb 80 be 9d 0e 97 bd
       -0.21248318 -0.28491804 -0.2517933 -0.07375834
000370 c3 23 71 be aa c4 a8 bd 38 27 70 bb be 94 54 bf
       -0.23548798 -0.08240636 -0.003664447 -0.8303946
000380 8b 8f 0d bc e8 76 58 bd f3 c0 3c bd 1b 8c 68 be
       -0.00864018 -0.052847773 -0.04608245 -0.22709696
000390 c0 5b ba 3a 62 be 54 3c bd 19 be be 8d f8 87 3e
       0.0014218017 0.012984844 -0.37129012 0.26556817
0003a0 1e f6 ac 3c 27 70 62 be a7 58 30 3c 93 66 3a 3c
       0.021113452 -0.22113095 0.010763324 0.011376995
0003b0 9b 8d 3f 3c 7b b0 89 bd 88 dd a1 3b 01 9a 15 be
       0.011691476 -0.06723114 0.0049397387 -0.14609529
0003c0 70 8f 09 bc 25 56 a4 3a f1 90 fa bd 67 ae 8b bb
       -0.008396015 0.001253788 -0.12234677 -0.0042627337
0003d0 91 c9 bf 3b 0a 5b a9 be 6e 10 87 be 7f 1f 49 3e
       0.005852886 -0.3307727 -0.26379722 0.19640921
0003e0 33 d4 b2 be a0 2d 68 be c1 7b b4 bd 74 09 52 3d
       -0.3492752 -0.22673655 -0.08812667 0.051278546
0003f0 d5 75 e8 bc 18 6a 18 be 2b cf 2a 3d e8 c9 07 bf
       -0.0283765 -0.14884222 0.041701477 -0.5304246

hidden_layers.1.bias f4 [64]
000000 c5 9b 7f 3e 8c cd d7 3d e7 16 de 3d 31 e6 f6 3d
       0.24961765 0.10537252 0.10844212 0.12055624
000010 b0 4d 8e 3e bc da 5d 3e 1f 66 00 3e c3 95 0a 3e
       0.27793646 0.21665472 0.12538956 0.13533692
000020 a8 4a 3b 3e fe da e7 3d ff 76 8a 3e a5 df eb 3d
       0.18290198 0.11321066 0.27043912 0.11517266
000030 5c 4b 53 3e 98 cb 04 3e e8 83 c9 3d 52 56 20 3e
       0.20634216 0.1296829 0.09839612 0.15657929
000040 ed 70 d3 3d 3e 2b ed 3d 1b 48 7a 3e 7b 2e 1f 3e
       0.10324273 0.115805134 0.24441569 0.15545075
000050 93 74 0a be f0 ac 6f 3e 66 3a 07 be d9 c0 77 3e
       -0.13521032 0.23405814 -0.13205871 0.2419466
000060 0f 6e 0b 3e 52 3a 8c 3e a7 25 81 3e 83 26 84 3e
       0.13616203 0.27388245 0.2522404 0.25810632
000070 2b 39 d2 3d 42 ae bf 3c 92 bd 18 3e f0 2a 3e 3e
       0.1026481 0.023398522 0.14916065 0.18571067
000080 9f 91 4b bd d3 b9 88 3e d9 ff 78 3e 43 d7 49 3e
       -0.049699422 0.26704273 0.24316348 0.19711022
000090 0c 77 20 be ec 27 34 3e ed 23 03 3e 99 18 3f 3e
       -0.15670413 0.17593354 0.12806673 0.18661727
0000a0 bb 5e 25 3e 3e dc 3e 3e 6f 37 de 3d 5a 19 73 3e
       0.16149418 0.18638703 0.10850417 0.2374014
0000b0 75 8d 01 3e 10 33 76 3e 08 81 1f 3e 77 1c f3 3d
       0.12651618 0.24042916 0.15576565 0.118706636
0000c0 cb 89 eb 3d d3 c1 dd 3d 8e bb e3 3d 31 7b f8 3d
       0.11500891 0.10827985 0.111197576 0.12132872
0000d0 a1 c1 e7 3d 96 c3 6b 3e 91 03 c1 3d 92 56 db 3d
       0.11316229 0.23023829 0.09424508 0.10709871
0000e0 79 ef 09 3e 7c 9f 85 3e 9e 11 64 3e d0 3b f0 3d
       0.13470258 0.2609824 0.22272345 0.11730158
0000f0 16 2f ba 3d aa 26 d3 3d 08 64 f3 3d b3 6b 28 3e
       0.09091012 0.10310109 0.11884314 0.16447334

output.weight f4 [4, 64]
000000 7a 13 6b 3d 0f 67 07 be 94 85 0f 3d 68 aa 17 3d
       0.05739162 -0.13222907 0.0350395 0.037027746
000010 af de 8b 3d 34 d1 5c 3d 9d c2 20 3d 73 47 34 3d
       0.06829583 0.05391045 0.039248098 0.04401345
000020 34 b4 fa 3c 10 f0 12 3d 96 6a 7e 3d 7e 85 e3 3c
       0.030603506 0.035873473 0.062113367 0.027773615
000030 0c e4 43 3d fa ce 0e 3d b1 2d 14 3d a7 38 ff 3c
       0.047824904 0.034865357 0.036176387 0.031154944
000040 eb 15 f0 bd 0c 54 11 3d 25 04 a7 3d 41 43 24 3d
       -0.117229305 0.035480544 0.081550874 0.0401032
000050 a0 ba 64 bd c6 16 59 3d 66 59 a1 3d 15 5d d2 3d
       -0.055842042 0.053000234 0.078783795 0.1027166
000060 3a 20 cc bd 6b db b6 3d 02 f8 7b 3d a6 c8 83 3d
       -0.09967084 0.089285694 0.061515816 0.06434755
000070 c0 a5 26 3d 8a 90 5b bd 61 cc 27 bd 21 29 36 3d
       0.040685415 -0.05360464 -0.040966395 0.044472817
000080 96 aa 98 bd e9 4f 8c 3d 9c 9f 9c 3d 0c 01 0d be
       -0.07454412 0.06851179 0.076476306 -0.1376993
000090 4d 7c 5c 3c 08 ed 0d 3d cb 5c cb bd a8 46 52 3d
       0.01345737 0.03464988 -0.09929808 0.051336914
0000a0 5c f4 12 3d 26 d3 f2 bd 51 a8 e8 bd 73 17 95 3d
       0.03587757 -0.118566796 -0.11360229 0.07279863
0000b0 f6 d7 93 bd e8 1c 87 3d a8 49 fc 3c 6b 17 22 3d
       -0.07218926 0.0659731 0.03079684 0.039573114
0000c0 0c 10 0f 3d 55 b8 0d 3d 69 3a cf bd 35 5c 14 3d
       0.034927413 0.03459962 -0.10118563 0.036220748
0000d0 e6 7c db bd f3 98 60 3d 6c 20 0f 3d 36 65 f3 3c
       -0.10717182 0.054833364 0.03494303 0.029711347
0000e0 b9 e7 27 3d 47 8d 87 3d 19 9f 41 3d d7 e0 23 3d
       0.040992472 0.066187434 0.047270868 0.040009346
0000f0 1a f0 01 3d c2 4c 30 3d a3 22 ed 3c d6 90 16 3d
       0.03172312 0.043041952 0.02894718 0.03675922
000100 61 61 56 3d 85 f3 4e bd 9a 8c ac 3c a4 bd c3 3c
       0.05233896 -0.050525207 0.021063138 0.023894139
000110 26 1e 81 3d 28 d3 29 3d 44 6b 8d 3d 09 db 29 3d
       0.063045785 0.04146114 0.06905225 0.041468654
000120 e4 66 11 3d 1d 19 0f 3d 12 d5 87 3d dc bf 12 3d
       0.035498515 0.03493606 0.06632437 0.035827503
000130 a9 19 78 3d 61 34 90 3c fb 52 2a 3d d2 d7 e7 3c
       0.060571346 0.017603101 0.041583043 0.028301153
000140 4f 20 30 bc c0 94 07 3d 72 d5 e5 3d 73 d0 b1 3c
       -0.0107498905 0.033100843 0.11222352 0.021705842
000150 38 e0 7e bd f2 49 4e 3d a2 fd 6b bd 35 d9 f0 3d
       -0.06222555 0.05036349 -0.05761493 0.11760179
000160 fe ce 14 3c 4d c5 ba 3d 1f 2f 77 3d 13 f7 55 3d
       0.009082554 0.091196634 0.060347673 0.05223758
000170 9e 27 22 3d d7 49 d3 bd ff b5 9c bd df ce ec 3c
       0.039588563 -0.10316818 -0.076519005 0.028907238
000180 15 82 b2 bd a9 5f 55 3d 5c 83 ef 3d ac 9d f0 bd
       -0.087162174 0.05209318 0.11694977 -0.117488235
000190 7a 9f f3 bb 78 92 46 3d dc 23 d1 bc 20 aa cf 3c
       -0.0074347826 0.048479527 -0.025529794 0.025349677
0001a0 e2 8e 0f 3d a8 87 b5 bd 9c 9f 99 bb 11 f7 73 3d
       0.035048373 -0.08863765 -0.0046882164 0.059561793
0001b0 57 27 1b 3c c2 c4 8e 3d 70 32 22 3c 9e 31 2b 3d
       0.009469829 0.06971122 0.009899721 0.041795366
0001c0 58 4c d3 3c bd aa e2 3c 50 33 d7 3c 7e 33 0c 3d
       0.02579324 0.027669305 0.026269585 0.034228794
0001d0 73 29 96 bc e3 25 4e 3d 3a cf b5 3c ae 0d b2 3c
       -0.018330311 0.0503291 0.02219354 0.021735039
0001e0 1e dc 40 3d af 61 75 3d 87 a9 83 3d 36 d5 54 3d
       0.04708492 0.05990761 0.06428819 0.051961146
0001f0 0c d1 01 3d 63 13 c2 3c 6b 38 9f 3c 20 cc 0d 3d
       0.031693503 0.023690885 0.019436082 0.034618497
000200 38 a6 20 bc dc 2c a7 bd 4c 8e 84 3d f5 69 57 3d
       -0.009805255 -0.08162853 0.064724535 0.052591283
000210 46 80 d0 bc a3 e5 af 3d 40 13 0f 3d 83 7f a3 3d
       -0.02545179 0.085887216 0.034930468 0.07983305
000220 33 1b 7f 3d 61 fc 27 3d 80 68 55 3c 4d d5 0f 3d
       0.0622818 0.04101217 0.013025403 0.03511553
000230 5b a2 bd 3c 2f 47 24 3d d8 f9 3a 3d 8a 14 81 3d
       0.023148706 0.04010695 0.045648426 0.06302746
000240 9d 68 98 bd 84 39 42 bd fd 34 1e 3d 2f 9a 63 bd
       -0.074418284 -0.047418132 0.038624752 -0.055566963
000250 94 76 bd 3b c6 dc 23 bc 1d f4 10 3a 88 68 85 3d
       0.005781958 -0.010001367 0.000552954 0.065140784
000260 37 e0 6a 3d 3c 73 53 3d b0 08 8c 3b 3b 38 f2 3c
       0.057342734 0.051623568 0.0042734966 0.029567828
000270 de e1 09 3d 91 9f b0 bd ab 4c 98 be 52 f2 67 3d
       0.03366267 -0.08624185 -0.29745993 0.05662758
000280 db 6e c9 bd 0d dc 4a bb 7c a6 0f 3a d2 24 0a bd
       -0.09835597 -0.0030953914 0.0005479825 -0.03372652
000290 16 0b 42 3d 53 9c 5f 3d a2 85 f9 bc df 5b f8 3c
       0.047373854 0.05459244 -0.030459229 0.030317245
0002a0 1c 62 5a 3d 65 f4 a1 bd 86 a0 72 bd ab f1 ae 3d
       0.05331622 -0.07907943 -0.05923512 0.08542188
0002b0 64 b4 29 3d 6c 05 8d 3c 24 8b 2b 3d dc a9 1a 3d
       0.0414318 0.0172145 0.04188074 0.037759647
0002c0 6b 90 4d 3d 39 68 6c 3d 92 90 eb bd d5 74 60 3d
       0.050186556 0.057716582 -0.11502184 0.05479892
0002d0 b4 03 27 bd 58 6d 12 3d 09 e1 0c 3d f0 e3 65 3d
       -0.040775016 0.03574881 0.034394298 0.05612558
0002e0 4c 9b 07 3d b7 88 d9 bc 45 be da 3c 76 53 6b 3d
       0.033107087 -0.026554449 0.026702056 0.05745264
0002f0 50 e6 96 3c e1 2e 0b 3d a4 86 87 3d c9 0c 81 3c
       0.018420368 0.033980254 0.066174775 0.015753167
000300 71 69 e2 3c cc 7c 93 bd 79 2c 5e 3d a9 d2 87 3d
       0.027638169 -0.072015375 0.05424163 0.06631977
000310 95 a8 38 3d d7 86 7d 3d 54 47 2e 3d 27 36 df bc
       0.045082647 0.06189617 0.042548493 -0.027247502
000320 7f b4 a3 3d 4f 15 74 3d b7 c2 4d 3c bc 3e 49 3d
       0.07993411 0.059590634 0.012558631 0.049132094
000330 bc 61 4a 3d 79 34 20 3d cf 52 41 3d ff be fa 3c
       0.049409613 0.03911254 0.047198113 0.030608652
000340 fc ba 6c bd 63 cf 60 3d f5 ce 4a 3d 97 8d 0e 3d
       -0.05779551 0.05488528 0.049513776 0.034803
000350 b2 16 c9 3d 8b d3 b4 3c 95 15 7e bc d4 20 b8 3d
       0.09818782 0.022073528 -0.015508075 0.089906365
000360 66 df f4 bd cb 46 70 3d 31 c4 c8 3c a9 b3 28 3c
       -0.11956672 0.058661263 0.024507614 0.010296741
000370 5d a7 4c 3d 96 2b 2b be e6 ac 81 be 84 e9 3f 3d
       0.049964298 -0.16715845 -0.25327224 0.046853557
000380 bc 8d 18 be cf 1d a3 3c e2 4f b8 3b b8 ae d4 bd
       -0.14897817 0.019911675 0.005624757 -0.103848875
000390 3b ae 94 bd a7 a1 6b 3d 67 61 1e bd de 14 03 3d
       -0.07259794 0.05752721 -0.03866711 0.032002322
0003a0 48 0b d7 3c b4 5d 82 bd ea d6 a1 bd 72 ea 77 3d
       0.026250497 -0.06365529 -0.0790232 0.06052632
0003b0 a2 4f 95 3d 8b 03 2e 3c 63 11 36 3d b9 be 31 3d
       0.072905794 0.010620962 0.044450175 0.043394778
0003c0 05 85 52 3d 45 66 34 3d 38 0e 8c 3d bc 83 42 3d
       0.05139639 0.044042844 0.068386495 0.047488913
0003d0 b3 ae 80 bd 97 cf 6c 3d 6a 42 45 3d 17 59 36 3d
       -0.06283321 0.05781516 0.04815904 0.044518556
0003e0 e4 dc 9e bd 3c 46 7c 3c 66 56 2b 3d b2 30 6d 3d
       -0.07756975 0.015397605 0.041830443 0.057907768
0003f0 0f 5e 53 3d af 41 3c 3d a0 bd 28 3d 58 32 36 3d
       0.051603373 0.04596108 0.041196465 0.044481605

output.bias f4 [4]
000000 e7 86 bf 3f 57 b0 ab 3f c7 c2 b4 3f 69 1a b6 3f
       1.4963044 1.341319 1.4121941 1.422681
