experiments/navigate_1347_18Oct22073217.pth (torch_old, 54660 bytes, 6 tensors)

hidden_layers.0.weight f4 [128, 37]
000000 cd 79 b6 bc 05 0f ac bb ee 17 cc ba 3a 78 48 bd
       -0.022274876 -0.005250814 -0.0015571096 -0.048942782
000010 84 e9 a5 bc eb 49 c9 3a ed 6f 66 3c 7e 04 a7 3d
       -0.02025295 0.0015357112 0.014064771 0.08155154
000020 49 eb 4f 3e 5e 83 89 3e d6 3f 6e bd 19 c8 c4 bc
       0.20304598 0.26858038 -0.058166347 -0.024021195
000030 dc 0a 75 bd 07 93 21 bd 77 95 9b bd 68 4f 17 3d
       -0.05982481 -0.039446857 -0.075968675 0.036940962
000040 89 7d 58 3d be b1 6e 3b 47 5b 74 3d 79 e4 36 3d
       0.052854095 0.003642186 0.05965736 0.044651482
000050 04 c7 8b 3e 6f 1d 09 bf 23 7a d2 be 74 78 b4 be
       0.27300274 -0.5356054 -0.41108808 -0.35248148
000060 4d 21 ce bf b7 d8 6e 3c c0 dd 00 3d 3c a6 c6 3c
       -1.6103913 0.014578036 0.031461477 0.024249189
000070 d4 74 6d 3d 5c 5f 6e 3d 52 d1 5f bd 6c 8c e8 3d
       0.057972744 0.05819641 -0.054642983 0.11354908
000080 4f ff 61 3b d2 21 b2 bd d3 40 2f be df 12 59 bc
       0.0034484451 -0.08697857 -0.17114572 -0.013249128
000090 a7 45 04 3c 90 17 99 3d 36 fa c7 be 14 dc 0b 3e
       0.008073247 0.07475197 -0.39058083 0.13658172
0000a0 3d ae 46 bc 5a 1f c0 be 7d 34 07 bf c6 2a 78 be
       -0.012126503 -0.3752392 -0.52814466 -0.24235067
0000b0 5c 90 4b 3d 15 11 8e be af a4 51 bf fc d6 f6 bd
       0.04969822 -0.27747408 -0.8189191 -0.12052724
0000c0 7a ca 1d be 20 f1 26 3c 62 ef 0f be e6 7c b4 bc
       -0.1540927 0.010189325 -0.14056161 -0.022032212
0000d0 6e 58 1a 3d 20 07 5f be 61 3a 02 bd 3c 86 9a be
       0.03768199 -0.21780062 -0.031793956 -0.30180538
0000e0 44 d5 92 be b1 50 8d be 5c 10 3e be 42 e0 27 be
       -0.28678334 -0.27600625 -0.18560928 -0.16394141
0000f0 2b e0 26 be c6 ae 51 be d5 fd b8 be 38 3e 49 bd
       -0.16296451 -0.20476827 -0.36131158 -0.049131602
000100 1f 25 ef 3d c3 9a ba be 2f ed 3b bf 9d bc d5 bc
       0.11677002 -0.364462 -0.7340879 -0.026090914
000110 44 36 c8 bc 10 d4 97 3b c7 4c 8d be 32 96 a0 be
       -0.024439938 0.004633434 -0.2759764 -0.3136459
000120 08 1a e9 3d 9e d8 a4 3c 38 87 dc 3c 87 95 fa 3d
       0.11381918 0.020122822 0.026919946 0.12235551
000130 47 a0 d8 3d 30 1a 37 3d 10 71 30 ba c3 f1 f2 be
       0.105774455 0.04470271 -0.0006730715 -0.47450075
000140 25 ec 4f 3e 90 46 8b 3e 7b 08 e9 3c 03 45 30 bf
       0.20304926 0.27202272 0.028446427 -0.68855304
000150 b4 bb 2d bd 31 e6 5e bc e9 42 05 3d 81 9b c4 bb
       -0.042415336 -0.013604687 0.032534514 -0.005999983
000160 28 e2 88 bc 1e 88 22 be 7b 94 b1 3d 13 2f 0d 3e
       -0.016709402 -0.15872237 0.086708985 0.13787489
000170 92 49 db bb b3 b0 df 3a c7 89 e4 bd 44 9d 83 bb
       -0.00669212 0.001706621 -0.111590914 -0.0040165503
000180 20 63 09 3e 32 5c 3b bd a4 bd b6 bd 7c 05 81 be
       0.1341672 -0.04574222 -0.0892289 -0.25199497
000190 99 6f 46 3e 55 29 63 3e a9 7e 4e be 1b 44 6d be
       0.19378509 0.22183736 -0.20165505 -0.23170511
0001a0 6d 99 33 be 9b 60 23 bd dd 45 b7 3a e5 b8 48 be
       -0.17538996 -0.039887052 0.0013982613 -0.19601782
0001b0 dc dd 82 bd c9 80 54 3b c7 02 68 b9 63 e0 15 3d
       -0.063899726 0.0032425395 -0.00022126279 0.036590945
0001c0 4a 10 c2 3d d4 04 9d 3d 2d 69 cf 3d 81 63 17 bd
       0.09475763 0.076669365 0.101274826 -0.03696013
0001d0 59 9d ed bd 9c c1 95 3c a1 8a 4a 3d 8a 27 03 3e
       -0.11602277 0.018280797 0.049448613 0.12808052
0001e0 4e ac 7a 3e 1d ec 3e bb b5 2b 68 bd 50 1b 95 3c
       0.24479792 -0.0029132434 -0.056682307 0.0182015
0001f0 6f 85 14 bd 53 1f 35 be db a7 83 bd 12 52 82 bd
       -0.036260065 -0.1768773 -0.064285 -0.0636331
000200 34 e2 8e bd b9 59 95 bd 66 95 dd bc 2b 05 15 3e
       -0.069767386 -0.07292504 -0.027048778 0.14552753
000210 aa 83 f5 be 15 fc cc bd 58 b3 3f be a5 95 4d bf
       -0.47952014 -0.10009018 -0.18720758 -0.80306464
000220 be 8d ad ba 2f 1b 9d 3c 32 39 bb 3d db 2f c0 3d
       -0.0013241095 0.019178001 0.091417685 0.09384128
000230 33 b9 0a 3e cf 2c c4 3d c4 ab 7d 3e d7 ee 34 be
       0.1354721 0.09578859 0.24772555 -0.17669235
000240 ee 8b 89 bd 97 6b dc be 38 8a 2c 3e a1 85 43 3c
       -0.067161426 -0.43050835 0.16849601 0.011933715
000250 b1 5f 2b be 0a 93 e6 bd 04 61 c1 bd d1 91 c7 bd
       -0.16735722 -0.11258514 -0.094423324 -0.09744609
000260 ab 39 ce 3d 49 91 fd bd 3a 66 2f 3d c0 13 48 3e
       0.10069593 -0.123812266 0.0428221 0.19538784
000270 d4 22 22 3e 27 56 0d 3f 90 38 f7 bd 2a 7b 00 3d
       0.15833598 0.55209583 -0.12071335 0.03136746
000280 2b b5 ad bc 14 61 03 be b7 a3 45 be 86 81 a5 bd
       -0.021204552 -0.12830001 -0.19300734 -0.08081345
000290 15 db 08 be 9d 11 10 bd c8 92 c5 bc 0b 6e e2 3d
       -0.13364823 -0.035173047 -0.024117842 0.11056145
0002a0 33 8d 74 be d5 ce 78 3d e7 d3 7c 3d 8d 43 b4 3d
       -0.23881988 0.060744125 0.061725523 0.08801947
0002b0 06 92 87 bd 17 18 16 bd f2 21 78 bd ed e1 b3 3d
       -0.06619649 -0.036644068 -0.060579248 0.08783326
0002c0 c9 af 5f 3e d5 54 a9 3e 59 67 62 bd a8 6a 69 3d
       0.218444 0.33072534 -0.05527434 0.05698648
0002d0 0b 45 9b 3d 7f 15 18 3e 72 1b 81 3e 85 14 74 bb
       0.07581528 0.1485195 0.25216252 -0.0037243676
0002e0 4a a2 3b bb 3d a8 be 3c 4f 15 fe bd ea 32 6e bc
       -0.0028630667 0.023273582 -0.12406408 -0.014538506
0002f0 cf c4 00 3d 4a 6c 4d 3d c6 bb 01 bd 5d 28 15 bd
       0.03143769 0.0501521 -0.031673215 -0.036415447
000300 2f a2 e3 3d 47 89 b1 be 2d 1a d3 bf 68 4d 06 3b
       0.111149184 -0.34675047 -1.6492363 0.0020492915
000310 84 a8 e3 3c 48 30 3a bd 37 91 c1 be 07 4e db bd
       0.027790315 -0.0454562 -0.37806103 -0.10708242
000320 e0 a5 29 bd c4 da c5 bb 99 4b eb 3c a5 f9 ff bd
       -0.041417956 -0.006038042 0.028722571 -0.12498788
000330 44 c2 2a be 51 8e b4 3d ef 1e 0c 3d de fe 86 3d
       -0.16675669 0.08816207 0.034209188 0.06591581
000340 d3 47 d2 3b 6f 08 29 be 3d 77 8b bd 2b df 16 bd
       0.0064172535 -0.16507123 -0.06809852 -0.036833923
000350 c6 c5 b7 3d be 39 3a be b4 b5 cb bd f3 a4 b2 bc
       0.08973269 -0.1818609 -0.099467665 -0.02180717
000360 68 1e 57 be 10 01 7a bd 72 c7 a1 bd fa a1 84 bf
       -0.21007693 -0.06103617 -0.07899369 -1.0361931
000370 ea 23 4e be 78 de 87 3d 32 27 43 bd ce 60 23 3d
       -0.20130888 0.066342294 -0.0476448 0.039887242
000380 d7 bd 45 bc a0 57 c6 bd f1 a6 e4 bd 3c eb ab bd
       -0.012069187 -0.09684682 -0.11164654 -0.08394477
000390 a1 0a 3d be dd 14 82 3a aa 50 2f be a2 13 a6 3b
       -0.18461086 0.0009924431 -0.17120615 0.0050682584
0003a0 1b 20 93 3d de 2f 6a 3d 7a 7c f4 3c d8 21 07 3d
       0.07183858 0.057174556 0.029844511 0.03299126
0003b0 0e 1e 51 bd 43 1b 6c be db f9 e8 bc 8f d3 dc bb
       -0.051054053 -0.23057275 -0.028439453 -0.006739087
0003c0 2d a5 d4 3d f2 ce 1a 3e 5e 1b 35 be 16 e0 f4 3c
       0.10383067 0.15118006 -0.17686221 0.029892009
0003d0 d9 90 b0 3d 51 5a 63 3c cc 16 5a 3e 71 6f e6 bd
       0.086213775 0.013876514 0.21297759 -0.112517245
0003e0 74 fe e0 bc 49 ae 8d bd 9e a3 1c be b5 3e 14 bd
       -0.027465083 -0.06918008 -0.1529679 -0.036192615
0003f0 9a ea 20 3e 1e 44 43 bd 20 4c 71 be fa 0f 30 be
       0.15714493 -0.047672383 -0.23564196 -0.17193595

hidden_layers.0.bias f4 [128]
000000 40 97 19 ba df 66 ba bd 5e 23 71 bd 0f 91 96 bd
       -0.0005859025 -0.09101652 -0.05887162 -0.073518865
000010 86 db c1 bd 45 ad e4 bd f2 d6 bd 3b eb ff 8a bd
       -0.09465699 -0.11165861 0.0057934457 -0.06787094
000020 de 9f a0 be fe 87 8e bc 6d 9b 2c be a2 bd b0 bd
       -0.3137197 -0.01739883 -0.16856165 -0.086299196
000030 03 df c3 bd 87 32 24 be f7 b5 3d be ab cf 94 bd
       -0.095640205 -0.160349 -0.18526445 -0.07266172
000040 78 c2 d4 bc 56 3c 0b bd 23 d9 2f be db 65 d4 bd
       -0.025971636 -0.033993088 -0.17172675 -0.1037099
000050 3a f9 ed bd 04 3c 3b 3d 27 99 45 3d 14 ad 45 bd
       -0.11619802 0.045711532 0.04824176 -0.048260763
000060 02 cb 84 bd fb c5 f8 3d 25 1a ad 3d f6 04 59 be
       -0.06484033 0.12147137 0.08452252 -0.21193299
000070 2b 6c f6 bd ee 5b 1c be b0 13 44 bc 6b 64 12 bd
       -0.1203235 -0.15269443 -0.0119675845 -0.035740297
000080 c8 ca 22 be 94 8d 85 3c 4d 03 b8 bc 8c d3 4b be
       -0.15897667 0.016302861 -0.022462511 -0.19904917
000090 38 cb 9c bd 8b 5f d5 3b 7e 78 99 3c 05 81 8e bd
       -0.076559484 0.0065116338 0.018734213 -0.06958202
0000a0 aa 9c 6d bd 66 c2 44 3d 66 d4 40 3d 79 44 6c bd
       -0.058010735 0.048036955 0.04707756 -0.057682488
0000b0 c2 b6 52 bd 69 ec e1 bd 8a 25 46 3c b9 b8 d8 bd
       -0.051443823 -0.1103142 0.012093911 -0.10582108
0000c0 be d4 49 be 4d 70 d8 3d 13 7d 40 bc 19 9c eb bc
       -0.19710061 0.10568295 -0.01174857 -0.028760957
0000d0 bf 76 82 3d 20 93 33 3d 73 2c 93 bd 78 bf 66 bb
       0.06370305 0.04384148 -0.071862124 -0.003520934
0000e0 86 10 51 be 2d 76 29 be 2a 84 93 3c 7c d6 58 be
       -0.2041646 -0.16548987 0.018007357 -0.2117557
0000f0 49 52 36 be d1 aa 4a bb 52 10 a9 3d ef 0b a7 bd
       -0.17804827 -0.0030924568 0.08255066 -0.08156573
000100 bd aa 18 3e 7a 96 52 3c 5b 3e af bb 8b 5b 05 be
       0.14908881 0.012853259 -0.0053480095 -0.13023202
000110 64 d5 6b be ae 9c 53 be 2a 1c 0d bd 94 1c 23 be
       -0.23030621 -0.20665237 -0.034450687 -0.1592887
000120 0f b2 b1 3c 05 a2 2f be b8 bf 4c be d0 21 93 bd
       0.02169135 -0.1715165 -0.1999501 -0.071841836
000130 c2 67 09 3e 83 f1 38 be 63 0a 12 bd 29 62 62 3c
       0.13418487 -0.1806088 -0.035654437 0.0138173485
000140 cd 80 8d bd 07 6f f7 3c f8 7e b2 bc fa fc f3 bd
       -0.069093324 0.03020431 -0.021789059 -0.11913486
000150 15 67 d7 bd 9a e5 49 3d 29 fe c5 3d 9f 36 f5 bd
       -0.10517708 0.04929123 0.09667618 -0.11973309
000160 ca 99 5e bd 1f 84 6d bd 4f fb 85 3d 0e 8f 20 be
       -0.054345883 -0.05798733 0.06542074 -0.15679571
000170 16 01 0e be e2 27 de bd 89 c1 92 bd 8e a5 52 3d
       -0.13867602 -0.10847451 -0.0716582 0.051427417
000180 8a 18 b3 bd ce 06 3d be 88 18 39 be 6b 58 78 3d
       -0.08744915 -0.18459627 -0.18075764 0.060631197
000190 6e 50 3c be 43 3f 8a be 0a c4 fa 3c a6 df 8a 3d
       -0.18390056 -0.2700139 0.030611057 0.06780939
0001a0 99 bd a5 be 4d 99 37 be b4 24 ea bd cd 22 3d 3d
       -0.32371214 -0.17929573 -0.11432782 0.046175767
0001b0 8b ff dc bd 90 a6 e5 bd 5b 6f 8e 3d 26 53 19 be
       -0.107909285 -0.1121341 0.06954833 -0.14973125
0001c0 f5 2a fa bd ca cd 34 be 9e 28 07 bd a1 60 0a 3a
       -0.12215225 -0.17656627 -0.03299772 0.0005278681
0001d0 35 cd b9 bd dc 94 fa 3c 82 af 10 bc 6a 33 1f be
       -0.09072343 0.03058856 -0.008830907 -0.15546957
0001e0 44 c6 9a bd a2 f2 85 3c 88 06 ce bd 36 61 85 be
       -0.075573474 0.016351048 -0.100598395 -0.2605073
0001f0 f4 8e 9e bd b7 4a d7 3c 78 1d 3b 3d 43 f2 5b bd
       -0.0774211 0.026280744 0.0456824 -0.053697836

hidden_layers.1.weight f4 [64, 128]
000000 7b 76 87 3d e4 77 f9 3c a3 a1 7e bd c0 48 e1 3d
       0.06614395 0.030452676 -0.062165868 0.11000204
000010 4e b0 36 bd 96 f4 fe bc d3 25 2a 3e d3 83 9a bc
       -0.04460173 -0.031122487 0.16615991 -0.018861687
000020 79 e3 af 3c 14 ec 3f 3d 79 2d 80 3c 1a 92 74 bc
       0.021470772 0.046856 0.015646683 -0.014927411
000030 a9 18 30 3e cc 96 82 3c 05 51 a2 3c d9 6a 1d 3e
       0.17196907 0.015941046 0.019814024 0.1537279
000040 dc d8 2e 3d 5a 04 91 3d 72 d8 0b bd 1a 34 75 be
       0.042687282 0.07080908 -0.034141965 -0.23945656
000050 7c 2a 0f 3e d9 0c 0d be 22 54 84 bd da 65 6c bd
       0.1398105 -0.13774432 -0.064613596 -0.05771432
000060 10 52 33 bd 6d ea 8d 3c 14 b0 8a bc 03 82 3c bd
       -0.043779433 0.017323697 -0.016929664 -0.046022426
000070 b9 2f 81 bd b0 c2 77 bd a7 e5 db bd d0 f9 21 be
       -0.063079305 -0.060488403 -0.10737162 -0.15817952
000080 b4 55 ca 3c ed e0 03 3e be 2f bc bc 28 c7 fa 3d
       0.02469907 0.12878771 -0.022971984 0.12245017
000090 17 3b b6 bb df 0b dc bd 8c bd 0a 3d dd d6 ba bd
       -0.0055612433 -0.10744452 0.033872172 -0.09123013
0000a0 b0 86 87 3e a9 d2 28 bd fc e1 28 be 4c ca 02 be
       0.26469946 -0.041216526 -0.16492456 -0.12772483
0000b0 d6 5a 85 3c 74 06 c2 3c 1f 9d c0 bc 7c ab 1f be
       0.016278666 0.023684718 -0.023512421 -0.1559276
0000c0 34 11 1e 3b 79 5c 33 3d 53 ff 1b 3e 84 d3 9e 3d
       0.002411914 0.04378936 0.15234117 0.07755187
0000d0 75 01 03 3d 0a 0c 66 3b ff 5d 05 3b 68 84 b1 bc
       0.03198381 0.003510239 0.0020350215 -0.021669582
0000e0 6d 14 4a 3e 34 33 0e be af d8 32 bd d6 2b 54 3d
       0.19734354 -0.1388672 -0.043663677 0.051799618
0000f0 f4 5d f0 bd da 56 89 bd e3 41 80 bc 6b 58 25 bd
       -0.1173667 -0.06706019 -0.015656417 -0.040367525
000100 70 a3 d9 3c 3d 3c 8f 3d c1 0a 37 3e 86 14 a2 bd
       0.02656719 0.069939114 0.17875196 -0.07914071
000110 d8 35 b1 bc 7e 8d 23 bd c3 08 38 bd a1 0e 53 3b
       -0.02163212 -0.03992986 -0.04493023 0.0032204764
000120 b2 6a 6a bd 86 e6 01 be 74 ca 7d 3c e2 6c 4e bd
       -0.05723066 -0.12685594 0.015490163 -0.050396807
000130 c5 0a 45 bc 37 1f 19 bd f1 8f 0a be bf 26 10 3e
       -0.012026493 -0.037383284 -0.13531472 0.1407728
000140 39 61 09 3d 3f e6 ce bc 6f fe 98 bd 93 d3 05 3e
       0.033539984 -0.025256274 -0.07470404 0.1306899
000150 e8 6d 2c 3e 00 79 a3 bd 24 0b 0d 3e 3b 47 13 bd
       0.16838801 -0.07982063 0.13773781 -0.035956603
000160 01 a5 20 be bb 9c b8 bc b9 5c a6 3d 4c ee 71 bb
       -0.15687944 -0.022535672 0.08123154 -0.0036915718
000170 cf a5 31 be 69 6e a6 be 3a 89 b1 3d 17 72 71 bc
       -0.17348407 -0.3250611 0.08668752 -0.014736674
000180 f7 6d eb bd 66 de 96 be fd 92 f2 bd 93 a5 27 3c
       -0.114955835 -0.29466552 -0.11844442 0.010232347
000190 11 11 47 3e a8 93 84 be fb b5 ba bd 54 fe dd 3c
       0.19440104 -0.25893903 -0.09116741 0.027098812
0001a0 a8 44 6c bc 52 6d fc 3d f5 7e d2 bd f8 a9 83 be
       -0.014420666 0.12325539 -0.102781214 -0.25715613
0001b0 be 40 6a 3e da f3 97 3d 66 02 52 bd d7 87 0b bd
       0.2287626 0.07419558 -0.05127182 -0.034065094
0001c0 d2 53 d8 ba 56 ac 93 bc 4a 4f 53 bd 49 33 4c be
       -0.0016504473 -0.018026512 -0.051589288 -0.19941439
0001d0 cb 8c 04 bd fc 25 c0 bc ce 1a 70 bd ec 37 15 be
       -0.032360833 -0.023455612 -0.058619313 -0.14572114
0001e0 55 6e 0c 3e de 68 cb bd 60 80 5d 3e 3d 42 19 bd
       0.13713963 -0.09932111 0.21631002 -0.037416685
0001f0 5b f7 01 3d 98 9f 73 3b 4c d3 96 3d 24 d5 fa 3c
       0.031730037 0.0037173983 0.073645204 0.030619211
000200 a6 96 17 3e 2c 87 5e bd 9b 6e 6d ba 6d fd 9d 3c
       0.14803562 -0.05432813 -0.0009057314 0.019285882
000210 ee 0e 19 bd 77 d3 04 bd 1a 80 cc 3d 52 cf 59 be
       -0.037367754 -0.03242823 0.09985371 -0.21270493
000220 0e c5 8c 3d 44 a6 d1 3d bd 2b 9b 3d 8e 50 d9 bc
       0.06873523 0.10236791 0.07576702 -0.02652767
000230 d2 f4 c5 3d 27 d8 0a 3b 22 29 85 bc 37 f9 11 3d
       0.096658364 0.0021185966 -0.016254965 0.03563806
000240 15 48 cb bd 33 90 03 3d 47 fe bb bd bb e1 73 be
       -0.09925858 0.03211994 -0.09179359 -0.23816578
000250 cc f3 06 bd 83 f2 e8 bc fd 94 74 bc 3e 29 8e 3d
       -0.032947347 -0.028435951 -0.0149281 0.0694146
000260 0d 1f d3 3b b9 80 9c 3c 6b ac d4 3d aa d8 9f bd
       0.0064429105 0.019104348 0.103844486 -0.07804997
000270 a0 ff c4 3d f3 98 42 bd 6f c8 08 be aa 7e 19 be
       0.09619069 -0.047509145 -0.1335771 -0.14989725
000280 5a ae 1f be bb 84 7a 3d a8 fe 06 bc 0a 93 0a 3e
       -0.15593854 0.061161738 -0.008239426 0.13532653
000290 8b 70 8a bc f6 16 41 3e 49 e0 36 3d 06 5b 1c bd
       -0.016899368 0.18856415 0.04464749 -0.038172744
0002a0 4c 29 7e 3e 6b ad be bb b4 db 43 bd 9c 6c f9 bc
       0.24820441 -0.005819013 -0.047816947 -0.030447297
0002b0 9d 7f e6 3b 15 2e e4 3c 15 11 e7 bb a8 57 be 3b
       0.0070342557 0.027854005 -0.007051597 0.0058087893
0002c0 ed db 53 bc 6e 30 b6 3d 95 05 1f 3e 3f e0 d7 3d
       -0.012930852 0.08895956 0.15529473 0.105408184
0002d0 65 02 c2 3d ec 71 88 bd d9 96 52 bd d1 5e 50 3c
       0.09473113 -0.06662354 -0.05141339 0.0127179185
0002e0 f9 63 93 bd 6f 2e c8 bc d8 f8 95 3d e8 ad 43 be
       -0.07196803 -0.024436204 0.07322854 -0.19109309
0002f0 b4 e3 72 bc 34 3f 04 bd 27 fa e1 bc c6 35 dc 3d
       -0.0148247965 -0.032286838 -0.027585102 0.10752444
000300 1e c7 9d 3d ca c0 00 3e 2d 46 77 3e 36 c1 45 bc
       0.07703994 0.12573543 0.24147864 -0.012069991
000310 d1 0d 78 3d 16 50 3b bd 51 5c 81 3b 4a 25 f9 bc
       0.06056005 -0.045730673 0.0039477726 -0.030413289
000320 a7 45 8f b9 0e 9c 3c be 95 87 dc 3c 98 34 2a 3d
       -0.0002732698 -0.18418905 0.02692012 0.041554064
000330 24 52 b6 3d 2a 9a ba bd 81 a5 9f bd 9c 53 11 3e
       0.08902386 -0.09111436 -0.07795239 0.1419205
000340 3b b9 0d 3d ed cb 62 3b 94 fc 51 be 05 d0 ac bd
       0.034600478 0.0034606413 -0.20506507 -0.08438114
000350 fa 42 af 3d 5d da 02 bd 2d 3f bc 3d 4b 2d 89 3c
       0.08557697 -0.03194653 0.09191737 0.01674523
000360 f8 c7 f8 3d 29 70 8a bc 0a c0 02 3d 02 31 d2 bd
       0.12147516 -0.016899185 0.031921424 -0.10263254
000370 6c e0 18 be 87 5b 2a be c1 b3 cd 3c cd c7 a6 3c
       -0.1492936 -0.16636477 0.025110127 0.020358944
000380 ae eb 51 be 02 b3 2d be 5a d7 9d bd 21 94 e8 3d
       -0.20500061 -0.16962817 -0.07707091 0.11356378
000390 db 45 77 3d 90 3f 8a be 00 94 1f 3e c6 3c 43 3d
       0.060369354 -0.2700162 0.15583801 0.04766538
0003a0 df 34 93 bd 98 38 e2 3d 63 18 a8 3c c5 fa 65 be
       -0.07187819 0.11045951 0.020519441 -0.22458942
0003b0 10 1f d5 3d 29 00 28 bd 8f 86 83 bc ae 3f 12 3b
       0.10406315 -0.041015778 -0.016055373 0.0022315788
0003c0 00 90 59 3c 05 03 f8 3b 93 45 f3 3d 03 9a ff bd
       0.013278961 0.0075687193 0.118785046 -0.12480547
0003d0 6c cf cc bd d7 4d 05 bc d0 82 ca 3d 2e 42 34 be
       -0.100005 -0.008136234 0.09888232 -0.1760337
0003e0 78 e7 9e 3c f2 a3 a4 3d 21 e4 3a 3e e3 2d 06 bd
       0.019397482 0.080390826 0.18251087 -0.032758605
0003f0 f8 1f bc 3d 94 1d 0c be 6e 99 97 bb 39 dc 21 3d
       0.09185785 -0.13683158 -0.0046264445 0.03951666

hidden_layers.1.bias f4 [64]
000000 10 dc 5e 3e 07 da 30 3e ae db 12 3e 68 f1 6b 3e
       0.21763635 0.17270671 0.14341614 0.23041308
000010 d9 b6 95 3e f9 e4 1f be dc 52 ff 3d 58 00 9a 3d
       0.29241064 -0.1561469 0.12466976 0.07519597
000020 d2 64 2d 3e 89 36 42 3e e8 92 71 3d 4c c8 09 3e
       0.16932991 0.18966116 0.05897799 0.13455313
000030 08 99 1c be c6 60 5f 3e 9a 8c 05 3e 59 56 e8 bd
       -0.15292752 0.2181426 0.13041916 -0.113445945
000040 81 8b 04 3e f0 fa 6d 3e e3 d2 75 3e 2c 41 23 be
       0.12943842 0.23240256 0.24006228 -0.1594283
000050 77 23 0c be 32 ef 8b 3e ea e3 75 3e 5c 15 6d 3e
       -0.13685404 0.2733093 0.24012724 0.23152679
000060 26 e7 81 bd 1b 20 18 3e 6b 1d 8b 3e f8 a7 58 3e
       -0.06342916 0.14855997 0.27170882 0.21157825
000070 ca 70 22 3e 0f 40 3f 3c 69 43 86 3e a9 43 8a 3e
       0.15863338 0.011672988 0.26223305 0.27004746
000080 cb 47 03 3e 4e 49 97 3e e0 ad 8c 3e 5a 64 a6 3d
       0.12820356 0.29548115 0.27476406 0.08124609
000090 c3 99 09 be 93 b0 2b 3e 40 4f ab 3d cc 1b 73 3e
       -0.13437562 0.16766576 0.08364725 0.23741072
0000a0 9f 3a 8b 3e ce 4e 78 3e 8b c9 f0 3c 1a 1f 80 3e
       0.27193162 0.24248812 0.029392978 0.2502373
0000b0 8b aa 92 3e a3 b1 30 3e ed 97 8a 3e 75 45 59 3e
       0.2864574 0.17255263 0.27069035 0.21217902
0000c0 29 cf 33 3e 82 08 82 3d 7a da 0d 3e a5 04 d0 3d
       0.17559494 0.06349279 0.13852873 0.10157136
0000d0 1c a5 26 be 9d 8d 85 3e 58 5e 90 3e 4c 22 72 3e
       -0.16273922 0.26084605 0.2819698 0.23645896
0000e0 d5 6a 24 3e 97 75 2f 3e bb 53 97 3e 6c af 82 3e
       0.16056378 0.171347 0.2955607 0.2552446
0000f0 0f 04 95 3e 36 3d 5d 3e 0a 31 fe 3d 04 f5 48 3e
       0.2910466 0.21605381 0.12411697 0.19624716

output.weight f4 [4, 64]
000000 e4 1e 4a 3d d1 51 04 3d 24 f0 28 3d 95 13 c0 3d
       0.049345866 0.03230459 0.04124464 0.09378735
000010 72 32 7c 3d 82 2f 96 bc 57 5c 33 3d 23 f4 80 bd
       0.061571546 -0.0183332 0.043789234 -0.062965654
000020 47 c2 28 3d 2b b3 2c 3d c2 19 a0 3d 3f 62 3a 3d
       0.041200902 0.042163055 0.07817413 0.04550385
000030 e5 47 8e 3c 87 2a 05 3d c4 31 23 3d e5 ae 3b 3d
       0.017368266 0.03251126 0.039842382 0.04582109
000040 39 43 cb bd 45 d9 8c 3d af 64 a7 3d 81 9c b4 3c
       -0.09924931 0.068773784 0.08173501 0.022047283
000050 74 f9 26 bd 94 da 98 3d 63 5a 73 3d 1d 5f 52 3d
       -0.04076524 0.074635655 0.05941237 0.05136024
000060 69 e2 e3 bd 0d b5 8b bd f1 14 5b 3d da 0a 47 3d
       -0.11127169 -0.06821642 0.05348677 0.048594333
000070 f8 9d 1c 3d 24 75 d9 bd ba f8 8c 3d 29 52 6c 3d
       0.03823659 -0.10618046 0.06883378 0.05769554
000080 d9 32 57 bd a5 7a 67 3d f6 7e 8d 3d 4f aa 7c bd
       -0.052538726 0.056513447 0.069089815 -0.061685856
000090 8a d3 7e bb e6 9f f7 3c ec 5c 8f bd c4 e6 cf 3d
       -0.0038883411 0.030227613 -0.07000145 0.10151437
0000a0 1c 63 96 3d 29 7e 81 3d 88 f8 02 bd a9 b7 a4 3d
       0.07343122 0.06322891 -0.0319753 0.08042843
0000b0 e6 4e 6f 3d 43 be 3e 3d ce c9 5d 3d 4a a1 4a 3d
       0.058424853 0.046568166 0.054147534 0.049470223
0000c0 07 ea 40 3d 52 ba 7e bd 7d f1 bb bd d2 6b 0e 3d
       0.047098186 -0.062189408 -0.091769196 0.034770794
0000d0 b1 6d af bd 0e 73 35 3d e0 c9 9c 3d fb 5d 2f 3d
       -0.08565844 0.044299178 0.07655692 0.042814236
0000e0 c9 57 22 3d 72 c6 0b 3d 1f 85 7e 3d 2c fa 47 3d
       0.0396345 0.0341248 0.062138673 0.048822567
0000f0 e3 a7 84 3d a9 c3 13 3d bb b7 30 3d 63 53 55 3d
       0.06477334 0.036075268 0.04314397 0.052081477
000100 55 e8 54 3d 7e 44 c4 3c 4a 1a e2 3c 99 84 fa 3d
       0.05197938 0.02395844 0.027600426 0.12232322
000110 3b c7 86 3d 1a ca 8b 3c fd 02 50 3d ce d5 06 bc
       0.06580969 0.017064143 0.0507841 -0.008229686
000120 a1 0d f8 3c 5c fd 6b 3d 7e 52 d8 bd 07 8f 0c 3d
       0.030279936 0.05761467 -0.10562609 0.03431609
000130 a2 56 a2 3d aa fe 3f 3d 6a dd 8c 3d 29 02 8b bd
       0.0792668 0.046873726 0.06878169 -0.067875214
000140 6d 05 17 bd 60 a8 78 3d f6 a2 88 3d d3 f2 e4 3c
       -0.03687041 0.06070745 0.06671707 0.027947819
000150 15 f4 59 bd 56 c0 f3 3c 8b 58 11 3d f1 87 7a 3d
       -0.05321129 0.029754799 0.03548483 0.0611648
000160 e3 af 95 bd 24 2c bb bc 13 3b 88 3d 19 47 5b 3d
       -0.07308938 -0.022848196 0.066518925 0.0535346
000170 31 ec f8 3c 3f 6b a6 bd 34 fc 87 3d 99 8b 84 3d
       0.030386062 -0.08125924 0.06639901 0.06471939
000180 24 46 d3 bc c8 e4 72 3d 33 d0 94 3d 0a c2 45 3c
       -0.025790282 0.059300214 0.07266273 0.012070188
000190 dd 14 6d bd 75 28 8c 3d 87 12 41 bc ed 7d c4 3d
       -0.057881225 0.06843654 -0.011784202 0.09594331
0001a0 7e 46 66 3d 05 d0 c0 3d 0e 11 e7 3c cf 01 bb 3d
       0.05621957 0.094146766 0.028206374 0.09131204
0001b0 14 0a 2e 3d d9 2f d2 3c 37 a9 f9 3c f8 25 81 3d
       0.04249008 0.025657581 0.030476196 0.0630607
0001c0 03 54 b1 3c fb 78 dc bc c0 c7 0e bd 9f 99 88 3c
       0.021646505 -0.026913157 -0.034858465 0.016674815
0001d0 84 19 82 bc 18 e0 71 3b 7c 89 54 3d c7 48 3e 3d
       -0.015881307 0.0036907252 0.051888928 0.046456125
0001e0 0b 3b 11 3d a2 89 e5 3c 7a dc 4b 3d 4b 32 9c 3d
       0.0354567 0.02801973 0.04977081 0.0762678
0001f0 ae 65 3c 3d 1b 09 2d 3d f8 27 34 3d 06 58 37 3c
       0.045995407 0.04224501 0.04398343 0.01119042
000200 c9 a7 46 3d 0f a5 5b 3d e8 ba 5a 3d 64 a5 ac 3d
       0.048499856 0.05362421 0.053400904 0.08429983
000210 6a fd 88 3d c0 97 63 3d 39 01 7b 3d 01 d1 ec bc
       0.0668896 0.055564642 0.061280463 -0.028908255
000220 eb 50 42 3d 9d f1 98 3d 73 d5 73 be d0 e4 3c 3d
       0.04744045 0.07467959 -0.23811893 0.04611665
000230 8f eb cc bb e8 af 95 3d 65 02 6b 3d fa bf a8 3b
       -0.0062536667 0.07308942 0.05737533 0.0051498385
000240 ab 25 18 bc a2 c9 b3 3d 7b f6 8e 3d e2 2c 33 bd
       -0.0092863245 0.08778693 0.06980606 -0.043743975
000250 47 f8 b9 3c 71 f2 db 3c b0 9d 85 3d bb 8c 1b 3d
       0.022701396 0.026849004 0.06524217 0.037976008
000260 55 e4 50 be 0a 10 28 bd b5 31 02 3d 4b 9d 1c be
       -0.20399602 -0.04103092 0.031785686 -0.15294378
000270 0c 68 89 3d 6b 13 2f be 37 ba 43 3d ad 46 6d 3d
       0.067092985 -0.17097251 0.04778501 0.05792873
000280 bb 1d e6 bb f3 0d d9 bc 98 46 09 3d 70 e5 b8 bc
       -0.007022587 -0.02649591 0.03351459 -0.022570342
000290 b6 98 77 3c 84 a6 33 3d 57 9d b0 bc b4 23 ee 3d
       0.015112093 0.043859974 -0.0215594 0.116279036
0002a0 86 ae 36 3d 7a 0a 67 be 7c ed 4a 3d a0 7e 60 3d
       0.044600032 -0.2256259 0.04954289 0.05480826
0002b0 29 03 8a 3c d1 5e 54 3d 93 4f 99 3c 5f e0 bc 3d
       0.01684721 0.051848236 0.018714702 0.09222483
0002c0 3e bf b0 3c 18 04 d7 bd 17 50 38 bd 3a d6 6f 3d
       0.021575566 -0.10498828 -0.044998255 0.05855391
0002d0 46 62 28 bd 09 16 c2 3a fb 62 d6 3c a6 91 6d 3d
       -0.041109346 0.0014807592 0.026170244 0.05800023
0002e0 7e d6 6c 3d 70 5a 17 3d be 66 53 3d d2 6f e5 3c
       0.057821743 0.036951482 0.051611654 0.028007422
0002f0 f8 87 fb 3c 4d 50 57 3d 06 b9 94 3d a6 f2 d1 3c
       0.030704483 0.052566815 0.07261853 0.0256284
000300 f4 c1 e7 bc 51 24 4b 3d f5 eb 73 3d b9 dd ce 3d
       -0.028290726 0.04959518 0.059551198 0.10100884
000310 48 bb 8e 3c 14 f3 6e 3c 2e 91 65 3d 02 c4 59 bd
       0.017423287 0.0145843215 0.056046657 -0.053165443
000320 ab 33 66 3d 17 a7 60 3d a1 df 46 bd 55 0e 83 3d
       0.05620162 0.05484685 -0.048553113 0.06399218
000330 15 92 bd bd 6d 53 88 3d cb 3e 85 3d 59 cb f6 3c
       -0.092563786 0.06656537 0.065061174 0.03012626
000340 2e 6e 9c bd 28 9e b2 3d 20 ab 6c 3d 75 f8 53 3d
       -0.076382026 0.08721572 0.057780385 0.05175062
000350 31 e8 d5 3d 4a 52 22 3d e5 9a 74 3d 52 b0 20 3d
       0.104446776 0.03962926 0.05971803 0.039230652
000360 6e 8d ee bd 93 fa 43 bd 9c 0b 8d 3d eb 5e 57 3d
       -0.11648069 -0.047846388 0.0688698 0.052580755
000370 ef b6 7a 3d aa 8f b8 bd c5 2a 0c 3d 43 50 1e 3d
       0.061209615 -0.09011777 0.034220476 0.038650762
000380 49 c3 bf bc b1 1c 90 3c 02 0d ee 3c 91 4e e0 bc
       -0.023408549 0.017591806 0.029058937 -0.027381213
000390 9f cf bb bd a8 2d 74 3d f9 55 51 bd 60 bf fa 3d
       -0.0917046 0.059613854 -0.05110738 0.12243533
0003a0 7a d5 04 3d 23 f2 b1 be 25 de 33 3d 07 74 89 3d
       0.03243015 -0.34755048 0.043913025 0.067115836
0003b0 91 75 68 3c d4 b6 25 3d 8d 42 36 3d fd 0f 90 3d
       0.014188186 0.04045756 0.04449706 0.070342995
0003c0 d1 f3 3c 3d 3f 05 58 3d e1 ca 67 bd 30 d0 90 3d
       0.04613096 0.052739378 -0.056589965 0.070709586
0003d0 8c b3 67 3d 44 68 45 3d ad 17 5f 3d 07 68 77 3b
       0.056567714 0.04819514 0.05446594 0.0037751214
0003e0 6d db 1f 3d 84 59 52 3d 38 09 ad 3c 08 24 5d 3d
       0.03902762 0.0513549 0.02112256 0.05398944
0003f0 da 83 92 3c 29 73 9d 3d b2 ed 43 3d d2 5f 2e 3d
       0.017885137 0.07687981 0.047834106 0.04257185

output.bias f4 [4]
000000 7d f3 ad 3f 70 df 9c 3f 55 61 a7 3f 50 56 a6 3f
       1.3589932 1.2255688 1.3076578 1.299509
