experiments/navigate_1373_18Oct22075808.pth (torch_old, 54660 bytes, 6 tensors)

hidden_layers.0.weight f4 [128, 37]
000000 30 cc 44 3e 80 26 c7 be 66 ba be be 75 f2 bd be
       0.19218516 -0.3889656 -0.37251586 -0.37099043
000010 5f 43 86 bf 82 0f 05 3b 06 8b 5a 3c 90 06 de 3d
       -1.048931 0.0020303433 0.01333881 0.108410954
000020 4b e4 08 3e d5 c8 38 3e 4b 82 31 bd ba 41 be bd
       0.13368337 0.18045361 -0.043337148 -0.0928988
000030 53 bb c8 bd b7 33 be bd 01 20 30 3c 0d fd 3d 3d
       -0.09801354 -0.092872076 0.010749818 0.046383906
000040 61 d6 a0 3d 24 a8 41 bc ff d7 01 be 91 92 2b be
       0.078533895 -0.011819873 -0.12680052 -0.1675513
000050 cb 65 b7 3d 9c 86 71 3d 79 5c b4 3d 5f ec 42 3d
       0.08954962 0.058966264 0.088067 0.047588702
000060 07 44 fa 3c db 37 aa 3b 9b 86 46 3c 66 fe cc 3c
       0.030550016 0.005194647 0.012117053 0.02502365
000070 c7 23 0c bd 14 b1 ca 3c 8e 4e ad bb ff f8 17 3d
       -0.034213807 0.02474264 -0.0052889055 0.037102696
000080 82 32 de bc 64 1d 25 3d a1 00 1a bd 79 8d ae bc
       -0.027123693 0.040311232 -0.037598256 -0.021307694
000090 e2 16 f9 3b d9 22 85 3d fe 6a c0 3d 70 60 e3 3d
       0.007601605 0.06500787 0.09395407 0.11102378
0000a0 bc a9 a6 3d 1e 32 02 3d 7e 1d e3 3d 14 45 07 bf
       0.08137843 0.031786077 0.110896096 -0.5283978
0000b0 c3 e8 ca be 81 ef f4 be 8f 43 b9 bf 01 78 b9 3c
       -0.39630708 -0.47838977 -1.4473742 0.02264023
0000c0 26 9d 23 bb 26 ac 23 3c 00 31 05 3d d3 67 84 3d
       -0.0024965494 0.009989774 0.032517433 0.064651154
0000d0 6e 24 ce 3c 48 f8 bf 3c c6 36 7a 3d 7a 80 ac 3d
       0.025163855 0.02343382 0.061087392 0.084229425
0000e0 12 70 4f 3d 99 bc bb bd 3f 05 b2 bd 09 78 86 bd
       0.050643988 -0.091668315 -0.08692407 -0.06565864
0000f0 a1 68 93 bd f2 8e 74 3d 18 a7 37 bd 8f 29 d6 bc
       -0.07197691 0.059706636 -0.044837087 -0.026142864
000100 83 1b 47 bb 4a fe 3f 3b 6c 80 c5 3d ed 26 48 3d
       -0.0030381388 0.0029295855 0.09643635 0.048865248
000110 fd 08 b2 3d e9 65 bc 3d 5b 1b e2 3d 2c eb 90 3c
       0.08693121 0.09199125 0.11040374 0.017690264
000120 10 cb 35 3c 8d ed 12 3b c2 3d a3 3d 87 86 af 3d
       0.011095777 0.0022419423 0.07970764 0.08570581
000130 b6 d0 be 3d fa 66 a1 3d 12 4c 01 bd a7 04 d3 be
       0.09317152 0.07880969 -0.031566687 -0.41214487
000140 db c9 31 3e 53 80 61 3e 6e 6f 6f 3e c5 4e 7b be
       0.17362158 0.22021608 0.23382351 -0.24541767
000150 98 26 8c bc b3 21 3f bb 31 87 c5 3c a9 39 06 bc
       -0.017108247 -0.0029164373 0.024112316 -0.008192458
000160 8a 1b 0a 3b 00 b2 a1 bd 79 65 8e 3d ba 3e a7 3d
       0.0021073543 -0.07895279 0.06952948 0.08166261
000170 3d b2 f2 3d 68 95 b6 3d d6 5b 11 bf e2 4b 00 3e
       0.118504025 0.08915216 -0.56780756 0.12528947
000180 bd 67 4c 3d fc 9c d0 3c d4 5f 68 be 7c b0 18 bc
       0.04990362 0.025465481 -0.22692806 -0.009319421
000190 0d ed 1b 3d d7 ae ae 3d 2b 50 57 3d 31 d0 d5 3d
       0.038067866 0.08529442 0.05256669 0.104401
0001a0 c7 c2 4d be 68 85 01 b9 11 14 63 bc a2 a3 86 39
       -0.20093833 -0.00012352096 -0.013859765 0.00025680388
0001b0 95 0c f3 3d cc 33 c6 3c 48 c3 5d bc 9d c6 9d 3e
       0.11867634 0.02419462 -0.013535328 0.30815592
0001c0 e9 af a9 be 3e 54 52 be c3 91 31 be 65 c8 8c bf
       -0.3314202 -0.20539948 -0.1734076 -1.0998656
0001d0 48 e6 26 bd 28 48 6c 3c 63 e3 08 3d d9 97 d0 3d
       -0.040746957 0.0144215 0.033419978 0.10185213
0001e0 66 b8 04 3e 08 6c 19 bd 91 2f fe 3c 7c 0d a7 bd
       0.12960967 -0.037456542 0.03102854 -0.08156869
0001f0 33 a3 25 bc 09 9e e4 bd c1 8f 6e bc 25 b9 1c 3d
       -0.0101097105 -0.11162955 -0.014560641 0.038262505
000200 b2 56 e4 bd 81 26 5f be 5e 3c c7 be 22 fc 03 3d
       -0.11149348 -0.21792032 -0.38913244 0.032222874
000210 c9 d2 47 bd 84 5e 98 bb 6b a2 c2 3d 7a aa 90 3d
       -0.048785005 -0.004649939 0.09503635 0.07063766
000220 30 48 3e bd 86 f1 0f 3d 03 75 2a 3d b7 1f 1b 3e
       -0.046455562 0.035142444 0.041615497 0.15148817
000230 a2 65 0a 3e 1b 34 a1 3d de fa ee 3d 93 25 df 3c
       0.13515332 0.078712665 0.11668943 0.027239596
000240 57 31 49 3d 77 7b b9 ba cb 21 83 3c bb a3 3f 3c
       0.04911932 -0.0014151175 0.016007325 0.011696751
000250 34 6a 7e be 7c 36 91 bc c3 ce 2b be a1 35 78 be
       -0.24845201 -0.017726175 -0.16778092 -0.24239208
000260 7b a7 ae be b3 e7 34 be b7 97 8e 3b fe a5 82 3c
       -0.34112152 -0.17666511 0.004351582 0.015948292
000270 a8 c2 20 be 07 36 4e bf c6 2d 93 bd 96 36 0c be
       -0.15699255 -0.8055119 -0.07186465 -0.13692698
000280 4d 51 33 bd ea 6a 87 be 21 89 9a bd 1f a8 fb be
       -0.043778706 -0.26448756 -0.075456865 -0.49151704
000290 4c 24 00 bd 5a a2 b0 3d 24 ae 46 be f5 e2 1b bf
       -0.031284615 0.08624716 -0.19402367 -0.60893184
0002a0 d4 95 21 be 2c 5f 37 bd 33 ae 3b 3d d5 11 4f be
       -0.15779811 -0.044768497 0.045820426 -0.20221646
0002b0 be 04 72 3d d4 aa 65 be 35 27 50 be e6 5b 5e 3e
       0.059086554 -0.22428447 -0.20327456 0.21714744
0002c0 77 17 8d bd a5 5f 84 bf 6a 61 91 bd cf f1 a7 be
       -0.06889241 -1.0341688 -0.070986584 -0.32801673
0002d0 b8 fc e9 3d 3c 04 8e be 30 4a f3 bd f6 e8 04 3e
       0.114251554 -0.27737606 -0.118793845 0.12979493
0002e0 62 fa 28 3d 9a 5c 26 bc 63 0b 4b bd 82 20 33 bb
       0.04125441 -0.010153914 -0.049571406 -0.0027332609
0002f0 60 f6 44 3c f3 22 cb 3d df 3f 6f 3e 9d 07 dc bd
       0.012021631 0.099187754 0.23364209 -0.107436396
000300 9b 6f 75 be 27 78 81 be 1f 3d c9 bf 52 07 fc bc
       -0.23968355 -0.2528698 -1.5721778 -0.03076521
000310 4f bf 26 bd 89 93 5d bd 33 b3 d4 bd e1 67 e0 bc
       -0.04070979 -0.05409578 -0.10385742 -0.027393283
000320 cf 25 d8 bc 7f 91 47 3c 0d c3 f2 3c e1 35 18 bc
       -0.026385216 0.012180685 0.029634023 -0.0092901895
000330 0c 5b c5 3b 9a 82 10 3e 76 1d 9a 3d 2e dc c3 3d
       0.0060228165 0.1411232 0.075251505 0.0956348
000340 a3 26 65 3d 83 df b7 3c ca e1 d4 3b 2a 59 84 3c
       0.05594505 0.022445446 0.0064966427 0.016155798
000350 24 31 85 3c 9c 56 ef bb f1 02 ac 3d da 53 90 3d
       0.016258784 -0.007304026 0.083989985 0.070472434
000360 0a 90 04 be 46 39 0f be 7a 06 e2 3d 9d 45 32 bf
       -0.12945572 -0.13986692 0.110363916 -0.6963747
000370 ed 3a 28 bb e8 9b 01 3b 05 ab 92 bd c1 49 bb bb
       -0.0025669888 0.0019776765 -0.07161526 -0.0057155793
000380 c7 7a 84 3b 4e 4f 30 bd a5 e1 58 3d bc ef c5 be
       0.0040429565 -0.04304438 0.052949566 -0.38659465
000390 16 2a c7 3d 79 11 f8 3c fc 04 28 3e c2 aa 56 3e
       0.09724824 0.03028177 0.16408151 0.20963576
0003a0 bc 54 b3 bb 4e 54 f1 3d 36 c3 af 3d 58 89 32 bd
       -0.0054727476 0.11783658 0.085821554 -0.043588012
0003b0 94 75 45 bc 08 d5 c5 bd 01 f5 9e bd 81 15 97 3b
       -0.012051959 -0.09659773 -0.077615745 0.0046107178
0003c0 6e 27 ac bc c7 05 94 3e 34 16 61 be 24 67 5d bc
       -0.021014895 0.28910658 -0.21981126 -0.01351336
0003d0 50 3f 90 3d 7f ac c0 3b 87 10 bb 3d e3 f3 a8 be
       0.07043326 0.005879938 0.09134012 -0.3299857
0003e0 8f 63 ce bb 5f 50 47 bc 1e 0c 68 3d a3 6f 0e 3e
       -0.0062984894 -0.012165158 0.05665218 0.13909774
0003f0 42 30 97 be de dd ee 3d ea 32 0d 3e e7 0d ea 3d
       -0.29529005 0.116634116 0.13788953 0.11428433

hidden_layers.0.bias f4 [128]
000000 94 51 db 39 e4 61 24 3d ae 7d 93 bd ea db 36 bd
       0.00041831715 0.04013242 -0.07201706 -0.04464332
000010 49 57 a0 bd ca 27 bb bd 77 15 5d bc 13 da 79 3d
       -0.07829148 -0.091384485 -0.013493887 0.060998987
000020 04 9f 31 be 12 82 ab bc 20 e9 12 be 33 cd cb bd
       -0.17345816 -0.020936046 -0.14346743 -0.09951248
000030 63 7b d9 bd 91 75 1b be a6 50 cf bd eb 9e 39 bd
       -0.10619237 -0.15181567 -0.10122804 -0.04531757
000040 f7 8b 6e bd 1e 84 16 be 8d 64 db bd 12 8f 25 bd
       -0.05823895 -0.14698836 -0.10712538 -0.040419646
000050 76 14 4c be a8 c2 2c 3d 9a 43 aa 3d f3 b1 ac bd
       -0.1992968 0.042177826 0.08313675 -0.084323786
000060 c7 cd 96 bd da 6a 01 3e 27 cd 9a 3d 87 a6 47 be
       -0.07363468 0.12638417 0.07558661 -0.19497119
000070 9f c5 dd bd 97 02 23 be bb 87 54 3d 8a 2f cd 3d
       -0.10828709 -0.15918957 0.051887255 0.10018833
000080 6e 29 94 bd 5f d4 d7 3c c4 f8 29 bc 68 66 92 be
       -0.072344646 0.026346384 -0.010374252 -0.28593755
000090 16 d6 6a bd b2 75 26 3a a3 d7 b5 bd d5 a3 53 3d
       -0.057333075 0.00063499354 -0.0887902 0.051669914
0000a0 ba 05 98 bc aa bf 68 3d 5d e6 e1 3d b2 fb 84 ba
       -0.018557418 0.05682341 0.110302664 -0.0010145812
0000b0 af 04 f3 bc 48 14 42 be 3e 6c e7 3c 2b 47 20 be
       -0.02966532 -0.18953049 0.028249856 -0.15652148
0000c0 22 27 6c be 35 a0 9a 3d 4e 74 99 bc e0 00 02 bb
       -0.23061803 0.07550088 -0.018732216 -0.0019836947
0000d0 03 83 ab bc ad 93 e5 3c fa 7f 02 bd ce 73 7b 3c
       -0.020936495 0.028024519 -0.03186033 0.015347434
0000e0 b4 1e 39 be 05 2b ba bd dd 13 60 3b 6b bd 03 be
       -0.18078119 -0.090902366 0.0034191527 -0.12865226
0000f0 29 73 4b be a0 4a af bc 49 e0 2f 3d a2 4d a9 bd
       -0.19868149 -0.021397889 0.042938504 -0.082667604
000100 74 fd de 3d 7b 08 53 3d 31 89 8b bd 5a 28 ea bd
       0.10888186 0.05152176 -0.068132766 -0.11433478
000110 d2 9b 1f be 87 0e ea bd 5a c3 c9 3b 2b 1f b7 bd
       -0.15586784 -0.11428552 0.006157321 -0.08941492
000120 25 74 19 3d 94 34 2c be 01 ad 52 be 53 ba 90 bd
       0.03746428 -0.16816932 -0.20573808 -0.070667885
000130 9c a8 bb 3d 6a e5 1e be 40 fd a6 3c 0b 1b a7 bd
       0.09163019 -0.15517202 0.02038443 -0.08159455
000140 30 a6 e2 bd 4f 01 c3 bc 8d d1 bd bb 69 2b db bd
       -0.11066854 -0.023804335 -0.0057928027 -0.10701639
000150 8a 9f 00 be 12 6c 2a 3e ef 6c 57 3b 32 5d 24 be
       -0.1256086 0.16642788 0.0032871326 -0.16051176
000160 19 74 24 bc ce 3c b3 3c af b8 ab 3d b9 f7 57 be
       -0.010037445 0.02187958 0.08384835 -0.21090592
000170 04 59 15 be 23 54 5c be 75 25 db bd eb df 64 3d
       -0.14584738 -0.2151647 -0.10700504 0.055877607
000180 8e 3c ce bd 1e ff 61 be 99 03 8d bd 8b 81 ee 3d
       -0.10070144 -0.22069976 -0.06885452 0.11645802
000190 fd c0 4f be ec df 74 be 9d 2f 74 3d ae 3f d9 3d
       -0.20288463 -0.23913544 0.05961572 0.10607849
0001a0 39 c8 9d be fb c2 02 be 84 d6 3f be d4 4c c9 3d
       -0.3081682 -0.12769692 -0.18734175 0.09829107
0001b0 4c 4d 4b be c9 1e e4 bd 31 aa cf 3d a1 91 3d bd
       -0.19853705 -0.11138684 0.10139883 -0.04628146
0001c0 a6 6d e4 bd 16 f2 0c be b0 ab 88 bc 5c ba 99 3d
       -0.11153726 -0.13764223 -0.01668343 0.07506248
0001d0 f8 4a 08 be f2 13 a1 3d 98 80 ee bc ac 2c 10 be
       -0.13309848 0.078651324 -0.029114053 -0.14079541
0001e0 e4 0b 9b bd 71 89 e0 3c 7c 75 2d bb 73 ad 74 be
       -0.07570627 0.027409287 -0.0026467731 -0.2389429
0001f0 c1 ae f8 bd 8a ca b7 3c 6b 28 69 3d f2 da 16 bd
       -0.12142707 0.022435445 0.05692331 -0.036829896

hidden_layers.1.weight f4 [64, 128]
000000 e1 03 f7 bb c0 f6 8b bd c2 ce ad be 83 59 88 3d
       -0.007538304 -0.06834173 -0.33946806 0.06657698
000010 9c bf 01 3e 80 85 c7 3d c8 a0 3f be cd 07 cb bd
       0.1267075 0.0974226 -0.18713677 -0.09913597
000020 68 99 e0 3d 93 94 7c bc e8 51 32 bd e4 78 a3 ba
       0.1096676 -0.015416282 -0.043535143 -0.0012471941
000030 bf 49 ad be a5 74 8b 3d ea bd 53 be 35 76 11 3d
       -0.33845326 0.068093576 -0.20677915 0.03551312
000040 00 04 a7 be 6f dc 42 be e4 75 4f bd 06 12 16 3d
       -0.3262024 -0.19029401 -0.05064954 0.036638282
000050 38 b7 34 3e a8 5c 2f 3d 84 a6 df 3c 4b d1 13 be
       0.17648017 0.042812973 0.02730108 -0.14435308
000060 11 02 7e 3b 29 87 b0 3c 06 83 ff bd 59 ab 7e be
       0.0038758556 0.021548824 -0.124761626 -0.24870051
000070 3a fb a4 bc 4e e5 c0 3d a5 2e d5 be 3e fc 25 3d
       -0.020139325 0.094187364 -0.4163715 0.04052376
000080 8a bb 2d be 7a e7 dc bd 26 7f 5f be ae ea 3f bd
       -0.16966072 -0.10786338 -0.21825847 -0.046854667
000090 c6 3d 49 bb 7b fe fc bc 26 58 91 be 80 bf 0f bc
       -0.0030706986 -0.030883064 -0.28387564 -0.0087736845
0000a0 7d 4c 74 bd d8 f7 ea bd e1 20 14 bd 2d 4b 1e 3c
       -0.059643257 -0.11473054 -0.03616417 0.009661478
0000b0 95 dd e0 3c 80 3f f5 38 02 f7 3e bd 99 11 57 bd
       0.027449409 0.00011694338 -0.046622284 -0.052507017
0000c0 61 fb 71 bd c4 b0 29 3c 45 53 05 be 2a fc 32 3d
       -0.059077624 0.010357086 -0.13020046 0.043697514
0000d0 76 d6 82 bd 59 26 c5 bc 8b b6 85 be a5 b2 9f 3d
       -0.063885614 -0.024066137 -0.26115832 0.077977456
0000e0 69 f9 a4 3d 9b 2c 8f 3d 3b bb 08 3e 02 3e 5f 3d
       0.08055384 0.0699093 0.13352673 0.054502495
0000f0 74 88 9a bd 3c c2 1b bd 05 6a 83 be 99 44 9b 3d
       -0.075455576 -0.038027033 -0.25666824 0.07581443
000100 06 f1 6d 3d 19 9b 5c 3d 57 e8 22 bc a8 2b 08 bf
       0.058091186 0.05385885 -0.009943089 -0.53191614
000110 48 30 07 3d 29 ba 75 bd a4 54 19 3d 56 14 89 bd
       0.03300503 -0.05999199 0.037434235 -0.06693332
000120 08 0d 6a be e6 0c bc bd e2 28 be 3b b7 3b 77 3d
       -0.22856534 -0.09182148 0.0058032135 0.060359683
000130 dc a5 dd bd a0 06 95 bd 88 bf dd bd 44 49 03 3e
       -0.10822651 -0.07276654 -0.10827547 0.12820917
000140 58 2a a6 3b e9 d0 11 be bd 64 68 bd b6 20 c4 3c
       0.0050709657 -0.14239849 -0.056736697 0.023941379
000150 69 44 01 bd b6 e0 ae 3c 74 1d e6 be 2f 1f 56 3d
       -0.03155938 0.021347385 -0.44944346 0.052275833
000160 81 b8 38 3a 2f bc 95 bc 4f 40 2f 3c e5 b8 55 bc
       0.0007046536 -0.01827821 0.010696485 -0.013044571
000170 51 a7 ee 3b 26 bf 51 bc c2 47 00 3d cc 29 68 bc
       0.0072831293 -0.012801921 0.031318434 -0.014170121
000180 0a 73 46 be 7a 32 c6 3d ea 0d 21 be 2b 5a 24 3a
       -0.19379821 0.096775964 -0.15727964 0.00062695396
000190 3c d3 7a be 8b 4f ab 3d 37 a2 81 bd 66 f4 54 3d
       -0.24494642 0.08364781 -0.06329768 0.05199089
0001a0 ae 56 20 3d 54 26 8c bc a6 df 29 3c cf 5a b9 be
       0.039145164 -0.01710812 0.010368263 -0.36202094
0001b0 32 2a b9 3d 56 8c ad bc c3 3f 57 be e0 3c 44 bd
       0.09041251 -0.021185081 -0.21020417 -0.047909617
0001c0 1b 4a 3e 3d ad 96 94 be b3 d5 82 bc 8f 6b f7 be
       0.04645739 -0.29021206 -0.01597104 -0.48324248
0001d0 1a c9 a3 bd 8b 5f 63 3d e3 e1 b0 bc 62 ad b0 3d
       -0.079973415 0.05551104 -0.021592086 0.0862682
0001e0 5f 02 a1 bb a0 72 dd bd a2 de 23 3c c8 5e 2c bc
       -0.0049136127 -0.108128786 0.01000181 -0.0105206445
0001f0 fc 4b 9e be 06 8d 4b 3d f3 9f ef bc a7 62 86 bd
       -0.30917346 0.049695037 -0.029251074 -0.06561785
000200 51 07 2a be 57 38 03 bf 8c ac 0e bb f5 f9 55 be
       -0.16604353 -0.5125784 -0.0021770326 -0.20896132
000210 ae d9 38 3e c4 50 78 be 94 1d 27 3a 99 8e 4a be
       0.18051788 -0.2424956 0.0006374952 -0.19780959
000220 c7 52 34 3e 65 76 8c be 23 61 dd be c0 08 22 bf
       0.17609702 -0.27434078 -0.43238172 -0.632946
000230 35 11 1f 3d 4f 4a 84 3c ad aa 98 3b 65 4b f7 bd
       0.03883477 0.016148714 0.004659018 -0.12074927
000240 37 2e ce 3c 94 e1 b8 39 62 ae d9 3b 46 ef 03 3d
       0.025168521 0.00035263284 0.0066431025 0.03221061
000250 c0 53 59 3e f3 a1 f1 3c a3 6f 3b be 50 0d 6f bd
       0.21223354 0.029496169 -0.18304305 -0.058362305
000260 56 26 32 bf c7 6c 23 bf d3 1b 94 be e1 12 01 3d
       -0.69589746 -0.63837856 -0.28927478 0.031512145
000270 9a 63 22 bc 9a d7 0b be c8 05 a5 3c ff 3d 77 3c
       -0.009911442 -0.13656464 0.020144358 0.015090465
000280 6a b3 9d 3c 66 b9 b7 bd 2c 99 cb 3b 28 10 ad bd
       0.01925059 -0.08970909 0.006213328 -0.08450347
000290 ea 28 0a 3c ef a2 d7 be 47 fe 72 bc 59 14 67 be
       0.008432606 -0.42116496 -0.014831132 -0.22566356
0002a0 8b 09 d9 be a0 f6 87 be 04 36 a7 bd f9 95 ea be
       -0.42390093 -0.26555347 -0.081645995 -0.45817545
0002b0 d5 98 b9 ba 24 97 03 3d 43 33 a5 3d 83 40 1d 3e
       -0.0014159927 0.03212656 0.08066418 0.1535664
0002c0 88 f9 5a bb 2d 81 16 be ee e5 e9 bc 7a b9 04 bf
       -0.0033412892 -0.14697714 -0.028552022 -0.51845515
0002d0 ab 45 c5 3b fd 2d 99 bc d2 1c 51 3c b0 ae 85 be
       0.006020268 -0.018698687 0.012763219 -0.26109838
0002e0 bd 3f d6 3d a9 a6 de 3d 52 90 42 bf 93 91 5f 3c
       0.10461376 0.10871632 -0.76001465 0.013645547
0002f0 06 c3 04 3e 7d c3 6c be 79 12 70 bb 40 7a 94 be
       0.1296502 -0.23121448 -0.0036632104 -0.2899952
000300 b9 7e 10 bf 0b e0 37 be 4a c5 cc 3c 23 23 31 3c
       -0.56443363 -0.1795656 0.024996419 0.0108116
000310 36 f0 82 3d 15 18 22 3d ff fe f8 bc a7 ac c3 be
       0.06393473 0.039573748 -0.03039503 -0.3821766
000320 6a 44 11 b9 2f 9c f5 3c 36 9d 7b 3b 10 66 ad bd
       -0.00013853764 0.0299817 0.0038393266 -0.084667325
000330 18 14 d3 be a6 ca a2 3e 06 f9 15 bc a0 1d 5b bd
       -0.41226268 0.31795233 -0.00915361 -0.05349505
000340 ee ef f7 be 74 4d 24 bb fd 1f 90 3c 78 d8 aa be
       -0.4842524 -0.002507058 0.017593378 -0.33368278
000350 7c 2c ff 3b 56 86 5c bf 24 6d d6 bc ba 62 84 3c
       0.0077872854 -0.8614248 -0.02617509 0.016160358
000360 db aa 46 be 3b e1 93 be 09 48 6d be 9d 0e 97 bd
       -0.19401114 -0.28882775 -0.2317201 -0.07375834
000370 cb 4d 70 be aa c4 a8 bd a9 a4 61 3a d8 ec 4e bf
       -0.23467176 -0.08240636 0.0008607605 -0.80830145
000380 eb 4d 3c bc a5 40 62 bd 0a 18 6c bd 55 22 5e be
       -0.0114931865 -0.05523743 -0.057640113 -0.21692784
000390 5f 41 2b 3c 6c 24 0d 3b 40 43 bf be 14 d6 76 3e
       0.010452597 0.0021536602 -0.37355995 0.24105102
0003a0 1e f6 ac 3c bf aa 7a be 0c fa 19 3c 0c e7 cf 3c
       0.021113452 -0.24479197 0.009397995 0.025378726
0003b0 63 93 7b 3b 7b b0 89 bd e5 a9 04 3b 73 eb 26 be
       0.003838741 -0.06723114 0.0020242867 -0.16300754
0003c0 7c d1 f2 39 2f a5 15 ba f5 37 f8 bd ac 6a 95 3b
       0.00046313915 -0.0005708513 -0.12120048 0.0045598354
0003d0 d5 b7 d1 3b 76 60 a6 be 29 ee 81 be 26 32 40 3e
       0.0064000883 -0.3249547 -0.25377014 0.1876913
0003e0 92 f9 b0 be 13 b9 6b be 9e 88 ab bd 6d e7 2c 3c
       -0.34565407 -0.23019819 -0.08375667 0.010553223
0003f0 3e 75 b2 bc 3e 6e e2 bd 1d d3 4f 3d f2 7f fd be
       -0.021784421 -0.11056183 0.050738443 -0.49511677

hidden_layers.1.bias f4 [64]
000000 c1 95 80 3e 36 77 cd 3d 50 9e e0 3d 91 fe f5 3d
       0.25114253 0.10032503 0.10967696 0.12011445
000010 f5 37 89 3e e8 79 4d 3e 2c bc f5 3d c4 84 11 3e
       0.26800504 0.20066035 0.119987816 0.14210802
000020 94 c0 39 3e be b7 01 3e 5f 6d 84 3e 09 c0 f3 3d
       0.18139869 0.12667748 0.25864694 0.11901862
000030 eb 9e 5f 3e 34 5e f9 3d 8c 64 df 3d f9 08 16 3e
       0.21837966 0.12176171 0.1090785 0.1465186
000040 6c 8a e8 3d 66 2b f1 3d 79 81 7e 3e 0a d6 23 3e
       0.11354527 0.11775856 0.24854077 0.15999618
000050 93 74 0a be e2 83 71 3e 66 3a 07 be 61 48 7e 3e
       -0.13521032 0.23585466 -0.13205871 0.24832298
000060 12 9d 08 3e cd 9e 87 3e 45 86 7d 3e e2 ad 7f 3e
       0.13341168 0.26488343 0.24758251 0.24968675
000070 ec e7 da 3d 5d 95 a1 ba 4b c6 26 3e 49 86 43 3e
       0.10688767 -0.0012327839 0.1628658 0.19094194
000080 bf f4 28 bd 7f f2 86 3e db 24 78 3e bc 33 39 3e
       -0.041249033 0.26356885 0.24232809 0.18086141
000090 0c 77 20 be 87 7a 28 3e 7c ae 07 3e 86 37 39 3e
       -0.15670413 0.1645299 0.13250154 0.18087587
0000a0 22 54 20 3e d5 e5 42 3e 90 14 e4 3d c8 da 79 3e
       0.15657094 0.19032986 0.111367345 0.24399865
0000b0 6a f3 01 3e 95 b2 73 3e 79 1f 27 3e fa 24 fb 3d
       0.12690511 0.23798592 0.163206 0.12262912
0000c0 ce a8 f0 3d bd 45 da 3d c8 de e6 3d 94 e0 02 3e
       0.11750947 0.10657833 0.11272961 0.12780982
0000d0 e6 12 ed 3d 7f 0d 69 3e a4 56 c0 3d fc cf d1 3d
       0.1157587 0.22759055 0.093915254 0.10244748
0000e0 b7 d8 01 3e a3 c3 7e 3e 3f 15 65 3e 0a 1e e9 3d
       0.12680326 0.24879317 0.22371386 0.113826826
0000f0 a7 b5 b5 3d f8 4c d3 3d bd b1 e6 3d a2 d0 2a 3e
       0.08872538 0.10317415 0.1126437 0.1668115

output.weight f4 [4, 64]
000000 9f e5 76 3d 2b e1 09 be fa 09 e3 3c 36 8a 05 3d
       0.060277577 -0.13464801 0.027714718 0.03260251
000010 80 73 81 3d 8d be 06 3d c2 20 25 3d d0 5f 35 3d
       0.06320858 0.032896567 0.040314443 0.044280827
000020 a5 39 06 3d dc 08 17 3d 82 c5 5b 3d ae 14 e8 3c
       0.032769818 0.036873683 0.053655155 0.028330173
000030 77 63 85 3d 4a 33 23 3d 4f 88 18 3d ed 6a df 3c
       0.06513112 0.039843835 0.03723937 0.027272666
000040 02 f2 01 be 10 55 47 3d 5d 15 b9 3d c6 f4 2d 3d
       -0.12689975 0.048665106 0.09037278 0.042469762
000050 a0 ba 64 bd b2 a4 5a 3d 66 59 a1 3d 1c 00 e3 3d
       -0.055842042 0.053379722 0.078783795 0.11084005
000060 bd 9d c0 bd d5 40 ae 3d f7 6a 57 3d ad 8e 81 3d
       -0.09405086 0.085084595 0.052592244 0.06326041
000070 4d 59 2c 3d 1a 4b b2 bd ea a2 45 bd 99 01 3e 3d
       0.04207735 -0.08705731 -0.04825107 0.046388242
000080 37 fc b6 bd d1 af 84 3d 07 c9 9c 3d c0 9b 0e be
       -0.08934825 0.06478847 0.076555304 -0.13926601
000090 4d 7c 5c 3c 61 86 18 3d 27 53 db bd b0 78 42 3d
       0.01345737 0.03723753 -0.107092194 0.047478378
0000a0 79 b3 1b 3d 6b 95 eb bd 49 a4 ed bd 30 95 a4 3d
       0.038012955 -0.115031086 -0.116036005 0.08036268
0000b0 14 0c 9d bd 24 ca 84 3d 2b 15 18 3d 66 48 1e 3d
       -0.07668319 0.06483868 0.037129562 0.038643263
0000c0 d6 00 1d 3d d8 e3 0b 3d 5e f8 d1 bd d8 6a 13 3d
       0.038330875 0.034152836 -0.102524504 0.035990566
0000d0 a8 9b d6 bd f2 ff 55 3d f1 43 0c 3d d8 e6 18 3d
       -0.10478908 0.05224604 0.03424448 0.037329525
0000e0 10 b1 25 3d 01 b3 5a 3d ce 64 73 3d 8e 00 0c 3d
       0.040452063 0.053393368 0.059422307 0.034180216
0000f0 df 43 f6 3c 8d 2e 22 3d 63 14 01 3d e4 b4 28 3d
       0.03006166 0.039595176 0.031513583 0.041188136
000100 39 76 46 3d a3 8d 6c bd 6a db 10 3d 8a c7 7e 3c
       0.04845259 -0.057752263 0.0353655 0.0155505035
000110 0a 95 68 3d f1 88 1b 3d b4 dc 2e 3d 83 ca 6a 3d
       0.05678276 0.037972394 0.042690948 0.057322036
000120 34 c2 21 3d bf 51 16 3d a7 a5 9e 3d 28 65 19 3d
       0.039491847 0.036699053 0.077464394 0.037449986
000130 f9 7d 80 3d 01 a1 ec 3c 48 b0 48 3d fa 79 fd 3c
       0.062740274 0.028885366 0.04899624 0.030941952
000140 79 0d c9 bc 0b 00 23 3d ce 7d e8 3d 40 bf a9 3c
       -0.024542557 0.039794963 0.1135212 0.020721078
000150 38 e0 7e bd 62 70 63 3d a2 fd 6b bd 9e f4 db 3d
       -0.06222555 0.0555271 -0.05761493 0.107400164
000160 bc 13 b7 3b d8 64 d0 3d c6 22 9d 3d 22 0d 2f 3d
       0.0055870693 0.101754844 0.07672648 0.042737134
000170 25 eb c1 3c 10 96 b5 bd 24 42 84 bd 50 5d 02 3d
       0.023671696 -0.08866513 -0.06457928 0.03182727
000180 e8 be b2 bd ec ea 83 3d 55 32 e3 3d 17 19 c6 bd
       -0.08727819 0.06441292 0.110935844 -0.09672754
000190 7a 9f f3 bb 9a c9 1d 3d ce f6 e6 bc 7b 72 9b 3c
       -0.0074347826 0.03852234 -0.028193858 0.018975487
0001a0 ac 07 aa 3c 56 e4 97 bd 90 e7 b6 bb 46 ce 6e 3d
       0.020755611 -0.074165985 -0.0055818036 0.058302186
0001b0 a0 0a cb bb 02 fc 97 3d dc 92 3a 3c 51 86 33 3d
       -0.006196335 0.074211136 0.011387553 0.043829266
0001c0 f7 11 90 3c bc 84 21 3d 6f 44 08 3d 46 2e 0d 3d
       0.017586691 0.039433226 0.03326839 0.034467958
0001d0 97 7d 22 bc 6d 91 62 3d a3 bc e9 3c 62 46 1c 3d
       -0.009917638 0.05531447 0.028532332 0.03815306
0001e0 06 0c 45 3d 46 b7 7e 3d 3c ab 65 3d 4c a2 00 3d
       0.04810717 0.062186502 0.056071505 0.03140478
0001f0 c9 0c f5 3c 93 6e da 3c ee cf 68 3c 56 fb c2 3c
       0.029913323 0.026664054 0.014209731 0.023801487
000200 38 a0 4d 3c 8e 30 58 bd 2b ce 9a 3d bb 3b 54 3d
       0.012550406 -0.05278068 0.07558855 0.051814776
000210 36 94 ba bc 0c 44 8d 3d e8 73 42 3d 3f bf 8e 3d
       -0.02277575 0.068977445 0.047473818 0.06970071
000220 83 81 7c 3d 37 5d 56 3d cc 98 c8 3c 16 30 36 3d
       0.06164695 0.05233499 0.024486922 0.044479452
000230 39 95 13 3d 6d ec 01 3d 42 a8 41 3d 58 2e 3d 3d
       0.03603098 0.031719614 0.047279604 0.046186775
000240 ea 5a 95 bd d9 0c 76 bc b1 bf 57 3d b0 69 26 bd
       -0.07292731 -0.015017712 0.052673046 -0.040628135
000250 94 76 bd 3b 74 8e af b7 1d f4 10 3a 5d b5 b1 3d
       0.005781958 -2.092796e-05 0.000552954 0.086771704
000260 35 f0 96 3d b3 c9 81 3d 75 e5 e9 3b 70 d0 13 3d
       0.073700346 0.06337299 0.007137949 0.036087453
000270 47 2d 43 3d 7d cc 86 bd 2c 3d 9d be 1f b2 76 3d
       0.0476506 -0.06581972 -0.30710733 0.060228463
000280 d7 15 fa bd cb 41 4c 3a be 44 f2 3b 9f 79 32 bd
       -0.12211197 0.00077917863 0.0073934486 -0.04357302
000290 16 0b 42 3d 4c fe 22 3d 15 e1 3f bd de cf 18 3d
       0.047373854 0.039793298 -0.046845514 0.037307613
0002a0 33 49 65 3d 4e 39 9e bd fd 00 27 bd ec 82 98 3d
       0.05597801 -0.07725774 -0.040772427 0.07446846
0002b0 9f 34 11 3d f1 70 6c 3c 04 15 44 3d 98 ab 19 3d
       0.035450574 0.014431224 0.047871605 0.03751716
0002c0 f8 1f 3d 3d 25 ee 51 3d 14 8d db bd 7b 50 92 3d
       0.046173066 0.051252503 -0.10720268 0.07144257
0002d0 25 48 38 bd b0 66 e4 3c e3 cc 39 3d be 2d 6b 3d
       -0.044990677 0.027880996 0.04536141 0.05741667
0002e0 94 29 24 3d 9d ad 48 bb 9a ca 1c 3d 48 a1 75 3d
       0.040078714 -0.003062106 0.038279153 0.059968263
0002f0 d9 d0 00 3d c5 5f f9 3c 4f ac 57 3d d5 37 e8 3c
       0.031449173 0.030441174 0.05265456 0.028346935
000300 e3 1b f8 3c 6d dd 91 bd 78 72 39 3d a9 4b 86 3d
       0.030286735 -0.07122312 0.04527518 0.065574
000310 60 63 14 3d 6a de 83 3d 14 2a 1f 3d e3 8c 22 bd
       0.036227584 0.064389065 0.03885849 -0.03968514
000320 c2 61 96 3d 28 0c 92 3d 50 ce 62 3c 41 0e 4c 3d
       0.073428646 0.07131225 0.013843134 0.04981828
000330 63 6f 36 3d bf a2 ea 3c 1b e2 45 3d f9 1a 11 3d
       0.04453982 0.028642057 0.048311334 0.035426114
000340 b0 50 5a bd 5f b7 45 3d 62 47 1a 3d 22 59 4a 3d
       -0.053299606 0.04827058 0.037665732 0.04940141
000350 b2 16 c9 3d 71 16 e7 3c 95 15 7e bc 82 76 d0 3d
       0.09818782 0.028208943 -0.015508075 0.101788536
000360 cc 81 f9 bd e2 5b 52 3d e7 c4 e4 3c ac d5 e8 39
       -0.1218296 0.051357158 0.027925922 0.00044409686
000370 f0 9f 6c 3d 94 fb 20 be 7b 64 86 be 0c 3f 6d 3d
       0.057769716 -0.1572097 -0.26248536 0.057921454
000380 ae fb 1c be aa 5c af 3c b1 1c 60 3c 56 7c cc bd
       -0.15330383 0.02140649 0.013678716 -0.09984653
000390 3b ae 94 bd 02 10 13 3d 03 f9 32 bd d7 6a 90 3c
       -0.07259794 0.035903938 -0.043694507 0.01762907
0003a0 e1 32 d0 3c 75 17 a2 bd 19 e0 a4 bd bf 9e a1 3d
       0.025414886 -0.0791463 -0.08050556 0.078916065
0003b0 9a c3 7b 3d d8 1f ce 3c 22 2a 17 3d 77 61 5f 3d
       0.061465837 0.025161669 0.036905415 0.05453631
0003c0 22 4a 4f 3d e0 79 63 3d 3e 1f 7b 3d e3 53 0f 3d
       0.050607808 0.05553615 0.06130909 0.03499211
0003d0 d5 1e 39 bd 61 5d 5a 3d 88 65 17 3d 33 da 4e 3d
       -0.04519542 0.05331171 0.036962062 0.05050106
0003e0 09 b8 ab bd 12 40 f9 3b c4 90 1d 3d 64 c2 28 3d
       -0.08384711 0.0076065147 0.038468137 0.04120101
0003f0 d1 44 3c 3d 88 58 43 3d 42 fb e8 3c 7b 4c 32 3d
       0.045964066 0.04769185 0.028440122 0.04352997

output.bias f4 [4]
000000 b9 03 bc 3f 16 98 a8 3f ad 63 b1 3f 71 97 b2 3f
       1.4688636 1.3171413 1.3858544 1.3952466
