experiments/navigate_1318_18Oct22082451.pth (torch_old, 54660 bytes, 6 tensors)

hidden_layers.0.weight f4 [128, 37]
-0.09682353 -0.0069643105 -0.16793357 -0.08278313 -0.18567966 0.008749373 -0.12308916 0.12542248
-0.057319533 -0.008673401 -0.077977076 -0.18239978 -0.17856157 -0.1037979 -0.17567772 -0.03259798
-0.043877102 0.0775705 -0.14136916 -0.14196406 -0.010230357 0.09686855 -0.060224976 0.06945606
-0.10741988 -0.047348447 0.022316542 -0.1740616 -0.0576215 -0.12931345 -0.08922614 0.069405116
-0.12893274 -0.113392636 -0.18140139 -0.060383122 0.010478498 0.073630705 0.109611265 0.085390545
0.07219416 -0.042682245 0.110278256 -0.4191275 -0.48646408 -0.35107186 -1.6225227 0.025211731
0.03245887 -0.013293745 0.027896132 0.051144153 0.046653137 0.013401273 0.051595524 0.024940241
0.00477787 -0.08586034 -0.12570845 -0.074997544 -0.07355609 0.046126068 -0.0002919838 -0.0014331494
-0.014770169 -0.02517796 -0.011129609 0.04030599 0.11050873 0.06066222 0.016128283 -0.10626206
-0.0023426313 -5.6167133e-05 0.09679565 0.16097999 -0.04197454 -0.04137526 0.031758804 -0.09800526
-0.26597306 0.13894029 0.12751694 -0.11125197 -0.081599325 0.07845103 -0.14215054 0.062810615
0.21818317 -0.12927194 -0.06394584 0.14578313 0.2600879 0.09251424 -0.25997904 -0.12864408
-0.011510889 0.13951772 -0.0016559202 -0.17300594 0.06849909 0.21556623 -0.088454574 -0.035821885
-0.11709276 -0.22221707 0.044455558 -0.19486327 0.0727753 -0.0061188075 -0.04516373 0.0013025638
0.121861935 0.09331919 0.058821008 -0.09839723 -0.08996536 -0.010886939 -0.037178203 0.09314945
0.33880132 -0.14494088 0.056673452 0.01681889 -0.10948718 -0.11385086 -0.12241416 -0.12887023
-0.10454794 -0.013814632 0.13449186 -0.06502902 -0.04805621 -0.0030798353 0.08615537 0.15569827
-0.037400514 -0.17443483 0.005538974 0.20649016 0.47286043 -0.01881984 0.010560132 0.060648452
0.19735542 0.2596277 -0.0024304867 -0.0137070725 -0.14191227 -0.23803125 -0.0953838 -0.27760527
-0.16780955 -0.3062778 0.10933499 0.23503952 0.1949651 -0.44327024 -0.06661986 0.028404567
-0.07717972 -0.14340596 -0.034756016 -0.25297013 -0.04008416 0.0699795 -0.36440116 -0.041232053
-0.24713457 0.06584748 0.09471853 -0.017468216 -0.07941935 -0.17995852 -0.08955153 0.28902933
-0.08636391 -0.4925964 0.009395985 -0.13489857 0.104613416 -0.15275095 -0.03023556 0.052016675
-0.0066438545 -0.018427003 0.008673463 0.004384124 0.033237692 0.058068756 0.21198301 -0.2828892
-0.3197265 -0.3132564 -1.6645885 -0.046964563 -0.022558622 -0.056479257 -0.054970045 -0.025760004
-0.014028966 0.012055356 0.010293113 -0.013073064 -0.051380906 0.08337771 0.043801952 0.089244984
0.13437973 0.086046666 0.01744359 0.028430017 0.06883215 0.0025918176 0.095136434 -0.018207539
0.04973635 0.047856748 0.083948895 -0.008731549 0.0017926164 0.005845892 -0.0054896865 -0.007326167
-0.02626501 -0.027721118 -0.037579987 -0.09942139 -0.03296958 0.004573622 0.073010765 0.20671676
0.017941186 0.05170477 0.05360346 0.09857262 0.056236368 -0.07482605 -0.045511127 -0.035908684
-0.0008083064 0.0560393 -0.043676026 0.003657493 0.004373462 -0.017879562 0.016766611 -0.115147986
-0.08246537 -0.050479095 -0.0808676 0.09338236 0.2334943 -0.5081845 -0.41516083 -0.3724942
00000000: 6a4b c6bd df34 e4bb c7f6 2bbe 348a a9bd
00000010: cf22 3ebe 8859 0f3c 2b16 fcbd c06e 003e
00000020: e3c7 6abd e11a 0ebc 72b2 9fbd 02c7 3abe
00000030: d8d8 36be fe93 d4bd dce4 33be 7685 05bd
00000040: 7ab8 33bd 48dd 9e3d 14c3 10be 075f 11be
00000050: 3a9d 27bc 0563 c63d 77ae 76bd fb3e 8e3d
00000060: f4fe dbbd 72f0 41bd 2ed1 b63c 343d 32be
00000070: 8604 6cbd bf6a 04be 32bc b6bd 4524 8e3d
00000080: f206 04be 663a e8bd 49c1 39be 4b54 77bd
00000090: 02ae 2b3c b2cb 963d df7b e03d 3de1 ae3d
000000a0: 88da 933d 94d3 2ebd 91d9 e13d e197 d6be
000000b0: d211 f9be b1bf b3be d3ae cfbf d588 ce3c
000000c0: 98f3 043d 02ce 59bc 6e86 e43c 887c 513d
000000d0: 5c17 3f3d 0391 5b3c d455 533d 7a4f cc3c
000000e0: ae8f 9c3b 8cd7 afbd b7b9 00be 5098 99bd
000000f0: 93a4 96bd b0ee 3c3d 6715 99b9 84d8 bbba
00000100: 94fe 71bc 0242 cebc f758 36bc e517 253d
00000110: 6752 e23d f378 783d 761f 843c ec9f d9bd
00000120: d586 19bb 0095 6bb8 cc3c c63d f0d7 243e
00000130: 7fed 2bbd 1b79 29bd 8515 023d fbb6 c8bd
00000140: 9f2d 88be 5d46 0e3e cd93 023e 13d8 e3bd
00000150: 8c1d a7bd efaa a03d e98f 11be daa2 803d
00000160: 696b 5f3e dd5f 04be 09f6 82bd 2c48 153e
00000170: 3e2a 853e 1b78 bd3d f91b 85be 46bb 03be
00000180: 2b98 3cbc bcdd 0e3e 760b d9ba 7828 31be
00000190: 4049 8c3d 65bd 5c3e ac27 b5bd f8b9 12bd
000001a0: 54ce efbd df8c 63be 0817 363d 3d8a 47be
000001b0: 370b 953d 4780 c8bb 9afd 38bd caba aa3a
000001c0: c092 f93d 221e bf3d 4cee 703d 7d84 c9bd
000001d0: c23f b8bd 225f 32bc 2c48 18bd 24c5 be3d
000001e0: 5e77 ad3e 626b 14be 6c22 683d c5c7 893c
000001f0: d13a e0bd a42a e9bd 46b4 fabd 8ff6 03be
00000200: 3b1d d6bd c456 62bc 3cb8 093e ef2d 85bd
00000210: 97d6 44bd 10d7 49bb 3a72 b03d 5e6f 1f3e
00000220: 4831 19bd 0b9f 32be 4880 b53b 2872 533e
00000230: c31a f23e 112c 9abc 6704 2d3c 836a 783d
00000240: 8a17 4a3e eced 843e cd48 1fbb a193 60bc
00000250: 7351 11be 77be 73be 9558 c3bd 4722 8ebe
00000260: 44d6 2bbe 72d0 9cbe 06eb df3d 33ae 703e
00000270: eea4 473e 51f4 e2be fe6f 88bd b2b0 e83c
00000280: 6710 9ebd 03d9 12be 535c 0ebd 4d85 81be
00000290: 4a2f 24bd 6951 8f3d ca92 babe f1e2 28bd
000002a0: d810 7dbe 0bdb 863d cafb c13d 8119 8fbc
000002b0: 9da6 a2bd 0c47 38be cb66 b7bd a7fb 933e
000002c0: 90df b0bd 9835 fcbe 9ef1 193c da22 0abe
000002d0: 8f3f d63d bf6a 1cbe 91b0 f7bc 700f 553d
000002e0: b1b4 d9bb 3af4 96bc 241b 0e3c b3a8 8f3b
000002f0: 3f24 083d 81d9 6d3d 1312 593e dad6 90be
00000300: 31b3 a3be 2563 a0be 3c11 d5bf ea5d 40bd
00000310: dccc b8bc cb56 67bd 4528 61bd a506 d3bc
00000320: c0d9 65bc d483 453c 72a4 283c 6830 56bc
00000330: c974 52bd efc1 aa3d ad69 333d 13c6 b63d
00000340: d79a 093e 3c39 b03d dce5 8e3c 11e6 e83c
00000350: dff7 8c3d 7cdb 293b e4d6 c23d fa27 95bc
00000360: 58b8 4b3d 7005 443d 66ed ab3d c50e 0fbc
00000370: 3af6 ea3a e58e bf3b d4e2 b3bb 5810 f0bb
00000380: b829 d7bc 6617 e3bc 79ed 19bd 719d cbbd
00000390: 1c0b 07bd 52de 953b ab86 953d 8fad 533e
000003a0: 65f9 923c 62c8 533d 4d8f 5b3d 71e0 c93d
000003b0: 1b58 663d 663e 99bd e069 3abd fc14 13bd
000003c0: 86e4 53ba 7789 653d a2e5 32bd 8db2 6f3b
000003d0: 424f 8f3b 2978 92bc 225a 893c b5d2 ebbd
000003e0: 9be3 a8bd 2bc3 4ebd ea9d a5bd 403f bf3d
000003f0: 2119 6f3e 6118 02bf f68f d4be 8fb7 bebe

hidden_layers.0.bias f4 [128]
-0.103782184 0.04908068 -0.14116617 -0.1647008 -0.086857654 -0.06965969 0.06833673 0.024338797
-0.14920138 -0.0090866545 -0.14759712 -0.11190248 -0.14460738 -0.07504984 -0.13810037 0.004028355
-0.060632296 -0.037436213 -0.15679339 -0.111013584 -0.19560127 -0.02544885 0.017328773 -0.0741103
-0.057624582 0.015221067 0.06795177 -0.14314069 -0.10185025 -0.15571572 0.009076201 0.049729373
-0.10560401 -0.13828342 -0.089280635 -0.22018461 -0.12671882 0.008647224 -0.10076549 -0.06517678
-0.024639579 0.023564959 0.1504086 -0.016432662 -0.086910225 -0.1617919 0.076003835 -0.1968287
-0.2574756 0.008741664 0.008248568 -0.11684454 -0.013953568 0.02202898 -0.038743608 -0.07661307
-0.1787326 -0.06306805 0.01962037 -0.097150676 -0.19984303 -0.025993565 0.012237527 -0.13592412
0.025012398 0.06628791 -0.075440854 -0.12086484 -0.24149051 -0.0930182 -0.016807843 -0.13094307
-0.03872256 -0.13264135 -0.10182553 -0.12129117 0.010803483 -0.16093017 0.04602741 0.056802597
-0.08224223 -0.00025747163 0.0023270668 -0.11883614 -0.09970474 0.033559363 0.019136213 -0.085894495
-0.012806555 -0.01573565 0.0984623 -0.079526454 -0.15415542 -0.24630621 -0.10943905 0.041835934
-0.1088054 -0.30728966 -0.13807918 0.032603346 -0.120517895 -0.2597043 -0.009674947 0.0654781
-0.22781299 -0.16778465 -0.040879134 0.1509462 -0.2611544 -0.13915911 -0.003009478 -0.047568984
-0.12656978 -0.061663896 -0.006906225 0.045254137 0.022780588 0.010831819 -0.04089862 -0.080985986
-0.08949063 0.04652544 -0.135589 -0.28590816 -0.10653573 0.032750137 0.17115729 -0.13267542
00000000: c18b d4bd d308 493d dd8d 10be 54a7 28be
00000010: 6de2 b1bd bda9 8ebd 21f4 8b3d 2862 c73c
00000020: 3fc8 18be 31e0 14bc b323 17be 212d e5bd
00000030: f513 14be bbb3 99bd 2f6a 0dbe 4a00 843b
00000040: 9259 78bd b756 19bd 728e 20be 175b e3bd
00000050: b34b 48be 1b7a d0bc 12f5 8d3c 24c7 97bd
00000060: c107 6cbd c861 793c 4c2a 8b3d 7993 12be
00000070: dd96 d0bd f173 1fbe 59b4 143c 07b1 4b3d
00000080: ea46 d8bd 2b9a 0dbe c4d8 b6bd 1378 61be
00000090: 94c2 01be 16ad 0d3c 235e cebd 677b 85bd
000000a0: f1d8 c9bc 4d0b c13c b604 1a3e ca9d 86bc
000000b0: fdfd b1bd c7ac 25be e6a7 9b3d 768d 49be
000000c0: d8d3 83be 3239 0f3c 0025 073c 314c efbd
000000d0: 829d 64bc 1f76 b43c 9eb1 1ebd 50e7 9cbd
000000e0: ae05 37be d229 81bd e6ba a03c eff6 c6bd
000000f0: a7a3 4cbe 75f0 d4bc e97f 483c b12f 0bbe
00000100: cde6 cc3c f5c1 873d bc80 9abd fc87 f7bd
00000110: 4a49 77be 5380 bebd 9ab0 89bc f115 06be
00000120: 8c9b 1ebd 22d3 07be e789 d0bd 8167 f8bd
00000130: 1801 313c e1ca 24be 3d87 3c3d d7a9 683d
00000140: 9d6e a8bd 42fd 86b9 b481 183b 5d60 f3bd
00000150: 0032 ccbd 8b75 093d 8cc3 9c3c 74e9 afbd
00000160: 96d2 51bc 0de8 80bc 9aa6 c93d c4de a2bd
00000170: ebda 1dbe b237 7cbe 9521 e0bd 285c 2b3d
00000180: 5ed5 debd 1255 9dbe a164 0dbe 168b 053d
00000190: 16d2 f6bd f6f7 84be ab83 1ebc 6219 863d
000001a0: cf47 69be bdcf 2bbe e170 27bd a491 1a3e
000001b0: 08b6 85be ba7f 0ebe aa3a 45bb b2d7 42bd
000001c0: 829b 01be 4893 7cbd 9d4d e2bb 675c 393d
000001d0: 5b9e ba3c f177 313c 5085 27bd fbdb a5bd
000001e0: dd46 b7bd 7691 3e3d d8d7 0abe 8e62 92be
000001f0: 682f dabd 0225 063d db43 2f3e 11dc 07be

hidden_layers.1.weight f4 [64, 128]
-0.07380976 -0.010898164 0.063703015 0.13185439 0.09321851 -0.008469736 -0.066328466 -0.037912134
0.018741306 0.021024639 0.034213085 0.07440439 -0.27934062 -0.074619435 0.03654707 -0.09007852
-0.024134338 0.003886365 -0.15420142 -0.06330242 -0.0014498457 0.0865154 0.05130664 -0.09721417
0.1062261 0.14720936 -0.05042298 -0.014696322 -0.034537267 0.077125296 -0.32826182 -0.021255065
-0.30078718 -0.066092275 -0.4448399 -0.11398602 -0.029000802 -0.023463935 0.05444382 -0.056831677
-0.08231334 -0.2932068 0.009127014 0.046268493 -0.1846884 -0.023091212 -0.041058935 -0.0773577
-0.15652607 -0.044070806 -0.09427755 -0.124763004 -0.2270421 -0.050727207 -0.012034349 -0.055213004
0.10190293 -0.2008547 -0.017221315 -0.03777568 -0.10476144 -0.116336234 -0.06770808 -0.22459444
-0.07036913 0.04553766 0.06005961 -0.12569463 -0.17114279 0.058759004 0.13610534 -0.20013894
-0.1333069 -0.13361235 0.015284658 -0.15756726 -0.29340455 -0.1258522 0.0014070761 0.0072829574
0.031316966 -0.23325415 -0.3265481 0.03299327 -0.102033794 -0.2693257 -0.27613768 -0.14413826
-0.05208729 0.06305721 0.097502925 -0.073706985 -0.08503275 -0.10559319 0.08551339 0.052338425
-0.25410825 0.044076275 -0.057128813 -0.10966083 0.054465134 -0.15764907 -0.1618435 -0.022802204
-0.082759246 0.0044949306 -0.007328269 -0.02274462 -0.23765257 -0.04703998 -0.18372485 0.028145932
-0.020344038 0.03200395 -0.014650277 -0.18208852 0.053647414 0.013749057 -0.0034904275 -0.25160763
0.06199893 -0.06526966 0.06251771 -0.02827496 -0.04848135 0.011429511 -0.031137528 -0.10491228
0.020082742 0.039572798 0.022647701 -0.1268504 -0.129557 0.022177719 0.13203858 -0.019111572
0.04770032 0.019741736 0.029620953 0.05114362 -0.2379873 0.10229133 -0.036622018 -0.16118002
-0.036258377 -0.008221971 -0.090577416 -0.12961654 -0.18550153 -0.035344034 -0.024762735 0.082186714
0.020477286 0.08842901 0.042077266 0.120828986 -0.014501426 -0.012107206 -0.26910946 -0.23923409
-0.039269764 -0.039969537 -0.021440819 -0.020939095 0.047483694 0.03547603 -0.016299883 -0.0020887875
0.0063826214 -0.046203535 0.006976491 0.018189415 -0.15599181 -0.23128054 -0.018830298 0.13650304
-0.17237557 0.08100541 0.05205561 -0.10544676 -0.09149952 0.018458743 -0.18429229 -0.08589709
-0.16520488 -0.026186286 0.067391075 -0.08689508 -0.15672286 -0.12356065 -0.19414316 -0.07232375
-0.22725274 0.1956832 0.06852872 -0.03694654 -0.059728313 0.053420614 0.054287367 -0.0059621665
-0.15526879 -0.21621999 0.036187552 0.19823949 -0.08883701 -0.08648639 0.028046789 0.022898939
0.019430118 -0.015013632 -0.01759528 0.02488804 0.018789548 -0.28583357 -0.108850576 -0.018022435
0.05399681 0.029899359 0.066136174 -0.06681344 -0.013959342 -0.13954921 -0.0854423 0.07124182
-0.059020862 -0.026639393 -0.11556292 -0.18971634 0.041798 -0.07271391 -0.08424016 0.109958194
0.0046438077 0.023633216 0.06412434 -0.0047446424 -0.23720472 -0.107939996 -0.075448245 -0.1566783
-0.04126762 0.077725396 -0.101686545 -0.12535654 0.019896489 0.12250541 0.060601875 -0.21298485
0.11059493 0.025952354 0.05271071 -0.040742837 0.03991347 0.019298904 -0.08644233 -0.03156878
00000000: 9229 97bd 368e 32bc ba76 823d d604 073e
00000010: 59e9 be3d a6c4 0abc 38d7 87bd c149 1bbd
00000020: 5e87 993c dd3b ac3c 0523 0c3d 5461 983d
00000030: bc05 8fbe 13d2 98bd 61b2 153d 167b b8bd
00000040: 60b5 c5bc 63b2 7e3b fae6 1dbe b3a4 81bd
00000050: c008 beba fc2e b13d e926 523d 3918 c7bd
00000060: 128d d93d 0dbe 163e 5488 4ebd d8c8 70bc
00000070: f376 0dbd def3 9d3d ef11 a8be 1a1f aebc
00000080: c700 9abe 635b 87bd 0ec2 e3be 8171 e9bd
00000090: 1793 edbc 7037 c0bc 7c00 5f3d 55c8 68bd
000000a0: e593 a8bd 341f 96be 7989 153c 0884 3d3d
000000b0: f51e 3dbe c829 bdbc 6a2d 28bd b76d 9ebd
000000c0: 5f48 20be 9783 34bd 9714 c1bd bf83 ffbd
000000d0: b97d 68be 55c7 4fbd b82b 45bc 0827 62bd
000000e0: 7cb2 d03d dbac 4dbe b713 8dbc acba 1abd
000000f0: 2a8d d6bd b141 eebd 89aa 8abd 16fc 65be
00000100: b11d 90bd b385 3a3d 1101 763d 18b6 00be
00000110: 0e40 2fbe 48ad 703d 335f 0b3e 39f1 4cbe
00000120: 9b81 08be add1 08be 816c 7a3c 5059 21be
00000130: 1f39 96be 66df 00be a46d b83a e0a5 ee3b
00000140: 3846 003d 2dda 6ebe 5031 a7be f323 073d
00000150: 18f7 d0bd 0fe5 89be eb61 8dbe fb98 13be
00000160: 7b59 55bd 2324 813d 9daf c73d b0f3 96bd
00000170: a725 aebd 3e41 d8bd a521 af3d d160 563d
00000180: 7a1a 82be 5389 343d e7ff 69bd db95 e0bd
00000190: d516 5f3d c26e 21be 4dba 25be b0cb babc
000001a0: ae7d a9bd 364a 933b fa21 f0bb ed52 babc
000001b0: 325b 73be feac 40bd 5e22 3cbe 4c92 e63c
000001c0: 8aa8 a6bc 9316 033d b707 70bc 6a75 3abe
000001d0: 64bd 5b3d ba43 613c a8bf 64bb b7d2 80be
000001e0: 97f2 7d3d 19ac 85bd 4909 803d e4a0 e7bc
000001f0: 6194 46bd d842 3b3c 2114 ffbc 40dc d6bd
00000200: 9084 a43c 1617 223d ac87 b93c 12e5 01be
00000210: 97aa 04be 0cae b53c 1f35 073e df8f 9cbc
00000220: 6961 433d 6cb9 a13c a4a7 f23c f97b 513d
00000230: f1b2 73be 1e7e d13d f800 16bd 600c 25be
00000240: aa83 14bd 72b5 06bc a780 b9bd 33ba 04be
00000250: 1df4 3dbe e8c4 10bd 38db cabc 8251 a83d
00000260: fbbf a73c 451a b53d 3659 2c3d 3075 f73d
00000270: 6497 6dbc 4d5d 46bc b7c8 89be c8f9 74be
00000280: 55d9 20bd 19b7 23bd a8a4 afbc 7788 abbc
00000290: 437e 423d 504f 113d 5587 85bc 0ae4 08bb
000002a0: 4f25 d13b eb3f 3dbd 0c9b e43b f801 953c
000002b0: 51bc 1fbe ced4 6cbe ff41 9abc 74c7 0b3e
000002c0: 3983 30be 2ae6 a53d 4338 553d 79f4 d7bd
000002d0: 1a64 bbbd ca36 973c 1eb7 3cbe d0ea afbd
000002e0: 782b 29be 9f84 d6bc 5504 8a3d 0cf6 b1bd
000002f0: f57b 20be 5e0d fdbd 77cd 46be 791e 94bd
00000300: f1b4 68be 2d61 483e c958 8c3d 4155 17bd
00000310: ada5 74bd 93cf 5a3d 6e5c 5e3d 475e c3bb
00000320: c8fe 1ebe c668 5dbe 6639 143d 4bff 4a3e
00000330: 2ef0 b5bd c71f b1bd 61c2 e53c 8e96 bb3c
00000340: e92b 9f3c bdfb 75bc fa23 90bc 01e2 cb3c
00000350: 8aec 993c c758 92be 0ded debd c9a3 93bc
00000360: c22b 5d3d 80ef f43c 6772 873d 7cd5 88bd
00000370: b9b5 64bc fde5 0ebe 5ffc aebd 3be7 913d
00000380: dcbf 71bd db3a dabc 41ac ecbd 0045 42be
00000390: 6134 2b3d 08eb 94bd 1b86 acbd c331 e13d
000003a0: 152b 983b 729a c13c 9f53 833d f278 9bbb
000003b0: cbe5 72be a50f ddbd 9c84 9abd 4770 20be
000003c0: 3c08 29bd 7e2e 9f3d 0941 d0bd 775d 00be
000003d0: f6fd a23c 1ee4 fa3d ac39 783d b318 5abe
000003e0: 987f e23d 089a d43c 2fe7 573d f6e1 26bd
000003f0: 4f7c 233d bc18 9e3c ad08 b1bd 444e 01bd

hidden_layers.1.bias f4 [64]
0.25079632 0.21688123 0.18570258 0.2060357 0.27835953 -0.1214382 0.13446589 0.10520309
0.08404609 0.07788069 0.23280953 0.11655209 0.2294507 0.11788656 0.1056256 0.09594541
-0.07653611 0.20384644 -0.14564122 0.20782213 0.11904399 0.23486456 0.23265994 0.19725235
0.1337949 0.19340132 0.22591513 0.23698609 0.24685867 0.17320655 0.109744 0.23159283
-0.13806543 0.26295283 0.245697 0.10044947 0.15190491 0.21499398 0.10029354 0.17618038
0.2198597 0.10671576 0.19850759 0.23433468 0.17299691 0.14642365 0.24766125 0.13920926
0.13249496 -0.16245267 0.11285994 0.11255622 -0.14484899 0.15410936 0.24322706 0.15812056
0.18789966 0.23336516 0.25830352 0.20347376 0.09947084 0.10367945 0.11193346 0.12401149
00000000: 6068 803e 1d16 5e3e d128 3e3e 06fb 523e
00000010: 2485 8e3e 97b4 f8bd 6db1 093e b874 d73d
00000020: 5b20 ac3d e97f 9f3d 9f65 6e3e ddb2 ee3d
00000030: 20f5 6a3e 826e f13d 3c52 d83d 077f c43d
00000040: f7be 9cbd 1fbd 503e f922 15be 53cf 543e
00000050: 56cd f33d 5680 703e 683e 6e3e 85fc 493e
00000060: 8801 093e ff0a 463e 4c56 673e 7bac 723e
00000070: 85c8 7c3e 0f5d 313e 76c1 e03d ac26 6d3e
00000080: 0661 0dbe c1a1 863e ff97 7b3e 74b8 cd3d
00000090: f68c 1b3e 6227 5c3e b366 cd3d a168 343e
000000a0: e722 613e cb8d da3d 9345 4b3e 6ef5 6f3e
000000b0: 1a26 313e 15f0 153e e99a 7d3e df8c 0e3e
000000c0: c2ac 073e fe59 26be 1d23 e73d e083 e63d
000000d0: 4b53 14be d8ce 1d3e 8410 793e 5bea 213e
000000e0: c568 403e 47f7 6e3e 5c40 843e 6d5b 503e
000000f0: 5eb7 cb3d e455 d43d 5f3d e53d bcf9 fd3d

output.weight f4 [4, 64]
0.056739543 0.04884669 -0.064882375 0.10097797 0.060639188 -0.042279944 0.031781442 -0.10448393
0.035462584 -0.051365092 0.071243316 0.035056364 0.07663136 0.03915825 0.046539977 -0.065812826
-0.2128821 0.07255214 0.005520445 0.0684925 -0.05584977 0.09882095 0.07387365 0.064199276
-0.08552676 0.041349255 0.05562224 0.053174194 0.055489186 0.042502236 -0.096485674 0.060194355
0.06042575 0.072161295 0.066517904 -0.08278296 -0.119930625 0.042611454 -0.05786612 0.04368975
0.06386344 -0.09327129 0.056731906 0.052563 0.04310569 0.045761168 0.070890866 0.034888376
0.03253688 -0.001920992 -0.06488995 0.028197672 -0.09440076 0.050063077 0.06621922 0.03610127
0.061819382 0.030311612 0.057249255 0.051318314 0.024026306 0.03410942 0.036155142 0.042740643
0.06333196 0.06365855 -0.054270394 0.11329172 0.040298853 -0.0023914946 0.040876582 -0.009531536
0.024589779 -0.0030499257 0.071326874 0.040574655 0.087383285 0.03799222 0.043275896 0.002415932
-0.056038175 0.071952716 0.053341962 0.062483698 0.01865144 0.13610058 0.06819159 0.07610926
-0.04690779 0.058385417 0.06293149 0.07672222 0.06526181 0.04054445 -0.013851148 0.041563835
0.0012871285 0.0728327 0.05840988 0.00068818685 -0.03744849 0.042439323 0.021025838 0.06575956
0.05135851 -0.003850298 0.052045636 0.055445567 0.033713978 0.051301118 0.07971409 0.04946606
0.028204687 -0.017043753 -0.019614007 0.04768695 -0.05843489 0.048166636 0.06334227 0.037829906
0.079385996 0.049623 0.06634941 0.052604575 0.027407536 0.027371315 0.03204815 0.046224527
0.026648836 0.05046309 -0.076738715 0.094704606 0.0063289762 0.051999133 0.078238204 -0.051059525
0.051213987 -0.014144473 0.013655858 0.06472405 0.0036856923 0.041441873 0.06932138 -0.02977165
-0.072039954 0.012652127 0.069126286 -0.0136723835 -0.06020136 0.120871365 0.034679893 0.07359579
-0.043760568 0.0658119 0.020577742 -0.0064250603 0.073326774 -0.04891724 -0.058341254 0.01439448
0.010122151 0.01004351 -0.012428163 -0.048780818 -0.06350773 0.046957888 0.016646184 0.04987913
0.0934514 -0.052403376 0.0005252955 0.00917385 0.07131594 0.0938914 0.00088371214 0.060055684
0.061868668 0.069728166 0.0856006 0.050689515 -0.019412663 -0.002069776 0.059396785 0.06291772
0.067419596 0.052971553 0.0028721772 0.064505324 0.076950856 0.07468068 0.05944285 0.06611316
0.048079472 0.029633678 -0.09606585 0.10280447 0.008526708 0.0075719035 0.07464916 -0.047236037
0.06738475 -0.009055953 -0.015370613 0.047511227 0.034307577 0.06542306 0.06491129 -0.02146054
-0.16595924 0.023837209 -0.0059796358 0.026844898 0.08547438 0.05775756 0.03136323 0.066253856
-0.039460797 0.049860477 0.018400475 0.012384445 0.059907816 0.07106951 -0.03592042 0.043228112
-0.02547342 -0.023424797 0.0077596717 -3.155209e-05 -0.057178535 0.027923118 -0.045316327 0.039620705
0.06530264 -0.054534793 0.056726307 0.027492672 -0.025880318 -0.14574905 0.016121287 0.06228162
0.08418136 0.07107394 -0.069157 0.07119162 0.06871818 0.05947862 0.029653776 0.07067435
0.07662494 0.036019586 0.042425733 -0.009850375 0.05137688 0.06531812 0.068003014 0.04624546
00000000: b967 683d 7813 483d 0de1 84bd 8acd ce3d
00000010: cc60 783d bc2d 2dbd 422d 023d acfb d5bd
00000020: 3741 113d 3464 52bd 04e8 913d 4397 0f3d
00000030: e7f0 9c3d 6764 203d b4a0 3e3d e0c8 86bd
00000040: c4fd 59be 3796 943d d9e4 b43b cc45 8c3d
00000050: bac2 64bd a362 ca3d 114b 973d e97a 833d
00000060: a728 afbd d65d 293d 25d4 633d 2fcd 593d
00000070: a148 633d d316 2e3d 489a c5bd 5b8e 763d
00000080: fe80 773d 4dc9 933d 8a3a 883d 1d8a a9bd
00000090: 309e f5bd 5989 2e3d 0605 6dbd 06f4 323d
000000a0: d6ca 823d 0505 bfbd b75f 683d 4d4c 573d
000000b0: 988f 303d 1070 3b3d 3b2f 913d 1de7 0e3d
000000c0: 6445 053d ccc9 fbba 06e5 84bd cefe e63c
000000d0: 3055 c1bd f10e 4d3d f19d 873d edde 133d
000000e0: 5236 7d3d 0f50 f83c 327e 6a3d 2733 523d
000000f0: d1d2 c43c 52b6 0b3d 6a17 143d d010 2f3d
00000100: 30b4 813d 6a5f 823d a24a 5ebd 7d05 e83d
00000110: 6910 253d 9fba 1cbb 346e 273d 292a 1cbc
00000120: 8170 c93c 43e1 47bb d313 923d 9c31 263d
00000130: 02f6 b23d bb9d 1b3d 1142 313d 9d54 1e3b
00000140: 4988 65bd f25b 933d 1a7d 5a3d e8ee 7f3d
00000150: e8ca 983c f35d 0b3e 08a8 8b3d 2cdf 9b3d
00000160: 6222 40bd 8c25 6f3d 3ae2 803d 8a20 9d3d
00000170: fca7 853d f011 263d edef 62bc d73e 2a3d
00000180: deb4 a83a 5029 953d 333f 6f3d 7067 343a
00000190: 9663 19bd dbd4 2d3d 613e ac3c f3ac 863d
000001a0: 4d5d 523d 4855 7cbb ce2d 553d e41a 633d
000001b0: ab17 0a3d 1f21 523d 2441 a33d ec9c 4a3d
000001c0: 840d e73c 579f 8bbc 8ead a0bc 6453 433d
000001d0: 6c59 6fbd 614a 453d 98b9 813d 88f3 1a3d
000001e0: 2095 a23d 7d41 4b3d 33e2 873d e577 573d
000001f0: c585 e03c cf39 e03c ec44 033d ee55 3d3d
00000200: a94e da3c 63b2 4e3d 3029 9dbd 7df4 c13d
00000210: 4d63 cf3b 0bfd 543d 5a3b a03d cb23 51bd
00000220: c2c5 513d 38be 67bc d2bc 5f3c 0b8e 843d
00000230: a88b 713b f4be 293d 5ef8 8d3d ade3 f3bc
00000240: af89 93bd de4a 4f3c 1592 8d3d 2202 60bc
00000250: b495 76bd 688b f73d 810c 0e3d 64b9 963d
00000260: 483e 33bd 64c8 863d a792 a83c 5089 d2bb
00000270: 592c 963d 725d 48bd 3df7 6ebd d3d6 6b3c
00000280: 61d7 253c 898d 243c 7e9f 4bbc 65ce 47bd
00000290: 5710 82bd ea56 403d 945d 883c 0f4e 4c3d
000002a0: 7363 bf3d eca4 56bd fcb3 093a ea4d 163c
000002b0: 170e 923d 224a c03d eba8 673a f3fc 753d
000002c0: 006a 7d3d a4cd 8e3d 5e4f af3d cf9f 4f3d
000002d0: 4e07 9fbc 14a5 07bb 0b4a 733d 01db 803d
000002e0: 4913 8a3d b3f8 583d 233b 3c3b 5e1b 843d
000002f0: 6998 9d3d 2ff2 983d 597a 733d 5666 873d
00000300: fbee 443d 54c2 f23c 2cbe c4bd 268b d23d
00000310: 9bb3 0b3c bb1d f83b a9e1 983d 937a 41bd
00000320: 0401 8a3d 6b5f 14bc 06d5 7bbc 229b 423d
00000330: 1a86 0c3d 86fc 853d 36f0 843d 04ce afbc
00000340: 38f1 29be 4046 c33c d2f0 c3bb d5e9 db3c
00000350: 310d af3d 3193 6c3d bb76 003d 1ab0 873d
00000360: a5a1 21bd 803a 4c3d 98bc 963c 21e8 4a3c
00000370: e661 753d e48c 913d 4a21 13bd f60f 313d
00000380: a2ad d0bc 5ce5 bfbc d844 fe3b cc56 04b8
00000390: 0a34 6abd 06bf e43c 9d9d 39bd 5249 223d
000003a0: 64bd 853d e05f 5fbd d859 683d 5038 e13c
000003b0: f602 d4bc 3d3f 15be ca10 843c 031b 7f3d
000003c0: 4767 ac3d 378f 913d 2fa2 8dbd e9cc 913d
000003d0: 1ebc 8c3d da9f 733d 7aec f23c b7bd 903d
000003e0: 89ed 9c3d 4689 133d 9bc6 2d3d 7863 21bc
000003f0: 9070 523d 82c5 853d 2a45 8b3d e16b 3d3d

output.bias f4 [4]
1.2554257 1.0942756 1.1765218 1.1689252
00000000: cab1 a03f 3911 8c3f 4498 963f 579f 953f
