experiments/navigate_1434_18Oct22075828.pth (torch_old, 54660 bytes, 6 tensors)

hidden_layers.0.weight f4 [128, 37]
0	0x3e442afb	0.19157021
1	0xbec46708	-0.38359857
2	0xbebeba66	-0.37251586
3	0xbebdf26d	-0.3709902
4	0xbf8704e6	-1.054837
5	0xb90561a3	-0.00012720241
6	0x3c280184	0.010254268
7	0x3dc84cb8	0.09780258
8	0x3e215642	0.15755561
9	0x3e2bcfec	0.16778535
10	0xbd2bc52c	-0.041936085
11	0xbda061e2	-0.0783117
12	0xbdcb5010	-0.0992738
13	0xbdfc119d	-0.12308047
14	0x3c625974	0.013815273
15	0x3d22bb87	0.03972962
16	0x3da2924d	0.07938061
17	0xbc1dd5c8	-0.009633489
18	0xbde5695a	-0.11201735
19	0xbe20572a	-0.1565825
20	0x3dc0ad8a	0.094081
21	0x3d66bef2	0.056334443
22	0x3dc97033	0.098358534
23	0x3cc0ef90	0.023551732
24	0x3c91b073	0.017784333
25	0x3b35897b	0.0027700353
26	0x3c4d15cc	0.012517404
27	0x3c651c46	0.013983792
28	0xbc744aa2	-0.014910372
29	0x3cb21afa	0.021741379
30	0xbadcc3e8	-0.0016843053
31	0x3d12f73f	0.035880323
32	0xbce72ea8	-0.02822049
33	0x3d1253e2	0.035724528
34	0xbd49bf81	-0.049254898
35	0xbcb85098	-0.022499368
36	0x3bfceabb	0.0077184117
37	0x3d82dd97	0.06389921
38	0x3dc39ed7	0.09551781
39	0x3dde5f4f	0.108580224
40	0x3db64388	0.08899599
41	0x3c90fbd6	0.01769821
42	0x3de638a7	0.11241274
43	0xbf074514	-0.5283978
44	0xbecae8c3	-0.39630708
45	0xbef4ef81	-0.47838977
46	0xbfba2496	-1.4542415
47	0x3c01ff95	0.007934471
48	0x3c1cc9d0	0.0095696
49	0x3c622158	0.013801895
50	0x3d0ef96b	0.034905832
51	0x3d53116a	0.05153028
52	0x3c956d63	0.018240636
53	0x3cf216e0	0.029551923
54	0x3da6541f	0.081215136
55	0x3d850ade	0.064962134
56	0x3d54ed20	0.051983953
57	0xbdc01739	-0.09379429
58	0xbdb6a94a	-0.08919008
59	0xbd827c4c	-0.06371364
60	0xbd7d8853	-0.061897587
61	0x3d468108	0.048462898
62	0xbd58c949	-0.052926335
63	0xbc9b054f	-0.01892343
64	0xbc64e940	-0.013971627
65	0x3d035f0e	0.032073073
66	0x3dc56e5d	0.09640191
67	0x3d0e2b4a	0.034709252
68	0x3de42c1e	0.11141227
69	0x3dbd28f5	0.092363276
70	0x3de7357e	0.112895
71	0x3c966228	0.018357351
72	0xbc3c3c2b	-0.011488955
73	0x391ad064	0.00014764216
74	0x3dc62df1	0.096767314
75	0x3dbf0a9f	0.09328198
76	0x3d905c2e	0.07048832
77	0x3d9670f1	0.073457606
78	0xbc56be77	-0.013106934
79	0xbed9ab3f	-0.42513463
80	0x3e223828	0.15841734
81	0x3e761c66	0.2403427
82	0x3e6f9e4b	0.23400228
83	0xbe83cf0a	-0.25743896
84	0xbbe4d534	-0.0069834236
85	0xbc8b8f65	-0.01703615
86	0x3ce799a5	0.028271506
87	0x3ba1da0d	0.0049393238
88	0xbc6ee679	-0.014581316
89	0xbd7b5d0f	-0.061368044
90	0x3d7e38fa	0.062066056
91	0x3d89d7fa	0.067306474
92	0x3defa597	0.11701506
93	0x3db45cb5	0.08806745
94	0xbf14b73a	-0.5809208
95	0x3ddb6600	0.10712814
96	0x3d82f139	0.06393666
97	0x3d355e50	0.044279397
98	0xbe83587f	-0.25653455
99	0xbc7c4c5c	-0.015399065
100	0x3d0232e7	0.031786826
101	0x3dc2fea6	0.095212266
102	0x3d82672f	0.06367337
103	0x3dcad3bf	0.099036686
104	0xbe5770e5	-0.2103916
105	0x3b53a531	0.0032294507
106	0xbbb2281a	-0.0054369094
107	0x3b3e96d5	0.0029081602
108	0x3dd9d159	0.10635633
109	0x3ce13221	0.027489724
110	0xbc914ef8	-0.01773785
111	0x3e9a012d	0.30079022
112	0xbeaf9cd8	-0.3429935
113	0xbe556795	-0.20840295
114	0xbe3738ba	-0.17892733
115	0xbf8ecb8f	-1.1155871
116	0xbd4a894b	-0.04944734
117	0x3c92e6f8	0.0179324
118	0x3c8f2539	0.017473804
119	0x3de051da	0.10953112
120	0x3df87018	0.12130755
121	0xbd1a2adf	-0.03763854
122	0x3cf80ddb	0.030280044
123	0xbdc24e70	-0.09487617
124	0xbc60546b	-0.013692002
125	0xbded57dd	-0.11589024
126	0xbd001053	-0.031265568
127	0x3d22bc6d	0.039730478
128	0xbded6a4e	-0.11592542
129	0xbe459787	-0.19296084
130	0xbec74791	-0.38921788
131	0x3d04201f	0.032257196
132	0xbd724054	-0.05914338
133	0xbc0567a7	-0.008142388
134	0x3dba7208	0.09103781
135	0x3d7118d2	0.05886156
136	0xbd5f33d5	-0.05449279
137	0x3d316a44	0.043314233
138	0x3ceec332	0.02914581
139	0x3e161b8f	0.1465895
140	0x3e0752c6	0.1321517
141	0x3d9c536f	0.07633101
142	0x3de5af0c	0.11215028
143	0x3c9c50dc	0.019081526
144	0x3d31ebf9	0.04343793
145	0xba891703	-0.0010459129
146	0x3cb1e05d	0.02171343
147	0x3b64c4cc	0.003490734
148	0xbe78c2e1	-0.2429309
149	0xbc9ba868	-0.0190012
150	0xbe2e68b8	-0.17032135
151	0xbe83c2cb	-0.25734553
152	0xbeae5b6d	-0.34054127
153	0xbe334b94	-0.175093
154	0x3b8e97b7	0.004351582
155	0x3c4befe9	0.012447336
156	0xbe227ae4	-0.15867192
157	0xbf517e8e	-0.8183373
158	0xbd8892b9	-0.0666861
159	0xbe2728f2	-0.16324213
160	0xbd145cb6	-0.03622123
161	0xbe857ae4	-0.2607032
162	0xbdba63f5	-0.091010965
163	0xbefba81f	-0.49151704
164	0xbceb58fc	-0.028728954
165	0x3dab7dde	0.08373617
166	0xbe4e8308	-0.20167172
167	0xbf1d4c0a	-0.6144415
168	0xbe2e75e3	-0.17037158
169	0xbd8692a8	-0.06570941
170	0x3d7e74fd	0.062123287
171	0xbe4fb131	-0.20282437
172	0x3d6fb04c	0.05851774
173	0xbe65aad4	-0.22428447
174	0xbe502735	-0.20327456
175	0x3e5afea9	0.21386208
176	0xbd8d1777	-0.06889241
177	0xbf873aec	-1.0564857
178	0xbd8add8c	-0.06780538
179	0xbeae9996	-0.34101552
180	0x3de49e87	0.11163049
181	0xbe8d6e58	-0.27623248
182	0xbdf7c938	-0.12098926
183	0x3e0300a3	0.12793212
184	0x3d0771c2	0.033067472
185	0xbc9bcc06	-0.019018184
186	0xbd285e91	-0.04110581
187	0xbc0960d8	-0.008384906
188	0xbc3344fb	-0.010941739
189	0x3dc7a521	0.09748293
190	0x3e627301	0.22114183
191	0xbddc079d	-0.107436396
192	0xbe756f9b	-0.23968355
193	0xbe827619	-0.25480726
194	0xbfcca9e9	-1.5989352
195	0xbd120fbb	-0.035659533
196	0xbd41c862	-0.04731024
197	0xbd7152ed	-0.058916975
198	0xbdeac8b6	-0.11464064
199	0xbcc4d896	-0.024029057
200	0xbd369e2e	-0.044584446
201	0x3cc43a55	0.023953596
202	0x3cd41a1e	0.02589136
203	0xbca5a607	-0.02022077
204	0x3b9eaf2a	0.0048426585
205	0x3e00dbc5	0.12583835
206	0x3d8bf1ed	0.06833253
207	0x3dcb6ad7	0.099324875
208	0x3d80f119	0.06295986
209	0x3ccea5ad	0.025225485
210	0xbbdb4b9e	-0.006692364
211	0x3c67c90d	0.014147055
212	0x3c62e25d	0.0138479145
213	0xbbb364d6	-0.005474667
214	0x3d8e04e1	0.06934524
215	0x3d7919a3	0.060815465
216	0xbdeb8740	-0.11500406
217	0xbe04de02	-0.12975314
218	0x3dc1b1d6	0.09457748
219	0xbf32d04b	-0.6984908
220	0x3ca6a3ae	0.02034172
221	0xbb0445c0	-0.0020183176
222	0xbd9614aa	-0.0732816
223	0xbc4b336a	-0.012402395
224	0x3d100228	0.035158306
225	0xbd67ac67	-0.0565609
226	0x3d89f096	0.06735341
227	0xbece0fe0	-0.40246487
228	0x3de2792b	0.11058267
229	0x3d41d7de	0.047325008
230	0x3e263bf3	0.16233806
231	0x3e5c3e9b	0.21508257
232	0x3ca8a639	0.020587074
233	0x3dfae756	0.12251155
234	0x3d996c76	0.074913904
235	0xbd1185dd	-0.035528053
236	0xbc4a29fe	-0.012339113
237	0xbdb32dc9	-0.08748967
238	0xbda32ff5	-0.079681315
239	0x3cc6e9be	0.024281379
240	0xbd41cd46	-0.047314905
241	0x3e97d772	0.2965656
242	0xbe5d1c0d	-0.21592732
243	0x3bb4c432	0.0055165524
244	0x3d8408a0	0.064469576
245	0xba76dc61	-0.0009416994
246	0x3ddd97e5	0.10819987
247	0xbe9f7277	-0.31142017
248	0x3b3a674c	0.0028442917
249	0xbc83cd35	-0.016089061
250	0x3d69a822	0.05704511
251	0x3e14a79f	0.14517067
252	0xbe8fa871	-0.28058198
253	0x3e03d500	0.12874222
254	0x3e0b9eee	0.13634846
255	0x3dcc8bb0	0.09987581

hidden_layers.0.bias f4 [128]
0	0xb90aa0af	-0.00013220565
1	0x3d2a984a	0.04164914
2	0xbd948cee	-0.07253443
3	0xbd5a0f55	-0.053237278
4	0xbda70cb5	-0.081567205
5	0xbdd4ef01	-0.10397149
6	0xbb06046e	-0.0020449418
7	0x3d6f59bd	0.05843519
8	0xbe2e8c50	-0.17045712
9	0xbc4b914b	-0.012424777
10	0xbe1076c1	-0.14107801
11	0xbdce71cb	-0.10080298
12	0xbdd1d1a2	-0.102450624
13	0xbe17c098	-0.14819562
14	0xbdd381f7	-0.10327523
15	0xbd6cbb55	-0.05779584
16	0xbd7a8176	-0.06115862
17	0xbe18f476	-0.14937004
18	0xbdc91347	-0.0981813
19	0xbd0b8bd7	-0.03406891
20	0xbe472fb9	-0.19451798
21	0x3d3ec84b	0.046577733
22	0x3da025c7	0.078197055
23	0xbd9baa43	-0.07600834
24	0xbda09a37	-0.07841914
25	0x3e007001	0.12542726
26	0x3d9fd84d	0.07804928
27	0xbe419b9c	-0.18907017
28	0xbde7bfa2	-0.11315848
29	0xbe22fc34	-0.1591652
30	0x3d651385	0.05592682
31	0x3dbbb24e	0.09164868
32	0xbd91d342	-0.07120372
33	0x3ca21e1f	0.019789753
34	0xbc60a018	-0.013710044
35	0xbe926668	-0.28593755
36	0xbd4eb3b3	-0.050464343
37	0x3be55670	0.0069988295
38	0xbdc199c2	-0.09453155
39	0x3d2c79b7	0.042108264
40	0xbc534621	-0.012895138
41	0x3d67cc2b	0.056591194
42	0x3de1212c	0.10992655
43	0xbb9767f0	-0.0046205446
44	0xbc9d81ea	-0.019226987
45	0xbe584e29	-0.21123566
46	0x3d3b993d	0.045800436
47	0xbe151e57	-0.14562355
48	0xbe6a234b	-0.22865026
49	0x3da816eb	0.08207496
50	0xbc9f6d3d	-0.019461269
51	0xbba23923	-0.004950659
52	0xbca38203	-0.019959455
53	0x3cb270d3	0.021782314
54	0xbcfd0ec5	-0.030890832
55	0x3c730bd7	0.014834366
56	0xbe266b04	-0.1625176
57	0xbdb9f92d	-0.0908073
58	0x3b465acb	0.003026652
59	0xbe08fe8f	-0.13378356
60	0xbe3a5c57	-0.18199287
61	0xbcd1fb53	-0.025632536
62	0x3d2ecffc	0.042678818
63	0xbdb36959	-0.08760328
64	0x3de92589	0.113841124
65	0x3d35e3e3	0.044406783
66	0xbd99e474	-0.07514277
67	0xbded8d05	-0.11599163
68	0xbe1921d4	-0.1495431
69	0xbdca64db	-0.09882518
70	0xbc2d6cfb	-0.010585065
71	0xbdb15e2f	-0.08660542
72	0x3cf392eb	0.029733142
73	0xbe1b3f25	-0.15160806
74	0xbe58c5d7	-0.2116922
75	0xbd988f6a	-0.07449229
76	0x3da83a21	0.08214212
77	0xbe2847dc	-0.16433662
78	0x3c69c669	0.014268496
79	0xbda71b0b	-0.08159455
80	0xbddab01e	-0.10678123
81	0xbce681de	-0.028138097
82	0xbb869c9a	-0.004108024
83	0xbde2f12d	-0.11081157
84	0xbe0389f3	-0.12845592
85	0x3e286b9c	0.164473
86	0x3c72ab73	0.0148113845
87	0xbe319cb4	-0.17344934
88	0xbc4ed6a0	-0.012624413
89	0x3cb59072	0.022163603
90	0x3da2bd68	0.079462826
91	0xbe57f7b9	-0.21090592
92	0xbe18326b	-0.14862983
93	0xbe5c5423	-0.2151647
94	0xbdbe1bac	-0.09282622
95	0x3d67f8dc	0.056633815
96	0xbdd5c3d9	-0.104377456
97	0xbe530490	-0.20607209
98	0xbd794722	-0.060858853
99	0x3de458d4	0.11149755
100	0xbe4e0532	-0.2011917
101	0xbe8463d9	-0.25857428
102	0x3d66afe5	0.05632009
103	0x3e050624	0.12990624
104	0xbe9dc839	-0.3081682
105	0xbe071074	-0.1318987
106	0xbe396184	-0.18103606
107	0x3dd721e2	0.105045095
108	0xbe4daa71	-0.2008455
109	0xbde41ec9	-0.11138684
110	0x3dc659e4	0.09685114
111	0xbd2be8ae	-0.041969948
112	0xbde9bd8a	-0.11413105
113	0xbe1196c9	-0.14217676
114	0xbc9ce2f9	-0.019151198
115	0x3da4043a	0.08008619
116	0xbe07d62b	-0.13265292
117	0x3d95d640	0.073162556
118	0xbcb684b3	-0.022280073
119	0xbe0c318a	-0.13690773
120	0xbdb549c6	-0.08851962
121	0x3cc2d0ff	0.023781298
122	0xb9b50feb	-0.0003453487
123	0xbe75f3d8	-0.240188
124	0xbde80980	-0.11329937
125	0x3cee78af	0.02911028
126	0x3d84d5bc	0.06486079
127	0xbd2306fc	-0.039801583

hidden_layers.1.weight f4 [64, 128]
0	0xbd043090	-0.032272875
1	0xbd8a475a	-0.067518905
2	0xbeb84d79	-0.35996607
3	0x3d8a5f76	0.06756489
4	0x3e00c675	0.12575705
5	0x3db89ede	0.090146765
6	0xbe20dc97	-0.15709148
7	0xbdf07992	-0.11741938
8	0x3de92e4d	0.11385784
9	0xbc3d726e	-0.011562927
10	0xbd46ef63	-0.04856814
11	0xbaa070d8	-0.0012240661
12	0xbeacf9b0	-0.33784246
13	0x3da3def1	0.08001507
14	0xbe62e5de	-0.22158
15	0x3d2572de	0.04039275
16	0xbea40971	-0.32038453
17	0xbe39d874	-0.18148977
18	0xbd090c54	-0.033459023
19	0x3d111d27	0.035428192
20	0x3e45dcef	0.1932256
21	0x3d1cf1a0	0.03831637
22	0x3c41e530	0.011834428
23	0xbe104d2f	-0.14091943
24	0x3b161376	0.0022899783
25	0x3cc65743	0.024211532
26	0xbe0b8388	-0.13624394
27	0xbe677133	-0.22601776
28	0xbc4745bd	-0.012162623
29	0x3dba4913	0.09095969
30	0xbed62032	-0.41821438
31	0x3d8f4498	0.06995505
32	0xbe20d2b7	-0.15705381
33	0xbde7f91e	-0.11326812
34	0xbe54aa14	-0.20768005
35	0xbd3feaae	-0.046854667
36	0xbc881d53	-0.016615545
37	0xbd080869	-0.033211146
38	0xbe9a81eb	-0.30177245
39	0xbbe157f4	-0.00687694
40	0xbd75f52a	-0.06004826
41	0xbdd884f5	-0.105722345
42	0xbce9f36d	-0.028558457
43	0x3bf4da32	0.0074723
44	0x3d27cc6c	0.040966436
45	0xbc20e1ab	-0.009819428
46	0xbd3350da	-0.043778278
47	0xbd268fdf	-0.04066455
48	0xbd98b9c8	-0.0745731
49	0x3c434d62	0.011920305
50	0xbe05815f	-0.13037632
51	0x3d5f16fb	0.054465275
52	0xbd93bd3a	-0.072138265
53	0xbd141733	-0.036154937
54	0xbe8c2925	-0.2737514
55	0x3d9b31d7	0.075778656
56	0x3da95d57	0.08269756
57	0x3da8f034	0.0824894
58	0x3e0688d5	0.13138135
59	0x3d94e356	0.072699234
60	0xbd68e1bd	-0.056855906
61	0xbd257be9	-0.040401373
62	0xbe8a8b46	-0.27059382
63	0x3d9edc4a	0.077568606
64	0x3d401b45	0.046901006
65	0x3d8e9a3f	0.06963014
66	0xbc50698d	-0.012720478
67	0xbf086aea	-0.5328814
68	0x3d3541f3	0.044252347
69	0xbd51319a	-0.051072694
70	0x3cfe6a08	0.031056419
71	0xbd34f7b0	-0.044181526
72	0xbe74bb65	-0.2389961
73	0xbe095bd7	-0.1341394
74	0x3c885213	0.016640699
75	0x3d65dd37	0.05611917
76	0xbdda7b5a	-0.10668059
77	0xbd9cd90e	-0.076585874
78	0xbde7f11d	-0.113252856
79	0x3e034944	0.12820917
80	0xb989bcce	-0.00026271347
81	0xbe0d84e4	-0.13820225
82	0xbd6b49ab	-0.057443302
83	0x3cb2202a	0.021743853
84	0xbd03998a	-0.032128848
85	0x3c3a333d	0.011364755
86	0xbee539db	-0.44770703
87	0x3d515af6	0.051112138
88	0xbc3fc272	-0.011704074
89	0xbc0f8f07	-0.008762128
90	0x3b1c7e0d	0.0023878843
91	0xbc55b8e5	-0.013044571
92	0x3b4a6b3a	0.0030886666
93	0xbc51bf26	-0.012801921
94	0x3d749b89	0.059718642
95	0xbb8d8516	-0.0043188436
96	0xbe651c35	-0.22374041
97	0x3ddb08e5	0.10695056
98	0xbe226e10	-0.15862298
99	0xbc9052a5	-0.017617533
100	0xbe65a1cf	-0.22425006
101	0x3d93862c	0.07203326
102	0xbd85229e	-0.06500743
103	0x3d6ac4fa	0.057316758
104	0x3d2056ae	0.039145164
105	0xbc244612	-0.010026472
106	0x3c2a6a5c	0.010401335
107	0xbeb935b9	-0.361738
108	0x3dc0ec36	0.09420054
109	0xbcad8c56	-0.021185081
110	0xbe5ae89a	-0.21377793
111	0xbd83d882	-0.0643778
112	0x3d59d20d	0.053178836
113	0xbe8bd3f5	-0.27310148
114	0xbcdfcb5f	-0.027318655
115	0xbefc2e6a	-0.4925416
116	0xbdca0001	-0.09863282
117	0x3d34dbeb	0.044155043
118	0xba7e3d9a	-0.00096985104
119	0x3db0ad62	0.0862682
120	0xbc3e20b1	-0.011604474
121	0xbdf25389	-0.11832339
122	0x3c804f8c	0.01566293
123	0xbbec3a4c	-0.007209098
124	0xbea7ae27	-0.32750055
125	0x3d6576ba	0.05602143
126	0xbcafba6b	-0.021451196
127	0xbda386fc	-0.079847306
128	0xbe217f2e	-0.15771171
129	0xbf09e2f8	-0.5386195
130	0x3c171c1c	0.00922301
131	0xbe5861cf	-0.21131061
132	0x3e48a54e	0.19594309
133	0xbe75a906	-0.23990259
134	0x3c58c9eb	0.013231735
135	0xbe66cd08	-0.2253915
136	0x3e286689	0.16445364
137	0xbe8401d3	-0.25782642
138	0xbee8dff7	-0.45483372
139	0xbf2710d3	-0.65260047
140	0x3d7b2277	0.061312165
141	0x3ba81319	0.0051292297
142	0x3c026f06	0.00796104
143	0xbe05b4bf	-0.1305723
144	0xbbef0ff8	-0.007295605
145	0x3b846002	0.0040397653
146	0x3bd45e4e	0.0064809686
147	0x3d14c27e	0.036318295
148	0x3e651889	0.2237264
149	0x3cfbde5f	0.030745683
150	0xbe3e5f85	-0.18591125
151	0xbd65fc73	-0.056148957
152	0xbf343c97	-0.7040495
153	0xbf277d35	-0.65425426
154	0xbe8ebd64	-0.2787887
155	0x3c536598	0.01290264
156	0xbcf30f92	-0.02967051
157	0xbe054c1a	-0.13017312
158	0x3c546059	0.012962424
159	0x3ce0a6fa	0.02742337
160	0x3c8a982b	0.016918262
161	0xbddb42d5	-0.107061066
162	0x3b47059e	0.0030368338
163	0xbdad1028	-0.08450347
164	0xba588074	-0.0008258887
165	0xbed87204	-0.42274487
166	0xbc6488b4	-0.013948608
167	0xbe6741d5	-0.22583707
168	0xbede7706	-0.43450183
169	0xbe8f8735	-0.28032842
170	0xbda12947	-0.07869201
171	0xbefaec73	-0.4900852
172	0xbba51dff	-0.005038976
173	0x3d175491	0.036945883
174	0x3dbfcd86	0.09365372
175	0x3e3330da	0.17499104
176	0x3b2dd5c2	0.0026525115
177	0xbe1a2557	-0.15053307
178	0xbccd93a1	-0.025094809
179	0xbf0bd5bd	-0.54623014
180	0xbc1b2b55	-0.00947078
181	0xbc1c7895	-0.009550233
182	0x3b5b1427	0.003342876
183	0xbe8de956	-0.27717084
184	0x3e07c16f	0.13257383
185	0x3e02dd4d	0.12779732
186	0xbf4c67a2	-0.7984563
187	0x3c2f6456	0.010705074
188	0x3e1eb756	0.15499625
189	0xbe6aa35b	-0.22913878
190	0xbb8919a6	-0.0041839657
191	0xbe9e513e	-0.30921358
192	0xbf196298	-0.5991607
193	0xbe49de4e	-0.19713709
194	0x3cc9c5d9	0.024630474
195	0x3bb43928	0.0054999776
196	0x3da1c059	0.078980155
197	0x3c3ec92e	0.011644645
198	0xbc32d5a5	-0.010915195
199	0xbebbd44b	-0.36685404
200	0x3af72fab	0.0018858811
201	0x3c564b9e	0.013079552
202	0x3c22ea89	0.009943613
203	0xbdac11b6	-0.084018156
204	0xbecbdf4e	-0.39818805
205	0x3ea09adf	0.31368157
206	0x3b9fc50f	0.004875786
207	0xbd5b1da0	-0.05349505
208	0xbef4aaa2	-0.47786433
209	0xbbde267e	-0.006779491
210	0x3a393a75	0.0007065901
211	0xbead2df1	-0.33824113
212	0x3c0a01b9	0.008423262
213	0xbf5f78bd	-0.87293607
214	0x3b091ed9	0.0020922928
215	0x3be80be4	0.0070814956
216	0xbe5ee9a4	-0.21768814
217	0xbe9278bb	-0.28607735
218	0xbe8230da	-0.25427896
219	0xbd970e9d	-0.07375834
220	0xbe723730	-0.23653865
221	0xbda8c4aa	-0.08240636
222	0xbb55d741	-0.0032629522
223	0xbf5506e5	-0.83213645
224	0xbbedfa65	-0.0072625154
225	0xbd677fee	-0.056518488
226	0xbd3e4472	-0.046451993
227	0xbe67494d	-0.22586556
228	0x3afb9565	0.0019194303
229	0x3c54bd6b	0.012984614
230	0xbebdc2e9	-0.37062767
231	0x3e885dc9	0.26634052
232	0x3cacf61e	0.021113452
233	0xbe61d66c	-0.22054452
234	0x3c30990f	0.0107786795
235	0x3c875e18	0.01652436
236	0x3c0c25a9	0.008553901
237	0xbd89b07b	-0.06723114
238	0x3c294166	0.010330534
239	0xbe12b196	-0.14325556
240	0xbc0ffed2	-0.008788781
241	0x3b8f5038	0.0043735765
242	0xbdf3aa2c	-0.11897692
243	0xbc1249b3	-0.008928704
244	0x3c238ff0	0.009983048
245	0xbea99ab5	-0.33125845
246	0xbe8507af	-0.25982425
247	0x3e4a49a6	0.19754657
248	0xbeb4cc5f	-0.35312173
249	0xbe657f84	-0.22411925
250	0xbdb6ffb9	-0.08935494
251	0x3d3efd8d	0.046628524
252	0xbcaed64f	-0.021342425
253	0xbe1aa4da	-0.15101948
254	0x3d43585c	0.047691688
255	0xbf07e2eb	-0.53080624

hidden_layers.1.bias f4 [64]
0	0x3e803617	0.25041267
1	0x3dd9a34d	0.1062685
2	0x3ddf5d87	0.10906511
3	0x3dfc272f	0.12312161
4	0x3e8e6826	0.27813834
5	0x3e5ed925	0.21762522
6	0x3e013e8b	0.12621514
7	0x3e089041	0.13336278
8	0x3e3af60e	0.18257925
9	0x3de76d03	0.11300089
10	0x3e8be280	0.27321243
11	0x3def9526	0.1169837
12	0x3e5336b8	0.20626342
13	0x3e06b494	0.13154823
14	0x3dc00351	0.093756326
15	0x3e231be7	0.15928613
16	0x3dd158bc	0.10222003
17	0x3df52d11	0.11971486
18	0x3e7a0e69	0.2441956
19	0x3e1de934	0.15420991
20	0xbe0a7493	-0.13521032
21	0x3e6bb584	0.23018461
22	0xbe073a66	-0.13205871
23	0x3e778173	0.24170475
24	0x3e0b4ab0	0.1360271
25	0x3e8b4f04	0.27208722
26	0x3e8171f6	0.25282258
27	0x3e837b66	0.25680083
28	0x3dcf4936	0.10121386
29	0x3cd14ade	0.025548395
30	0x3e181775	0.14852698
31	0x3e3e5188	0.18585789
32	0xbd53639b	-0.051608663
33	0x3e8a79d6	0.27046078
34	0x3e784e24	0.24248558
35	0x3e4a4239	0.19751824
36	0xbe20770c	-0.15670413
37	0x3e346788	0.17617619
38	0x3e04da91	0.12974001
39	0x3e3a100b	0.18170182
40	0x3e28528b	0.16437738
41	0x3e421aec	0.18955582
42	0x3de2acc7	0.11068111
43	0x3e73e073	0.2381609
44	0x3e02ae7e	0.12761876
45	0x3e789c4c	0.24278373
46	0x3e1eef53	0.15520982
47	0x3df32635	0.11872522
48	0x3de902e5	0.11377505
49	0x3ddf251b	0.10895749
50	0x3de3805c	0.11108467
51	0x3df23560	0.11826587
52	0x3de99f7b	0.114073716
53	0x3e6f9f7a	0.23400679
54	0x3db88f86	0.0901175
55	0x3dde46f3	0.10853376
56	0x3e080a27	0.13285123
57	0x3e839dd9	0.25706366
58	0x3e67b844	0.22628886
59	0x3dea493b	0.11439749
60	0x3dba222c	0.09088549
61	0x3ddb0632	0.10694541
62	0x3dfb2798	0.12263411
63	0x3e26eeac	0.16301984

output.weight f4 [4, 64]
0	0x3d716b08	0.058939964
1	0xbe0a9874	-0.13534719
2	0x3d038833	0.03211231
3	0x3d24f1be	0.040269606
4	0x3d8b7f1c	0.068113536
5	0x3d56d8a0	0.052452683
6	0x3d27869c	0.040899858
7	0x3d2e3eaa	0.04254023
8	0x3d01f38e	0.031726412
9	0x3d0dba04	0.034601226
10	0x3d860f7c	0.06545922
11	0x3d012dce	0.031537823
12	0x3d4b07c4	0.049567953
13	0x3d169dbc	0.03677152
14	0x3d052cce	0.032513432
15	0x3d055d4a	0.03255967
16	0xbde72dca	-0.112880304
17	0x3d1dd6b2	0.038534828
18	0x3da3df24	0.08001545
19	0x3d217998	0.0394226
20	0xbd64baa0	-0.055842042
21	0x3d44c624	0.048040524
22	0x3da15966	0.078783795
23	0x3dcb9dd5	0.099422134
24	0xbdd246c5	-0.102674045
25	0x3db58c34	0.08864632
26	0x3d805554	0.06266275
27	0x3d82dcbc	0.06389758
28	0x3d1dd4c4	0.038532987
29	0xbd782e0a	-0.06059078
30	0xbd2a83f1	-0.041629735
31	0x3d27c464	0.040958777
32	0xbd9a41a3	-0.075320505
33	0x3d91b48a	0.07114513
34	0x3d988e88	0.07449061
35	0xbe0e5c8a	-0.13902488
36	0x3c5c7c4d	0.01345737
37	0x3d0dc58f	0.034612235
38	0xbdd10d4d	-0.10207615
39	0x3d4339fa	0.047662713
40	0x3d1c43c3	0.03815056
41	0xbdf82496	-0.12116353
42	0xbdec28c3	-0.11531212
43	0x3d92e018	0.07171649
44	0xbd9879b4	-0.07445088
45	0x3d8bd783	0.06828215
46	0x3d050fc0	0.032485723
47	0x3d189522	0.0372516
48	0x3d0404dc	0.032231197
49	0x3d109d3e	0.035306208
50	0xbdcf5d69	-0.101252384
51	0x3d158861	0.036507014
52	0xbde73111	-0.112886555
53	0x3d68c596	0.056829058
54	0x3ce95d01	0.02848673
55	0x3cf58022	0.029968325
56	0x3d197037	0.037460532
57	0x3d8288fc	0.06373784
58	0x3d4e49a5	0.0503632
59	0x3d1fb36e	0.038989477
60	0x3cff212f	0.031143753
61	0x3d31097a	0.04322193
62	0x3cf6b518	0.03011565
63	0x3d0c498b	0.034249824
64	0x3d4e75c3	0.050405275
65	0xbd50bdc6	-0.050962232
66	0x3c9b94d2	0.018991861
67	0x3cb656e3	0.022258228
68	0x3d84f4fd	0.0649204
69	0x3d260d30	0.04053992
70	0x3d8b1553	0.06791177
71	0x3d325ca8	0.043545395
72	0x3cfad969	0.030621247
73	0x3d08e109	0.033417735
74	0x3d88e969	0.066851445
75	0x3d35b0f5	0.044358213
76	0x3d6e5842	0.058189638
77	0x3c9a7904	0.018856533
78	0x3d1b3d2a	0.037900127
79	0x3d00938c	0.03139071
80	0xbc26ae48	-0.010173388
81	0x3cfc750d	0.030817533
82	0x3de4c48c	0.11170301
83	0x3cafb761	0.021449747
84	0xbd7ee038	-0.06222555
85	0x3d424ce9	0.04743663
86	0xbd6bfda2	-0.05761493
87	0x3df427f6	0.119216844
88	0x3c2b1c8e	0.01044382
89	0x3db12c1c	0.08650991
90	0x3d64236d	0.055697847
91	0x3d5eb5fc	0.054372773
92	0x3d312330	0.043246448
93	0xbdd3f730	-0.10349882
94	0xbd983cfd	-0.074335076
95	0x3d05e992	0.032693453
96	0xbdb4385a	-0.08799811
97	0x3d596aa7	0.053080227
98	0x3df0e814	0.117630154
99	0xbdf1d81f	-0.118088
100	0xbbf39f7a	-0.0074347826
101	0x3d557a90	0.052118838
102	0xbcc47ebe	-0.023986217
103	0x3d05dab6	0.032679282
104	0x3d27d3c5	0.040973444
105	0xbdb76967	-0.08955651
106	0xbbaeb496	-0.005331586
107	0x3d84c833	0.064834975
108	0x3c28e07d	0.010307428
109	0x3d88a8d2	0.06672825
110	0x3c400b47	0.011721439
111	0x3d305f6f	0.043059763
112	0x3cde050a	0.027102012
113	0x3d062e2e	0.032758884
114	0x3cc39eac	0.023879372
115	0x3d064d71	0.032788698
116	0xbc9fed89	-0.019522445
117	0x3d4bcc73	0.049755525
118	0x3cb928b0	0.02260241
119	0x3cc8460a	0.02444746
120	0x3d39a863	0.0453266
121	0x3d6205dd	0.055181373
122	0x3d838e63	0.064236425
123	0x3d4734c2	0.0486343
124	0x3cf0ea0b	0.029408475
125	0x3cb2d7aa	0.021831352
126	0x3c9b74ba	0.018976558
127	0x3d128cab	0.035778683
128	0xbbf1a0f8	-0.0073739253
129	0xbd99d4c6	-0.075112864
130	0x3d8d1929	0.068895645
131	0x3d4e5054	0.050369576
132	0xbc91c8c4	-0.017795928
133	0x3daf1e3b	0.08550688
134	0x3d111b71	0.03542656
135	0x3da13696	0.078717396
136	0x3d8186a2	0.06324507
137	0x3d2835ea	0.04106704
138	0x3c14c5b2	0.009080337
139	0x3d0bf3e6	0.034168147
140	0x3ce18bbe	0.027532455
141	0x3d2284f2	0.039677568
142	0x3d326747	0.043555524
143	0x3d8706b4	0.065930754
144	0xbd91d764	-0.071211606
145	0xbd4ae1c0	-0.0495317
146	0x3d24b06f	0.040207323
147	0xbd5ff72a	-0.054679073
148	0x3bbd7694	0.005781958
149	0xbb81a805	-0.003956797
150	0x3a10f41d	0.000552954
151	0x3d77ae52	0.06046898
152	0x3d6a0854	0.05713685
153	0x3d510483	0.051029693
154	0x3c798307	0.015228993
155	0x3d05959d	0.032613385
156	0x3d06dda7	0.032926228
157	0xbd9e3042	-0.07724048
158	0xbe982512	-0.29715782
159	0x3d83f52f	0.064432494
160	0xbdaf0e71	-0.08547676
161	0xbb3d7130	-0.0028906576
162	0x3bfc23cd	0.0076946975
163	0xbd03d792	-0.032188006
164	0x3d420b16	0.047373854
165	0x3d7009d9	0.05860314
166	0xbcffea15	-0.031239549
167	0x3d0afd22	0.033932813
168	0x3d5818ee	0.05275815
169	0xbd935d74	-0.07195559
170	0xbd778946	-0.06043365
171	0x3db7daec	0.08977303
172	0x3d2cc8eb	0.042183798
173	0x3cc2837d	0.02374434
174	0x3d26359c	0.04057847
175	0x3d1ba396	0.037997805
176	0x3d4adca6	0.049526833
177	0x3d6b6cb4	0.057476714
178	0xbde2a358	-0.110663116
179	0x3d5245a0	0.05133593
180	0xbd21d0e0	-0.03950584
181	0x3d1b5b92	0.037929125
182	0x3d28bb34	0.041194156
183	0x3d50df48	0.050994188
184	0x3d0d942a	0.03456513
185	0xbcd526b8	-0.02601944
186	0x3cca86c8	0.024722472
187	0x3d705351	0.058673207
188	0x3ce13086	0.027488958
189	0x3d2549cc	0.04035358
190	0x3d8de6d3	0.06928792
191	0x3c9139e6	0.017727803
192	0x3cbec09a	0.023285199
193	0xbd91625c	-0.07098839
194	0x3d6dd15a	0.05806098
195	0x3d82d510	0.06388295
196	0x3d2a6ffa	0.041610695
197	0x3d7ede15	0.062223513
198	0x3d26a570	0.040685117
199	0xbcee2eea	-0.029075105
200	0x3da43ceb	0.08019432
201	0x3d712ef9	0.058882687
202	0x3c14b363	0.009075972
203	0x3d3ed6c8	0.04659155
204	0x3d369427	0.044574883
205	0x3d141521	0.036152963
206	0x3d2cab6c	0.04215567
207	0x3cfcc587	0.030855907
208	0xbd6fcf68	-0.058547407
209	0x3d66e23b	0.056368094
210	0x3d4cf47f	0.050037857
211	0x3d122ddf	0.035688277
212	0x3dc916b2	0.09818782
213	0x3cccec3c	0.02501499
214	0xbc7e1595	-0.015508075
215	0x3dbb9ab0	0.09160364
216	0xbdf6ed1d	-0.120569445
217	0x3d729ee0	0.059233546
218	0x3ce384b3	0.027773237
219	0x3c0ae5d0	0.008477643
220	0x3d476820	0.048683286
221	0xbe2d9a28	-0.16953337
222	0xbe819f4a	-0.2531684
223	0x3d2cc2e2	0.042178042
224	0xbe1b0d01	-0.1514168
225	0x3ca895dd	0.020579273
226	0x3becfee2	0.007232533
227	0xbddb0536	-0.10694353
228	0xbd94ae3b	-0.07259794
229	0x3d60d923	0.054894578
230	0xbd194490	-0.037418902
231	0x3cf9870d	0.030459905
232	0x3ccec0f9	0.0252385
233	0xbd7b26ae	-0.061316185
234	0xbda0eee6	-0.07858066
235	0x3d596551	0.05307514
236	0x3d8e5953	0.06950631
237	0x3c074842	0.008256974
238	0x3d2a12a6	0.04152169
239	0x3d272dc4	0.04081513
240	0x3d4d7f94	0.050170496
241	0x3d33ffba	0.04394505
242	0x3d88ff11	0.06689275
243	0x3d362194	0.044465616
244	0xbd7e16f3	-0.062033605
245	0x3d68c0de	0.056824557
246	0x3d3714dd	0.04469763
247	0x3d46eb3c	0.04856418
248	0xbd9b532c	-0.07584223
249	0x3c4a76b5	0.0123574035
250	0x3d1d017c	0.038331494
251	0x3d6553de	0.055988185
252	0x3d4440fd	0.04791354
253	0x3d3cc49b	0.046085935
254	0x3d2637a0	0.040580392
255	0x3d2b1d0a	0.04177574

output.bias f4 [4]
0	0x3fbfb432	1.4976866
1	0x3fac94ae	1.3482873
2	0x3fb51fb4	1.41503
3	0x3fb64cfb	1.4242243
