experiments/navigate_1319_18Oct22082452.pth (torch_old, 54660 bytes, 6 tensors)

hidden_layers.0.weight f4 [128, 37]
00000000: 6a4b c6bd df34 e4bb c7f6 2bbe 348a a9bd
00000010: cf22 3ebe 8859 0f3c 2b16 fcbd c06e 003e
00000020: e3c7 6abd e11a 0ebc 72b2 9fbd 02c7 3abe
00000030: d8d8 36be fe93 d4bd dce4 33be 7685 05bd
00000040: 7ab8 33bd 48dd 9e3d 14c3 10be 075f 11be
00000050: 3a9d 27bc 0563 c63d 77ae 76bd fb3e 8e3d
00000060: f4fe dbbd 72f0 41bd 2ed1 b63c 343d 32be
00000070: 8604 6cbd bf6a 04be 32bc b6bd 4524 8e3d
00000080: f206 04be 663a e8bd 49c1 39be 4b54 77bd
00000090: 02ae 2b3c b956 a13d 9853 e03d f2c7 9d3d
000000a0: e42d 943d 5489 31bd b7b3 de3d e197 d6be
000000b0: d211 f9be b1bf b3be 9f5a d0bf 8feb d13c
000000c0: 7c3e f13c 9468 6abc 1904 ef3c 2774 463d
000000d0: 9229 473d 458d 373c a89e 423d 0770 ce3c
000000e0: ef67 93b9 e032 a9bd e719 04be 730d a6bd
000000f0: 710e 90bd 67bf 343d dc92 aaba 17c7 b4bb
00000100: f931 3fbc 5fb9 d7bc 9e58 49bc bcb2 233d
00000110: 4438 da3d 369d 8a3d 93c9 dc3b 70d8 dbbd
00000120: 3998 93bb 4873 beba f0d3 bb3d 2b46 253e
00000130: 079a 34bd 9d9b 3fbd dca1 013d 6997 c8bd
00000140: 8309 8bbe 466b 083e 6271 023e 4b67 e5bd
00000150: 07c4 a6bd b595 973d 170a 12be dd8f 713d
00000160: 502b 5e3e 7c0d 04be a8cd 8ebd b816 103e
00000170: c530 853e d2ed b33d 1f5f 84be ad63 0abe
00000180: b0d0 62bc 36e4 0b3e d428 b8bb c912 35be
00000190: 5db8 8c3d 08d7 583e 7600 b7bd 73db 14bd
000001a0: 0b91 f4bd 8c99 65be 9aca 223d 136d 47be
000001b0: ed45 8f3d aef9 f6bb 1348 3dbd 383c b93b
000001c0: c0ae f43d 7a8d c53d cad9 753d 55ee c3bd
000001d0: bec5 b3bd cab5 25bc 64eb 10bd 5510 c13d
000001e0: 6c2b af3e b728 12be dcf1 753d 52d1 883c
000001f0: 89a8 dfbd b351 e4bd 2041 f7bd c58f 04be
00000200: 28d9 d2bd f285 24bc 400d 0c3e 6d84 6fbd
00000210: 88c0 3bbd cc5b d1ba f7c0 a33d 7e61 233e
00000220: f8b0 13bd a450 33be 5c0f e13b e1aa 583e
00000230: 8010 f43e 5085 5abc 22cd fa3b 33b3 823d
00000240: 3ba1 483e d20d 853e a467 5bbb e169 57bc
00000250: b6b6 13be 42c8 75be 2222 c2bd 3a27 8fbe
00000260: cf70 2cbe 72d0 9cbe c084 d83d 411d 6f3e
00000270: 052a 463e 1c49 e4be 09ae 94bd a850 e83c
00000280: a277 9ebd 1dd2 12be b310 14bd 88db 82be
00000290: 9d6e 2fbd 88a0 8f3d c28f babe fe7c 30bd
000002a0: b7e1 7cbe 3973 843d eddc ba3d eed0 6ebc
000002b0: df19 aabd 0c47 38be cb66 b7bd 7cd2 923e
000002c0: e981 b0bd 4a02 fdbe bbc0 153c c9f5 0abe
000002d0: 7bba d03d 261e 1cbe 8ecd 08bd 5ce4 4b3d
000002e0: 1682 d6bb 0742 50bc 28dc fd3b 7748 573b
000002f0: 88ff 043d aa52 6f3d 1c39 5a3e dad6 90be
00000300: 31b3 a3be 2563 a0be 95a4 d4bf 0b80 2bbd
00000310: 3105 c7bc dc76 73bd 8ed8 56bd 7954 c9bc
00000320: f5fd 6abc 7e52 4b3c 0f40 173c e6bf ecbb
00000330: 334e 62bd 1609 a83d 1b08 2d3d 0e79 ba3d
00000340: 7573 0e3e c232 b73d 0c9e 7d3c 9571 d63c
00000350: 05fd 983d 8883 c13b 8b53 c53d ba83 a0bc
00000360: 59d4 413d 9544 623d b7c1 a93d 90bf debb
00000370: 2cb0 6b3a 2a07 e53b 364e 0bbc f9e8 5ebc
00000380: beae ecbc 505e dbbc 00b0 32bd 5c0d d4bd
00000390: fba5 22bd f138 283b caf8 9b3d 0f9f 4b3e
000003a0: a9b9 903c 1562 3b3d c7af 4b3d a01f c33d
000003b0: 4dad 4d3d 880e 9fbd 59a9 4abd 1a87 1bbd
000003c0: b49b b1bb 790a 4f3d c103 55bd f086 9eb9
000003d0: d324 a33b 917e 79bc 80e9 6a3c 16eb f5bd
000003e0: 11d3 b4bd bd8c 4fbd f0c5 a5bd 5586 b13d
000003f0: 65f8 683e 6118 02bf f68f d4be f498 c3be
-0.09682353 -0.0069643105 -0.16793357 -0.08278313 -0.18567966 0.008749373 -0.12308916 0.12542248
-0.057319533 -0.008673401 -0.077977076 -0.18239978 -0.17856157 -0.1037979 -0.17567772 -0.03259798
-0.043877102 0.0775705 -0.14136916 -0.14196406 -0.010230357 0.09686855 -0.060224976 0.06945606
-0.10741988 -0.047348447 0.022316542 -0.1740616 -0.0576215 -0.12931345 -0.08922614 0.069405116
-0.12893274 -0.113392636 -0.18140139 -0.060383122 0.010478498 0.07877869 0.10953444 0.07704152
0.072353154 -0.043343857 0.10874122 -0.4191275 -0.48646408 -0.35107186 -1.6277655 0.025625018
0.02944874 -0.01430716 0.029176759 0.048450615 0.04862363 0.011203115 0.047514588 0.025199903
-0.00028115461 -0.08261657 -0.12900506 -0.08108034 -0.070340045 0.044127848 -0.0013013738 -0.0055168974
-0.011669629 -0.026333509 -0.012289194 0.039965376 0.10655263 0.06768267 0.0067378967 -0.107346416
-0.0045042303 -0.0014530206 0.09171283 0.16140048 -0.044092204 -0.046779264 0.0316485 -0.09794504
-0.27155694 0.13322172 0.12738565 -0.11201342 -0.08142858 0.07401601 -0.14261661 0.05897509
0.2169621 -0.12895769 -0.069728196 0.14071167 0.2601377 0.08785595 -0.25853822 -0.13514586
-0.0138437 0.13661274 -0.0056201015 -0.17682947 0.06871102 0.21175778 -0.08935635 -0.036342096
-0.11941727 -0.22421855 0.039743997 -0.19475202 0.06995759 -0.0075370884 -0.046211313 0.0056529306
0.119473934 0.09646125 0.060022153 -0.095669426 -0.08777951 -0.010114143 -0.035380736 0.09426943
0.34212816 -0.14273344 0.06004511 0.016701374 -0.109208174 -0.111483954 -0.120729685 -0.12945469
-0.102953255 -0.010041701 0.1367693 -0.0584759 -0.04583791 -0.0015972792 0.079957895 0.15955159
-0.036057442 -0.1751123 0.006868286 0.21158935 0.47668839 -0.013337448 0.0076538483 0.06381836
0.19592755 0.25987107 -0.0033478523 -0.013147802 -0.14425167 -0.24002174 -0.094791666 -0.27959615
-0.16839908 -0.3062778 0.10572195 0.23351003 0.19351967 -0.44587028 -0.07259757 0.028358772
-0.07737662 -0.14337964 -0.036148738 -0.25558114 -0.0428301 0.07013041 -0.36437804 -0.04308795
-0.24695478 0.064672895 0.091241695 -0.01457618 -0.08305716 -0.17995852 -0.08955153 0.28676212
-0.086185284 -0.4941581 0.009140189 -0.13570322 0.10191818 -0.15245876 -0.033399157 0.049778327
-0.006546269 -0.012711055 0.007747192 0.003284959 0.032470256 0.058428444 0.21310848 -0.2828892
-0.3197265 -0.3132564 -1.6612726 -0.04187016 -0.024294468 -0.059439525 -0.052452616 -0.024576413
-0.014342775 0.012409804 0.009231581 -0.0072250245 -0.055250358 0.08204858 0.042244058 0.091051206
0.13911231 0.08945228 0.015479576 0.026177207 0.07470135 0.0059055723 0.09635075 -0.019594062
0.04732165 0.055241186 0.08288901 -0.0067977384 0.000899079 0.0069893794 -0.008502534 -0.01360535
-0.028891917 -0.02677837 -0.043624878 -0.103541106 -0.039709073 0.0025668705 0.07615812 0.19884895
0.017666655 0.045747835 0.04972818 0.09527516 0.0502141 -0.077664435 -0.04947791 -0.03797064
-0.0054201726 0.050547097 -0.052005533 -0.00030236645 0.004978755 -0.01522793 0.014337897 -0.1200773
-0.0882932 -0.050671328 -0.08094394 0.086682 0.22751005 -0.5081845 -0.41516083 -0.3820263

hidden_layers.0.bias f4 [128]
00000000: c18b d4bd 5cbe 423d e6be 15be d49b 25be
00000010: 4779 b6bd f75c 8cbd 5a2a 7e3d f2be e33c
00000020: 642b 16be 8358 26bc 19ea 1bbe edd6 dbbd
00000030: 4a23 17be 16a4 a5bd 282b 07be 7abf da3b
00000040: 1fca 69bd ce36 0ebd a024 19be 67c8 d8bd
00000050: bedf 47be 1b7a d0bc 1f56 cd3c b2fc 98bd
00000060: 7342 67bd 56be 593c 4808 8d3d 8a5e 12be
00000070: 3266 e4bd 0ce1 1ebe f713 d93b 45c4 3e3d
00000080: 7fb2 cdbd 2b9a 0dbe 2b70 a6bd 4ead 61be
00000090: b6c6 01be 2a34 463c 235e cebd b44e 87bd
000000a0: 7381 dcbc 9ad0 b43c 538c 1a3e e3bc 80bc
000000b0: 2827 b2bd 25d8 24be 0b20 a13d 768d 49be
000000c0: 8a2b 85be 0670 373c 229e fc3b 48cd e8bd
000000d0: 95d4 9bbc 3d64 c13c bb92 0bbd 60b7 99bd
000000e0: 92df 32be 3f80 87bd 9e31 863c 8e73 c2bd
000000f0: 6529 4fbe ea2b fbbc 0c10 593c 1ee2 0ebe
00000100: 9e32 cf3c d388 863d 7504 9ebd 9330 03be
00000110: 6549 77be b72e b7bd c4b9 8ebc 9fe8 07be
00000120: bdbe 02bd 50f7 10be e6b5 c3bd 15c5 f8bd
00000130: 52f5 3b3c 3458 2abe f6a8 3b3d fe39 643d
00000140: 1600 abbd d3c3 703b 8217 4e3b 9660 f9bd
00000150: 9c01 c0bd 9d04 003d 9af5 893c 48a8 bbbd
00000160: 5c64 42bc fa83 83bc f6c1 d13d c251 a6bd
00000170: 5b26 1fbe f906 7bbe 9521 e0bd d967 4b3d
00000180: 402c dcbd 1255 9dbe bae8 13be c9b5 f83c
00000190: 266a fabd 63c5 86be 32a5 b5bb 14ad 823d
000001a0: 329b 68be dda0 29be 4ba6 16bd 0e99 193e
000001b0: 72d5 86be 4a2f 12be e688 86bb d4fe 54bd
000001c0: 8e89 ffbd 40cc 88bd c838 d6bb 9c6b 443d
000001d0: 88ed bb3c 474a 363c 28bd 15bd b771 b8bd
000001e0: 3e04 bcbd ae49 513d d8d7 0abe bb1f 91be
000001f0: c330 ddbd b492 db3c 0e11 2a3e d712 09be
-0.103782184 0.047544822 -0.14623603 -0.16172725 -0.089098506 -0.06853669 0.06205211 0.02780101
-0.1466499 -0.010152939 -0.1522602 -0.10734353 -0.14759555 -0.080879375 -0.13200057 0.006675658
-0.057077523 -0.034720235 -0.14955378 -0.10585099 -0.19518945 -0.02544885 0.02506548 -0.07470073
-0.056459855 0.0132900085 0.06886345 -0.14293876 -0.11152305 -0.15515536 0.0066246944 0.046573896
-0.10043811 -0.13828342 -0.08126863 -0.22038767 -0.12673458 0.012097398 -0.10076549 -0.06606808
-0.026917195 0.022072125 0.15092592 -0.015715068 -0.08698875 -0.16098078 0.0786744 -0.1968287
-0.2600978 0.011196142 0.0077092806 -0.11367279 -0.019022265 0.023607368 -0.03407548 -0.07505679
-0.17468098 -0.06616258 0.016381081 -0.094946966 -0.20230635 -0.030660588 0.013248455 -0.13953444
0.02529269 0.06569066 -0.07715694 -0.12811498 -0.24149092 -0.08944457 -0.017422564 -0.13272332
-0.031920183 -0.14156842 -0.09556179 -0.121469654 0.011472063 -0.1663521 0.04581543 0.05571937
-0.08349626 0.0036737814 0.0031447117 -0.121766254 -0.09375307 0.0312544 0.016840745 -0.091629565
-0.011864748 -0.016054142 0.10242073 -0.08121063 -0.15541975 -0.24514379 -0.10943905 0.049659584
-0.107506275 -0.30728966 -0.14444247 0.03036012 -0.122272775 -0.2632247 -0.0055433745 0.06380668
-0.22715452 -0.1656527 -0.036779683 0.14999792 -0.2633472 -0.14275852 -0.004105675 -0.052000836
-0.12477408 -0.066795826 -0.0065375306 0.047954187 0.022940412 0.011126108 -0.036557347 -0.090060644
-0.09180497 0.051095657 -0.135589 -0.2834452 -0.10800316 0.026803352 0.16608068 -0.13386093

hidden_layers.1.weight f4 [64, 128]
00000000: 9229 97bd d216 14bc 7bcf 753d fe9b 053e
00000010: 0bee be3d 38a0 d5bb c48d 81bd 8b4d 1bbd
00000020: 8d0f cb3c efd2 883c 3ed1 0e3d 2b30 973d
00000030: 04e7 8ebe 97ba a4bd 2599 183d ca46 babd
00000040: f852 febc 680e 053c eef3 24be a53e 7cbd
00000050: 4123 dfba fc2e b13d ece5 453d 9d61 c7bd
00000060: fe73 e13d ee41 1f3e 4919 45bd 38e9 3bbc
00000070: 368f 1fbd 7ce4 9c3d b803 a8be 4d23 aebc
00000080: bde7 9bbe 635b 87bd 3be9 e5be 7a4e e9bd
00000090: 8e1c e7bc 13d1 a9bc 7c00 5f3d b68d 7dbd
000000a0: 5b1d b2bd 2edd 93be e15c 1a3c 8b2b 673d
000000b0: 6243 3cbe fd8a aebc bc02 0abd b76d 9ebd
000000c0: aef8 1fbe 4f70 2dbd 72c3 bcbd e505 00be
000000d0: f496 68be 998d 3abd daaf 4dbc 0827 62bd
000000e0: 2c55 d23d 36dc 4fbe 8fea 97bc 33b8 1abd
000000f0: be49 d4bd 508b e9bd 0dde 8cbd 73fd 66be
00000100: 2e03 8ebd a105 433d dcd1 773d 374b f6bd
00000110: 0e40 2fbe f11f 723d a16c 153e e87a 48be
00000120: 744e 09be c5d3 06be f0be 033d b44b 1bbe
00000130: d363 96be 7888 00be 10c7 b93a c19e c33b
00000140: 9bbe 003d 987f 70be 92fe a6be 17f8 153d
00000150: c5e0 bebd 79f7 89be d770 8dbe 318b 12be
00000160: 31bf 4abd f79b 853d 7236 ce3d 5429 95bd
00000170: e3f6 a8bd 3e41 d8bd a521 af3d d464 603d
00000180: 2e1f 85be 5389 343d b9e9 3bbd 2727 e2bd
00000190: 192b 543d 2b74 21be 6040 23be 0dfe b4bc
000001a0: 96e7 a3bd edef 993b ac39 67bb 4a85 acbc
000001b0: ee6e 7cbe ca5d 20bd b569 39be 1dbc e63c
000001c0: cf39 babc 3038 ef3c 055e 1bbc 9983 3abe
000001d0: a7ad 653d 7398 613c f21f 76ba 7d3d 7ebe
000001e0: 0b7b 843d bf09 80bd 4909 803d e4a0 e7bc
000001f0: 44f9 50bd 0ed8 373c 01e3 d5bc 2170 debd
00000200: 9084 a43c f733 193d 7105 883c eb3a 01be
00000210: aa63 03be bd7c c63c 27b1 033e b635 a7bc
00000220: dc38 423d d6eb 8a3c 9e10 003d 174c 4a3d
00000230: d580 6ebe 6410 c53d 2be3 26bd 50c4 29be
00000240: 9ff0 25bd ebad 20bc 2f54 bfbd 3e42 0dbe
00000250: 8b83 3ebe e8c4 10bd d41b 0abd 287d ab3d
00000260: 84e8 b93c fb8e ae3d 4500 273d 84c2 f63d
00000270: 6c32 6bbc 90f6 ffbb d3ee 88be a0b4 74be
00000280: a237 18bd 19b7 23bd 3b34 a9bc 4aa6 a4bc
00000290: 287e 423d 2785 123d 5587 85bc 0c02 febb
000002a0: 85a2 653b aa2a 35bd 8a2a 4d3c 9e95 c43c
000002b0: a894 22be 774a 68be 648c 3abc 74c7 0b3e
000002c0: 7947 2fbe b1c7 b03d 2268 633d 3fac d8bd
000002d0: 140f bebd 4351 c33c 86d2 43be 692f b1bd
000002e0: cc5c 27be a7d5 d8bc ea21 893d c8af b1bd
000002f0: 9b58 24be d42f febd 336d 48be b709 95bd
00000300: 8661 69be 09b0 473e 917c 8e3d 2c3e f9bc
00000310: ada5 74bd fd53 703d 58b9 793d 53b3 cbbb
00000320: 4e9d 1ebe 4f8e 58be 12a3 4e3d 7c94 4c3e
00000330: 2afc b6bd 7c7d b4bd 6d9e e53c 20c7 c23c
00000340: 9700 933c 6bea 8fbc 1d89 9ebc 94db f13c
00000350: 87e6 f33c b428 91be 1060 dcbd fa75 82bc
00000360: 3e67 6b3d 05d5 f13c de0e 923d ec26 86bd
00000370: d359 31bc fde5 0ebe 5ffc aebd 6a4f 9d3d
00000380: 2432 78bd db3a dabc e9ac d9bd 4270 44be
00000390: 5351 303d b211 9cbd f8ae adbd c518 e03d
000003a0: eead 273b cec3 dd3c a615 8c3d 0c26 3bbb
000003b0: afb7 74be b3f4 cabd c582 9ebd 95e0 24be
000003c0: 41e9 26bd 9287 a33d 9864 c7bd af98 05be
000003d0: 3511 cf3c 245b 053e 636e 863d ffde 58be
000003e0: f567 e43d 98ab f23c 2fe7 573d f6e1 26bd
000003f0: 8939 243d d2cb a53c 7bcf a7bd 94a5 01bd
-0.07380976 -0.009038644 0.060012322 0.13047788 0.09322747 -0.0065193437 -0.06325868 -0.037915748
0.024787689 0.016702143 0.034867518 0.07382234 -0.27910626 -0.08043402 0.037255425 -0.09095533
-0.031045422 0.0081211105 -0.16108677 -0.06158318 -0.0017024056 0.0865154 0.048314974 -0.09735415
0.11008452 0.15552494 -0.048119817 -0.011469178 -0.038954936 0.076607674 -0.32815337 -0.021257067
-0.3045024 -0.066092275 -0.44904503 -0.11391921 -0.028211858 -0.020729577 0.05444382 -0.061902724
-0.08697005 -0.28879684 0.009421558 0.05643801 -0.1838508 -0.02130651 -0.033694014 -0.0773577
-0.15622208 -0.042343434 -0.09216966 -0.12502249 -0.22713834 -0.045545194 -0.012554133 -0.055213004
0.102701515 -0.20298848 -0.018544463 -0.037773322 -0.10365628 -0.11403525 -0.0687829 -0.2255762
-0.069342 0.04761279 0.060502872 -0.12026065 -0.17114279 0.059112493 0.1459222 -0.19578135
-0.13408834 -0.13166721 0.032164514 -0.15165597 -0.29373035 -0.12552059 0.0014173705 0.0059698527
0.031431776 -0.23486173 -0.32616097 0.03661355 -0.09320215 -0.2694662 -0.27625152 -0.1431091
-0.04949874 0.065238886 0.10068978 -0.07283273 -0.08250215 -0.10559319 0.08551339 0.054783657
-0.2600035 0.044076275 -0.045877192 -0.11042624 0.051798914 -0.15766971 -0.15942526 -0.022093797
-0.08003156 0.004697791 -0.0035282178 -0.02105965 -0.24651691 -0.039151944 -0.1810673 0.028165871
-0.022732643 0.029201597 -0.009482865 -0.18214263 0.05607381 0.013769257 -0.00093889155 -0.24828143
0.06468781 -0.06251859 0.06251771 -0.02827496 -0.05101897 0.011220945 -0.02610922 -0.10861231
0.020082742 0.037403073 0.016604157 -0.12620132 -0.12830988 0.024229402 0.12860547 -0.020411354
0.047417507 0.016958158 0.031265847 0.04938897 -0.23291333 0.09622267 -0.040743988 -0.16578794
-0.040512677 -0.00980709 -0.093422286 -0.137948 -0.18604867 -0.035344034 -0.033717945 0.08373481
0.02269388 0.08523365 0.04077174 0.1204882 -0.014355283 -0.007811375 -0.26744708 -0.23897028
-0.03716243 -0.039969537 -0.020654788 -0.020098824 0.047483593 0.035771515 -0.016299883 -0.007751709
0.0035039496 -0.04423014 0.012522349 0.023997124 -0.1587702 -0.22684656 -0.011386011 0.13650304
-0.17117108 0.08631838 0.05551923 -0.10579728 -0.0928022 0.02384246 -0.19123277 -0.08651621
-0.16343993 -0.026469065 0.06695922 -0.08676106 -0.16049425 -0.12411466 -0.19572906 -0.072772436
-0.22791108 0.19500746 0.06957353 -0.030425154 -0.059728313 0.058673847 0.060967773 -0.0062164455
-0.15489694 -0.21148036 0.050448485 0.19978517 -0.08934815 -0.08812997 0.028029645 0.02377659
0.017944617 -0.017567834 -0.01935249 0.029523648 0.02977301 -0.28351367 -0.1076051 -0.015925396
0.057471506 0.029520521 0.07131742 -0.065503925 -0.010824638 -0.13954921 -0.0854423 0.07681163
-0.060594693 -0.026639393 -0.10628683 -0.19183448 0.043046307 -0.076205626 -0.08480638 0.109422244
0.0025585848 0.027070906 0.068400666 -0.0028556613 -0.23898195 -0.09909954 -0.07739786 -0.16101296
-0.040749792 0.07984842 -0.097359836 -0.13046525 0.02527676 0.13023049 0.06564023 -0.21178816
0.11152641 0.029622838 0.05271071 -0.040742837 0.040093932 0.02023879 -0.08193871 -0.03165205

hidden_layers.1.bias f4 [64]
00000000: 1403 823e f005 5f3e 46a5 413e 66e1 573e
00000010: 7cdb 8c3e 97b4 f8bd e386 063e 3593 d43d
00000020: ade7 ba3d 018b a93d d980 723e 1fb8 ed3d
00000030: 1afa 6c3e 0712 ee3d fd5a cd3d 08f9 c23d
00000040: c4e7 9bbd 52da 493e f922 15be b7a4 573e
00000050: 2103 f23d 613d 713e c35a 6a3e 65c7 493e
00000060: 0bb0 0c3e c537 473e 3701 633e 5799 713e
00000070: f161 7f3e bebe 323e c271 db3d 69de 6c3e
00000080: 0661 0dbe c2d6 853e 7eb9 7a3e e95d d13d
00000090: bae5 183e 074d 5e3e e6b3 d23d c637 303e
000000a0: 999c 5d3e 3dd3 dd3d 1063 4d3e cf43 6c3e
000000b0: 80b8 323e fd66 0f3e 6b47 7d3e 63e3 0f3e
000000c0: 7386 083e fe59 26be f2a0 e53d c34d e33d
000000d0: 4b53 14be 670f 1e3e 1c6b 733e f219 1a3e
000000e0: 9f11 3d3e 2e9b 703e 127c 853e f8a7 4e3e
000000f0: 2204 c73d c8e0 d43d d071 df3d a0a0 003e
0.25392973 0.21779609 0.18910703 0.21082076 0.27511203 -0.1214382 0.13137393 0.1037964
0.0912622 0.08278466 0.23681964 0.11607384 0.23142281 0.11624532 0.1002712 0.09520155
-0.07612565 0.19712189 -0.14564122 0.21058927 0.11817003 0.2355857 0.22886185 0.19704969
0.1373903 0.19454868 0.22168432 0.23593651 0.24939705 0.17455575 0.10715057 0.23131718
-0.13806543 0.2614041 0.24484822 0.1022299 0.14931384 0.21709071 0.10288219 0.17208776
0.21641769 0.10831306 0.2005732 0.23072742 0.17453194 0.1400413 0.24734275 0.14051585
0.13332538 -0.16245267 0.112123385 0.11098816 -0.14484899 0.15435563 0.23771328 0.1504896
0.18463753 0.23496696 0.2607122 0.20181262 0.09717585 0.10394436 0.1091038 0.12561274

output.weight f4 [4, 64]
00000000: 9d6a 793d 9681 503d a4f6 74bd 7bfb d03d
00000010: e059 6d3d bc2d 2dbd ceba fc3c 1d63 cfbd
00000020: a457 2b3d af53 56bd 491f 9a3d 7c15 123d
00000030: 1240 9e3d 93a1 2b3d 6dec 283d bc8d 82bd
00000040: dbff 59be ef03 893d d9e4 b43b 4a4d 933d
00000050: 371a 67bd a930 cb3d 5a7a 8e3d 7090 853d
00000060: 1dee a6bd d81d 383d aae6 543d 5c65 553d
00000070: 3374 663d b188 3e3d b304 c0bd 2b32 803d
00000080: fe80 773d a68e 8d3d e030 863d d799 a7bd
00000090: 9ec5 e8bd 6f8a 333d 8681 72bd f85c 213d
000000a0: a1a7 773d d76a bfbd 7fe5 813d dafe 4b3d
000000b0: 2e78 403d 47e5 263d cf46 923d d4c3 2b3d
000000c0: 20be 0f3d ccc9 fbba bcd8 79bd 0e65 dd3c
000000d0: 3055 c1bd e048 553d ad41 7f3d 7569 0e3d
000000e0: dbbd 773d 52c2 003d ad88 793d 8451 563d
000000f0: 4958 d23c b93a 093d 39b5 113d 0e46 4a3d
00000100: 174b 773d e30c 843d 8bda 71bd aa2c f03d
00000110: 8eaa 0e3d 9fba 1cbb 0064 293d 32d1 82bc
00000120: 8db8 b93c e701 82bb 0724 863d b8b8 173d
00000130: fe1d be3d b8bd f23c 8a6b 1a3d 840e 6f3b
00000140: 0088 65bd d809 8a3d 1a7d 5a3d cabb 693d
00000150: 4113 873c 5edb 0a3e 4d03 893d 99a7 8d3d
00000160: 2c03 38bd ec1f 5d3d cd2a 6c3d 196b 983d
00000170: 4618 843d 77ab 173d 5688 73bc b479 0f3d
00000180: deb4 a83a 8d98 873d 435c 6b3d 93e5 593a
00000190: d44b 2dbd e892 2b3d 744a 823c 7a3a 7a3d
000001a0: 92e2 3d3d d1d6 ffba 724c 4f3d 52ff 4b3d
000001b0: f033 d73c 4644 363d d454 943d bff8 363d
000001c0: aa7a e43c 579f 8bbc cf8a b4bc 07f3 333d
000001d0: 6c59 6fbd da44 2d3d 58f9 693d 1936 053d
000001e0: e28a 9c3d 32a5 2b3d 31d7 673d 6be7 413d
000001f0: 877b a93c dc54 e73c fda9 e03c 8b4c 0d3d
00000200: 12bf fe3c 2c27 453d 640d a5bd 2e2e ca3d
00000210: 2027 0d3c 0bfd 543d 878a 943d 6a17 49bd
00000220: 7bb6 563d 6fb8 4bbc cc51 9b3c df7a 803d
00000230: b680 0c3c 3a49 1d3d c0d6 893d 32a4 e1bc
00000240: af89 93bd 8914 323c 1592 8d3d 9a32 5ebc
00000250: 9128 7ebd 220e ef3d ec29 133d a1d9 983d
00000260: dbfd 2fbd a58a 7d3d 14e3 b93c 8302 fdbb
00000270: e438 973d 169a 5abd d40e 73bd 4458 383c
00000280: 61d7 253c 69c9 643c 0d73 38bc cfb4 57bd
00000290: 9d5a 89bd debe 2e3d d644 803c 1374 403d
000002a0: 8a02 c13d 5bfe 6ebd 0cae cab9 b1ef 213c
000002b0: dee8 853d af73 b03d a4cf 9b3b 3256 5e3d
000002c0: f46f 703d a4cd 8e3d d6e1 a93d ff06 423d
000002d0: 4e07 9fbc 29ad f939 39c6 743d 7c2a 733d
000002e0: 0577 873d 7c46 5d3d bc7f 623b d765 763d
000002f0: f8b2 8c3d 4eb7 9c3d 20de 6a3d 81e2 843d
00000300: 9dbf 433d 92a8 063d 41d6 cbbd c5f5 d93d
00000310: 4502 293c bb1d f83b 7ff9 9a3d d9d0 49bd
00000320: 34fc 963d 6f98 29bc d225 43bc 209f 4e3d
00000330: 3df6 0a3d 0668 863d 5cf6 863d 337c c3bc
00000340: 38f1 29be edac d03c d2f0 c3bb 633b d83c
00000350: ddda ab3d d1b5 773d 07b0 123d 2b18 893d
00000360: c620 26bd 12c2 5c3d a228 6a3c 71e6 7b3c
00000370: e2f7 7e3d 12bc 973d c1f6 0ebd 6bb4 283d
00000380: a2ad d0bc 9872 a7bc c299 f03b 67c1 253b
00000390: c715 68bd cfe7 f33c f459 52bd 48be 1b3d
000003a0: c100 853d bf80 63bd 043d 603d ef82 fb3c
000003b0: 8260 e3bc 7670 14be 5ff6 bb3c 9bba 873d
000003c0: 0518 b43d 378f 913d e008 9ebd 81d3 943d
000003d0: 1ebc 8c3d 3cb7 7f3d de82 023d 9d72 8f3d
000003e0: dc36 973d 9e4c 1c3d 0d75 1a3d b40f 27bc
000003f0: 38d8 603d 308d 873d 91da 893d 8e26 433d
0.06089269 0.050904833 -0.059805527 0.10204216 0.05794704 -0.042279944 0.030850794 -0.10126326
0.041831627 -0.0523259 0.075254984 0.03566502 0.07727064 0.041902136 0.0412411 -0.0637469
-0.21289007 0.066902034 0.005520445 0.07192476 -0.056421485 0.099213906 0.069569305 0.0652169
-0.08150885 0.044950336 0.05197779 0.052098617 0.05626316 0.046517078 -0.09375896 0.06259569
0.06042575 0.06911974 0.06552291 -0.081836395 -0.113658175 0.043833192 -0.059205554 0.039395303
0.060462598 -0.0934655 0.06342601 0.049803592 0.046989612 0.040746 0.07142412 0.041934803
0.035093427 -0.001920992 -0.06099771 0.027025726 -0.09440076 0.052071452 0.062318493 0.03476854
0.060483795 0.03143532 0.06092136 0.052323833 0.025676863 0.033503268 0.035573218 0.049383216
0.060374346 0.064477704 -0.05904631 0.11727269 0.034830622 -0.0023914946 0.041355133 -0.015968893
0.022671008 -0.003967512 0.065498404 0.037041396 0.09283064 0.02963148 0.037700213 0.0036477158
-0.056037903 0.06740159 0.053341962 0.057063855 0.016488673 0.13560244 0.06690083 0.06916732
-0.0449249 0.05398552 0.057658006 0.07442302 0.06449942 0.037028756 -0.014864048 0.035028175
0.0012871285 0.066208936 0.057461035 0.0008312102 -0.042308643 0.041888148 0.015904643 0.061090924
0.046358652 -0.0019518976 0.050610013 0.04980404 0.026269883 0.044498704 0.07242742 0.044670817
0.027890522 -0.017043753 -0.022038845 0.04393294 -0.05843489 0.04230199 0.05712256 0.032522295
0.07643677 0.04190559 0.056601707 0.047339838 0.020688785 0.028238706 0.027424807 0.034496825
0.031096969 0.04813306 -0.08059195 0.09872089 0.008615285 0.051999133 0.072529845 -0.049094595
0.05242012 -0.012434109 0.018959902 0.06273436 0.008575609 0.038399912 0.067304134 -0.027544115
-0.072039954 0.010869154 0.069126286 -0.013561869 -0.062050406 0.116726175 0.03592865 0.074633844
-0.042966705 0.0618998 0.022691287 -0.0077212467 0.07383898 -0.053369604 -0.059340313 0.011251513
0.010122151 0.013964036 -0.011257899 -0.052662667 -0.06706736 0.042662494 0.015657824 0.046985697
0.094243124 -0.05834804 -0.00038658117 0.009883807 0.065385565 0.08615815 0.0047549773 0.05428142
0.058700517 0.069728166 0.08295028 0.047369953 -0.019412663 0.00047621995 0.059759352 0.059366688
0.06614498 0.054022297 0.0034561 0.060155716 0.06870073 0.0765215 0.05734074 0.06488515
0.04779016 0.032875605 -0.09952975 0.1064258 0.0103154825 0.0075719035 0.07567119 -0.04927144
0.07372323 -0.010351284 -0.0119108725 0.050444722 0.033926237 0.0656281 0.06589958 -0.023862934
-0.16595924 0.025473082 -0.0059796358 0.026395505 0.08391354 0.060476128 0.035812404 0.06694063
-0.0405586 0.053896017 0.014291914 0.015374766 0.06224812 0.074089184 -0.03490329 0.041187685
-0.02547342 -0.020440385 0.007342548 0.0025292279 -0.056661393 0.02977362 -0.051355317 0.038023263
0.064942844 -0.055542704 0.05474569 0.030702082 -0.02775598 -0.14496025 0.022944627 0.06627389
0.08793644 0.07107394 -0.077165365 0.07266904 0.06871818 0.062430605 0.031863086 0.070042826
0.073835105 0.038159005 0.037709285 -0.010196615 0.054893702 0.06618726 0.06731141 0.04764419

output.bias f4 [4]
00000000: e950 a13f f6e0 8b3f 568e 963f 28ba 953f
1.2602817 1.0928028 1.1762187 1.1697435
